models/model_20250730_182348_lr0.0001.pth (torch, 126802 bytes, 18 tensors)

fc1.weight f4 [128, 4]
000000 86 7b 0a 3f d5 c2 f6 3e 40 24 ab 3c 72 f4 16 3f
       0.5409473 0.4819552 0.020891309 0.58966744
000010 00 ce 03 3f 67 92 e7 3e 43 74 60 3e 88 9a 94 be
       0.51486206 0.45228884 0.2191935 -0.29024148
000020 a4 e8 5d 3e 2c bc a6 3b 5c 43 a0 3e 12 4b 19 bf
       0.21670777 0.00508835 0.3130139 -0.59880173
000030 10 e7 ed be 39 53 25 3e da 8b 25 be 38 26 10 3f
       -0.4646535 0.16145028 -0.1616663 0.5630832
000040 61 86 84 bc 0f 10 43 3e 3a 6d c7 be e3 fe 2b 3d
       -0.016177358 0.19049095 -0.3895052 0.041991126
000050 89 62 c7 3e 1b cf e6 be 32 77 93 be 37 d4 ae 3e
       0.38942364 -0.45079884 -0.28801876 0.34146282
000060 b2 c4 a2 3e 88 ef 99 bd 17 79 da bd cc 7d e4 3e
       0.31790692 -0.0751639 -0.10667627 0.44627225
000070 c0 d5 6e be 36 5f b9 be 50 bc 6f be 04 c9 53 be
       -0.23323727 -0.36205453 -0.2341168 -0.2068215
000080 a9 34 a1 be e2 a0 59 bd b1 1d 05 3e 07 16 29 3f
       -0.3148549 -0.053131945 0.12999608 0.66049236
000090 69 cd 36 be a7 0a aa 3e a4 e4 88 3e 56 3b 79 3e
       -0.17851795 0.33211252 0.2673694 0.24339041
0000a0 c0 31 e5 3e 68 40 58 3e 66 5c 0b 3f 86 a3 08 3e
       0.4476452 0.21118319 0.54437864 0.13343629
0000b0 c0 b7 09 3f fe e1 f9 bd be e2 b5 be c1 57 af 3e
       0.53796005 -0.12201308 -0.35524553 0.34246638
0000c0 f3 12 f6 be 8c 70 9a 3e 64 f7 94 3e 1d a4 3d 3e
       -0.48061332 0.3016399 0.29094994 0.18519635
0000d0 4c 18 ec 3e 69 0d c7 be 05 2c 3a bd 5a e3 cb 3e
       0.46112287 -0.3887742 -0.045452137 0.39821893
0000e0 85 97 eb 3d 3b a7 fc 3e e8 ed e6 3e 3d 46 91 be
       0.115035094 0.49346337 0.45103383 -0.283739
0000f0 d3 b2 af bd 57 cd 8f 3e fb be d1 3e ab f8 17 3f
       -0.0857903 0.2808635 0.4096602 0.5936381
000100 12 04 e0 bd d3 14 0a bf a4 3f b1 3e f9 f3 c0 3e
       -0.10938276 -0.53938025 0.34618866 0.37686136
000110 24 54 8a 3e f9 5c 03 3f e2 5c 0b 3d e3 90 fd 3e
       0.2701732 0.5131374 0.034024127 0.49524602
000120 5b 6c 9e be a4 29 01 3f a7 3c 1a 3f b7 5f ad be
       -0.30942044 0.50454164 0.602488 -0.33862087
000130 3e 18 d1 be 37 20 98 3d c2 49 66 3e 31 95 28 3c
       -0.40838808 0.074280195 0.22489074 0.010289476
000140 17 46 55 3e c8 16 28 be 95 08 f9 3d ce 01 b1 be
       0.20827518 -0.1641494 0.1215984 -0.3457169
000150 43 98 a0 3e 09 4a e5 3d 11 24 72 be 8b cc 89 be
       0.31366166 0.11195762 -0.2364657 -0.26913866
000160 b0 8e 95 be ae 6c 94 3e af 6f 1f 3f 09 59 2c 3e
       -0.29210424 0.28989166 0.6227979 0.16830839
000170 f7 38 d3 3e 7e ef b0 be 84 87 a0 be bf b2 ed 3e
       0.41254398 -0.34557718 -0.3135339 0.46425435
000180 a0 9c f6 bc ba 61 9b be 62 8c f2 be 6a 2e 85 be
       -0.030103981 -0.30347997 -0.4737273 -0.26011974
000190 94 5d e3 3e 6a 41 1d be cf b7 08 bd bc c0 23 3f
       0.44407332 -0.15356985 -0.03337842 0.63965964
0001a0 80 68 9e bb e0 53 eb 3c dc 98 74 be 8c 5f 67 3e
       -0.0048342347 0.028726518 -0.23886436 0.22595042
0001b0 a0 a5 e2 3e 9a 3f 05 bc a9 9a db 3e c6 d0 ad be
       0.44266987 -0.00813284 0.42891434 -0.33948344
0001c0 30 4f 3f 3d 22 fb a5 3e c8 36 bc be 5a df f2 be
       0.04670638 0.32418162 -0.36760545 -0.4743603
0001d0 81 6a fb 3e 0f 09 94 3e c0 d2 fe 3e 1d 94 01 3f
       0.49104694 0.2891316 0.49770164 0.5061663
0001e0 a9 63 9c 3e 4d 0f 49 be 11 1f 08 bf 00 aa 1f 3f
       0.30544785 -0.19634743 -0.53172404 0.62368774
0001f0 7d 6b 27 3f a6 f7 5e 3e 36 76 62 3e 6f 92 14 be
       0.6539839 0.21774158 0.22115406 -0.14508985
000200 2e e3 13 3f 1c e9 d6 bd 60 77 9b be 92 26 24 bc
       0.57768524 -0.10493681 -0.30364513 -0.0100189615
000210 98 e3 f3 3e 94 23 09 3d eb aa 4e 3d 6c b3 2d 3e
       0.47634578 0.033481196 0.05045597 0.16962975
000220 df f0 0a 3e da 08 2c 3d c0 96 03 3f b1 b2 d0 be
       0.13568448 0.04200063 0.514019 -0.4076133
000230 44 82 12 bf aa e8 5a 3e 59 78 8e be bb 6b 15 3f
       -0.5723002 0.21377817 -0.27826193 0.5836751
000240 c6 4e a4 be 17 b2 01 3f b7 05 81 3e 06 b0 84 be
       -0.3209135 0.5066237 0.25199673 -0.25915545
000250 43 6b a9 be 61 06 2b be 85 85 13 3e b8 5e 07 bf
       -0.33089647 -0.16701652 0.14406402 -0.52878904
000260 00 94 3a 3d 44 d0 70 3e 08 3a be bd d6 90 b0 be
       0.0455513 0.23516947 -0.09288412 -0.344855
000270 73 5f ea 3d a9 28 ca 3e 15 6a 0b 3f ee 16 e6 be
       0.11443987 0.39484146 0.54458743 -0.4493937
000280 0d 0b 8b bd 37 83 d1 3e e0 6a f9 3e cf 44 1d bd
       -0.06789217 0.4092042 0.48714352 -0.0383957
000290 d2 31 6a 3d ee 52 10 3f b4 be d0 3e 94 c9 d4 be
       0.05717642 0.5637654 0.40770495 -0.41560042
0002a0 2b dc 42 3e d8 aa 7a be 85 4e de be ca 93 01 bf
       0.190293 -0.24479234 -0.4341928 -0.50616133
0002b0 20 58 da be 41 b9 9b be 25 fa 9a be 78 b1 d6 be
       -0.4264536 -0.30414775 -0.3026897 -0.41932273
0002c0 a1 7a ca 3e db bb f8 bc 5c f9 e4 be d7 e4 f9 3e
       0.39546683 -0.030363014 -0.44721496 0.48807403
0002d0 91 8c 05 3f b7 c5 01 3c f2 22 09 be 3d 94 01 bf
       0.5216761 0.007920674 -0.13392237 -0.5061682
0002e0 fe a5 40 be 67 a4 f8 3e ab d9 ef 3e 86 ad 2f be
       -0.18813321 0.4856293 0.46845755 -0.17156038
0002f0 34 27 07 3f 3a 20 b7 3e e9 1d 07 3f 6a e6 cc be
       0.52794194 0.35766774 0.52780014 -0.40019542
000300 d7 9a 18 bf 9e b2 a7 3e c6 21 f5 bc 10 05 60 3e
       -0.59611267 0.32753462 -0.029923331 0.21876931
000310 8f 21 b0 3e 78 f7 1b 3e e6 f4 e2 3e 2e 13 00 3f
       0.34400603 0.1523112 0.44327468 0.50029266
000320 eb 03 d0 3e a8 f8 1b bd 2b c1 8d 3e cb 18 f8 3e
       0.4062799 -0.038078934 0.27686438 0.48456416
000330 1d a1 8a be 18 57 bc 3e c3 8b 53 3e 7f b3 83 be
       -0.27076045 0.36785197 0.20658784 -0.25722882
000340 8d 18 70 be 5a 9a c6 3d 66 d3 0f be 2c e3 30 3e
       -0.23446865 0.09697409 -0.14045486 0.17274159
000350 88 97 a9 bd 30 29 52 3d 14 5a 04 3e c8 5b a9 3d
       -0.082808554 0.05130881 0.12924987 0.08269459
000360 92 b5 f6 be 1a aa b5 be 38 46 b2 be 8e 08 bf be
       -0.48185402 -0.3548134 -0.34819198 -0.37311214
000370 f0 cd 15 be c0 da d2 bc 5c 3d 3a 3e e0 96 8e be
       -0.1462934 -0.025739074 0.18187469 -0.27849483
000380 5b bf 5a 3e d1 b0 14 3f a9 38 4a bc 9f 37 03 bf
       0.21362059 0.580823 -0.01234261 -0.51256746
000390 b2 24 bb 3e 04 fe 4f 3e de 94 36 3e 5d 82 41 3d
       0.36551434 0.20311743 0.17830226 0.047243465
0003a0 51 f5 1b 3f 4b 46 01 3f c9 9e f5 3d 85 77 ac be
       0.609212 0.50497884 0.119931765 -0.33684936
0003b0 5e 4a c8 bc be e2 17 be 76 5c de 3e 95 04 10 3f
       -0.024449524 -0.14832589 0.43429917 0.5625699
0003c0 09 bd f8 3e 25 55 54 be 79 b4 13 3e 3d a2 ae be
       0.48581722 -0.20735605 0.14424314 -0.34108153
0003d0 e4 cc e9 3e f4 02 08 bc 68 30 a6 bd 12 7f 2b 3f
       0.45664132 -0.008301485 -0.081147015 0.6699077
0003e0 32 53 6c be 2f 1e f2 be d5 9a ee bd 88 0a 07 3e
       -0.23078611 -0.47288653 -0.116506256 0.13187611
0003f0 40 62 1c bf de d5 a3 3e f4 59 84 3e 2d ef 2f 3e
       -0.6108742 0.31999105 0.2584988 0.17181082

fc1.bias f4 [128]
000000 a2 71 0d bf 25 8d f3 3e 13 77 21 3f 36 b2 a6 3e
       -0.55251515 0.47568622 0.6307232 0.3255784
000010 37 a3 b9 3e e6 a7 d1 3e 8f 19 21 be 80 1c 40 be
       0.36257336 0.4094841 -0.15732406 -0.18760872
000020 20 3f 55 be f0 c7 9a bd af 3f 0f be e5 3e 1c 3d
       -0.20824862 -0.07557666 -0.13989137 0.03814592
000030 fc 83 b3 3e 5f 84 50 3b 93 f0 e6 be db cb 1f 3e
       0.35061634 0.003181718 -0.4510542 0.15605108
000040 f4 d6 8d 3e a8 54 ce 3e 56 73 0c be 41 3e d5 3e
       0.2770306 0.40298963 -0.13715872 0.41649058
000050 5b e2 0d 3f 92 ff f2 3e b5 f0 95 be 29 14 8a 3e
       0.55423516 0.4746061 -0.29285207 0.26968506
000060 14 eb 61 be c2 bc 89 be 20 42 97 be fc 0c da bd
       -0.22062331 -0.26901823 -0.29542637 -0.10647008
000070 c6 87 c6 be f8 98 13 be a1 b5 ed 3e 33 b8 f3 3e
       -0.38775462 -0.14413822 0.46427634 0.4760147
000080 38 70 14 3c 57 57 2f be fb 31 47 3e ae 48 7a 3e
       0.009059958 -0.17123161 0.1945266 0.24441788
000090 77 5f 93 3e a9 83 68 3e 9e ce d5 be d1 1e c6 3c
       0.2878377 0.22706474 -0.417592 0.024184616
0000a0 9f 5e bb be d1 bc 19 3f f2 72 77 3e ed 77 b0 3e
       -0.36595628 0.60053736 0.24164942 0.34466496
0000b0 df 2e c9 3e 95 28 3d 3e de 8d db be 0d 47 ee be
       0.39293572 0.18472512 -0.42881674 -0.46538582
0000c0 ec f0 2a 3f fa 7e fa 3e f5 35 13 3f 19 98 1e 3f
       0.6677387 0.48925 0.57504207 0.6195083
0000d0 d2 ab e0 3e 20 aa fe be 88 0e 98 be 70 0e 90 bd
       0.43881088 -0.4973917 -0.29698586 -0.07034004
0000e0 74 62 b3 bd eb fd b4 be 1c 35 0c 3f b7 86 11 3f
       -0.08759013 -0.35349974 0.5476854 0.56846184
0000f0 00 32 d5 3d 33 c4 c7 be ea 71 4a 3e 1a 93 06 3e
       0.10409927 -0.39016876 0.19770017 0.13142052
000100 6a 7a e7 be 4e 79 8a be 86 92 f3 be 02 0b e2 3e
       -0.45210582 -0.27045673 -0.47572726 0.44149023
000110 fc 08 a0 bd dd 29 d8 3e 8f ac f3 3e 90 c6 19 bf
       -0.07814214 0.4221944 0.4759259 -0.6006861
000120 54 92 58 be 83 1d 2b bd 28 87 7f 3e cb e2 a2 be
       -0.2114957 -0.04177619 0.24953902 -0.31813654
000130 b0 4a e3 be a0 ca 2e bd 44 a7 a4 3e ca 0a b6 ba
       -0.4439292 -0.042673707 0.32158864 -0.0013888713
000140 20 bf 9a be 6c 8e bf be d6 53 83 be 61 99 92 3d
       -0.30223942 -0.37413347 -0.256499 0.07158161
000150 b1 e1 02 3e 80 cb c9 bc d1 7c db 3d 36 18 d3 be
       0.12781407 -0.02463317 0.10717166 -0.4122941
000160 38 a4 c1 be 4d 7e 08 3e b0 06 a8 3e 58 3a 13 be
       -0.378206 0.1332943 0.32817602 -0.14377725
000170 94 14 07 3e 5f 2a cc be 8f 5f dd 3e 51 9b 14 3f
       0.13191444 -0.39876077 0.43236968 0.58049494
000180 29 8d 2e 3f 66 6f 65 be be 40 7c 3e a5 03 be 3e
       0.68184143 -0.22405776 0.24634072 0.37112156
000190 8c 8e 8a be 8b 23 d0 3e 1b 23 15 3f 54 29 f7 3e
       -0.2706188 0.40652117 0.5825669 0.48273718
0001a0 d8 98 8f bc 28 7f 17 3b b2 bb 04 3f dd f6 12 3f
       -0.017528936 0.0023116563 0.518489 0.57407933
0001b0 60 e7 9c bd 7e 72 06 3d aa 6f 2c 3f 61 94 32 3f
       -0.07661319 0.032824032 0.67357886 0.6975766
0001c0 72 89 e6 3e 1d 1d cd be 77 17 82 be 8b a3 7d 3e
       0.45026737 -0.40061274 -0.25408527 0.24769418
0001d0 c8 2d 99 3d 84 70 54 bd 18 a3 d3 3e 65 19 ee 3e
       0.07479435 -0.051865116 0.41335368 0.4650375
0001e0 82 d2 d9 3e 05 be b5 3e b2 0d 99 3e ec 56 42 be
       0.42543417 0.35496536 0.2989326 -0.1897847
0001f0 6c 27 d7 3e 97 8b 1b 3f 5f 53 c5 3e 10 30 14 3d
       0.42022264 0.6075987 0.3854017 0.03617865

fc2.weight f4 [64, 128]
000000 3c 5a 9c 3d c9 53 b2 3d 00 1c 95 3c af a9 5e 3d
       0.07634398 0.08707387 0.018201828 0.05436104
000010 7e 6a b5 3d 7b 57 13 3e 38 77 2a 3e 17 09 2f bd
       0.088582024 0.1438884 0.16647041 -0.042733278
000020 81 56 ca 3d 29 4c 9b bd 13 b2 b8 bd 9f 86 87 3e
       0.098797806 -0.07582886 -0.0901834 0.26469895
000030 4c af 6b bd 22 f2 42 3e 51 8d 4d bd 52 7c 4c 3a
       -0.057540223 0.19037679 -0.050183598 0.00078005076
000040 0c 12 88 3d 06 8e fc 3d c8 c8 f5 bd 9d 57 3c bd
       0.06644067 0.12331776 -0.120011866 -0.045981992
000050 cf a6 d7 3d c1 90 bd 3d 59 1a 33 be c8 06 7b 3e
       0.10529863 0.09256125 -0.1749052 0.24514306
000060 e1 b7 82 3d de 09 49 3e 00 bd dc 39 3c 3a 35 3e
       0.06382728 0.1963267 0.00042102486 0.17697996
000070 ff be 95 3d 70 54 13 3d 6a 8d ea 3d 41 67 17 3e
       0.0731182 0.035969198 0.11452754 0.14785482
000080 30 c5 27 3e a2 a6 36 3e 17 f0 a6 bd 36 2a 1c 3e
       0.16383815 0.17837003 -0.08151262 0.15250477
000090 c7 ed ac bd 12 0f 26 3e 30 49 91 3b 4e 26 d1 bd
       -0.0844379 0.16216686 0.0044337735 -0.10212384
0000a0 0a 26 12 be bf b0 ea bd 0d 40 46 3e a1 91 2d 3e
       -0.14272323 -0.11459493 0.19360371 0.16950084
0000b0 95 e4 23 3e 98 e4 cf 3d 10 4b a1 bd 65 50 88 bd
       0.16005166 0.10151023 -0.07875645 -0.06655959
0000c0 f3 03 1f 3b e8 b7 d9 3d d5 aa 22 3e 03 27 99 3c
       0.0024263829 0.106307805 0.1588548 0.01869536
0000d0 31 9b ae 3c 30 bd 67 bd 20 0c ec bb bc 5a 0a bd
       0.021314235 -0.056576908 -0.007203594 -0.033777937
0000e0 82 b8 ea bd b5 18 80 3d 8a f5 d3 3c 22 f8 34 3d
       -0.11460973 0.062547125 0.025873918 0.04418195
0000f0 68 6a 4a 3e e3 12 05 3e e0 74 2a 3e a4 ea c2 bd
       0.19767153 0.12995486 0.16646147 -0.095174104
000100 98 62 8e bd 8e 8b e1 3d d6 13 55 3d 31 f2 16 3e
       -0.06952399 0.11012946 0.05202087 0.14740826
000110 22 54 09 be 11 2d 01 bd 7f dc 5a 3e 10 23 63 3c
       -0.13411 -0.03153712 0.21373175 0.01386334
000120 f3 7a 56 3e 91 55 4a bd d5 98 18 3d e7 3e 08 be
       0.20945339 -0.04939801 0.037255127 -0.13305245
000130 6c 3f 9f bc f2 c0 6f bd 17 22 87 3c 6f 64 6c 3e
       -0.019439422 -0.058533616 0.016495747 0.23085187
000140 de f3 23 3d 1b 21 91 3d ff 4d b3 3d b8 06 c5 bd
       0.04002749 0.070863925 0.08755111 -0.09620422
000150 5a 05 a5 bc ed 2b 8b bd 76 6c 10 be 68 42 57 bc
       -0.020144153 -0.067954876 -0.14103875 -0.013138391
000160 d6 64 56 3d a9 d8 d4 bd c9 7d a6 3c b3 30 9b bd
       0.05234226 -0.10392887 0.02032365 -0.07577648
000170 d8 2e e1 bd 1b 49 0b 3e 86 ef 0d 3e 8f 21 43 3c
       -0.10995263 0.13602106 0.13860902 0.011909856
000180 84 f0 fb 3d 40 d7 66 3e ad 45 44 3e 02 fb 68 3e
       0.12301734 0.22543049 0.19167204 0.22752002
000190 58 70 bc 3c dc 3f 0e bd da 6f 5e 3e ab 4c 29 3e
       0.023002788 -0.03472887 0.21722355 0.16533153
0001a0 4a 8a 3e 3e e0 66 d3 bd 74 00 d5 3d 98 d3 03 3e
       0.1860744 -0.10322356 0.10400477 0.12873685
0001b0 e9 35 96 3d d0 90 fd bd 75 ad 9e 3d 6a dc 35 3d
       0.07334501 -0.123811364 0.07747928 0.044399656
0001c0 2b 49 ed bd 3a f0 cc bd d4 99 69 3e 78 e3 20 be
       -0.11586221 -0.10006757 0.22812587 -0.15711772
0001d0 a2 9b e6 3d 9d 84 12 3e cb 02 5c 3e f0 d3 44 3e
       0.11260153 0.143084 0.2148544 0.19221473
0001e0 7f 84 2c 3c 79 38 cf 3c bc 47 5d 3e 30 54 9c bb
       0.010529636 0.025295483 0.21609396 -0.004770778
0001f0 f0 e0 b0 3d ab 74 aa 3d dd dc e7 3d 34 a1 4c 3b
       0.086366534 0.08323034 0.11321423 0.0031224014
000200 ba e8 02 3d 46 09 51 bc f9 ad 93 bd 48 6e 3b 3c
       0.031960227 -0.012758559 -0.07210917 0.011439867
000210 7a d9 82 bd 4e 9d 01 3d 30 5d 89 3d b0 76 bd 3c
       -0.063891366 0.031644158 0.06707227 0.023127884
000220 f6 f4 16 3d 6d 87 4b bd ef 42 31 3d bf 8e 74 3d
       0.036854707 -0.0496897 0.043276723 0.059706446
000230 d4 b1 e5 3c 8b 86 94 3c a5 4b 91 3d 1c 6f b1 bd
       0.028038897 0.018130561 0.07094506 -0.086637706
000240 3d fa 11 3d 04 2e ed bb 44 55 f2 3c 73 8a 79 3d
       0.035639036 -0.0072381515 0.029581673 0.06092305
000250 c7 83 0c 3d 3b 0a df 3c 90 64 b5 bc 43 6f 2f bc
       0.03430536 0.027226558 -0.022142678 -0.010707679
000260 b4 3b 8a bc cd 61 3a bd 7c c2 cd 3c d9 7c 17 bd
       -0.016874172 -0.045503426 0.025117151 -0.0369843
000270 0e 82 23 3d 10 7f 26 3d 6b 17 66 bd 79 31 7f bd
       0.03991895 0.04064852 -0.056174677 -0.06230304
000280 53 8e 94 bc 31 52 8c bd 5b 1f 98 3d 64 c7 8d bd
       -0.018134272 -0.06851614 0.074278556 -0.06922796
000290 93 c7 fa 3c 5c 01 a1 bc 59 18 97 bd bf b5 38 3d
       0.030612743 -0.019653969 -0.07377691 0.0450952
0002a0 00 24 64 bc fd 84 8f bc 20 79 40 3d 68 f4 ba 3c
       -0.013924599 -0.017519468 0.046990514 0.02282162
0002b0 c9 2a 01 3c 01 c4 01 3b a2 e8 26 3d 22 21 61 bd
       0.007883736 0.0019800665 0.0407492 -0.05496324
0002c0 b8 bf 31 3c ba ed 82 bc 8b 4d 96 3c fc d2 5f 3d
       0.010848932 -0.015982497 0.018347522 0.05464457
0002d0 d1 85 61 bc 40 a3 c3 bb e6 5e fe bc 50 10 42 bc
       -0.0137648145 -0.0059703887 -0.03105111 -0.0118447095
0002e0 35 ef 22 3d c8 6d 35 bc 6f 09 8a bd 1c bc 3e 3d
       0.039778907 -0.011073537 -0.067400806 0.046566114
0002f0 51 a3 04 3d d0 1d c2 bc 70 8a 35 bd e0 03 75 3c
       0.032382313 -0.023695856 -0.044321477 0.014954537
000300 ee 80 10 3d 8f f1 41 3d 36 44 12 3d 69 be a6 bc
       0.035279207 0.04734951 0.035709582 -0.020354467
000310 f8 7a 9c 3c db fc 25 bc 8a 64 8f bc bc 29 89 bc
       0.019101605 -0.010131086 -0.017503995 -0.016743533
000320 3f 05 07 bd 63 bf ad 3d 89 4c 77 3d 64 4d 9f 3c
       -0.032963987 0.0848377 0.060375724 0.019446082
000330 00 89 29 bb 50 a7 63 3c 73 12 67 bd 3a 04 60 3d
       -0.0025869012 0.013894871 -0.05641408 0.05469153
000340 15 c1 b3 3d fa c1 79 3d 47 68 96 bd 20 6b a1 bc
       0.08777062 0.060976006 -0.07344108 -0.019704401
000350 92 53 57 bd 57 af 4e bd 00 87 9a 3b ac 78 13 bd
       -0.052569933 -0.050460186 0.0047158003 -0.036003754
000360 30 d8 af 3b bf a4 0f bd 57 53 9b bc 0b a4 a3 3d
       0.0053663477 -0.035069223 -0.018960638 0.07990273
000370 09 d2 8f 3c 36 80 0f 3c 51 e0 6e 39 b1 72 22 3d
       0.017556207 0.008758595 0.00022781013 0.03966016
000380 a3 09 b3 bd 5a 73 06 bd 7a 66 28 3d 06 c3 ab 3d
       -0.087420724 -0.03282485 0.041113354 0.08386807
000390 42 d1 11 3d 97 60 49 3b e1 e9 95 3d a4 cf d5 3c
       0.035599954 0.0030727738 0.073199995 0.026099987
0003a0 cb 9f 22 bd bc f8 a2 bc 36 81 9e 3d 2c ef 87 bd
       -0.03970317 -0.019893996 0.07739489 -0.06637415
0003b0 23 de 90 3d fe 62 d7 bc 36 5d 6d bd 99 97 b7 bd
       0.07073619 -0.02629232 -0.05795022 -0.08964462
0003c0 b9 f0 23 bd 20 41 a2 bd 14 f5 ec bc a1 77 d5 3c
       -0.040024493 -0.07922578 -0.028925456 0.02605802
0003d0 e6 f3 fe bc a6 9d 20 bc 79 29 ab 3d 13 1e ac bd
       -0.03112216 -0.009803211 0.0835752 -0.08404174
0003e0 ba 57 a0 bd bf a4 ef bc a1 48 94 3c e0 e5 79 bb
       -0.078292325 -0.029253362 0.018101038 -0.00381314
0003f0 3e c6 56 bd a9 93 fa 3c ed 63 a7 bc b3 5a bd bc
       -0.052435152 0.030587988 -0.02043339 -0.023114538

fc2.bias f4 [64]
000000 82 29 74 3d 8f 66 95 3c b0 9f cf 3c 5b 00 6f 3c
       0.059609897 0.01823738 0.0253447 0.014587487
000010 18 26 14 3e c0 4a 04 bd ac 84 fe 3d 91 3e 6f 3d
       0.14467657 -0.03229785 0.12427649 0.058409277
000020 54 a6 54 bd 41 98 86 bd 67 3b 28 bc c9 b1 1c 3e
       -0.051916435 -0.06572009 -0.010268069 0.15302195
000030 5f b3 f6 3c 04 c3 92 bd d0 22 f5 3c 68 a4 0b bd
       0.030114828 -0.071661025 0.029923826 -0.034092337
000040 90 35 9b bd 7e a1 11 3e 7e 41 e4 3d 5f 80 9b bc
       -0.075785756 0.1422176 0.11145304 -0.01898211
000050 1c 60 7b bd b9 03 82 3c 28 24 ea 3c 8a c1 6f 3d
       -0.061370954 0.015870916 0.028581694 0.058534183
000060 f5 82 08 3e 44 36 cf 3c 52 65 39 3e 28 99 9a bd
       0.13331206 0.02529443 0.18105057 -0.075487435
000070 7b c9 43 3d 1a 33 d7 bd 96 d7 24 bc a6 36 8e bd
       0.04779957 -0.10507794 -0.010061165 -0.06944017
000080 ab 6c ee 3d 7b f1 36 3e d2 18 9c bd 9f 77 96 3d
       0.116418205 0.17865555 -0.076219216 0.07347035
000090 a1 f2 06 3e e7 75 a8 3d 58 5f 07 3e 83 2a 08 3e
       0.13178493 0.08225613 0.13219965 0.13297467
0000a0 88 e3 14 bd 3d 2b b5 bd 63 df 21 3e 38 ed 79 3d
       -0.036349803 -0.08846138 0.15807872 0.061017245
0000b0 5d 90 88 3d 5d b7 be bc 3e c0 b4 3d c6 33 b3 3c
       0.0666816 -0.023280794 0.0882573 0.021875273
0000c0 50 d7 56 3e ed 45 25 3e 63 95 d3 bc 81 c3 16 3d
       0.20980573 0.16139956 -0.02582807 0.03680754
0000d0 51 af 42 bc d8 c2 35 bd 1f b8 99 ba ad cc f9 3d
       -0.011882619 -0.04437527 -0.0011727846 0.12197242
0000e0 e9 56 af bd 40 bd dc bc 30 c8 0a 3c 6f d0 0a bd
       -0.08561499 -0.02694571 0.00847058 -0.033890184
0000f0 ce 4a 71 bd 60 28 c5 bd c5 27 25 3e 81 15 a7 bd
       -0.05890923 -0.096268415 0.16128452 -0.081583984

fc3.weight f4 [15, 64]
000000 46 82 01 3e 11 30 fe 3d dd 07 8a be de fa b6 bb
       0.12647352 0.12411512 -0.26959124 -0.005584105
000010 39 16 70 3e 9e 1b 35 be 3b 05 fd bd 5c 85 1b 3e
       0.23445977 -0.17686316 -0.12354513 0.15187591
000020 a6 f5 00 bd 6f 7e 4a be fa 8b 5b 3e 40 03 54 3e
       -0.03148427 -0.19774793 0.21440116 0.20704365
000030 f7 fe 4f 3e 59 6e 2d bc a8 eb cb bc 5b 37 ad be
       0.20312105 -0.010585391 -0.024892643 -0.33831295
000040 3a 42 7e be 43 ca 1f 3e 98 72 cc 3d ff d5 8d be
       -0.24829951 0.156045 0.099827945 -0.2770233
000050 0e 89 e2 bd 4d ef 47 be e4 f2 f7 bd 44 5b 2d be
       -0.11061297 -0.1952488 -0.121068746 -0.16929346
000060 ad f9 4b 3e 88 f7 16 bd 0a 83 c8 bd 04 14 b8 bd
       0.19919463 -0.036857158 -0.09790619 -0.08988193
000070 d0 68 83 bd 8a 49 0d be e4 06 dd bd d0 2d c4 bd
       -0.06416476 -0.13797584 -0.1079233 -0.095790505
000080 cf 48 57 be 7b 73 49 3e e0 71 a8 3d e8 61 72 3e
       -0.21023868 0.19672959 0.08224845 0.23670161
000090 48 43 39 3e 2c 1e a1 be aa 8b 7a be 57 47 6d bd
       0.18092072 -0.31468332 -0.2446734 -0.057929363
0000a0 30 73 0a 3c a5 d7 60 be c6 56 2d 3e 6e 44 7e 3e
       0.008450314 -0.21957262 0.16927633 0.24830791
0000b0 04 5a ce 3d 1a 24 52 bd 88 1a 27 3e 15 77 1b 3d
       0.10075763 -0.05130396 0.16318715 0.037955362
0000c0 a1 ed 14 3e 8c 3a 55 3c ec 61 83 be 31 ca 7b 3e
       0.14543773 0.013014447 -0.25660646 0.24588849
0000d0 17 e4 39 be 99 62 95 bd 3a 58 73 be f9 36 dc 3d
       -0.18153416 -0.07294197 -0.23764125 0.10752673
0000e0 fe 2c 6d be 89 bd ee 3d 6e b2 e7 bd be 4c 53 bb
       -0.23161694 0.11657245 -0.1131333 -0.0032241787
0000f0 92 b0 46 bc 79 37 07 be 39 2b 10 3e 92 68 ea 3c
       -0.012127059 -0.13204755 0.14078988 0.028614316
000100 c5 1e 38 3e 4c 01 15 bd d3 be 2b 3e f0 e8 81 3d
       0.17980488 -0.03637819 0.16772012 0.063432574
000110 a0 35 1b 3e 76 d5 9f bd 2c 96 74 3e de 82 a0 bd
       0.15157175 -0.07804386 0.23885411 -0.07837461
000120 30 eb 87 bd ff 25 29 bd 47 15 9b be 03 e5 89 be
       -0.06636655 -0.041296 -0.3028967 -0.26932535
000130 6f 2d da 3c 38 c8 32 bc c6 1c e7 bd 2a ff 1d 3b
       0.026632993 -0.010911994 -0.11284785 0.0024108388
000140 1d 5b 69 bd d8 93 93 be 7e 9f 90 3e 6d 5d b6 bc
       -0.056971658 -0.28823733 0.28246683 -0.022261346
000150 41 44 a4 ba c1 54 92 bd fa 7e f4 bd 1e e0 e1 bd
       -0.0012532548 -0.07145072 -0.11938281 -0.11029075
000160 21 9d 39 3e 00 f8 e5 3c 1e ee 3d 3e 32 97 f1 bd
       0.18126346 0.028072357 0.18547866 -0.11796416
000170 c3 f2 02 3e f0 e2 c1 3c e5 b8 5a be a2 31 d9 bd
       0.12787919 0.023667783 -0.21359594 -0.1060517
000180 12 59 ba 3d e0 97 07 3e 92 3e 9b 3d 8d 4f 25 3e
       0.0909902 0.1324153 0.07580294 0.16143627
000190 27 32 20 3e 8b 42 a2 be 10 2b 63 be ca 74 1d be
       0.15644132 -0.31691393 -0.22184396 -0.15376583
0001a0 1c e4 bd bd b8 65 89 bd fa 73 c1 3d a6 de a2 3d
       -0.09272024 -0.067088544 0.09445949 0.07952623
0001b0 8a 08 28 3e 15 ed 46 be f3 c2 2a be c7 32 7c bd
       0.16409507 -0.19426377 -0.1667593 -0.061571863
0001c0 55 82 2c be e2 20 74 3e 27 95 d9 bd 8f 17 c6 3b
       -0.16846593 0.23840669 -0.10624152 0.006045289
0001d0 90 30 2e be 9a 38 4b be 8f 99 c9 bd 27 12 e3 3d
       -0.17010713 -0.1984581 -0.09843742 0.11087447
0001e0 b4 5c 55 be 1d a0 5c bd 62 49 d7 bd 74 84 77 be
       -0.20836145 -0.053863633 -0.105120435 -0.2417162
0001f0 9f bc 3e 3d 4b d9 15 be 13 79 5a 3e 3e c7 e6 3d
       0.0465666 -0.14633672 0.21335249 0.11268471
000200 1d 9f 85 be 38 65 81 bd 55 a8 76 be 1c b2 9f bd
       -0.26097956 -0.06318134 -0.24087651 -0.077976435
000210 80 a6 55 3e b0 96 11 3d 81 76 52 3e b8 fa 1e 3e
       0.20864296 0.035544097 0.20553018 0.15525329
000220 a6 5e ff 3d b1 c2 0f be 15 48 68 3e 25 a5 3f be
       0.12469225 -0.14039113 0.22683747 -0.18715341
000230 40 d4 25 be 02 e9 80 3b 58 68 35 3d 7e 7f 22 be
       -0.16194248 0.0039340267 0.044288963 -0.15868947
000240 4c 69 52 be f6 c9 29 be 72 22 93 be 39 a5 9f be
       -0.2054798 -0.16580948 -0.28737217 -0.31180742
000250 2f 30 a9 3d 0d 5b 62 bd 7e cf 88 3d 90 46 29 be
       0.082611434 -0.055262614 0.06680201 -0.16530824
000260 27 17 d5 bd 70 97 e4 bc 69 cc 39 3e 3e 2c ce bd
       -0.104048066 -0.027904242 0.18144383 -0.10067032
000270 77 ca dc 3d 3c 3e 23 bd 7a 58 97 bb da 94 80 3d
       0.107808046 -0.039854273 -0.0046187015 0.06278391
000280 bd 1c 6d 3e f2 27 e4 bd 34 df 15 3d 0e a3 2e 3e
       0.23155494 -0.111404315 0.036589816 0.17054388
000290 ec 49 3e 3e 63 d0 6c be de f2 47 be 8e 1f 95 be
       0.18582886 -0.23126368 -0.1952624 -0.29125637
0002a0 48 b3 3f bd dd 21 04 be f4 8c 0a be 2f f8 20 3e
       -0.046801835 -0.12903543 -0.13530332 0.15719675
0002b0 cd d1 cc 3d 9b 3b 8f be a6 1d 5f 3e b2 11 68 be
       0.10000954 -0.27975163 0.21788654 -0.22663
0002c0 70 f2 1d 3e 76 1a 9a 3c 79 42 65 bd b5 e3 65 3d
       0.15424514 0.018811446 -0.055971596 0.05612536
0002d0 88 0a 00 3e 79 3b f2 3c 63 e0 e3 bd af 91 a3 bd
       0.12504017 0.029569374 -0.11126783 -0.07986771
0002e0 c4 d6 0a be 2c 45 f7 bd d2 c9 e4 3d ec 05 12 3e
       -0.13558489 -0.1207374 0.11171307 0.14260072
0002f0 e0 6b d6 bc 2b b2 e2 3d 74 9e 3b 3d 0a 69 45 bd
       -0.026174486 0.11069139 0.04580541 -0.048195876
000300 b0 c2 0b 3d 61 41 de bb d9 75 ce 3d 4a ed aa 3d
       0.034121215 -0.006782696 0.100810714 0.083460405
000310 b5 f4 17 3e 0f 16 46 3e 49 a7 5a 3e 18 0d a1 be
       0.14839442 0.19344352 0.21352877 -0.31455302
000320 80 ae 16 bd 3c 33 34 be 01 4c f6 3b ed b0 c6 bc
       -0.03678751 -0.1759767 0.0075163846 -0.024254287
000330 39 b1 86 be 18 59 87 3d ae fc bc 3d 08 06 c4 3d
       -0.26307085 0.0660879 0.09227882 0.09571463
000340 47 e2 0d be 38 d4 b9 bd 55 35 11 be ec 8e fa bd
       -0.13855849 -0.09073681 -0.14180501 -0.122342914
000350 ae 41 5c bd b6 98 6b 3d 9c 66 43 bd 3f ff 9a be
       -0.053773575 0.057518683 -0.047705278 -0.30272862
000360 c8 02 4d be c8 db 8e 3d db bc 2b 3e 23 51 c3 3d
       -0.20020592 0.06975514 0.16771261 0.0953696
000370 95 5a 6a 3e 24 64 1c be d1 b6 83 be 20 3d 96 bc
       0.22886117 -0.15272576 -0.25725415 -0.018339694
000380 3d 6b 69 3e 12 ed 57 be 4c 33 a4 bd 70 52 5f be
       0.22794814 -0.21086529 -0.080175966 -0.21808791
000390 eb 84 47 3e b2 fa bd bc e3 6d 78 be 4b cc 7c be
       0.19484298 -0.02319083 -0.24260668 -0.24687307
0003a0 40 8e 62 bb 8d 7f 6b be 57 50 e4 bd e4 ad 91 be
       -0.003456965 -0.22997876 -0.11148136 -0.2845298
0003b0 f9 63 4d 3e 59 fc 53 be 56 f1 2c be 51 a0 99 be
       0.20057668 -0.20701732 -0.16888937 -0.30005124
0003c0 0c 41 74 be 96 f8 69 3d 05 d0 ae 3d a8 e2 33 bc
       -0.23852938 0.057121836 0.0853577 -0.010979332
0003d0 37 e3 36 3e 75 e8 47 be 01 1a fa 3c 4c 9c b9 3d
       0.17860113 -0.19522269 0.030529978 0.090630144
0003e0 82 f5 4a be e3 92 d0 bc aa c0 b5 3d 06 b4 d7 bd
       -0.19820216 -0.025460666 0.088746384 -0.105323836
0003f0 ed 98 ac bc db a0 bf 3d 65 d4 d9 3d 97 ce 7d 3c
       -0.021069014 0.093568526 0.10636214 0.015491149

fc3.bias f4 [15]
000000 40 ca 0f bd 8f 47 9a 3d 43 fc a3 bd 97 27 b7 bc
       -0.03510499 0.0753318 -0.080070995 -0.022357745
000010 a0 a0 83 bc 2a 4e 21 3d e4 f0 8b bc 54 31 3a 3e
       -0.016067803 0.039381184 -0.017082639 0.1818288
000020 2d 28 44 bc 7a 00 2a be 01 83 c7 bd 42 15 dd bd
       -0.011972469 -0.16601744 -0.09741784 -0.1079507
000030 aa 58 70 bc 97 a6 84 bc 49 4e 05 bc
       -0.014669577 -0.016192717 -0.00813634

exp_avg f4 [128, 4]
000000 4c 74 fa b9 25 17 88 b9 5e 7b 8a b9 12 8d 0c ba
       -0.00047770364 -0.00025957185 -0.00026413327 -0.0005361597
000010 cb 5e ff b9 c5 ab a0 b9 22 15 81 b9 b0 63 89 39
       -0.00048708016 -0.00030645556 -0.00024620543 0.0002620495
000020 98 38 65 b9 b4 aa b7 b9 74 36 a0 b9 88 b1 9c 39
       -0.00021860225 -0.00035031664 -0.0003055815 0.0002988691
000030 c0 36 65 39 a9 58 9d b7 d9 52 e8 b8 ea eb 6f ba
       0.00021859538 -1.8757144e-05 -0.00011078054 -0.00091522804
000040 cc 71 d3 b8 40 8f ca 37 20 5d 56 37 15 81 7c b9
       -0.0001008246 2.4146982e-05 1.2777076e-05 -0.0002408068
000050 c3 ec 11 ba 91 5b 03 39 2d 16 f9 38 d4 be 27 ba
       -0.0005566591 0.00012527245 0.00011877376 -0.000639898
000060 c4 50 77 ba 8c 19 84 b7 b2 f0 03 b8 aa 64 8d ba
       -0.0009434337 -1.5747522e-05 -3.1457e-05 -0.0010787447
000070 00 00 00 00 00 00 00 00 00 00 00 00 00 00 00 00
       0.0 0.0 0.0 0.0
000080 22 01 4f 39 96 27 df 37 f0 26 8a b8 73 59 77 ba
       0.0001974148 2.6602105e-05 -6.5876055e-05 -0.0009435631
000090 e5 f9 88 39 33 64 dc b9 19 ec f3 b9 7e 79 a3 b9
       0.00026126127 -0.00042036324 -0.00046524478 -0.000311803
0000a0 e5 37 cd b9 78 58 ba b9 cf df b0 b9 b3 be 37 b9
       -0.00039142292 -0.000355426 -0.00033736086 -0.00017523281
0000b0 42 f6 70 ba 24 fa 23 b8 fc 90 30 b8 61 c4 81 ba
       -0.0009191969 -3.909519e-05 -4.2096697e-05 -0.0009900444
0000c0 95 da 1c 3a 44 e2 9f b9 c0 cf c4 b9 d2 b7 98 b9
       0.0005983499 -0.00030495424 -0.0003753882 -0.00029128656
0000d0 95 78 3a ba ec a3 02 39 fa db e5 38 b8 66 6d ba
       -0.0007113305 0.00012458832 0.00010960545 -0.0009056139
0000e0 30 8b 23 b9 d4 6b bc b9 ee 84 ae b9 39 c8 2c 39
       -0.00015596743 -0.00035938493 -0.00033286907 0.00016477787
0000f0 26 fd 9e 38 d7 0f 79 b9 ce c7 98 b9 08 01 1c ba
       7.58118e-05 -0.00023752391 -0.00029140565 -0.00059510814
000100 f8 91 dc b7 8e 76 10 38 12 a5 21 b8 46 ac 70 ba
       -2.6294016e-05 3.4442688e-05 -3.8539125e-05 -0.0009180944
000110 15 49 7d b9 8c 42 8f b9 0c 58 9b b9 fb 0e 0a ba
       -0.00024155185 -0.00027324667 -0.00029629504 -0.00052665145
000120 ca f6 be 39 3e 60 fd b9 7f ba fe b9 48 44 a6 39
       0.00036423496 -0.00048327626 -0.00048585606 0.0003171286
000130 2f 35 0a 39 f9 79 eb b9 00 42 f8 b9 06 02 0b b9
       0.00013180518 -0.0004491357 -0.0004735142 -0.00013256827
000140 1a 06 2d b9 51 69 5d b9 16 59 3a b9 a2 a9 61 39
       -0.00016500839 -0.00021115436 -0.0001777153 0.00021520865
000150 24 94 e3 b9 3e 48 9e b8 c0 cd 35 b8 10 87 53 b8
       -0.00043407187 -7.547483e-05 -4.3345382e-05 -5.0432107e-05
000160 67 5e a4 39 32 dd ff b9 57 0e 12 ba be d7 15 ba
       0.00031350853 -0.00048802193 -0.0005571595 -0.0005716047
000170 4e 8c 3c ba 87 5b 93 38 82 12 55 38 e3 ea 7a ba
       -0.0007192538 7.0265545e-05 5.0800394e-05 -0.0009571744
000180 00 00 00 00 00 00 00 00 00 00 00 00 00 00 00 00
       0.0 0.0 0.0 0.0
000190 7c 80 fd b9 86 d3 32 38 90 c6 0e 36 77 a6 7f ba
       -0.0004835165 4.2635504e-05 2.1275227e-06 -0.0009752283
0001a0 00 00 00 00 00 00 00 00 00 00 00 00 00 00 00 00
       0.0 0.0 0.0 0.0
0001b0 28 72 05 ba 29 4b c5 b9 7e a3 a2 b9 88 4f a2 39
       -0.0005090558 -0.00037630767 -0.0003102086 0.00030958303
0001c0 00 00 00 00 00 00 00 00 00 00 00 00 00 00 00 00
       0.0 0.0 0.0 0.0
0001d0 d8 83 85 b9 c1 01 98 b9 bc b7 9f b9 62 ef e4 b9
       -0.00025465968 -0.00028993006 -0.00030463736 -0.00043665903
0001e0 b1 7c c0 b9 dc 4a 22 39 1e 37 01 39 fb 85 47 ba
       -0.00036713996 0.00015477411 0.00012322931 -0.0007611212
0001f0 9e 88 15 ba 76 60 40 b9 04 cd 0b b9 25 17 85 38
       -0.00057042565 -0.00018346481 -0.00013332447 6.346245e-05
000200 d8 6d 98 ba 95 38 8c b9 32 12 4e b9 25 66 9f b9
       -0.0011629416 -0.00026745038 -0.00019652469 -0.00030402947
000210 e3 ca 76 ba 67 f2 14 b9 ea a3 bc b8 fe 75 93 b9
       -0.0009414388 -0.00014204682 -8.99507e-05 -0.00028125936
000220 db ea 94 b9 ee 0e 1f ba ec 49 11 ba e5 5d b7 39
       -0.0002840374 -0.00060675933 -0.0005542326 0.00034974437
000230 e6 a2 c1 38 98 b8 8d b9 50 e3 b7 b9 3c ca 70 ba
       9.233299e-05 -0.0002703115 -0.0003507384 -0.00091854087
000240 5d fb 0e 3a 38 42 c6 b9 96 35 d0 b9 ee db 9d 39
       0.0005454326 -0.0003781484 -0.00039712776 0.00030109234
000250 f9 58 88 36 7c 2f 7e b4 b1 95 81 b4 4c fd 8d 36
       4.0634736e-06 -2.3672868e-07 -2.4137037e-07 4.231615e-06
000260 00 00 00 00 00 00 00 00 00 00 00 00 00 00 00 00
       0.0 0.0 0.0 0.0
000270 c2 bb a1 b8 3f e3 de b9 5c a3 cf b9 b5 e7 96 39
       -7.712051e-05 -0.0004251245 -0.0003960383 0.00028782865
000280 b4 1e 8f b7 3e 1a f7 b9 fe 96 fb b9 75 20 0e b9
       -1.7061226e-05 -0.00047131063 -0.0004798695 -0.00013554266
000290 c1 d4 e3 38 3a 6a b2 b9 c7 37 ab b9 32 24 90 39
       0.00010863832 -0.0003402995 -0.0003265722 0.00027492788
0002a0 74 ae a2 b9 e2 40 91 b7 80 cc 07 37 89 ea 9a 36
       -0.00031029026 -1.731556e-05 8.094241e-06 4.616861e-06
0002b0 3b dc 5c 36 78 a3 4a b4 25 fe 58 b4 0e bd 68 36
       3.2910746e-06 -1.8872186e-07 -2.0209025e-07 3.4680738e-06
0002c0 67 09 db b9 9c 02 fd 38 06 b6 ce 38 92 92 35 ba
       -0.0004177794 0.00012064466 9.85675e-05 -0.0006926443
0002d0 f4 01 82 ba 26 2b f4 b9 8a 74 c8 b9 6d ad 3e 38
       -0.0009918795 -0.00046571455 -0.000382338 4.5461045e-05
0002e0 13 c2 8a 39 1e ba d3 b9 ba 22 d6 b9 81 39 51 39
       0.00026466008 -0.00040383724 -0.00040843134 0.00019953215
0002f0 6e 63 f9 b9 68 fa b9 b9 64 0b a1 b9 19 ae fc 38
       -0.00047567062 -0.00035472517 -0.000307168 0.000120487246
000300 5c 44 f0 39 8d 26 5c b9 37 15 8b b9 fe 93 5f b9
       0.000458273 -0.00020995196 -0.00026527952 -0.00021322069
000310 7d 15 65 b9 3a 1f 54 b9 54 71 6b b9 77 7b 02 ba
       -0.00021847147 -0.00020229528 -0.00022453564 -0.0004977504
000320 bb 96 88 b9 67 69 17 b9 18 85 2c b9 03 fa 06 ba
       -0.00026052244 -0.00014439748 -0.0001645278 -0.0005148949
000330 72 f2 c3 39 0e e5 39 b9 0b d4 43 b9 c8 cd 80 39
       0.00037373934 -0.00017728304 -0.00018675641 0.00024567381
000340 ad 85 ae 39 20 2f 01 b6 a1 53 76 b8 d9 ad c0 b9
       0.00033287462 -1.9249928e-06 -5.8728856e-05 -0.0003675062
000350 00 00 00 00 00 00 00 00 00 00 00 00 00 00 00 00
       0.0 0.0 0.0 0.0
000360 00 00 00 00 00 00 00 00 00 00 00 00 00 00 00 00
       0.0 0.0 0.0 0.0
000370 00 00 00 00 00 00 00 00 00 00 00 00 00 00 00 00
       0.0 0.0 0.0 0.0
000380 c3 3d 1b ba 4d 05 e5 b9 34 94 bd b9 ec af b5 39
       -0.0005921984 -0.00043682233 -0.0003615931 0.00034654082
000390 d0 22 35 ba 5a c2 aa b9 a6 d2 90 b9 04 45 83 b8
       -0.00069097895 -0.0003256973 -0.00027622766 -6.259422e-05
0003a0 15 5b c9 b9 2a ab 47 b9 3a c7 12 b9 09 b6 85 39
       -0.0003840557 -0.00019041882 -0.00013997863 0.00025503364
0003b0 da 7a 0f 38 39 66 34 b9 a4 1f 6d b9 ff 3a 28 ba
       3.420827e-05 -0.00017204219 -0.00022613868 -0.00064174825
0003c0 c3 c9 71 ba 6d 4f 83 b9 7f fd 30 b9 68 a4 c1 38
       -0.0009223485 -0.00025045444 -0.00016879103 9.23358e-05
0003d0 3e 3d 0e ba 74 35 a4 b7 7a 91 4c b8 62 7f 69 ba
       -0.0005425996 -1.9575215e-05 -4.8772876e-05 -0.0008907226
0003e0 04 d9 8c 38 1d 14 30 37 55 71 99 b7 2b bc a0 b9
       6.7161425e-05 1.04951005e-05 -1.8291796e-05 -0.00030657774
0003f0 e1 f8 58 39 6b 33 0b ba db 7e 1a ba 25 6a fe b9
       0.0002069208 -0.0005310091 -0.0005893537 -0.0004852574

exp_avg_sq f4 [128, 4]
000000 ff b1 7e 37 9c a7 81 37 83 de 83 37 45 90 9d 37
       1.5181023e-05 1.5456048e-05 1.5720032e-05 1.878304e-05
000010 1e 09 45 37 fa aa b1 36 92 69 89 36 7c 80 b8 36
       1.1744238e-05 5.2949154e-06 4.095208e-06 5.498585e-06
000020 23 37 57 37 25 cc 0e 37 18 4d f7 36 87 d5 e8 36
       1.2827836e-05 8.511391e-06 7.3701485e-06 6.9389966e-06
000030 ea 24 a0 35 f4 3c 89 36 24 f6 be 36 d2 78 17 38
       1.1931672e-06 4.090014e-06 5.691096e-06 3.6113728e-05
000040 87 ee 38 37 3b 84 5c 37 26 eb 5a 37 03 2a 50 37
       1.1022791e-05 1.3143809e-05 1.3048562e-05 1.2407548e-05
000050 4b da 8a 37 75 08 98 36 c9 c9 93 36 39 e0 86 37
       1.6552533e-05 4.5309375e-06 4.4044323e-06 1.6078457e-05
000060 ba e9 14 38 12 71 0d 37 e6 e0 0f 37 02 a8 0a 38
       3.5503625e-05 8.430581e-06 8.575827e-06 3.3058233e-05
000070 00 00 00 00 00 00 00 00 00 00 00 00 00 00 00 00
       0.0 0.0 0.0 0.0
000080 75 13 db 35 70 69 68 36 6e 7c 96 36 03 37 df 37
       1.6322434e-06 3.4632067e-06 4.484834e-06 2.6609288e-05
000090 e3 f6 c1 36 55 13 79 37 91 ef 8a 37 bb e2 ed 36
       5.7805896e-06 1.4846058e-05 1.6562439e-05 7.0895453e-06
0000a0 39 3a bb 36 42 37 d4 36 c7 58 c7 36 ee bf 1d 36
       5.5798123e-06 6.324525e-06 5.940997e-06 2.350654e-06
0000b0 b4 45 00 38 0d d1 83 36 bd 60 72 36 fa 3b 9b 37
       3.0582494e-05 3.928441e-06 3.611712e-06 1.8505369e-05
0000c0 6e 13 52 37 0c 62 53 37 34 a9 76 37 aa 48 3c 37
       1.2521499e-05 1.2599408e-05 1.4702138e-05 1.1222592e-05
0000d0 f3 db 7a 37 8d 82 15 37 a4 50 11 37 c9 23 b1 37
       1.4952372e-05 8.911488e-06 8.661449e-06 2.1116708e-05
0000e0 d3 49 a9 36 84 60 11 37 1a 09 06 37 bd 23 88 36
       5.0451868e-06 8.665145e-06 7.9891415e-06 4.0572763e-06
0000f0 07 d1 1a 36 b7 0d be 36 47 40 e7 36 68 a6 86 37
       2.3069458e-06 5.664038e-06 6.8918193e-06 1.6051534e-05
000100 19 ba e3 36 a9 86 fa 36 f1 ee e6 36 87 cf dd 37
       6.786792e-06 7.466257e-06 6.8823506e-06 2.644189e-05
000110 f2 80 11 36 24 5c 7e 36 32 7d 8f 36 0e 82 12 37
       2.168174e-06 3.7902582e-06 4.2763068e-06 8.732559e-06
000120 75 b8 22 37 21 3f 16 38 a9 4a 16 38 41 c2 07 37
       9.6989e-06 3.582158e-05 3.583232e-05 8.091855e-06
000130 eb 82 f0 36 49 43 44 37 c9 f9 50 37 bd 3e 5e 37
       7.1677982e-06 1.1698176e-05 1.2455924e-05 1.32468385e-05
000140 76 ca 82 37 d1 d4 fb 36 7f de e3 36 39 f1 b1 36
       1.5591486e-05 7.505158e-06 6.791029e-06 5.303093e-06
000150 9a 6c 74 37 a4 be d2 36 45 5a d5 36 9f db e4 36
       1.4568819e-05 6.280681e-06 6.3584034e-06 6.8204968e-06
000160 a1 51 44 37 ae 99 22 38 41 2a 37 38 7c 13 24 38
       1.1701516e-05 3.8766935e-05 4.3669952e-05 3.9118793e-05
000170 3e c5 a9 37 93 5b 8d 36 ca b8 89 36 5d ee c5 37
       2.0238218e-05 4.212788e-06 4.1044304e-06 2.3595227e-05
000180 00 00 00 00 00 00 00 00 00 00 00 00 00 00 00 00
       0.0 0.0 0.0 0.0
000190 a5 dc 62 37 ae 35 00 37 f6 a1 fc 36 c2 bb 17 38
       1.35220225e-05 7.641893e-06 7.52904e-06 3.617607e-05
0001a0 00 00 00 00 00 00 00 00 00 00 00 00 00 00 00 00
       0.0 0.0 0.0 0.0
0001b0 60 c7 c4 37 19 0f 39 37 61 4d 13 37 7c 52 b0 36
       2.3457862e-05 1.10303745e-05 8.779899e-06 5.254811e-06
0001c0 00 00 00 00 00 00 00 00 00 00 00 00 00 00 00 00
       0.0 0.0 0.0 0.0
0001d0 2b 27 21 36 21 e9 8d 36 33 ef 99 36 be 5a dc 36
       2.4013668e-06 4.2292672e-06 4.587602e-06 6.5670747e-06
0001e0 79 fe a5 36 f4 23 a8 36 9c 6d 9d 36 9e 6d 86 37
       4.9470077e-06 5.0109757e-06 4.691725e-06 1.602509e-05
0001f0 75 cc 82 37 5c 8c 56 36 41 63 3c 36 95 11 62 36
       1.5592415e-05 3.1970185e-06 2.8071956e-06 3.3686858e-06
000200 26 56 04 38 1e 18 1a 36 11 cd d2 35 89 cb c0 35
       3.1551484e-05 2.2961826e-06 1.5705901e-06 1.4364351e-06
000210 2f e8 1c 38 7b f6 ba 36 6a 2e aa 36 7c 20 a6 36
       3.7409536e-05 5.571926e-06 5.071798e-06 4.950967e-06
000220 bc 91 90 37 fd 71 c6 37 7f 8b ab 37 5e f2 ea 36
       1.7234e-05 2.365652e-05 2.0449746e-05 7.0019587e-06
000230 63 a2 d7 35 1e 82 de 36 44 5d 16 37 ed fa 0c 38
       1.6066009e-06 6.631263e-06 8.962412e-06 3.3612294e-05
000240 8a 8f 64 37 ef c8 49 37 f5 67 52 37 27 66 26 37
       1.3623279e-05 1.2027317e-05 1.254118e-05 9.918155e-06
000250 08 34 0d 31 79 02 f1 2d 54 22 db 2d b2 60 04 31
       2.0547777e-09 2.7399626e-11 2.4912662e-11 1.9263493e-09
000260 00 00 00 00 00 00 00 00 00 00 00 00 00 00 00 00
       0.0 0.0 0.0 0.0
000270 6e 59 3d 36 a6 3d 4a 37 c9 d0 44 37 9c ab 90 36
       2.821525e-06 1.2054492e-05 1.1731122e-05 4.3115124e-06
000280 15 81 e4 36 24 73 91 37 99 fc 93 37 d8 90 f2 36
       6.8099566e-06 1.7338964e-05 1.764139e-05 7.229024e-06
000290 da 97 52 36 04 26 48 37 e3 20 4e 37 bc b8 8c 36
       3.1380828e-06 1.192978e-05 1.2286214e-05 4.193831e-06
0002a0 a7 53 81 36 2f 58 4f 32 b4 60 30 31 0b e9 0f 31
       3.854238e-06 1.2069036e-08 2.566634e-09 2.0941708e-09
0002b0 c1 33 d7 30 59 b2 b8 2d 4c 92 ab 2d c0 f9 cc 30
       1.5658018e-09 2.099758e-11 1.9505418e-11 1.4913937e-09
0002c0 ac 89 03 37 cc f8 29 37 91 d5 24 37 51 92 8f 37
       7.840263e-06 1.01311125e-05 9.824887e-06 1.7115062e-05
0002d0 22 5b d7 37 d3 02 5b 36 30 e6 0b 36 36 e4 91 33
       2.5672434e-05 3.2635187e-06 2.08466e-06 6.7936e-08
0002e0 4b 92 5f 37 51 be 25 38 b7 86 28 38 bd 01 7a 37
       1.3325897e-05 3.951631e-05 4.0179784e-05 1.4901566e-05
0002f0 33 20 9f 37 45 cd 7c 37 ef 3d 62 37 5b 27 a5 36
       1.8969271e-05 1.50681635e-05 1.348507e-05 4.921965e-06
000300 cd f6 3b 37 cc a5 28 37 79 94 3c 37 b7 8a 45 37
       1.1203531e-05 1.0052183e-05 1.1240242e-05 1.1774412e-05
000310 2d 69 4c 36 1c 67 2b 36 1d 15 40 36 09 2c 23 37
       3.045959e-06 2.5541003e-06 2.862252e-06 9.72581e-06
000320 51 63 31 36 7a 0f 0a 36 10 e0 17 36 cc 37 21 37
       2.6432865e-06 2.057261e-06 2.2631175e-06 9.609339e-06
000330 8f f3 14 37 d2 6c bf 36 78 5e c4 36 c2 5e d1 36
       8.878195e-06 5.704912e-06 5.852253e-06 6.2397166e-06
000340 f4 7d 91 37 dc 39 10 37 9f df 06 37 6b 9c 35 37
       1.7343998e-05 8.59654e-06 8.039088e-06 1.082486e-05
000350 00 00 00 00 00 00 00 00 00 00 00 00 00 00 00 00
       0.0 0.0 0.0 0.0
000360 00 00 00 00 00 00 00 00 00 00 00 00 00 00 00 00
       0.0 0.0 0.0 0.0
000370 00 00 00 00 00 00 00 00 00 00 00 00 00 00 00 00
       0.0 0.0 0.0 0.0
000380 d2 cd b7 37 39 f4 4d 37 f0 d8 27 37 66 84 a1 36
       2.1911143e-05 1.2275815e-05 1.0004485e-05 4.813587e-06
000390 12 89 ba 37 ba 5c 38 37 e5 36 24 37 01 97 c7 36
       2.2236756e-05 1.0988844e-05 9.787943e-06 5.9482413e-06
0003a0 1e 44 dd 36 0f 51 d0 35 e1 69 92 35 30 c5 4a 36
       6.594243e-06 1.5520799e-06 1.0908662e-06 3.0215124e-06
0003b0 02 a4 80 36 49 2f ad 36 22 b0 c7 36 fa 8e 96 37
       3.8337903e-06 5.1613065e-06 5.9511667e-06 1.7947972e-05
0003c0 e7 07 9a 37 c9 ce 0b 36 81 a4 b5 35 9f 09 04 35
       1.836191e-05 2.0832979e-06 1.3533428e-06 4.918783e-07
0003d0 e1 30 98 37 a0 c1 e5 36 7e f2 eb 36 5c 0f da 37
       1.8142573e-05 6.8472727e-06 7.0317756e-06 2.5994777e-05
0003e0 ea f6 80 34 fc 43 a2 31 96 ac 7e 32 a8 ff 87 36
       2.4021512e-07 4.7225495e-09 1.4823987e-08 4.053076e-06
0003f0 e0 06 01 37 05 0f 6e 37 36 3e 8f 37 70 8a c1 37
       7.6906e-06 1.41894025e-05 1.7075898e-05 2.3071858e-05

exp_avg f4 [128]
000000 22 cb f7 39 f7 ff bd b9 5d 4e 88 ba 8f a5 4a ba
       0.00047262857 -0.00036239598 -0.0010399331 -0.00077303586
000010 9c 98 b9 ba c6 83 62 ba 9f e5 0c 39 00 00 00 00
       -0.0014159861 -0.00086408516 0.00013436981 0.0
000020 8e 20 1c b8 5c c6 db 38 b0 33 a3 38 f4 4f 0e ba
       -3.7223617e-05 0.00010479681 7.782073e-05 -0.0005428784
000030 7b 50 0c ba 55 e2 0f b8 e6 46 5f 39 da 65 92 38
       -0.00053525687 -3.4304645e-05 0.00021293349 6.980794e-05
000040 59 08 77 ba a7 2a 75 b9 5a 54 19 b8 0d 1a d1 ba
       -0.0009423546 -0.0002338091 -3.65566e-05 -0.0015953198
000050 e5 1f ab ba 17 22 79 ba 80 ea 11 38 90 91 e4 b9
       -0.001305577 -0.0009503676 3.478909e-05 -0.00043596
000060 00 00 00 00 b7 e4 89 39 00 00 00 00 53 4e 37 38
       0.0 0.00026301082 0.0 4.3703545e-05
000070 00 00 00 00 ab c2 c9 38 6c 21 03 ba fe 6b a8 b9
       0.0 9.6206866e-05 -0.00050022337 -0.00032123917
000080 69 3e f5 b9 f3 76 6f 39 80 79 2c ba 2d 54 7b ba
       -0.0004677654 0.00022837128 -0.0006579384 -0.00095874333
000090 75 61 df b9 f3 0b c3 b9 00 00 00 00 80 3d 62 b9
       -0.00042606486 -0.000372022 0.0 -0.0002157595
0000a0 41 fc 46 39 79 97 c9 b9 55 09 0b ba 74 ff a2 b9
       0.00018976723 -0.00038450563 -0.000530382 -0.00031089375
0000b0 dd f5 1c ba f4 e3 1d ba 2b d6 f1 39 64 b7 a0 39
       -0.0005987564 -0.00060230424 0.0004612667 0.00030654215
0000c0 b4 b3 8a ba 4d 81 95 b9 de 09 db b9 75 12 4a ba
       -0.001058212 -0.0002851583 -0.00041778287 -0.0007708439
0000d0 34 e5 93 ba 00 00 00 00 00 00 00 00 00 00 00 00
       -0.0011283518 0.0 0.0 0.0
0000e0 25 4e cb b8 90 e6 f4 39 6c 51 4a b9 ae 05 16 ba
       -9.69435e-05 0.0004671109 -0.00019294553 -0.0005722892
0000f0 10 fd fc b9 a6 26 c5 39 7c 43 3a ba ef ef 81 ba
       -0.00048253732 0.00037603563 -0.0007105393 -0.0009913425
000100 00 00 00 00 55 ad cd 39 00 00 00 00 bb 01 9d ba
       0.0 0.0003922979 0.0 -0.0011978665
000110 37 68 8f b9 5d 10 66 b9 be 39 1d ba e3 10 a6 39
       -0.00027352732 -0.00021940605 -0.0005997679 0.0003167457
000120 a9 c0 ca b8 9b c3 c3 b9 47 42 8f ba 1a 9a b8 39
       -9.667996e-05 -0.00037339036 -0.0010929786 0.0003521003
000130 00 00 00 00 00 00 00 00 ad 4d a8 ba 77 07 a9 b9
       0.0 0.0 -0.0012840532 -0.00032239754
000140 00 00 00 00 00 00 00 00 00 00 00 00 61 3b 34 b8
       0.0 0.0 0.0 -4.2970645e-05
000150 c7 f8 66 b8 6e a6 26 37 dd 75 e9 b9 00 00 00 00
       -5.5067965e-05 9.933121e-06 -0.00044529038 0.0
000160 00 00 00 00 8e b5 4b ba fc 6d 26 b9 00 00 00 00
       0.0 -0.0007770889 -0.00015871966 0.0
000170 3e ae d8 b9 ad a1 a1 39 5e 46 a6 ba 6c 7e cf b9
       -0.0004132855 0.0003082877 -0.0012685766 -0.00039576308
000180 56 bd 72 ba c3 28 d2 38 01 f5 72 ba 8f 03 49 ba
       -0.00092597806 0.00010021173 -0.0009268076 -0.0007668072
000190 00 00 00 00 ef a7 9f ba 7e d8 95 ba 10 fd d9 b9
       0.0 -0.0012180785 -0.0011432318 -0.00041578012
0001a0 d8 8f c0 b7 90 b4 70 b6 da 79 0d ba 96 d0 95 ba
       -2.2955166e-05 -3.5867888e-06 -0.00053968804 -0.0011429961
0001b0 00 00 00 00 8c 5e a1 b8 8f 5d 21 ba 3c 4c 87 ba
       0.0 -7.694689e-05 -0.0006155604 -0.0010322402
0001c0 e5 d8 10 ba 00 92 47 39 a2 d3 f1 b8 09 44 ef b9
       -0.0005525484 0.00019032508 -0.00011531195 -0.00045636322
0001d0 b8 c5 67 b9 16 40 0a b9 71 e4 99 ba cd bd 4b ba
       -0.00022103533 -0.0001318458 -0.0011741054 -0.0007772118
0001e0 04 46 e0 ba 8a d1 a5 b9 0e 36 20 ba 00 00 00 00
       -0.001711071 -0.0003162737 -0.00061115704 0.0
0001f0 07 63 21 ba 7c 29 c5 ba a0 26 88 ba 32 1a 91 b9
       -0.0006156419 -0.001504227 -0.0010387488 -0.00027676072

exp_avg_sq f4 [128]
000000 a6 1d 17 37 43 5d c8 36 bc c6 04 38 98 01 ae 37
       9.007204e-06 5.9713216e-06 3.165634e-05 2.0743159e-05
000010 2f 27 5c 38 78 0d d3 37 6a 01 0a 37 00 00 00 00
       5.248858e-05 2.5159432e-05 8.22577e-06 0.0
000020 1c 80 c0 36 05 a3 21 36 43 e6 61 35 dc 78 92 37
       5.73696e-06 2.408576e-06 8.4154107e-07 1.7460836e-05
000030 d0 8d 1f 37 7c 03 9d 36 88 fc 32 36 0c 00 7e 36
       9.510157e-06 4.6793702e-06 2.667106e-06 3.7848977e-06
000040 5f 94 cf 37 48 c4 d4 35 ea 80 f6 36 d4 79 8a 38
       2.4745414e-05 1.5852356e-06 7.346379e-06 6.603045e-05
000050 33 a6 48 38 43 27 db 37 93 ce 1e 37 92 a1 31 37
       4.78385e-05 2.6125117e-05 9.465631e-06 1.0587641e-05
000060 00 00 00 00 3e 22 d0 36 00 00 00 00 1f d1 81 36
       0.0 6.2028694e-06 0.0 3.8688445e-06
000070 00 00 00 00 91 a7 95 35 b1 d8 e2 36 8e 86 80 36
       0.0 1.1150133e-06 6.760551e-06 3.8303615e-06
000080 50 7c a6 37 16 90 72 36 10 31 8b 37 3b 91 00 38
       1.984663e-05 3.614468e-06 1.6592938e-05 3.0652835e-05
000090 1d ad 20 37 39 6e 33 37 00 00 00 00 cb 9d 13 36
       9.577049e-06 1.0694895e-05 0.0 2.1996555e-06
0000a0 d2 3a 4e 36 4a 2b f0 36 9c 0d 95 37 86 1f 0a 37
       3.073063e-06 7.157597e-06 1.7768522e-05 8.232781e-06
0000b0 c6 8a 77 37 a2 1f 68 37 4e c7 25 37 d8 25 94 36
       1.4754658e-05 1.3835643e-05 9.881171e-06 4.4151493e-06
0000c0 66 e9 12 38 40 7d 27 36 b3 a0 91 36 fe ef a1 37
       3.502648e-05 2.4957844e-06 4.3400446e-06 1.930445e-05
0000d0 41 34 d2 37 00 00 00 00 00 00 00 00 00 00 00 00
       2.5058283e-05 0.0 0.0 0.0
0000e0 9d 9f ca 36 b7 a6 c6 36 9e d4 a9 35 7f 6b 48 37
       6.0386506e-06 5.920268e-06 1.2653361e-06 1.1945957e-05
0000f0 8b ec 22 37 c7 97 b3 36 b0 ca 20 38 f1 68 b5 37
       9.711027e-06 5.352285e-06 3.833574e-05 2.1625749e-05
000100 00 00 00 00 d3 e1 ef 36 00 00 00 00 62 f7 03 38
       0.0 7.1490444e-06 0.0 3.1463227e-05
000110 56 ca 6a 37 c5 28 33 36 75 e6 de 37 e5 f1 85 36
       1.3994597e-05 2.669681e-06 2.6571777e-05 3.991869e-06
000120 70 5b 51 37 de 9a 89 37 07 e4 1e 38 db b7 9e 36
       1.247866e-05 1.6403788e-05 3.7882503e-05 4.7301705e-06
000130 00 00 00 00 00 00 00 00 60 0b 39 38 79 41 9c 37
       0.0 0.0 4.411803e-05 1.8627137e-05
000140 00 00 00 00 00 00 00 00 00 00 00 00 ed 65 d3 35
       0.0 0.0 0.0 1.5750389e-06
000150 c5 41 55 35 b7 c0 07 36 de 48 c1 36 00 00 00 00
       7.944439e-07 2.0228742e-06 5.760331e-06 0.0
000160 00 00 00 00 a5 1d 6d 37 5b 05 ff 35 00 00 00 00
       0.0 1.4133203e-05 1.9000539e-06 0.0
000170 12 8f 02 37 e5 52 8c 36 ee c8 20 38 99 4f be 36
       7.781915e-06 4.1819753e-06 3.8334103e-05 5.6717076e-06
000180 50 37 aa 37 74 ee 7e 36 7a 0d 4d 38 47 fe 9e 37
       2.0291336e-05 3.7987747e-06 4.888836e-05 1.8953475e-05
000190 00 00 00 00 ef ad 35 38 bd 94 01 38 b9 bc a8 37
       0.0 4.331575e-05 3.089452e-05 2.0115041e-05
0001a0 44 75 88 36 2f 72 5c 36 36 1b 2a 37 48 5a a9 37
       4.0667674e-06 3.2849018e-06 1.0139125e-05 2.018841e-05
0001b0 00 00 00 00 3e f1 26 36 7f 6b 8d 37 4c 16 08 38
       0.0 2.487635e-06 1.6858567e-05 3.2445692e-05
0001c0 65 e1 4f 37 dc 23 a9 35 ca 7a 3e 37 75 47 6b 37
       1.239064e-05 1.2601918e-06 1.1353472e-05 1.4023729e-05
0001d0 de 44 0c 37 c0 a0 76 37 fc ba 1d 38 8c 2a aa 37
       8.360685e-06 1.470017e-05 3.760586e-05 2.0285392e-05
0001e0 b5 0f b3 38 23 77 cf 36 09 36 9d 37 00 00 00 00
       8.538311e-05 6.18295e-06 1.874102e-05 0.0
0001f0 70 00 7d 37 4a b1 87 38 0d 94 bc 37 32 c5 6c 36
       1.5080077e-05 6.470324e-05 2.2480288e-05 3.5281523e-06
