models/model_20250730_195148_lr0.0001.pth (torch, 127058 bytes, 18 tensors)

fc1.weight f4 [128, 4]
00000000: b917 c7be c147 e13e 1945 8c3e f69f 27be
00000010: b2d3 ddbd c1f9 dbbc 207d 13be 131f 2dbe
00000020: 7ab1 fd3e d14a 37be 86d5 163f 1acd 8ebe
00000030: 114a 2d3f 4ba7 c63e 76fe 123f b252 71be
00000040: bb9a ed3e fda0 7b3e 18a0 133f bb96 253e
00000050: 11e9 01bf 956e 45bd 0d20 c6be 92c6 fcbd
00000060: 7971 063f ccc0 373c 0d7b bf3e d0c2 8fbe
00000070: c031 de3e 4cf6 e1be b568 67be 746a 373e
00000080: 8034 f3be 9d1b 88be 7c1a dbbe 4f14 9dbe
00000090: a7a4 10be 1bc1 c7be 9e96 003f d687 68be
000000a0: b333 24be 8c83 dd3e 2289 1f3f 630e bfbd
000000b0: d491 36be 004e 113f 8137 943e d89c 08bf
000000c0: 80d7 0cbf 5455 f5bc de6a 693e e187 983e
000000d0: 0e63 073f 121b 073f 9634 e6bd 702b 143e
000000e0: 6d14 503c c72f b93d 2901 bebe 19c8 4a3e
000000f0: fb4d 543e 57c8 873e c434 2e3e 03af e33e
00000100: 6bbd 4fbe 9696 1f3e 0391 acbe c54c 873e
00000110: 4e60 c33e 631d 2c3f e409 ac3e 4547 3f3e
00000120: c73f aabe b263 b2be 73b6 303e f531 0f3f
00000130: 8447 77be 74ad 0bbf fd1a 8fbe 3e82 b73e
00000140: c661 da3c 148d c53e 0ce6 1b3e 4315 303f
00000150: 24e5 6fbe 38e7 c43d 9c61 07be 88cf aabe
00000160: 0e77 b7bd af0a 24bf 0aed bebe 9aad 45be
00000170: 78a9 ba3e 630c 4fbd 3d1e 003f bc3f 7a3e
00000180: 9527 06be c7b4 cc3e 72e6 7f3e 5c77 71be
00000190: f5a3 9c3e 8b91 13be 529f 6dbe c78d 99bd
000001a0: 5322 bd3e 09e9 cabe 28e8 10be 4a7d a03e
000001b0: 119b cdbe 1c17 393e 963a 133f ca66 3cbe
000001c0: 680b 4f3e 3059 3d3e 59a3 af3d 65bd 2a3f
000001d0: e529 273f 5125 17bd 9266 e23d 8f69 cabe
000001e0: 15bf 793e 3d05 68be f961 b7be 8df1 153e
000001f0: 1f76 113f 7587 a2bd e147 eabc 0234 01bf
00000200: 42e3 b9bd afba 743e e1dc c13e 6f59 49be
00000210: a10c 063e 1dcc 6ebe aad3 43be 95e5 d03e
00000220: a3bf 193f 5e81 f8bd 27b8 d03d 99e4 123e
00000230: 7180 11be 4622 1e3e 460b b0bc e479 143f
00000240: a228 0abf 0284 a23e 4c72 a13d 8a05 083f
00000250: 2eed 873e a2af 963e c5ce 413c 42a2 afbe
00000260: 68e4 e3be 8997 9abe b368 b53e 4f79 1a3f
00000270: 41fe 283f 53d2 b83d 76a8 87be 97e9 93be
00000280: 761d 8f3e 56f0 f7be 5acf 49be 339b 833e
00000290: 38db 09bf 030a b53e c085 043e a4b4 f43e
000002a0: 851e 00bf b69a 9cbe 1f83 afbe 7f4c 3fbd
000002b0: e88f cbbe 7644 083f 388e 4dbd 9c5d 85be
000002c0: 63e8 eebe cf28 3b3e d8c5 cd3a 5ce9 d13e
000002d0: 3e70 713e 98a6 85bd 332f a7be e783 ab3c
000002e0: c068 943e b331 cabd 0206 073c 1eb8 e4be
000002f0: 2f70 103f 5f1f a5be 8691 6d3e 7f06 f53a
00000300: 67d5 ae3e a3ba 1a3f b5c7 ca3e ce13 183f
00000310: f976 9d3e 4cab e4bc 5d34 79be 65f1 2b3c
00000320: d081 49bd dca5 bdbe a4ff 2abe e06a 90bc
00000330: a7c5 9c3e c754 8b3e e700 10be 36aa 253f
00000340: 9820 a13e dc6c 273e 4d1f 56be c540 c8be
00000350: b100 323f 9507 12be 249b 0f3f 4cef 583e
00000360: 48db 7ebe 93ac c1be 9ae4 78be 8d09 1a3f
00000370: e310 e9bd 29b7 21be d554 6bbd dbc5 d83d
00000380: 529e 5f3d 9535 37be 4723 15be fb95 273f
00000390: d3e2 8f3e c161 29be 3c9d bebe 156b 14bf
000003a0: cd3a fabe d16f b23d 9cf7 213e c16e 9c3e
000003b0: f6f9 e63d f96e 283d b671 183e 6196 e73e
000003c0: fc07 083f 8842 3cbd 7bed 003f 408c 2dbe
000003d0: 79c6 ae3c c258 00ba 960f 0d3f 9d48 2dbe
000003e0: 9c95 983e 7db6 7cbe 29fa 033f 61a9 cb3e
000003f0: 4c74 23be c013 243c c6c5 a0be 30c8 99be
-0.38885286 0.44000056 0.27396467 -0.16369614 -0.10831393 -0.02685249 -0.144032 -0.16906385
0.49549466 -0.17899634 0.5891956 -0.27890855 0.6769114 0.3879951 0.57419527 -0.23566702
0.46407112 0.24573131 0.5766616 0.1617078 -0.50746256 -0.048201162 -0.38696328 -0.12342562
0.52516896 0.0112154 0.37398568 -0.28078318 0.4339733 -0.44133222 -0.22598536 0.17911702
-0.47500992 -0.26583567 -0.42793643 -0.30679557 -0.1412531 -0.39014515 0.50229824 -0.22708067
-0.16035347 0.43264425 0.62318623 -0.09328916 -0.17829067 0.56759644 0.28948596 -0.53364325
-0.55016327 -0.029947914 0.22794673 0.29791167 0.5288552 0.5277568 -0.11240499 0.14469695
0.012700182 0.09042316 -0.3711026 0.19802894 0.20732872 0.26520035 0.17012316 0.4446946
-0.20287101 0.15584788 -0.33704385 0.26425758 0.38159412 0.6723234 0.33601296 0.18679531
-0.33251783 -0.34841686 0.17257099 0.55935603 -0.24148375 -0.54561543 -0.27950278 0.35841554
0.02665795 0.38584197 0.15224475 0.6878244 -0.23427254 0.09614414 -0.13220829 -0.3336146
-0.08958255 -0.640788 -0.3729022 -0.19304505 0.3645742 -0.050548922 0.5004614 0.24438375
-0.13101037 0.39981672 0.24990252 -0.23580688 0.3059384 -0.14410989 -0.23205307 -0.07497745
0.3694025 -0.39630917 -0.1415106 0.31345588 -0.4015737 0.18075222 0.5751127 -0.18398586
0.20219195 0.18491054 0.08576078 0.66695243 0.652983 -0.036900822 0.1105472 -0.3953366
0.24389298 -0.22658248 -0.35816935 0.14642926 0.56820863 -0.07935993 -0.028598728 -0.5046998
-0.09076549 0.23899339 0.3786383 -0.19663022 0.13090755 -0.2332005 -0.19123712 0.40800157
0.6005804 -0.1213405 0.10191374 0.14345016 -0.14209153 0.15442762 -0.02148975 0.5799849
-0.5396825 0.3174134 0.078831285 0.5313345 0.2654814 0.29430872 0.011829083 -0.3430348
-0.44510198 -0.30193737 0.35431442 0.6034135 0.6601296 0.09024491 -0.26495713 -0.28889152
0.27952164 -0.4842555 -0.19708005 0.25704345 -0.53850126 0.353592 0.12941647 0.47794068
-0.5004657 -0.30586785 -0.34279725 -0.04670381 -0.3975823 0.53229463 -0.05018446 -0.2604798
-0.46661672 0.18277286 0.0015699221 0.40998352 0.23577973 -0.06525916 -0.32653198 0.02093692
0.28986168 -0.098727606 0.0082411785 -0.4467172 0.5642118 -0.32250497 0.23200044 0.0018693953
0.34147188 0.60441035 0.3960549 0.5940522 0.3075483 -0.027913712 -0.24336381 0.010494565
-0.049196064 -0.37040603 -0.16699082 -0.017629087 0.30619547 0.27213117 -0.14062844 0.64712846
0.3147018 0.1635012 -0.20910378 -0.39111915 0.69532305 -0.14260705 0.560961 0.21185035
-0.24888337 -0.37826976 -0.24305955 0.60170823 -0.11380174 -0.15792526 -0.05745395 0.10584613
0.054594345 -0.17891534 -0.14564238 0.6546323 0.2810274 -0.16541196 -0.37229335 -0.57975894
-0.48872986 0.087127335 0.15817112 0.3055325 0.11278145 0.041121457 0.14887127 0.45231918
0.53137183 -0.045961887 0.50362366 -0.16948032 0.021334874 -0.00048960384 0.5510191 -0.16922231
0.29801643 -0.24678989 0.5155359 0.39777663 -0.15962332 0.010014474 -0.3140089 -0.30035543

fc1.bias f4 [128]
00000000: 94de 7d3e 0561 513f f5a0 80be cb5f dfbe
00000010: 7dda 933e 2a36 1e3f 58c9 6d3d 9d1c 303f
00000020: b897 e5be 6825 483f ed43 be3e 055b 673e
00000030: 7a4f 2d3f 4455 56be 2f79 cf3e 7ed8 243f
00000040: 36b8 273f b982 f1be 03af b3bd 6003 263e
00000050: 5123 f0bc 3cdb ccbe a24d a7bd e146 813e
00000060: 4e9b 1fbe 3fa4 343f 9762 e23e a0f9 013f
00000070: 7dc1 0dbf 9698 63be 89fa f53e 8bda 373e
00000080: 00ee 6abd 227b e13d 14f0 52be 9c3d cb3d
00000090: 5b3b 0fbd 429e 2f3e 2510 15be ed0b 45be
000000a0: 7d21 f43d 8f4a 6c3d 91fd b63e 5d56 213f
000000b0: a350 743e b23b 323f d90a 2d3e 2641 8a3a
000000c0: be91 bfbe a1fc bb3e c6cc babe d4d5 fabe
000000d0: ba61 153e 4f0d 7b3e 8326 403c 739c 463f
000000e0: 8749 eabd c502 a23e 13d7 ce3e 6775 f0be
000000f0: 7679 f53e fff4 99be a6f2 ebbe e435 e1be
00000100: ae72 c03e 92b1 053f 0f68 84be 2e8d 3a3e
00000110: 24d1 823e b4ac 39bf facd dfbe cb86 c73e
00000120: 931f 4b3f 7b4a 3dbe c031 673d 9699 143e
00000130: ff45 cd3e 69a3 57bd b063 ebbe 78d3 ae3d
00000140: e91b 493e a6f9 a73e eea4 1ebf 9a6d d13e
00000150: e0fd cd3e 842f 7abe 94f1 8b3d a2e0 63bd
00000160: 164e 343f d654 b6be 32f5 5cbe b7b4 a63e
00000170: b31d 353f bf80 1d3e bc8b ad3e 12d6 9c3e
00000180: e7fc 403f f648 7abe 752b af3c 5106 433f
00000190: e6db d0bc c514 3f3f b8ed d03e 3204 d8be
000001a0: be09 a6be 3961 273f 894a 3c3f f686 093f
000001b0: aefa 483e 058e 4b3f 8930 f83d cc9c 153f
000001c0: c202 c1be 240c 523e 5670 c23d 5497 0c3f
000001d0: a8d5 d9be c27c a33e 0814 6ebe dd1c 263f
000001e0: 10f2 533e ab11 67bd b617 9cbc 4632 4a3f
000001f0: 1b63 dd3e 6ba2 a2be aa5e 253f fcd0 2a3f
0.24791938 0.81788665 -0.251228 -0.43627772 0.2887763 0.618014 0.058053344 0.6879366
-0.44842315 0.7818208 0.37161198 0.22593315 0.67699397 -0.20930964 0.40522143 0.6439284
0.6551546 -0.47170046 -0.08773615 0.16212225 -0.029313715 -0.40011013 -0.08169104 0.2524939
-0.15586588 0.7056312 0.44215843 0.5077152 -0.55373365 -0.22226176 0.48042706 0.17954461
-0.05735588 0.11009814 -0.20599395 0.099238604 -0.034968715 0.17150214 -0.1455694 -0.1924283
0.1192045 0.057688292 0.3574033 0.63022405 0.23858885 0.6962234 0.1689867 0.001054798
-0.3741588 0.36716178 -0.36484355 -0.48991263 0.14588061 0.24516796 0.011727932 0.7758247
-0.114398055 0.31642738 0.40398464 -0.4696457 0.4794423 -0.3006973 -0.46083564 -0.43986428
0.37587494 0.52224076 -0.2586064 0.18217918 0.25550187 -0.7252915 -0.43711835 0.38970026
0.79345053 -0.18485443 0.05644393 0.14511713 0.40092465 -0.052646074 -0.45974493 0.08536428
0.19639553 0.32807654 -0.6197041 0.40903932 0.40232754 -0.24432188 0.06833187 -0.05563415
0.7043165 -0.356116 -0.2157791 0.3255975 0.7074844 0.15381144 0.3389567 0.30632073
0.753859 -0.24441895 0.021383027 0.76181513 -0.02549548 0.74641067 0.40806365 -0.421907
-0.32429308 0.65382725 0.7355123 0.5372156 0.19626877 0.7951358 0.12118632 0.5844238
-0.37697417 0.20512444 0.09494083 0.5491841 -0.4254582 0.3193112 -0.23249829 0.6488779
0.20697808 -0.056413334 -0.019054275 0.7898296 0.43239674 -0.3176454 0.6459757 0.66725135

fc2.weight f4 [64, 128]
00000000: 4579 33be 5938 56bd 70f3 bb3d 3c75 2b3e
00000010: 3f21 963d 96f5 dbbd cb59 573e 555a 3b3e
00000020: c170 793d 6095 8e3d 988a c53a 02ba f83d
00000030: 1fc3 7ebe a189 103e 8c1e 4fbd 96a7 463d
00000040: e552 37bd af8d ff3d 91cb 44be 3feb cbbd
00000050: 2f48 a6bd d0c8 b73c c430 57bd 4178 f13d
00000060: 0908 66bd 677c 5e3e 9209 273e 68bb b3bd
00000070: 5a75 37be 6138 a93e 2b4d 583c eeca 783e
00000080: cc20 cd3b 90d2 82bd e78a 173e ca58 c7bd
00000090: 105c 3abe 6369 363e a03a 9abe cef5 a53e
000000a0: 1696 87bd 371f d6bd 1c15 89be 5d81 a4bd
000000b0: fd1d 2cbe 7f93 1b3e 2d3e 563e be4f 7d3e
000000c0: 3490 833d 0649 443e 9183 67bd 1feb 1cbe
000000d0: 6bda 4d3e 14c5 393e 5bd2 19be ae22 b13d
000000e0: a5da 43be a24a e03d 3ff9 48be d995 6cbe
000000f0: b944 003e b775 dcbd e0bb 2abd f029 babc
00000100: fa84 b53d 4a75 e53d 950e 23be 348e cb3c
00000110: d51a 6abd 7b04 da3d 9dd7 02bd fd56 d73c
00000120: c883 9c3c 75b5 f9bd cfee d0bd 4073 013c
00000130: e622 e33b 4260 793e 6aa0 023e 3852 5cbe
00000140: f596 c4bd f447 3d3e 2879 8b3d 6813 8bbe
00000150: 0a74 dfbd 67fc 4fbc c7d7 903b f156 1d3d
00000160: d9ad 1c3e 5252 0f3e 541d 99bc 55ae 4b3e
00000170: 507a 143e 6bac a03d 372a 53be a3b6 54be
00000180: 37da 09be 839e 533e c03d 063e e3c5 1bbe
00000190: fb99 ae3c 04b7 9e3d b07a 6b3e f372 7b3e
000001a0: d5b5 02be 5dab 663d 56fb b93d f912 b3bd
000001b0: 70e2 8cbe 626b 18be fe42 03be 0582 ed3d
000001c0: 209a 53bc 946a 97be 99a9 d2bd 82d8 913d
000001d0: 1746 a83d 2947 0c3e 347e 9d3e 3eae c63d
000001e0: 3db4 f93c 7ecd 193e 19f9 a1bd e263 333e
000001f0: ffd5 743d 2c21 303e 9e71 313e f9ab 0cbc
00000200: 3d36 36be 3938 373e 9988 573e 5183 2c3e
00000210: b0f6 8fbd 6e1c 483e be79 5c3d 80a8 0d3e
00000220: 9889 133d e9f4 abbc a1fb 59bd d936 793c
00000230: 9d9a 2dbd c02c ca3d 3f65 c63d 564a c0bc
00000240: 9a29 f2bc c571 fd3d fbe3 80bd 38b2 a43d
00000250: e9dc 69bc 64c5 123d 4937 1c3e 91ba a5bd
00000260: 6d1a a4bd c1ca 323e 89ff d33d aa72 cbbc
00000270: 5d6a fb3c cec4 863e 0c92 603d c9ee 533e
00000280: 7ae7 01be 3892 b6bc 522e 263e f083 e8bc
00000290: c710 45bd 5d50 403e 23b9 f3bc 7510 5d3e
000002a0: 9e43 81bd 196a cabd 31ac b33e 905b adbd
000002b0: fa8d 1ebe aca0 1d3e f4e1 6b3e b109 1f3e
000002c0: b600 0a3d fd84 033e 22bd d6bc e165 853c
000002d0: f7af 3e3e 6711 02bd 5bf8 823d e52b 0cbd
000002e0: 67f6 bebd 126e 473e 479b 4bbe 7700 0b3e
000002f0: f10f 8e3d 031e 023d af6b ae3d 1986 afbd
00000300: 3d34 af3c 6a6a 493d debe 34bd 38a4 dbbd
00000310: 8e33 cbbd 9418 933d 80a9 08ba 3b81 453d
00000320: be79 873d 45ae f93d 500a f5bd 27e5 7bbd
00000330: f5df 643d c76c 593e ec7a 3d3e 21f0 e7bd
00000340: cb7c a9bd f163 0c3e 4b90 c93d 89ec 993d
00000350: e327 47bd a990 343c 6d15 033d 20e8 9ebb
00000360: 8428 103d 3ddb adbc a3a3 ebbc 4418 283e
00000370: dcd7 dc3d da05 64bd 5775 a83e 032d 92bd
00000380: cddd 963e e103 7e3e 07f7 1f3d 63aa 983d
00000390: 7d58 77bd d194 da3d b0c4 353e 53f4 503e
000003a0: a165 ebbd 5ccb c53c e61e 163e 9998 ce3c
000003b0: 4d1b 39be c7af c03d d2b7 523e 3ec0 a53c
000003c0: 7b81 913d e1b5 783e a451 b5bd a095 063e
000003d0: e6c1 8f3d 0fe8 92bb b40d a33e 5cdc d9bd
000003e0: 1f2a 463c fb9d 1e3e 5307 c2bc 7df2 063e
000003f0: 51a6 413d 7275 823e 2cdc b13d bbce debd
-0.1752673 -0.05229983 0.091772914 0.1674394 0.0733056 -0.10740201 0.21030347 0.18296178
0.060898546 0.06962085 0.0015071211 0.12144853 -0.2487912 0.14115001 -0.05056624 0.048499666
-0.04475679 0.12478196 -0.1921828 -0.09956979 -0.08119237 0.022434622 -0.05253674 0.11790515
-0.056160007 0.21727143 0.16312245 -0.08775979 -0.1791586 0.33050826 0.013201992 0.24296162
0.006260013 -0.06387818 0.14799081 -0.09733732 -0.18199182 0.1781364 -0.30122852 0.32414097
-0.066204235 -0.104551725 -0.26773918 -0.080324866 -0.16808315 0.15192984 0.20922156 0.2473745
0.06423989 0.19168481 -0.056521956 -0.15324067 0.20102851 0.18141586 -0.1502165 0.08649193
-0.19126375 0.10951735 -0.1962633 -0.23104037 0.12526216 -0.1076464 -0.041683078 -0.022725075
0.08863254 0.11204012 -0.15923531 0.024848081 -0.057154495 0.10645386 -0.031943906 0.026286596
0.019105807 -0.12192813 -0.10201799 0.007901013 0.0069316505 0.24353126 0.12756506 -0.21515739
-0.09599105 0.18484479 0.06810218 -0.27163243 -0.109108046 -0.012694455 0.004420254 0.038412992
0.15300693 0.13996246 -0.018690743 0.19890721 0.14499784 0.07845386 -0.20621572 -0.20772795
-0.13462149 0.20665936 0.13109493 -0.15212207 0.021313658 0.07749751 0.2299602 0.24555568
-0.12764676 0.05631577 0.09081142 -0.08743853 -0.27516508 -0.14884713 -0.12818524 0.11597065
-0.012915164 -0.295735 -0.102862544 0.07121374 0.082164936 0.1369902 0.30760348 0.09701203
0.030481452 0.15019795 -0.0790884 0.17518571 0.059774395 0.17200154 0.17328498 -0.008585923
-0.17794128 0.17892541 0.21048202 0.16846968 -0.07029474 0.19542095 0.05382704 0.13833809
0.03601989 -0.020990806 -0.053218488 0.015210831 -0.04238378 0.09871817 0.0968728 -0.023472946
-0.029560853 0.123752154 -0.06293484 0.08041805 -0.0142738605 0.035832778 0.15255465 -0.08092225
-0.08012853 0.17460157 0.10351474 -0.02483495 0.030690366 0.26322025 0.05482678 0.20696558
-0.12685958 -0.02228652 0.16228607 -0.028383225 -0.048111703 0.18780656 -0.029751366 0.21588309
-0.06311725 -0.09883518 0.3509231 -0.0846473 -0.15483847 0.15393323 0.23035413 0.1553104
0.033692084 0.128437 -0.026213232 0.016283931 0.18621813 -0.031754877 0.06395026 -0.03422155
-0.09324341 0.19475582 -0.19883452 0.13574396 0.06936634 0.031766903 0.08516633 -0.08570499
0.021387214 0.04917375 -0.044127338 -0.107246816 -0.09921943 0.07182422 -0.0005213246 0.048218947
0.06615017 0.121914424 -0.119648576 -0.061497834 0.055877645 0.21232902 0.18503922 -0.11325098
-0.082757555 0.1371 0.09841975 0.075158186 -0.048622023 0.011020818 0.032002855 -0.004849449
0.03519489 -0.021222705 -0.028764552 0.16415507 0.107833594 -0.055669643 0.32902023 -0.071374916
0.29466096 0.24806167 0.039053943 0.07454374 -0.060387123 0.10672916 0.17750812 0.20405702
-0.114939936 0.02414482 0.14660224 0.025219249 -0.1807682 0.09408527 0.20577934 0.02023327
0.071047746 0.24288131 -0.08853462 0.13143015 0.07019405 -0.00448323 0.31846392 -0.10637733
0.012095003 0.15489952 -0.023685133 0.1317844 0.047277752 0.2548023 0.086845726 -0.108792745

fc2.bias f4 [64]
00000000: 270d 303e 197d a8bd fc1c 0a3e 5d11 803e
00000010: 2452 c33d 66d9 b33d 7939 d4bd d58f 1fbc
00000020: 72e2 163e 0022 7c3d 4ae0 1e3e a546 593e
00000030: 5d7f 0fbd e617 113e 6122 ebbb 1aaa 0b3d
00000040: 0ac6 193e d001 163e e0f9 4d3d 82d7 07bd
00000050: b235 363e b951 e6bd d53b 323d 4685 d63d
00000060: 20c8 693e 746f 263e 5f3b 1b3e 4b53 e43b
00000070: 7234 a73c eb60 553e f1a7 0bbe dea9 1a3d
00000080: 0cb0 e43b e3ed 8abd a6e2 8ebc 0084 aa3b
00000090: 0080 aa3c d01e 263e 42f9 ce3d 9514 513d
000000a0: 6d02 2abd c548 3d3d 1bd9 f6bd 6931 543e
000000b0: a749 24bd ecc0 49bd f879 a2bd 71cc 1e3c
000000c0: a8f1 253e c10e 453e 4191 31bd 79d1 853e
000000d0: 327b c7bd 4b8f acbd 82c1 073e 290a 9d3d
000000e0: eac0 173e f00a 94bd 2dce 8c3c a59f 9ebd
000000f0: e419 3b3d de2e 563e 3b19 333e 02c3 d13b
0.17192517 -0.082269855 0.13487619 0.25013247 0.095371515 0.087817 -0.103625245 -0.009738882
0.1473482 0.061555862 0.15515247 0.21218355 -0.035033572 0.14169273 -0.007175729 0.03409777
0.15016952 0.14649129 0.050287127 -0.03316451 0.1779392 -0.11246056 0.04351409 0.10474639
0.22830248 0.16253453 0.15159367 0.006967937 0.02041075 0.20837753 -0.13638283 0.037759654
0.0069789942 -0.067836545 -0.017442059 0.005203724 0.020812988 0.16222692 0.10106136 0.05104502
-0.04150622 0.046211977 -0.12053128 0.20721973 -0.040109303 -0.04925625 -0.0793342 0.009692297
0.16205466 0.1924391 -0.043351416 0.26136377 -0.097402945 -0.084257685 0.13257411 0.076679535
0.14819685 -0.07228649 0.017188156 -0.077452935 0.045678988 0.20916316 0.17490093 0.0064014206

fc3.weight f4 [15, 64]
00000000: b21a 43be f26d 4b3e 336b 593e 268e 653e
00000010: 7b9c 1b3e aa8e 8b3d 1a87 1abe d946 aebe
00000020: f27c 343e 7dce 693e 5684 bd3d d3d6 883e
00000030: 90b8 a6be 84dd 63bc 826d 823d b320 74be
00000040: 36d5 4c3e 7de8 63be e5f2 b639 c651 a3be
00000050: 2e1e b03c a7f7 89be eaa2 e0bd e112 78bc
00000060: 93fe f33d ae29 08be a0e2 afbd 482b 443d
00000070: 485b afbe b9f9 5abd 2e10 f0bd 70e4 4e3e
00000080: c661 d0bd db2d 46bd 0695 f33d 31a7 c0be
00000090: 70c7 d2bd 9dde f039 785c 963d b871 01be
000000a0: e87e 57bc e75e 4dbd 5213 2ebe 72e9 963c
000000b0: 37d8 863c 5f7e 8ebd 4cef 9dbe b0aa e9bc
000000c0: 4bf3 26bd fd09 803a 18c2 2ebd e245 3f3e
000000d0: 7971 adbe 4b3f 37be 17f6 563e f42f 11be
000000e0: 45fc e63d 2a04 e0bd 0078 b8bd 7dee 7dbe
000000f0: ac0a 00bc 9787 1d3e 50af 483e d287 13be
00000100: 3227 5ebe b8ee 483b f470 e53d 7ac3 143e
00000110: f987 68be 008c 12be c895 a6be c508 0d3e
00000120: 83dd a33c 0875 82bd 6e81 7dbe bf98 573e
00000130: 801d 45be d138 f43d 4cbb 0f3d 0a6f 2bbe
00000140: e564 b63d f299 67be dfd0 46be c5de aebd
00000150: f3bb f73d bbce 84be 6c97 ad3d 155e d83d
00000160: 8036 943d 763e 86be 4636 01be 5680 ab3c
00000170: 3e24 f9bd 782e 903d cb95 7abe 0fff 443e
00000180: d227 f3bd aef5 8fbd 87ff efbb 0dda 12be
00000190: 6fb4 1abe d57a 7c3e f7d6 adbe 77d9 4e3e
000001a0: c1a9 543d 6e88 0abd 3613 87be 627f 823e
000001b0: 6ebe 173b 6143 a3be 0069 b7be ea36 053c
000001c0: 0cc9 25be 8243 993d 70a5 443d 1cea 3b3e
000001d0: 9bae 7dbe 600d 66bc c7ee 87be a07e 623e
000001e0: 2367 3dbd 6ffb 23be 80f8 76bd 7748 99be
000001f0: 3846 7f3d 455d f73d ec0a a33d 676a 01bc
00000200: 4fbb 90bd 9e1d 8cbe 7dd8 da3d 645d 003e
00000210: e05e c1b9 b13e 0f3e 8a6a 25be 5805 fb3c
00000220: 5963 563d 8100 eabc 71b0 09be 36f9 803e
00000230: d634 3a3d dbda 953d eede 51be 8fe2 093e
00000240: 85cd 6ebd 9ad8 88be f185 ca3d fac2 9fbe
00000250: d15c 97be ad99 413d 187b 1f3e cea5 dcbd
00000260: f17c 203e 4262 733d 8cae 653e 7f8f f53d
00000270: 4636 8dbe a304 2bbe 3d0d 30bd 945b 5b3d
00000280: 94a6 efbb 9848 0c3c e2ec 9b3d 5cb9 47be
00000290: 141a efbd e809 363d 0db0 34bd 0c62 f83d
000002a0: 216b f6bd 5d00 5ebb 70ff 0abe 2087 13be
000002b0: 1db2 c03d d65f c43d 2eee 1abe 54dd 79bd
000002c0: 4d4d 0b3e 5803 503e 0852 efbc 75d7 12bd
000002d0: bde0 98be 3aee 96bd 19fc 79bd 549e 023e
000002e0: e210 6dbe 97b6 d0bd 7347 8abe 6854 1c3e
000002f0: 31a7 84bd dd81 443e 8f80 0dbd fafe 283e
00000300: f7ab 13be 60b0 74bd 9a21 4a3e 9dff 2bbe
00000310: 29d4 99be 4ae0 78bc 8656 34bc b414 663e
00000320: 2d14 b0be ea68 09be 0cf9 fbbd 1f12 7e3e
00000330: c0d7 dabd 7d8e 0e3e 46ea 813e f536 bf3d
00000340: cf6c 35be 276a a4bd 70e5 e5bd 7d0e acbe
00000350: bcb0 45be c71d 3a3e 360a 353e 90de 74be
00000360: 49d1 3dbe b434 a4bd 55ae b6be df64 efbd
00000370: ffa9 43be 7adc 32be 816a 1f3e e92d af3d
00000380: 06c4 5cbc 9190 b5bc ea97 e6bd 4d7a 9abd
00000390: 4356 a93d aaf2 1b3e a6b4 92be aba4 2d3e
000003a0: 0294 debd a09a 73bd 5264 cdbd 8f30 73be
000003b0: 3e7a 5abc 0015 56be bb27 803d 5baf 8a3d
000003c0: ddca 3fbe 48dd 553e bcab 64bd 4d33 c43d
000003d0: b0a4 2fbe cf38 05be 714c 37be cc3f 603e
000003e0: 8dcc 57be cd94 6bbe ec4a 18be fc66 e43c
000003f0: d926 5cbd dd1c 82be 2d4a 2fbe 663f c53c
-0.19053152 0.1986616 0.212323 0.22417507 0.15196411 0.068143204 -0.150906 -0.34038427
0.17625788 0.22832675 0.09253757 0.26726398 -0.32562685 -0.013907794 0.06368543 -0.23840599
0.20003209 -0.22256656 0.00034894716 -0.31898326 0.021498766 -0.26946756 -0.109685734 -0.01514122
0.119137906 -0.1329715 -0.08588147 0.04789284 -0.3424933 -0.05346081 -0.11721836 0.2020433
-0.10174899 -0.048383575 0.11893658 -0.37627557 -0.10291946 0.00045942227 0.07341856 -0.12641037
-0.013152815 -0.050139334 -0.16999558 0.018421862 0.016460521 -0.06957697 -0.30846632 -0.028523773
-0.040759366 0.0009768602 -0.04266557 0.18679002 -0.33875635 -0.17895238 0.20992313 -0.14178449
0.11278585 -0.10938294 -0.09007263 -0.24798007 -0.007815044 0.15383755 0.19598126 -0.1440728
-0.2169464 0.0030659866 0.11203185 0.14527693 -0.2270812 -0.14311218 -0.3253615 0.13772877
0.020003086 -0.06369978 -0.24756405 0.21054362 -0.19249535 0.11924899 0.03509073 -0.16741577
0.08905963 -0.22617319 -0.19415615 -0.08538584 0.12096395 -0.25938973 0.08476147 0.1056482
0.072369576 -0.2621953 -0.1261836 0.020935219 -0.12165116 0.07040113 -0.24471204 0.19237922
-0.118728295 -0.070292816 -0.0073241624 -0.14340992 -0.15107892 0.24656232 -0.33953068 0.20200144
0.051919702 -0.033821516 -0.26381844 0.2548781 0.0023154276 -0.31887344 -0.35822296 0.008130768
-0.16189975 0.07483579 0.048009336 0.18351024 -0.24773638 -0.014041275 -0.2654936 0.22118616
-0.046240937 -0.16013883 -0.06029558 -0.299381 0.062322825 0.120783366 0.079610676 -0.007898903
-0.07066976 -0.27366346 0.10685823 0.12535626 -0.00036882516 0.13988759 -0.16153923 0.030642197
0.05234084 -0.028564693 -0.13446213 0.25190133 0.045460545 0.07317134 -0.20495197 0.13465331
-0.058301467 -0.26727754 0.098888285 -0.31203443 -0.29563 0.047265697 0.155743 -0.10773812
0.15672661 0.059419878 0.22429866 0.1199026 -0.2758047 -0.16700988 -0.042981375 0.053554133
-0.007313559 0.00856223 0.07613541 -0.19504303 -0.11674896 0.04444304 -0.044113208 0.12128076
-0.12032152 -0.0033874728 -0.13574004 -0.14407015 0.094089724 0.09588592 -0.15129921 -0.06100209
0.13603707 0.20313776 -0.02921392 -0.035850007 -0.29858962 -0.07369657 -0.061031435 0.1275571
-0.23150972 -0.10191076 -0.27007636 0.15266573 -0.06477202 0.19190164 -0.03454643 0.16503516
-0.14421068 -0.059738517 0.1973938 -0.16796727 -0.30044678 -0.015190193 -0.011006957 0.22468835
-0.34390393 -0.13418928 -0.12303361 0.248116 -0.10685682 0.13921542 0.2537405 0.09336654
-0.17717288 -0.080280595 -0.11225402 -0.33604804 -0.193057 0.18175422 0.17679676 -0.23913026
-0.18536867 -0.08017865 -0.3567988 -0.116891615 -0.19107817 -0.17466918 0.15567972 0.085536785
-0.01347447 -0.022163661 -0.11259444 -0.07542858 0.08268406 0.15229288 -0.2865345 0.16957347
-0.10868074 -0.059473634 -0.100289 -0.23748992 -0.013334809 -0.20906448 0.06257578 0.06771728
-0.1872973 0.20885193 -0.05582784 0.09580097 -0.17152667 -0.13009952 -0.17900254 0.21899337
-0.21074124 -0.23005982 -0.1487233 0.027881138 -0.053747986 -0.25412646 -0.1711814 0.024078082

fc3.bias f4 [15]
00000000: 47ba 163e ac54 cc3d 1bbe 95bc a9fa 46bc
00000010: 877c 183e 7fd6 51bd 097c 8c3d 85b2 c43b
00000020: d41d 6f3d 059d a63d f015 29bd 1e7e ffbd
00000030: 4bb5 843d 9fac 11bd d633 febd
0.14719497 0.099770874 -0.018279126 -0.012144723 0.14891253 -0.05122995 0.06859595 0.0060027265
0.058378056 0.08135418 -0.041280687 -0.12475227 0.064798914 -0.035565015 -0.12412231

exp_avg f4 [128, 4]
00000000: 7b6f c73b 5f4b 333c 9f52 4c3c e9ff 4f3c
00000010: 64d0 f23b 1089 7a3c 0995 7b3c aa2f 7f3c
00000020: 1379 aa3a 4029 e539 92fd 063b 4024 a9b6
00000030: 0026 4eba d710 49bb d807 99ba 8fba 65bb
00000040: 4624 a239 2c48 8c39 dc17 c93a 0065 d037
00000050: 3f19 1fba 1a43 13b9 ac9e 8fba d52a 223b
00000060: 023e ad3b bc9d be3b 7c21 093c 268f 8d3b
00000070: 7626 b43b bb10 223c 6580 243c eec5 013c
00000080: caeb 9333 642f 8032 e545 1b34 a830 df31
00000090: c4d5 553c e3b4 a53c 12e8 ae3c caab a53c
000000a0: a48f 773b b169 a33b 7959 d83b b2db bb3b
000000b0: b6df 3a3c e5e3 733c 4016 943c a2b6 6b3c
000000c0: 5f21 b73b f32e 123c e147 f83b ee42 373c
000000d0: 92b6 19bb bbff 71bb 5d87 07bb d00a aebb
000000e0: cc66 c93b fa0c 2d3c 3e73 2a3c 0853 293c
000000f0: 4f3f af3a a85f fa3a 60a7 193b 7388 0c3b
00000100: a947 dc3b 500e 353c 8079 2b3c 8c9e 3d3c
00000110: 8c78 81bb fa65 d8bb b408 b0bb 74e9 d6bb
00000120: f80b 8eba b4fc 00bc 1e69 4dbc fbf3 b8bb
00000130: 19e9 833a 5ee4 c639 1276 42b9 58e2 c93a
00000140: c59a e1bb d65c 1fbc 9b48 31bc 627f 10bc
00000150: 0000 0000 0000 0000 0000 0000 0000 0000
00000160: 7918 f138 18f3 e4b8 9cf6 bf38 501b cab8
00000170: f0ba 1b39 2cc0 2239 08d1 903a 0c48 08ba
00000180: 5e80 643b bf34 0e3b b75e 983b 2177 213b
00000190: 7efa 393c 46ed 8f3c 1aed 9d3c 835f 813c
000001a0: 1c90 903a 3b99 843b 5643 6a3b de7e 203b
000001b0: 34e3 de3b 725d 223c 1139 383c ac1e 353c
000001c0: dac9 68bc 1095 a9bc 41c6 babc fafb 9fbc
000001d0: 681e 1b3b 31ca 1f3b e648 4d3b f04c 8cb8
000001e0: 9408 4a3b 5d08 5a3b d365 433b 05fa 563b
000001f0: 47f3 ab3b 8864 9f3b 8565 ac3b d90d 493b
00000200: 9bce 3f3b 60ec 113b e23c 6e3b 5438 273b
00000210: 2e6f fbba 6bc6 55bb aa64 9abb abf0 8bbb
00000220: f1a2 b4bb 4a17 01bc a0b3 dbbb 827b 26bc
00000230: 9463 92bb 2287 d6bb a3ae 01bc 2e02 b1bb
00000240: 7cfc adbb 087f 16bc 8faf 4abc 5ebd f0bb
00000250: 166d 0e3c 8e9b 2c3c 2c04 603c edfa 153c
00000260: ff96 30bb 6c35 0fbc 6403 61bc c624 ebbb
00000270: 19b3 143b 8c00 523b 3a9c 743b 3027 b239
00000280: 3438 fa39 f8ed e839 f4aa c339 d7e4 16ba
00000290: 91fd 4bbb db68 bbbb 4a5f f8bb 9874 60bb
000002a0: 8b75 373a a2f2 3039 fedb 16b9 d24c cb3a
000002b0: 9997 603c fe5c b03c be84 bc3c 8638 b83c
000002c0: 4815 87ba 5338 0abb 4f06 8abb 83e1 313a
000002d0: 0c15 193c 89fc 823c e77c 8f3c b4a8 693c
000002e0: e694 af3b a44b b43b 45ba c03b 4411 593b
000002f0: 92be 17ba 8402 b439 ce26 dd3a 6f9b 03bb
00000300: 3f76 b2bb 0c7d 01bc d867 efbb faf3 01bc
00000310: 443f d33b 9369 393c e052 543c 7276 073c
00000320: 0000 0000 0000 0000 0000 0000 0000 0000
00000330: e348 7ebc f269 acbc 9733 bcbc 9a5c aabc
00000340: 1c2b cb3b 9f70 c83b 425b d13b 2289 813b
00000350: e021 6237 fb80 143a ba5c 163b 3ccf fcb9
00000360: fe81 503a 3065 e5ba c28d 89bb b05f 90ba
00000370: cb2b 0e3c 7cf8 6c3c 9187 753c 2062 6a3c
00000380: 6a0c 26bc d4ae 62bc 46db 92bc 5f39 68bc
00000390: f637 ff3a 7ee2 893a 8c7c 893a f08d e73a
000003a0: c486 1b3b 6935 4b3b bd27 ff3a 095d b53b
000003b0: 2f99 8dbc 3cbf ccbc 44fe ebbc 52db c0bc
000003c0: 8ec2 833b 36b6 c23b 3cff fe3b 3c48 9e3b
000003d0: a4e1 0ebb 0079 b1bb ee65 a9bb 9fa4 aabb
000003e0: f49f 64bc 7431 a8bc b28a b8bc 9602 9fbc
000003f0: 0000 0000 0000 0000 0000 0000 0000 0000
0.0060862876 0.010943263 0.01247087 0.012695291 0.007410096 0.015291467 0.015355357 0.015575329
0.0013006054 0.00043709017 0.0020597917 -5.0408125e-06 -0.0007863939 -0.0030680203 -0.0011675311 -0.0035053825
0.00030926074 0.00026756653 0.0015342194 2.4842564e-05 -0.00060691306 -0.0001404401 -0.0010957322 0.0024744768
0.005286933 0.0058171432 0.0083698 0.004320043 0.005497749 0.009891684 0.010040377 0.007920725
6.888111e-08 1.4922712e-08 1.4460927e-07 6.4956858e-09 0.013051454 0.020227855 0.021350894 0.020223517
0.0037774825 0.0049869646 0.006602463 0.005732977 0.011405876 0.014885877 0.018077016 0.014386805
0.005588695 0.008922326 0.007576928 0.011185391 -0.0023454768 -0.003692611 -0.0020680048 -0.0053113475
0.0061462875 0.010562176 0.010403452 0.010334738 0.0013370308 0.0019101994 0.002344571 0.0021443635
0.0067224097 0.011050776 0.01046598 0.011573445 -0.003951138 -0.0066039534 -0.0053721312 -0.0065585915
-0.0010837307 -0.007872749 -0.012537269 -0.005644319 0.0010063975 0.0003793565 -0.00018545266 0.0015402539
-0.006884905 -0.009726724 -0.010820533 -0.008819433 0.0 0.0 0.0 0.0
0.00011496334 -0.00010917167 9.153524e-05 -9.637198e-05 0.00014851592 0.00015521114 0.0011048624 -0.0005198724
0.0034866552 0.002169892 0.0046499628 0.0024637657 0.011351226 0.017569195 0.019278098 0.015792614
0.0011029276 0.004046587 0.0035745702 0.0024489681 0.006801987 0.009909974 0.011244074 0.011054676
-0.014208281 -0.020700961 -0.022799613 -0.019529331 0.0023669247 0.002438199 0.0031323968 -6.690051e-05
0.0030827867 0.0033269145 0.002981533 0.0032802832 0.005247507 0.004864279 0.0052611255 0.003067842
0.0029267434 0.0022266135 0.0036352207 0.0025515752 -0.0019182914 -0.0032619487 -0.004711707 -0.004270633
-0.005512588 -0.007879088 -0.0067047626 -0.0101612825 -0.004467437 -0.006546871 -0.007915172 -0.005401871
-0.0053096395 -0.00918556 -0.012370958 -0.007346793 0.008693 0.010535134 0.01367287 0.009154064
-0.002694547 -0.008740764 -0.013733719 -0.0071760146 0.0022689758 0.0032043783 0.0037324564 0.00033980003
0.0004772559 0.0004442779 0.00037320668 -0.00057561457 -0.003112648 -0.005719287 -0.0075797187 -0.0034249183
0.0006998411 0.00016875056 -0.00014387068 0.0015510565 0.013708019 0.021528717 0.023012515 0.02248789
-0.0010306025 -0.00210907 -0.004212178 0.0006785618 0.009343397 0.015989559 0.017515613 0.014261413
0.0053583262 0.005502181 0.00588158 0.0033121863 -0.000578859 0.0003433415 0.0016872527 -0.002008166
-0.005446225 -0.007903349 -0.0073060803 -0.007931704 0.006446751 0.011316675 0.012959212 0.008267986
0.0 0.0 0.0 0.0 -0.015520307 -0.021046612 -0.022973819 -0.020796109
0.0062002074 0.006116941 0.0063890526 0.003953115 1.3478537e-05 0.00056649715 0.0022943453 -0.00048219587
0.00079539407 -0.001750147 -0.004197807 -0.0011014845 0.008677433 0.01446354 0.014985935 0.014305621
-0.010134796 -0.013835628 -0.017926823 -0.014173835 0.0019471634 0.001051977 0.0010489388 0.0017666202
0.002373145 0.0031007177 0.0019466799 0.0055347723 -0.017284958 -0.024993531 -0.028807767 -0.02354208
0.0040209955 0.0059421314 0.007781891 0.0048303884 -0.0021801973 -0.0054160357 -0.0051696217 -0.0052076126
-0.013954151 -0.020531394 -0.022527073 -0.019410413 0.0 0.0 0.0 0.0

exp_avg_sq f4 [128, 4]
00000000: 7189 163a 2bbc 393a 7dd0 383a 6545 1c3a
00000010: 5d4f d039 7c5f af39 54dd af39 5333 a139
00000020: 85bb 4a39 d922 3239 b102 2f39 b300 f038
00000030: 31d9 0d39 cc51 2539 dfd5 2139 f43d 1b39
00000040: d2e0 9137 4d11 a237 5a73 ab37 a0de 0b38
00000050: 84da 1238 1d52 7a37 78ca 8c37 4f01 9e38
00000060: c600 5239 7274 4e39 3633 5139 7cf4 3839
00000070: c476 cf38 b8c9 d838 1737 cc38 2202 e038
00000080: 0a5a 092b df46 c52a e0e3 e22b 340a ff29
00000090: 8291 0f3a eaa9 1b3a 1f10 1d3a 8c41 0e3a
000000a0: c613 0a39 a641 0a39 19dd 0939 ae91 0639
000000b0: 85df 023a c15a 143a 7e69 153a 6c2b d039
000000c0: 195a c739 4faa e139 2a19 db39 80d8 ce39
000000d0: cf11 1039 93d5 2f39 f0c9 2b39 fdf4 3839
000000e0: ff38 0439 6f2f 0839 ebc0 f838 c1cc fa38
000000f0: 66a9 0738 e8d4 bc37 d324 ae37 1b50 8b37
00000100: 20d9 6039 d09e 7839 a6f4 6839 bb88 4d39
00000110: fddb a538 6f75 a438 acf6 9b38 e684 9a38
00000120: 9ff4 1339 ba86 8a39 64ea a639 42ec 1f3a
00000130: fafe f836 c0d5 7936 132e b736 1033 0238
00000140: b88f 2039 d4d4 0439 93a3 0839 68e4 d938
00000150: 0000 0000 0000 0000 0000 0000 0000 0000
00000160: b062 8f35 4f8e 6d35 dbeb 1735 acb2 9035
00000170: 8dba b037 cd2e d837 5508 da37 3cca 0d38
00000180: 8472 9039 15bd bd39 27e9 b639 dcb6 6639
00000190: 0d42 8e39 c216 a339 bc3f a439 f399 b139
000001a0: c95b 1f39 581d f838 9764 e638 0533 e038
000001b0: 92cb 9c39 abe8 b639 e962 b639 b09a 9f39
000001c0: 1c1b e339 899b 083a b5f3 0c3a 1953 183a
000001d0: 1a52 083a d047 be39 e808 b439 43f3 2339
000001e0: 22c4 9938 daa4 6638 b7e5 5e38 c3eb 8c38
000001f0: 47c4 ad39 a15d 3c39 d2e6 3539 e17f b838
00000200: 41c9 4139 9a81 5239 8d8c 4d39 4ad9 1239
00000210: cf75 2639 6212 df38 3a5b ea38 da2a 2a39
00000220: c54e bb39 1a45 ca39 f18f c539 354c ae39
00000230: aae6 f738 43d4 dd38 b106 e338 7a6d b838
00000240: 6f77 0439 4229 5939 f310 6839 a145 8f39
00000250: 68ee b839 64ec aa39 1397 ad39 7cdc 8439
00000260: 578b 8139 1a19 e939 340e 033a 26f1 393a
00000270: c7a7 183a f58c ac39 8ba5 9b39 e271 0839
00000280: 3847 3238 39ab 4937 7874 6037 dcdc 3238
00000290: 229e 0039 7829 3639 f8c4 3839 8578 3e39
000002a0: d0b4 c237 cf00 3b37 4baa 3137 8efa 5b38
000002b0: e161 673a 2edf 883a a645 893a 1192 713a
000002c0: 3e53 5139 58d5 9639 08d3 9439 3a50 a039
000002d0: 8ef6 4039 3465 7539 e146 7439 ad7b 8739
000002e0: 6ff8 ed39 3979 2e39 d13d 2639 c980 7738
000002f0: e2e5 1f39 7f2a 3739 11c3 3739 c6fa 3839
00000300: 07a8 bf38 4d47 8c38 e6ae 8e38 a600 9f38
00000310: 75a3 1339 dee2 4b39 712d 4b39 6a5b 7839
00000320: 0000 0000 0000 0000 0000 0000 0000 0000
00000330: 2fe2 1b3a a020 333a e2b7 353a 26e8 313a
00000340: f8b7 e739 f4a4 5d39 075f 4f39 7bb8 be38
00000350: 6e23 2e38 689d 5d38 8fe2 6738 88b3 ac38
00000360: 0c0d 1938 7537 8538 0033 a238 15c5 6339
00000370: 9c8f 8d39 f77b 9839 1b98 9339 090e 8239
00000380: 409a d739 ac6c ef39 41e3 013a f5ed 2c3a
00000390: adf2 2239 7e88 e537 dc62 be37 591c b637
000003a0: 0db9 7d39 e2ab 9f39 e996 9b39 8516 8e39
000003b0: d71b 263a fc2f 5c3a b5de 643a 2ff2 7a3a
000003c0: 0384 2a38 c733 6338 3f48 7538 4389 9938
000003d0: 1a73 9538 897e 9d38 d179 9638 7115 6438
000003e0: c511 f639 22b1 123a 10ad 173a 2acf 113a
000003f0: 0000 0000 0000 0000 0000 0000 0000 0000
0.0005742526 0.0007085229 0.000705011 0.00059612683 0.00039731982 0.00033449742 0.00033543503 0.00030746553
0.00019334078 0.00016988385 0.00016690303 0.00011444222 0.00013527718 0.00015766098 0.0001543383 0.00014805031
1.7390037e-05 1.9319961e-05 2.0438503e-05 3.334752e-05 3.501262e-05 1.492028e-05 1.6783582e-05 7.534271e-05
0.00020027449 0.0001968907 0.00019950871 0.00017638685 9.892651e-05 0.00010337256 9.737739e-05 0.000106815496
4.879713e-13 3.5043406e-13 1.6121514e-12 1.1326045e-13 0.00054766994 0.00059381 0.0005991477 0.00054266374
0.00013168072 0.00013185162 0.00013147703 0.00012833506 0.00049924135 0.00056592753 0.00056996185 0.00039705203
0.00038023366 0.00043042234 0.00041789684 0.00039452687 0.00013739544 0.00016768863 0.00016383058 0.00017638873
0.00012609734 0.00012987641 0.00011861495 0.00011959067 3.2344273e-05 2.2510489e-05 2.0759564e-05 1.6607393e-05
0.0002144319 0.00023710285 0.00022216383 0.0001960126 7.908789e-05 7.842003e-05 7.436922e-05 7.3680465e-05
0.00014110141 0.0002642179 0.00031836622 0.0006100574 7.420659e-06 3.722831e-06 5.4591887e-06 3.104197e-05
0.00015312328 0.00012667786 0.00013030907 0.0001038991 0.0 0.0 0.0 0.0
1.0683052e-06 8.8496466e-07 5.65951e-07 1.0780836e-06 2.1067704e-05 2.5771e-05 2.5991505e-05 3.3805365e-05
0.0002755114 0.00036189766 0.00034887457 0.0002200263 0.00027133562 0.0003110674 0.00031328003 0.00033874772
0.00015197614 0.00011831027 0.00010985991 0.000106906555 0.0002990631 0.00034887096 0.0003478744 0.00030442094
0.00043317012 0.0005211165 0.00053768913 0.00058107224 0.00052002224 0.00036293129 0.0003433891 0.00015635513
7.332141e-05 5.4989803e-05 5.3142863e-05 6.719634e-05 0.0003314337 0.00017963957 0.00017347492 8.797623e-05
0.00018480887 0.00020075441 0.00019602683 0.00014004592 0.00015874881 0.00010636893 0.00011174982 0.00016228427
0.00035726107 0.00038579927 0.00037682013 0.00033244645 0.00011820842 0.00010577638 0.0001082545 8.794195e-05
0.00012632993 0.00020710102 0.00022131558 0.00027326963 0.0003527284 0.00032601051 0.0003310969 0.00025341276
0.00024708614 0.00044459925 0.000499937 0.0007093124 0.00058233406 0.00032911418 0.00029687243 0.00013012395
4.2504835e-05 1.20203995e-05 1.3378558e-05 4.26442e-05 0.0001226594 0.00017372321 0.00017620984 0.00018164709
2.32108e-05 1.1146257e-05 1.0589672e-05 5.2447016e-05 0.0008826536 0.0010442489 0.0010473027 0.0009215186
0.00019962803 0.00028769183 0.0002838599 0.00030577352 0.00018402396 0.00023402722 0.00023296058 0.00025841352
0.0004538926 0.00016639092 0.00015854022 5.900933e-05 0.0001524906 0.00017468071 0.00017524908 0.00017641028
9.138887e-05 6.689001e-05 6.803665e-05 7.5818316e-05 0.00014079905 0.00019444103 0.00019376517 0.00023685177
0.0 0.0 0.0 0.0 0.0005946485 0.00068331696 0.0006932003 0.0006786607
0.0004419682 0.00021137652 0.00019776459 9.094268e-05 4.151783e-05 5.2837102e-05 5.528569e-05 8.2350394e-05
3.6490193e-05 6.352264e-05 7.7342615e-05 0.00021721826 0.00027000613 0.0002908406 0.00028151352 0.0002480599
0.0004112292 0.000456666 0.0004954823 0.00065967377 0.00015539928 2.7362486e-05 2.26958e-05 2.1709291e-05
0.00024196897 0.00030454906 0.0002967634 0.0002710113 0.0006336546 0.0008399484 0.00087306957 0.00095728313
4.0654104e-05 5.416924e-05 5.8479836e-05 7.3211755e-05 7.126313e-05 7.5099124e-05 7.1752474e-05 5.4379405e-05
0.00046934016 0.0005595853 0.0005785981 0.0005562181 0.0 0.0 0.0 0.0

exp_avg f4 [128]
00000000: 2e6d e93b 7d83 303c 6f94 1c3b 9cc6 b439
00000010: 180c c439 26c8 a5b8 0edc bd3b 6a6e 9a3b
00000020: 2412 65b4 7627 4a3c af5c 863b 1662 353c
00000030: d8c9 763b 175f b1ba 8634 a73b 4cd8 5b3a
00000040: b3d4 b03b ea6f 4fbb cf52 abbb 103c 713a
00000050: e469 e8bb 0000 0000 f370 30b7 a062 1a39
00000060: 3a11 1c3b 7fdb 303c 1c34 4339 4c67 d13b
00000070: 722d 5ebc eee0 413b c063 a53a 040a 933b
00000080: 93b9 2f3b f08a 86bb 1390 8dbb 2e85 a8bb
00000090: 4c35 cbbb 54b3 0a3c a030 bfbb 9e43 503b
000000a0: d3a4 75ba eb48 81bb cafa 0e3b 796e 623c
000000b0: 9226 3abb 351a 163c 6a4a 9b3b 3436 f639
000000c0: b664 a2bb ee2a ce3b 0000 0000 5a13 68bc
000000d0: ba56 af3b 2c12 ce39 4687 01bb 2ccb f93b
000000e0: 6b87 3abc 925c 973a a4db 0c3a 3069 81bc
000000f0: 3e2a 943b be3f 4abb ceea 4fbc 0000 0000
00000100: dcc0 123b e290 dc3b f60f 07bc e34c 9abb
00000110: aa5d 00bb 0a28 f2bb 0000 0000 a759 ba3a
00000120: aeed 1e3c 8bdd 08bb 96d9 83bb 1267 78ba
00000130: 0305 65bb eefc c6ba 208f 9438 b324 08bc
00000140: b00f 96bb 54fc 373a c6d1 88bb 2b0c 5a3c
00000150: 56a1 77bb 6e13 68bb 9c6f 2ebb 59d6 afbb
00000160: 0890 fb3b dc8c b9ba 296f 2c3b 57a5 4e3c
00000170: 1e0e 7f3b 625a 1b3c 225f 92ba 129e 25bb
00000180: b35e dd3a 24e1 fcbb 3933 3b3a 44af 5a3c
00000190: c419 7cbb 5ac4 3b3c 7a01 1b3c 98a6 0fbb
000001a0: f287 34bc 92d4 bc39 f8b8 1d3c 9889 5039
000001b0: e786 afba 649d 013c 6f5e 2bb9 3e40 fa3a
000001c0: 0000 0000 62bd 77ba e51b 9e3a 9aab 793b
000001d0: 2853 17bc 6da0 8dba de69 9b3b bae1 e53a
000001e0: 4286 7f3a 9bb9 8dbb e461 f1bb 7688 633c
000001f0: 8fe9 d3ba c6a3 643a d49e b73b 4fde 8f3b
0.007123611 0.010773537 0.0023892184 0.0003448025 0.00037393044 -7.905094e-05 0.005794055 0.0047128694
-2.1333886e-07 0.01233851 0.004100404 0.011070749 0.003765693 -0.0013532367 0.005102697 0.0008386418
0.0053964495 -0.00316524 -0.0052283774 0.00092023704 -0.0070927013 0.0 -1.05167155e-05 0.00014723325
0.0023813979 0.010794519 0.00018616061 0.006390488 -0.01356064 0.0029583531 0.0012618229 0.004487278
0.0026813492 -0.004105918 -0.0043201535 -0.0051428294 -0.006201422 0.008465607 -0.005834654 0.0031778584
-0.0009370569 -0.00394546 0.0021816962 0.013820284 -0.0028404337 0.009161522 0.0047390955 0.0004696116
-0.0049558533 0.0062917387 0.0 -0.01416477 0.005350915 0.0003930492 -0.0019764467 0.007623097
-0.011384825 0.0011547974 0.0005373305 -0.015797228 0.004521637 -0.0030860747 -0.012690259 0.0
0.0022392785 0.0067311386 -0.0082435515 -0.0047088726 -0.0019587078 -0.007390027 0.0 0.0014217392
0.009700222 -0.0020884003 -0.004023741 -0.0009475808 -0.0034945614 -0.001518158 7.083849e-05 -0.008309531
-0.004579507 0.0007018496 -0.0041753976 0.013308565 -0.0037785373 -0.0035411972 -0.0026616817 -0.0053661284
0.007677082 -0.0014156359 0.0026311374 0.012612662 0.0038918327 0.009481998 -0.0011167268 -0.002527122
0.0016889184 -0.0077172685 0.00071411167 0.013347451 -0.0038467506 0.011460388 0.009460801 -0.0021919366
-0.01101874 0.00036016532 0.0096266195 0.00019887683 -0.0013391644 0.00791106 -0.0001634301 0.0019092632
0.0 -0.00094505225 0.0012062757 0.0038096667 -0.009236135 -0.0010805257 0.004742845 0.0017538585
0.0009747484 -0.0043251044 -0.007366406 0.013887515 -0.0016167628 0.0008721914 0.0056036506 0.004390515

exp_avg_sq f4 [128]
00000000: b6e1 d939 ff85 c739 36ca bf38 8577 b438
00000010: 1509 c437 fcae 2a39 b3b0 0539 c709 a738
00000020: 87ae 722c eb55 c239 360d bf38 f02c 9d39
00000030: 4e40 9739 19e2 dc38 5c45 b038 1a80 9937
00000040: 3e4e 0a39 3529 5838 5f4c 9139 bd87 fc37
00000050: aa9a b638 0000 0000 424f e736 7465 e637
00000060: 7053 1e39 b53c 4439 1ddb d538 7064 4d39
00000070: b99d 9939 109b 7139 b5e2 5438 aa2b 2939
00000080: 3ee5 da38 46a1 0939 0f3b 8239 6343 9d38
00000090: b03f 0b39 6428 4939 1dc3 a939 f392 9a39
000000a0: ed6c 7738 eefb e738 53f6 3839 75d4 283a
000000b0: b4d3 3a39 93f2 1539 b668 8339 0892 fe38
000000c0: 1470 8638 c382 0b39 0000 0000 e64e c439
000000d0: e51f 6d39 8637 5538 27ef ef38 021f 2f39
000000e0: e0b8 bf39 e653 e438 18ef 3a39 ae76 ea39
000000f0: a20f 3238 8a10 2938 2fae 9a39 0000 0000
00000100: b40a 1038 1fe3 dd38 8d17 2339 c452 bf38
00000110: 2170 4f38 23ed 2339 0000 0000 c01d 2d38
00000120: 3816 6639 148e 0539 3f22 c738 610d 7538
00000130: 5755 dd38 8def 8a39 1de7 9138 0a8b 4339
00000140: d9cb 8638 c66c e738 b77f 4838 05bd 423a
00000150: 86b7 ac38 f25f 2838 b657 b338 0766 8038
00000160: 9bc6 f738 a21a 4a38 33f4 fd38 4d23 e739
00000170: e948 8438 bfcc a139 2ec0 4c39 182c 1f39
00000180: 5b10 5639 1592 c939 cfb6 a438 04d5 083a
00000190: 8499 ec37 1765 6239 54d5 2039 d07f 6d39
000001a0: d61e 5e39 f395 a737 04e7 2e39 c28e c438
000001b0: 4488 6e39 bf8a bf39 5069 0a38 5209 fb37
000001c0: 0000 0000 e345 9838 4685 d438 255d 9938
000001d0: 33a1 8839 d41c 8e38 3059 9439 f54f af38
000001e0: 3a5f bf37 88cd 8239 b48f 0d39 4a15 a539
000001f0: 3731 ec38 81e8 1739 cd83 b138 d714 ab38
0.00041557633 0.00038056073 9.1452544e-05 8.605331e-05 2.336925e-05 0.0001627765 0.00012749694 7.965002e-05
3.448715e-12 0.00037066577 9.1100505e-05 0.00029978855 0.00028848875 0.000105325315 8.405253e-05 1.8298673e-05
0.00013189853 5.153679e-05 0.00027713456 3.0103949e-05 8.707245e-05 0.0 6.8935633e-06 2.746538e-05
0.00015099137 0.00018714632 0.000101974445 0.0001958774 0.00029299947 0.00023041316 5.0755876e-05 0.00016133362
0.0001043775 0.00013125417 0.00024839534 7.498895e-05 0.00013279798 0.000191839 0.00032379563 0.00029482655
5.8990834e-05 0.00011061864 0.0001763937 0.000644035 0.00017817208 0.00014300113 0.00025064283 0.00012138864
6.410494e-05 0.00013304786 0.0 0.00037442817 0.00022613963 5.0834868e-05 0.00011440954 0.00016700852
0.00036568101 0.000108875145 0.00017827412 0.0004472038 4.2453066e-05 4.0308143e-05 0.00029502946 0.0
3.4342243e-05 0.00010580406 0.00015553665 9.123006e-05 4.9457074e-05 0.00015633232 0.0 4.127412e-05
0.00021942786 0.00012736797 9.495438e-05 5.8425012e-05 0.00010553997 0.0002649989 6.957187e-05 0.00018648445
6.4275875e-05 0.00011035199 4.780266e-05 0.0007428679 8.235783e-05 4.0143677e-05 8.5517226e-05 6.12252e-05
0.00011814871 4.8185357e-05 0.00012109466 0.00044086055 6.307831e-05 0.0003086086 0.00019526549 0.00015179848
0.00020414723 0.00038446547 7.85418e-05 0.000521973 2.8204879e-05 0.00021590698 0.0001533826 0.00022649695
0.00021183057 1.9977777e-05 0.00016679993 9.372599e-05 0.00022748212 0.00036533733 3.2999844e-05 2.9925872e-05
0.0 7.260942e-05 0.00010133772 7.312958e-05 0.00026060044 6.776457e-05 0.0002829521 8.3595434e-05
2.2813318e-05 0.00024948665 0.00013500341 0.00031487114 0.00011262524 0.00014487097 8.4645675e-05 8.157797e-05

exp_avg f4 [64, 128]
00000000: e6bb d13a f9f5 163a 79a9 b53a c253 373b
00000010: 680b 883b 0754 c2b6 ea65 fa3a 0290 a339
00000020: 33c3 d431 f4aa da3a 4247 6a3b 638f d43a
00000030: eee9 bd3a 0572 d93a 90e1 c1b7 dc45 5e3b
00000040: b2af ee39 32d5 393b 80fa 8c36 a276 63b9
00000050: 1d35 1c3b 0000 0000 4578 bfb7 a2a8 443b
00000060: a22b 6d3a ede5 0e3a 3c77 af39 bfe7 223b
00000070: 9851 983a a73f ba39 be90 03b9 acda 0b3a
00000080: e0af a33a 2a1a a4b9 b99f 5e3a 32fd 853a
00000090: 5af6 773a 36dc 8c3a 0c2f 023a dcd7 0939
000000a0: 35ff 85b9 30ac 9f3a eeea 9fb8 1a94 b23a
000000b0: 5b8a 273a a139 d739 c1c8 8e39 381a 723a
000000c0: ca09 6a3b 3571 9739 0000 0000 e463 653a
000000d0: 4881 8a39 7025 633b bce8 bbb9 b04a 4e3a
000000e0: 984c 3ab8 25ac 4739 9f85 8f3a 8ede 4b3a
000000f0: 50aa 503b 0004 843a 5050 b23a 0000 0000
00000100: f71a 9b3b 11d3 253b d7f3 3f3a 2156 113b
00000110: 22b7 643b 04e6 2b3b 0000 0000 441c 953b
00000120: e335 f139 a22b cfb7 2f0f 123b 63e2 503b
00000130: 6895 393a 548c 7ab9 401b 153b 82fc 043a
00000140: 2965 453b cd17 8e39 4ecb 5c3b c02f 813a
00000150: e013 d33a cb81 8f3b 256f 90b9 7001 093b
00000160: f2ec 1a3a 2d46 843b b3c5 d73a b50f 3f3a
00000170: dc06 063b 2639 f63a dc2d f737 c4f1 5b39
00000180: d300 b339 b611 163a ecdc ea38 c32b ba3a
00000190: 2694 953b 683c f039 0325 f23a be9a 833a
000001a0: 78c8 973a 1398 8f3b 2013 023a 9309 ae39
000001b0: 1f74 833a c812 ac3a f04d 24b7 f9f5 103b
000001c0: 0000 0000 c83d 1d37 9a32 353b 5fa2 6539
000001d0: 02f9 bb3a a6cf 973a 3436 173a 68e3 3c39
000001e0: 01ad 823b 9cab fdb8 3cd5 e23a 260f bb3a
000001f0: 6a36 0039 3ef2 9c3a 3678 aa3a 1b7d 023b
00000200: 16b3 853a a922 ec39 f01a 21b9 a044 da38
00000210: 047a 0e3a 1efa 8237 f090 05b8 7413 ceb9
00000220: 2b95 ddb1 2145 113a 5e34 9e3a 8589 8e3a
00000230: a027 753a 0036 d6b5 dd87 fa38 1259 393a
00000240: c2c9 063a 9025 ad39 4071 ff38 554f b538
00000250: 4824 ff39 0000 0000 44fe 4037 5475 7639
00000260: c0de 1e3a 0014 bab7 02f6 d7b9 8613 983a
00000270: 1212 cdb9 1cdf aab9 ba80 8bb9 24d4 59b9
00000280: 666e 143a 00ed 80b9 cc6d 10ba cec1 a939
00000290: a0e3 0e3a d4a2 8239 c4de 8339 dcaf c5b9
000002a0: db12 5bb9 6e8e 4b3a ee82 9d37 98bc 953a
000002b0: 6b55 223a b4b1 1938 0014 70b8 800e 08ba
000002c0: 82ed c839 4e1b 10b9 0000 0000 8536 e4b9
000002d0: 8427 cd37 2056 1db8 586c 2739 300e d339
000002e0: 97f6 2db9 e6ed f3b8 1cce 4b3a c2bb acb9
000002f0: 3230 8e39 cfbb 9b39 22dc ecb9 0000 0000
00000300: 6749 893a 38e9 3439 0a84 2a39 e18c 3c3a
00000310: 9e1a 8c3a 502e 6fb9 0000 0000 400b 2d3a
00000320: be00 c239 a883 d438 8f6d 793a 6fc4 a23a
00000330: 6105 b4b9 70f3 58ba 4896 e538 4c22 3b39
00000340: 50e5 953a bb0a 17b9 2845 6639 6b10 173a
00000350: aa26 433a 7892 093a f411 7ab7 b615 bf39
00000360: eaf9 f6b8 2034 9339 de93 863a ab68 043a
00000370: bc4f 14b9 19d5 7c3a 27e6 dcb7 15a6 8039
00000380: 6f7d 5037 6ca2 1bba a935 deb8 8ed0 403a
00000390: f271 453a d759 6a39 0096 01b6 2c6f 0039
000003a0: 1c02 0b39 3c65 5b3a 5294 c438 b0c7 2e39
000003b0: 30b2 473a f659 563a 6056 0cb7 0ca9 5839
000003c0: 0000 0000 9440 d1b6 c5ed b23a d79d b4b9
000003d0: 07e2 47ba 2d79 64b9 70b5 e037 088b 33b8
000003e0: 2e93 473a 02e6 e1b9 c688 003a 1490 063a
000003f0: ca9e 73b9 a555 8fb9 f059 dfb8 93e9 5d3a
0.0016001433 0.00057586987 0.0013859711 0.0027973508 0.0041517504 -5.7914326e-06 0.0019103859 0.00031197077
6.1922036e-09 0.0016683028 0.003574804 0.0016217049 0.0014489272 0.0016589767 -2.3112429e-05 0.003391615
0.000455258 0.0028355834 4.201487e-06 -0.00021692601 0.002383537 0.0 -2.282498e-05 0.003000774
0.00090473343 0.0005451132 0.00033467438 0.002485737 0.0011620997 0.0003552411 -0.00012547054 0.0005335014
0.0012488328 -0.0003130001 0.00084924285 0.0010222553 0.00094590115 0.001074678 0.0004966117 0.00013145752
-0.0002555788 0.0012182053 -7.62547e-05 0.001362446 0.0006391161 0.00041050932 0.00027233924 0.0009235474
0.00357114 0.0002888531 0.0 0.00087505416 0.00026417733 0.0034659766 -0.0003584082 0.00078694057
-4.441719e-05 0.00019042248 0.0010949856 0.00077769987 0.0031839795 0.0010071993 0.0013604257 0.0
0.004733439 0.0025302807 0.0007322407 0.002217658 0.0034899195 0.002622963 0.0 0.0045504887
0.0004600725 -2.4696641e-05 0.0022286882 0.0031873218 0.0007079453 -0.00023894134 0.0022751838 0.0005073027
0.003012011 0.00027102084 0.0033690515 0.000985615 0.0016103946 0.004379486 -0.0002754863 0.0020905398
0.00059099414 0.004036686 0.0016462117 0.00072884123 0.0020450866 0.0018785342 2.946605e-05 0.00020975532
0.00034142155 0.0005724685 0.000111991394 0.0014203716 0.00456478 0.00045821373 0.0018474165 0.0010040624
0.001158013 0.0043821423 0.00049619563 0.00033195 0.0010029114 0.0013128156 -9.793308e-06 0.0022119267
0.0 9.372314e-06 0.002764857 0.0002189963 0.0014341178 0.001158227 0.000576827 0.00018013793
0.003987909 -0.00012095945 0.001730598 0.0014271482 0.00012227302 0.0011974049 0.0013005796 0.0019910994
0.0010200466 0.00045039252 -0.00015364191 0.000104078325 0.0005435052 1.5613678e-05 -3.1844655e-05 -0.00039305876
-6.448905e-09 0.0005541612 0.001207005 0.0010874724 0.0009351913 -1.5959959e-06 0.000119462355 0.00070704625
0.00051417586 0.00033025118 0.00012180442 8.645529e-05 0.00048664422 0.0 1.1503293e-05 0.00023504096
0.0006060414 -2.2182241e-05 -0.00041191286 0.0011602498 -0.0003911411 -0.00032591156 -0.00026608055 -0.00020773761
0.00056622026 -0.0002459064 -0.0005509525 0.00032378588 0.0005450789 0.0002491685 0.0002515224 -0.00037705794
-0.00020892492 0.0007765059 1.8776827e-05 0.0011424003 0.0006192538 3.664354e-05 -5.7239085e-05 -0.0005190149
0.0003832393 -0.00013743082 0.0 -0.0004352817 2.4456305e-05 -3.7511927e-05 0.00015966722 0.00040255627
-0.00016590428 -0.00011631455 0.0007774548 -0.00032946287 0.0002712026 0.00029703832 -0.0004517744 0.0
0.0010474146 0.00017253018 0.00016261652 0.00071926235 0.0010689085 -0.00022810069 0.0 0.00066011027
0.00037003116 0.00010133471 0.00095149217 0.0012418161 -0.00034336283 -0.0008276021 0.00010947563 0.00017846486
0.0011436138 -0.0001440448 0.00021960272 0.00057626393 0.0007444421 0.0005247961 -1.4905341e-05 0.00036446535
-0.00011776744 0.0002807686 0.0010267457 0.0005050997 -0.00014144083 0.0009644791 -2.6333217e-05 0.00024537803
1.2426971e-05 -0.00059369835 -0.0001059578 0.0007355296 0.0007531933 0.00022349447 -1.930981e-06 0.00012248446
0.00013256859 0.0008369272 9.373635e-05 0.00016668322 0.00076177996 0.00081768574 -8.364761e-06 0.0002066234
0.0 -6.2362033e-06 0.0013651183 -0.00034449875 -0.0007624928 -0.00021788916 2.678737e-05 -4.280641e-05
0.0007613179 -0.00043086713 0.00049031933 0.00051331636 -0.0002323344 -0.00027338896 -0.00010650221 0.0008465286
