models/model_20250730_172513_lr0.0001.pth (torch, 136274 bytes, 18 tensors)

fc1.weight f4 [128, 4]
0	0xbf065f3a	-0.52489054
1	0xbe49fce6	-0.1972538
2	0x3e65cfee	0.224426
3	0x3f2e60e3	0.6811659
4	0x3cf739c0	0.030178905
5	0x3f2f6042	0.6850625
6	0x3e23b407	0.15986644
7	0x3dfef096	0.12448232
8	0x3d4db1e0	0.050218463
9	0x3f08625b	0.5327508
10	0x3e9379e4	0.28803933
11	0xbf1ad2c5	-0.6047786
12	0x3f01b62a	0.50668585
13	0xbd91a141	-0.07110835
14	0x3dcf8511	0.10132802
15	0xbd238323	-0.039919984
16	0x3efbf284	0.49208462
17	0x3ed8fafb	0.42378983
18	0xbea56796	-0.32305592
19	0x3ee4af2c	0.44664896
20	0x3ea99611	0.33122304
21	0x3f135db1	0.57564837
22	0x3e6ce9a4	0.23136002
23	0x3eadc6db	0.33940777
24	0x3ef8f94c	0.48627698
25	0xbc70a594	-0.014687914
26	0xbf10db35	-0.56584483
27	0x3eec0e4c	0.46104658
28	0xbd471991	-0.048608366
29	0x3e990b20	0.298913
30	0x3f07d76d	0.5306309
31	0xbf0e4208	-0.55569506
32	0x3f1003db	0.5625588
33	0xbe32bb94	-0.17454368
34	0xbe3455ee	-0.17610905
35	0xbe69bfee	-0.22827122
36	0xbd93c060	-0.07214427
37	0x3ee93d40	0.45554543
38	0xbeb68fac	-0.35656488
39	0xbee8ef24	-0.4549495
40	0xbea668bc	-0.3250178
41	0xbeb98c40	-0.36239815
42	0x3ed2265e	0.41044897
43	0xbe979c2c	-0.29611337
44	0xbeb6c57b	-0.3569754
45	0x3e335a5a	0.17514935
46	0x3f23aac6	0.63932455
47	0x3ecf2926	0.4046108
48	0x3f34993f	0.70546335
49	0x3e6edde2	0.23326829
50	0x3db80ae4	0.08986452
51	0x3e18d9ff	0.14926909
52	0xbd8a3112	-0.06747641
53	0x3eac93f2	0.33706623
54	0x3e3d6730	0.18496394
55	0x3dc66aec	0.096883625
56	0x3f013199	0.50466305
57	0xbeacecac	-0.33774316
58	0xbe04c86b	-0.12967078
59	0x3e8ef76b	0.2792314
60	0xbdebee8b	-0.11520108
61	0xbc2d195d	-0.010565129
62	0xbe792167	-0.24329148
63	0x3f21623c	0.6304052
64	0xbc66c2d2	-0.014084535
65	0xbeb22137	-0.34790966
66	0x3d08e3dc	0.03342043
67	0x3f39a9f6	0.72524965
68	0xbe5c5eac	-0.2152049
69	0x3da2ca00	0.07948685
70	0xbea7f680	-0.32805252
71	0x3e7a0db8	0.24419296
72	0xbd874a94	-0.066060215
73	0x3db2bc8b	0.08727368
74	0x3f2b480f	0.6690683
75	0x3e8f2ea9	0.27965286
76	0xbe3d3d7c	-0.18480486
77	0x3ef8ba2d	0.4857954
78	0x3deffe14	0.117183834
79	0x3db1455f	0.086558096
80	0x3f319e3d	0.6938208
81	0x3ed69ffe	0.4191894
82	0x3da6ef72	0.08151139
83	0xbf1ccac7	-0.61246914
84	0xbedeb7a4	-0.43499482
85	0xbdbe15d3	-0.092815064
86	0x3ed7dc5f	0.42160317
87	0xbeb578ea	-0.35443813
88	0xbd2f7630	-0.04283732
89	0xbd85c148	-0.06531006
90	0x3d921d30	0.07134473
91	0xbed0a0fa	-0.40747815
92	0x3ee62308	0.44948602
93	0x3d55c247	0.05218723
94	0xbd6b6cb4	-0.057476714
95	0xbec8c042	-0.3920918
96	0xbecd61b2	-0.40113598
97	0x3f166278	0.58744
98	0x3d53e6fa	0.05173395
99	0xbeb4a043	-0.3527852
100	0xbef497e3	-0.4777213
101	0x3ec5ac76	0.3860814
102	0xbead137a	-0.33803922
103	0x3eeebaca	0.46626884
104	0xbf4cc5bc	-0.7998922
105	0xbe3f6c8d	-0.18693753
106	0xbe107f2a	-0.14111009
107	0x3ef93458	0.48672748
108	0x3f03acdc	0.5143564
109	0x3d1297fb	0.03578947
110	0x3f2380d6	0.63868463
111	0x3e9a0b3b	0.30086693
112	0xbe13d341	-0.14436056
113	0x3e3cde18	0.18444097
114	0x3f1b5462	0.6067563
115	0x3ef2a66f	0.47392604
116	0xbe937f76	-0.28808182
117	0xbecdaa71	-0.401691
118	0xbe1237cc	-0.14279097
119	0x3ed8e0cd	0.4235901
120	0x3e8e528c	0.27797353
121	0x3ea1ee18	0.31626964
122	0x3ecb1fdb	0.3967274
123	0x3dd87ff7	0.10571282
124	0xbe1ab1ea	-0.15106931
125	0x3f15100b	0.58227605
126	0x3ec1fd9a	0.37888795
127	0xbea31d44	-0.31858265
128	0xbec77574	-0.38956797
129	0xbee81466	-0.45328063
130	0xbcdf0fe0	-0.02722925
131	0x3e3b9c64	0.18321377
132	0x3f2ddcdc	0.6791513
133	0xbe322fa4	-0.17400986
134	0x3e1f236f	0.1554086
135	0x3dad727c	0.08469102
136	0xbf10510a	-0.56373656
137	0x3ea2b49d	0.31778422
138	0x3d94aa35	0.07259027
139	0x3f2f001d	0.6835955
140	0x3ebe8ed3	0.3721834
141	0xbc09b1b0	-0.00840418
142	0x3e1b628d	0.15174313
143	0x3f078734	0.5294068
144	0x3f102131	0.56300646
145	0x3ea4fe2c	0.32225168
146	0xbe4c4b68	-0.1995064
147	0xbead9411	-0.33902028
148	0x3f33f289	0.70291954
149	0x3e1c7aef	0.1528127
150	0xbea298c1	-0.31757167
151	0x3e5de946	0.21671018
152	0xbe0638a1	-0.1310754
153	0x3c837dfe	0.016051289
154	0xbeb45b05	-0.35225692
155	0x3e55fd10	0.20897317
156	0x3dc76307	0.09735685
157	0x3e9152d0	0.28383493
158	0xbf0ca7a2	-0.5494329
159	0x3f0aca25	0.542147
160	0x3cef9fda	0.029251028
161	0x3f0632be	0.52421176
162	0x3ddea49e	0.10871242
163	0xbebc578c	-0.36785543
164	0x3ca11ac0	0.019666076
165	0x3ece3c90	0.4028058
166	0xbecb4bc2	-0.39706236
167	0xbd69f7d0	-0.057121098
168	0x3f0e1a39	0.5550876
169	0x3edfe2d8	0.43727756
170	0x3e5fc80c	0.21853656
171	0x3f297883	0.6619951
172	0x3f08ed61	0.5348721
173	0xbe3ca3d3	-0.18421869
174	0x3f05d1f1	0.5227347
175	0xbecb1511	-0.3966451
176	0xbee50002	-0.44726568
177	0x3e4d3a8d	0.20041867
178	0x3f01e4cc	0.5073974
179	0x3e87fbcf	0.26559302
180	0x3e5a934c	0.21345252
181	0x3f01cd9b	0.50704354
182	0x3f286190	0.6577387
183	0xbeeed246	-0.466448
184	0x3f04f3fb	0.51934785
185	0xbe8368c9	-0.25665882
186	0xbedfee15	-0.4373633
187	0x3f0c89d7	0.54897827
188	0xbed290c2	-0.41126066
189	0x3d8dc808	0.069229186
190	0xbe2df3e0	-0.16987562
191	0xbc41eb00	-0.0118358135
192	0x3e438747	0.19094573
193	0xbe42d6de	-0.19027278
194	0xbf4475cd	-0.7674225
195	0xbede865c	-0.43461883
196	0x3dbd1a70	0.09233558
197	0xbeb3c47e	-0.3511085
198	0xbd15a1c0	-0.03653121
199	0xbe414110	-0.18872476
200	0xbe91612e	-0.28394455
201	0xbdd03e80	-0.10168171
202	0xbe204d2c	-0.15654439
203	0x3e4dcde8	0.20098078
204	0xbefd1172	-0.49427372
205	0x3f1aeece	0.6052064
206	0xbe20698d	-0.15665264
207	0x3f144447	0.5791668
208	0x3e45904d	0.19293328
209	0xbe1002f6	-0.1406363
210	0xbf2ff178	-0.6872783
211	0xbf104bdb	-0.56365746
212	0x3f137d10	0.57612705
213	0xbe1dc8a6	-0.15408573
214	0x3e1b7452	0.15181091
215	0x3efdd1ac	0.4957403
216	0x3cbba8a0	0.022907555
217	0xbe354de0	-0.17705488
218	0xbec93dde	-0.39305013
219	0xbe585024	-0.21124321
220	0xbeebe68b	-0.46074328
221	0x3f0e05aa	0.5547739
222	0x3e29efad	0.16595335
223	0x3cd97cce	0.02654877
224	0xbe991d92	-0.29905373
225	0x3d416cc0	0.047222853
226	0xbb255b00	-0.0025231242
227	0x3de53790	0.11192238
228	0xbd01905b	-0.03163181
229	0x3ea63f1e	0.3247003
230	0xbd8341dc	-0.06409046
231	0x3f220610	0.632905
232	0x3f00de29	0.5033899
233	0xbe353494	-0.17695838
234	0x3d948567	0.07252007
235	0xbee364a3	-0.44412717
236	0xbebeaa00	-0.37239075
237	0x3d020790	0.031745493
238	0xbeb649ea	-0.35603267
239	0xbe128100	-0.14307022
240	0xbec3b5bc	-0.3822459
241	0xbe384179	-0.17993726
242	0x3f1badc0	0.60811996
243	0xbec22361	-0.37917617
244	0xbec6c13e	-0.38819307
245	0x3efa1dc1	0.48850825
246	0x3f05b746	0.5223278
247	0x3ef13e5a	0.47117883
248	0x3ed87146	0.4227392
249	0x3e86fd99	0.26365355
250	0x3e38a849	0.18032946
251	0xbe8de38a	-0.2771266
252	0x3f0a2513	0.5396282
253	0x3ec02cb3	0.37534103
254	0xbe65217e	-0.22376058
255	0xbf11f897	-0.57019943

fc1.bias f4 [128]
0	0x3e1bcb86	0.15214357
1	0xbdcb0c59	-0.099144645
2	0x3f25962a	0.6468226
3	0x3b499045	0.0030756157
4	0x3f0cd419	0.55011135
5	0xbe8e90f4	-0.27844965
6	0x3efdb445	0.49551597
7	0x3f01dec9	0.5073057
8	0x3f222895	0.63343173
9	0xbeb98b52	-0.36239105
10	0xbdac6440	-0.08417559
11	0xbec51100	-0.38489532
12	0xbebe0019	-0.3710945
13	0x3f08ec82	0.5348588
14	0x3e113ec4	0.141841
15	0x3dd81ef4	0.10552779
16	0x3eb21188	0.34779
17	0xbefa2918	-0.48859477
18	0xbeabb45b	-0.33536038
19	0x3f29864d	0.6622055
20	0x3f1f9fe5	0.62353355
21	0x3e99a1b7	0.3000619
22	0xbe1dc7cc	-0.15408248
23	0x3ea84dfe	0.32872003
24	0x3ef1189b	0.47089085
25	0x3f02d5ac	0.5110729
26	0x3e54779b	0.20748751
27	0x3ec6e9ed	0.38850346
28	0x3f0fc7bc	0.56164145
29	0x3f1f9d63	0.6234953
30	0x3ecb03c6	0.39651316
31	0xbe3d6d9d	-0.18498845
32	0xbed219e6	-0.41035384
33	0xbe96a975	-0.2942616
34	0x3f2c7a71	0.6737433
35	0x3c57fc8e	0.013182772
36	0x3f16a21d	0.58841115
37	0xbe63a33e	-0.2223024
38	0x3f329917	0.69764847
39	0x3edc3e83	0.43016443
40	0x3f2d7e4e	0.6777085
41	0xbe8e3d30	-0.27781057
42	0xbef0a744	-0.47002614
43	0x3ebd80ca	0.3701232
44	0xbd203e71	-0.03912205
45	0xbd5da812	-0.054115362
46	0x3e77cfdb	0.24200384
47	0xbda98950	-0.082781434
48	0x3e88ab60	0.2669325
49	0xbe0dcf34	-0.13848573
50	0xbe853a5e	-0.26021093
51	0x3e50fef9	0.20409764
52	0x3eb9e70f	0.36309096
53	0xbe4e9e3e	-0.20177552
54	0xbe9d5b62	-0.30733782
55	0x3e4b8c93	0.19877844
56	0xbe867f3e	-0.26268953
57	0xbe2ad372	-0.16682222
58	0x3f104a2e	0.5636319
59	0xbcaafe00	-0.02087307
60	0x3f390f20	0.72288704
61	0xbe82f84a	-0.25580055
62	0xbe7b90a3	-0.24566893
63	0x3e968d24	0.29404557
64	0x3f126dc5	0.57198745
65	0x3f1dfee2	0.61717045
66	0x3ebe44e2	0.37161928
67	0x3debfc58	0.1152274
68	0xbe11ca64	-0.14237362
69	0xbebb4dbc	-0.36582744
70	0x3e90eac1	0.28304103
71	0xbeabc2a8	-0.33546948
72	0x3e5c508e	0.21515104
73	0xbe9a3324	-0.30117142
74	0xbe5a8d78	-0.21343029
75	0x3ee03312	0.43788964
76	0xbe001b08	-0.12510312
77	0x3ec33973	0.38129768
78	0xbe6f0e38	-0.23345268
79	0xbe9f4a4e	-0.31111377
80	0x3f35ac4a	0.7096602
81	0x3e94e659	0.2908199
82	0xbf16e8c2	-0.5894891
83	0x3eeecc06	0.46640033
84	0xbdc51170	-0.096224666
85	0x3d9bcaf6	0.07607071
86	0x3eaf53ae	0.3424353
87	0xbed311cc	-0.41224515
88	0xbe109ab2	-0.14121512
89	0x3baf5eaf	0.0053518633
90	0xbee9d372	-0.45669132
91	0x3effec25	0.4998485
92	0x3d933e71	0.07189644
93	0xbef7040a	-0.4824527
94	0x3e1e9d15	0.1548961
95	0xbea6c9d0	-0.32575846
96	0xbdcd1910	-0.10014546
97	0xbe98e8ac	-0.29865015
98	0xbc0d964c	-0.008641791
99	0x3ee57888	0.4481852
100	0x3f04d7ab	0.51891583
101	0xbd8c0708	-0.068372786
102	0x3f2938a3	0.66102046
103	0x3e479f72	0.19494417
104	0xbe97b732	-0.29631954
105	0x3f3141d4	0.6924107
106	0xbe71f980	-0.23630333
107	0xbebc9ae8	-0.36836934
108	0xbeb53e3b	-0.3539904
109	0x3f24c170	0.6435766
110	0x3e60364c	0.21895713
111	0xbe6c3f78	-0.23071086
112	0xbeef2e6d	-0.46715108
113	0x3d1d1c9b	0.03835736
114	0x3e51deca	0.20495144
115	0x3ee24da5	0.44199863
116	0x3ef6c348	0.48195863
117	0x3f32c8a2	0.6983739
118	0x3f35db9a	0.7103821
119	0x3ede1ffb	0.43383774
120	0xbdc6c054	-0.097046524
121	0x3f315d6f	0.69283193
122	0x3f1e5a35	0.61856395
123	0xbe463254	-0.19355136
124	0xbebd530d	-0.36977425
125	0xbeccb7e6	-0.39984053
126	0x3e81f6bb	0.25383553
127	0xbe816fec	-0.25280702

fc2.weight f4 [64, 128]
0	0x3d918e57	0.07107227
1	0x3c6a7368	0.014309742
2	0xbe018aea	-0.12650648
3	0x3e4a5a06	0.19760904
4	0x3e493b49	0.19651522
5	0x3ccdb0c7	0.025108708
6	0x3e711758	0.23544061
7	0xbe0e9f1c	-0.13927883
8	0x3e84eaa4	0.25960267
9	0x3cec7a54	0.028866924
10	0x3d0dc40c	0.034610793
11	0xbe5828a4	-0.21109253
12	0x3df53a5a	0.1197402
13	0xbd8d25b9	-0.06891961
14	0x3e8e9b72	0.2785297
15	0x3e863891	0.26215032
16	0x3e188ee2	0.14898255
17	0x3d538852	0.051643677
18	0xbe3d8ed8	-0.18511522
19	0xbdb3c5c3	-0.087779544
20	0x3e17cfe5	0.14825399
21	0xbe6daea2	-0.23211148
22	0xbd7372cc	-0.05943565
23	0x3e0dc423	0.13844351
24	0xbe76b7e4	-0.24093586
25	0x3c93bf87	0.018035663
26	0x3dd81a87	0.10551935
27	0x3df4cc1d	0.11952994
28	0x3bde0650	0.006775655
29	0xbe1e89fd	-0.15482326
30	0x3d8c540b	0.068519674
31	0xbe8c4cd4	-0.27402365
32	0x3cc3d16c	0.023903571
33	0x3e4de41d	0.2010655
34	0xbdb69d76	-0.08916752
35	0x3dcd4527	0.100229554
36	0x3e13a919	0.14419974
37	0x3e5ff195	0.218695
38	0x3dbaf63d	0.091289975
39	0x3e5ac960	0.21365881
40	0xbd100e27	-0.035169747
41	0xbd9c9c7a	-0.07647033
42	0xbc3c1a6f	-0.011480912
43	0x3dea8d39	0.11452717
44	0xbe4767fb	-0.19473259
45	0xbd83cca3	-0.06435516
46	0x3e8e6581	0.27811816
47	0xbda78659	-0.08179922
48	0x3de14898	0.11000174
49	0xbd30a3ee	-0.043125086
50	0x3d991ee3	0.07476594
51	0xbdc834ec	-0.09775719
52	0xbd872ea3	-0.06600692
53	0x3e1daa02	0.15396884
54	0x3d4dc6f6	0.050238572
55	0xbe315f1e	-0.1732144
56	0x3c853154	0.016258873
57	0x3de3c4de	0.11121534
58	0x3e183fc5	0.14868076
59	0xbc11e308	-0.008904226
60	0xbe0340af	-0.12817644
61	0xbd127103	-0.035752308
62	0x3d3fd597	0.046834555
63	0x3e0736f3	0.13204555
64	0xbe4482ee	-0.1919057
65	0xbdbfee35	-0.09371606
66	0x3dfa7f87	0.12231355
67	0x3e69b627	0.22823392
68	0x3d8f5719	0.069990344
69	0xbd56451a	-0.052311994
70	0xbe90adc7	-0.28257582
71	0xbb1203a0	-0.0022279993
72	0xbd2c62a7	-0.04208627
73	0xbb1cb553	-0.0023911789
74	0xbdb2332e	-0.08701168
75	0xbc3632a8	-0.011120476
76	0xbda5712f	-0.08078229
77	0xbdfe5812	-0.12419142
78	0xbd0b2563	-0.0339712
79	0x3d864c1d	0.06557486
80	0x3e216fdd	0.15765329
81	0x3e2a33d0	0.16621327
82	0xbdbfb1bc	-0.09360072
83	0x3dbeb2e0	0.093114614
84	0x3dabf823	0.08396938
85	0x3e282885	0.16421707
86	0x3da3a54b	0.079905115
87	0xb9246200	-0.00015676767
88	0x3d111a86	0.035425685
89	0xbd949638	-0.072552145
90	0xbd1c76fe	-0.038199417
91	0x3da0d553	0.07853188
92	0x3e6202cd	0.22071381
93	0x3db1a273	0.08673563
94	0x3e549108	0.2075845
95	0xbd8914cf	-0.06693422
96	0xbd1cf8d5	-0.038323242
97	0x3cda40c0	0.026642203
98	0x3e3f3d41	0.1867571
99	0x3de370ff	0.11105537
100	0xbe59a352	-0.21253708
101	0xbcb1ff80	-0.021728277
102	0xbdce0ef1	-0.100614436
103	0x3d3ec966	0.046578787
104	0xbd11b5d1	-0.035573784
105	0xbd431781	-0.047629837
106	0xbdb05e3d	-0.086117245
107	0x3e2edea9	0.17077126
108	0xbcdbf96b	-0.02685233
109	0x3d7ead01	0.062176708
110	0x3e882cd5	0.26596704
111	0x3d1754ae	0.03694599
112	0xbe39fab4	-0.18162042
113	0x3ea5fe67	0.32420656
114	0x3e3290b8	0.17438018
115	0x3e09c821	0.1345525
116	0xbe26e6dc	-0.16299003
117	0x3e34b0a3	0.17645507
118	0x3deaa00a	0.11456306
119	0x3d76966b	0.060202044
120	0xbe426de3	-0.18987231
121	0xbcb76f17	-0.022391839
122	0x3e07c6d9	0.13259448
123	0x3d15ab96	0.03654059
124	0x3e3b88f0	0.18313956
125	0x3d1f3366	0.038867377
126	0x3d016954	0.03159459
127	0xbcb40970	-0.021977156
128	0xbd18cb3f	-0.037303206
129	0xbd8421a5	-0.0645173
130	0xbda5c687	-0.08094507
131	0x3d3452ce	0.04402428
132	0x3d7c1662	0.061544783
133	0xbcb3e324	-0.021958895
134	0x3d04d69c	0.03243123
135	0x3d87e92d	0.066362716
136	0x3d697872	0.05699963
137	0x3bae05c0	0.005310744
138	0xbd4972de	-0.04918181
139	0x3bc40510	0.005982049
140	0x3d088a60	0.03333509
141	0xbd1ac90c	-0.03778939
142	0xbc8f7ec4	-0.017516501
143	0xbd973f06	-0.07385068
144	0xbd975c5a	-0.073906615
145	0x3c95bfc0	0.01827991
146	0xbcb9cc04	-0.02268029
147	0xbd8bab2a	-0.06819756
148	0xbd8c3c10	-0.068473935
149	0x3cca93a0	0.024728596
150	0xbd80f487	-0.0629664
151	0xbdadfd2e	-0.08495556
152	0xbd9227dc	-0.07136509
153	0x3b6fc800	0.0036587715
154	0xbc459278	-0.012058847
155	0xbd3cc22f	-0.046083625
156	0xbd975b71	-0.07390488
157	0xbda3f255	-0.080052055
158	0x3d85239f	0.06500935
159	0xbc72ae18	-0.014812015
160	0x3c1dace0	0.009623736
161	0xbd5629ab	-0.05228583
162	0xbd4dd0e4	-0.05024804
163	0x3d4a77ba	0.049430586
164	0x3c190810	0.009340301
165	0xbb98fa10	-0.0046684816
166	0xbd94e5db	-0.07270404
167	0xbdb2b7ad	-0.087264396
168	0xbd2a5404	-0.04158403
169	0x3d17baf2	0.03704352
170	0xbc752698	-0.014962815
171	0xbd2affc7	-0.041747835
172	0xbd20e5aa	-0.039281525
173	0x3d8545c7	0.065074496
174	0xbd859ef0	-0.065244555
175	0xbce91190	-0.028450757
176	0x3c3e9018	0.011631034
177	0x3d34908e	0.04408317
178	0xbd1f1b79	-0.03884456
179	0x3db11e91	0.08648408
180	0x3caa1558	0.02076213
181	0x3c9de578	0.019274458
182	0xbd9794af	-0.07401406
183	0xbce3d8f8	-0.02781342
184	0xbd8c2e22	-0.06844737
185	0xbda03f7c	-0.07824609
186	0x3cb8468c	0.022494577
187	0x3c1e6528	0.009667672
188	0xbc543f88	-0.0129546
189	0xbda62b99	-0.08113784
190	0x3cf198c0	0.029491782
191	0xbdb4c34a	-0.08826311
192	0x3bd08ed0	0.006364681
193	0xbd8f9f0a	-0.07012756
194	0xbb4b4180	-0.0031014383
195	0xbc29e9d0	-0.010370687
196	0xbd4f9381	-0.05067778
197	0xbd9aeaaf	-0.075642936
198	0xbcf2cc84	-0.029638536
199	0x3c21cba0	0.009875208
200	0xbd01f346	-0.031726144
201	0xbd65cafc	-0.056101784
202	0x3d8e0527	0.069345765
203	0xbc17fe38	-0.009276919
204	0x3d8fb297	0.07016485
205	0xbd934030	-0.07189977
206	0xbd107b98	-0.03527412
207	0x3d9514bd	0.07279346
208	0x3d8bc9e7	0.06825619
209	0x3ca6a38c	0.020341657
210	0x3bb2edb0	0.0054604635
211	0x3d0c731e	0.03428947
212	0x3d67058a	0.056401767
213	0x3d4189f6	0.04725071
214	0xbd8ffc60	-0.070305586
215	0xbd4285c9	-0.04749087
216	0xbda280b3	-0.07934704
217	0xbd7401fd	-0.05957221
218	0xbc4e32d0	-0.012585357
219	0x3d9a0e2d	0.07522235
220	0xbc264360	-0.010147899
221	0x3b7b3620	0.0038331822
222	0x3b8ea3a0	0.0043530017
223	0xbd8e252f	-0.06940686
224	0x3d70230a	0.058627166
225	0x3d917a77	0.071034364
226	0xbd436e83	-0.047712814
227	0xbda6de48	-0.081478655
228	0x3da7843b	0.08179518
229	0xbdaf74fb	-0.08567234
230	0x3b1d8820	0.0024037436
231	0x3c709178	0.01468312
232	0x3d140a10	0.03614241
233	0x3c581660	0.013188928
234	0x3d46cf4e	0.048537545
235	0xbd8e409b	-0.06945916
236	0xbd9caae3	-0.076497816
237	0x3a966040	0.0011472777
238	0x3c78db38	0.015188985
239	0x3d89b253	0.06723466
240	0x3d958431	0.07300604
241	0x3d956983	0.072955154
242	0xbd429557	-0.047505703
243	0x3d783cfa	0.060605027
244	0xbc6ef3d8	-0.014584504
245	0x3c899edc	0.016799383
246	0xbbc85120	-0.0061131865
247	0x3d8a1709	0.06742675
248	0xbd7cb57a	-0.061696507
249	0xbd965d05	-0.07341961
250	0x3da050b3	0.07827892
251	0xbd71bce1	-0.05901802
252	0xbc8cd6b8	-0.01719223
253	0xbd388215	-0.04504593
254	0xbc777f30	-0.015106007
255	0x3cee1144	0.029060967

fc2.bias f4 [64]
0	0x3e14fa70	0.1454866
1	0xbd7fb480	-0.062427998
2	0x3e4f857f	0.20265768
3	0xbdee2302	-0.11627771
4	0x3e08e887	0.13369952
5	0x3c887796	0.016658586
6	0x3d8d7c92	0.069085255
7	0x3e14c18d	0.14526959
8	0x3c92309b	0.017845443
9	0xbd3ab775	-0.045585115
10	0x3d8bedde	0.06832479
11	0xbd73f8d6	-0.05956348
12	0x3e2926ff	0.16518782
13	0x3c9a2d61	0.018820466
14	0xbc37a4f9	-0.011208766
15	0x3e0a548b	0.13508813
16	0x3e39e371	0.18153168
17	0x3d5f1cf0	0.054470956
18	0x3df3fd7f	0.11913585
19	0x3c563228	0.013073482
20	0xbe0c99bc	-0.1373052
21	0x3dac32bf	0.084081165
22	0x3d0aa777	0.033851113
23	0xbd48a2de	-0.048983447
24	0x3e401dbb	0.18761341
25	0xbdb1fb92	-0.08690561
26	0x3da2c8bb	0.079484425
27	0x3e21b950	0.15793347
28	0xbcdf5fcb	-0.027267357
29	0xbdb08290	-0.08618653
30	0x3db17f78	0.08666891
31	0xbaaea745	-0.0013324997
32	0x3dfdeffe	0.123992905
33	0x3e2027c4	0.1564017
34	0xbe0871c3	-0.13324647
35	0xbd6be43d	-0.05759071
36	0xbd7d8d30	-0.061902225
37	0xbdfe7732	-0.124250785
38	0xbdec2d36	-0.11532061
39	0x3d3a1c6f	0.045437273
40	0xbc986d4f	-0.01860681
41	0x3dfa881c	0.12232992
42	0xbd542508	-0.05179313
43	0xbcb3a81a	-0.021930743
44	0xbddeabe8	-0.10872632
45	0x3d265f7b	0.0406184
46	0xbdb719d7	-0.089404754
47	0x3dba14ad	0.09085975
48	0xbdc71331	-0.09720457
49	0xbd33c093	-0.043884825
50	0x3dbd14c1	0.09232474
51	0xbd327532	-0.043568797
52	0xbd9076ec	-0.070539325
53	0x3d8b952c	0.06815562
54	0x3e39b454	0.18135196
55	0x3da2ab7b	0.079428636
56	0x3820becb	3.8324662e-05
57	0xbd823092	-0.0635692
58	0x3d6fae4d	0.058515836
59	0xbd8cb933	-0.068712614
60	0x3e0cfca2	0.13768247
61	0x3d8e542a	0.06949647
62	0x3e13bc58	0.14427316
63	0x3d6ac31b	0.057314973

fc3.weight f4 [27, 64]
0	0xbe9cb2e1	-0.30605224
1	0xbda7e1d8	-0.08197373
2	0x3e7f92a4	0.24958283
3	0xbed7bb39	-0.42135027
4	0xbe2635f0	-0.16231513
5	0x3c9fff35	0.019530872
6	0xbe85a78f	-0.261044
7	0x3e750eeb	0.23931472
8	0xbe8eb170	-0.2786975
9	0x3dcc7b0a	0.09984405
10	0xbd75a59d	-0.059972394
11	0x3ddc9224	0.107700616
12	0x3d86d22a	0.06583054
13	0x3e035e38	0.1282891
14	0xbe770c7a	-0.24125853
15	0x3e8958c2	0.2682553
16	0xbe6a38f9	-0.22873296
17	0xbe9a7d8c	-0.3017391
18	0x3e1faee4	0.15594059
19	0xbdb6483c	-0.08900496
20	0xbe950abe	-0.29109758
21	0xbeaa280a	-0.33233672
22	0xbce379a3	-0.027767962
23	0x3b9cb2e0	0.0047820657
24	0x3e16fc22	0.14744619
25	0xbea4543a	-0.3209551
26	0x3e824fed	0.25451604
27	0xbe5d3e69	-0.21605839
28	0xbe4a8aa6	-0.19779453
29	0xbdf4e7f0	-0.11958301
30	0x3e59a1c8	0.21253121
31	0xbdff1969	-0.124560185
32	0x3e0d2c4a	0.13786426
33	0x3e4d0193	0.20020132
34	0xbdd44023	-0.103637956
35	0x3c598590	0.013276473
36	0xbd85cd76	-0.06533329
37	0x3c998fc4	0.01874531
38	0xbcc00cdb	-0.02344363
39	0xbe3e58fd	-0.18588634
40	0x3dcd4a1b	0.100239
41	0x3e5bc166	0.21460494
42	0xbe4a5b22	-0.19761327
43	0xbe1e5e1e	-0.1546559
44	0xbe849e59	-0.2590206
45	0x3de4b535	0.11167375
46	0xbe3d1376	-0.18464455
47	0x3e117974	0.14206487
48	0xbd80b2c6	-0.06284098
49	0x3de77942	0.11302425
50	0xbda3ffd4	-0.0800778
51	0xbd1dc8e9	-0.03852168
52	0x3d47ea9c	0.048807725
53	0x3e42f962	0.19040444
54	0x3e95c61c	0.29252708
55	0x3e1bff93	0.15234213
56	0xbbd96f46	-0.0066355793
57	0x3d87f198	0.06637877
58	0xbdfdd832	-0.123947516
59	0xbe5306dc	-0.20608085
60	0x3e5f7390	0.21821427
61	0x3e0ca978	0.13736522
62	0x3e4d3ce7	0.20042764
63	0xbd6d2ecf	-0.05790597
64	0x3dc731bd	0.09726284
65	0x3dfbdb46	0.122976825
66	0xbe8491ac	-0.2589239
67	0x3d063bd2	0.032771893
68	0xbe6ec55b	-0.23317473
69	0x3ccf5f7c	0.025314085
70	0xbe828f20	-0.2549982
71	0x3e3c4862	0.18386987
72	0x3dac0270	0.083989024
73	0x3df02890	0.11726487
74	0xbd267802	-0.040641792
75	0xbdd14250	-0.10217726
76	0x3e335ef5	0.17516692
77	0xbe9f2071	-0.31079438
78	0x3e12a83b	0.14321987
79	0x3e5cf40e	0.21577474
80	0xbe762bb4	-0.24040109
81	0x3e45f190	0.1933043
82	0x3dea4f1b	0.114408694
83	0xbba22fa0	-0.004949525
84	0xbe3409db	-0.17581885
85	0xbecac5d3	-0.39604053
86	0xbda62665	-0.08112792
87	0x3d1a6a6c	0.037699148
88	0x3da62053	0.08111634
89	0xbe81103f	-0.25207707
90	0xbe90dd2a	-0.28293735
91	0x3e222d85	0.15837677
92	0x3d054899	0.032539938
93	0x3d04cf58	0.0324243
94	0x3e454aec	0.19266862
95	0xbdee529b	-0.116368495
96	0xbd2081d8	-0.03918633
97	0x3e62eef1	0.22161461
98	0xbdf38a81	-0.11891652
99	0x3dfde850	0.12397826
100	0x3d08bdd8	0.033384174
101	0xbcd5efbf	-0.026115296
102	0xbe5128c1	-0.20425703
103	0xbdc40da7	-0.095729165
104	0x3dce1bdd	0.10063908
105	0x3d969fc7	0.07354694
106	0xbebf5c97	-0.37375328
107	0x3e08bc57	0.13353096
108	0xbeb32797	-0.34991142
109	0xbd075087	-0.03303578
110	0xbe9b201f	-0.30297944
111	0x3e15b4f3	0.14619808
112	0xbea3e5a4	-0.3201114
113	0xbd93787e	-0.072007164
114	0xbe0851a6	-0.13312396
115	0x3db0c737	0.08631747
116	0xbd8c4078	-0.06848234
117	0x3e6c4cdd	0.23076196
118	0x3e2bfeba	0.16796389
119	0xbde42530	-0.111399055
120	0x3c7f4e59	0.015582644
121	0xbdacee50	-0.08443892
122	0xbddec181	-0.10876752
123	0xbdba5c0d	-0.090995885
124	0xbe82297e	-0.2542228
125	0xbe073daf	-0.13207124
126	0x3de107f7	0.10987847
127	0x3e2febc3	0.1717978
128	0xbe21071b	-0.15725367
129	0x3dd69fc6	0.10479693
130	0xbdfd8dc1	-0.12380553
131	0xbe559b82	-0.20860103
132	0xbe19456c	-0.14967889
133	0xbd53ef7f	-0.051742073
134	0xbc8c0537	-0.01709233
135	0x3c358662	0.011079403
136	0xbdc77eed	-0.09741006
137	0x3d5e794c	0.054314896
138	0xbde0d743	-0.10978558
139	0x3df9f1e2	0.122043386
140	0x3cf664cf	0.030077366
141	0xbe084ebc	-0.13311285
142	0xbe06ce48	-0.13164628
143	0xbda57f50	-0.080809236
144	0x3b801344	0.0039085466
145	0xbdad8e3b	-0.08474394
146	0xbe548cbe	-0.20756814
147	0x3d2ddd4c	0.042447373
148	0xbe00ea3b	-0.12589352
149	0xbe581100	-0.21100235
150	0x3dfb0aa8	0.12257892
151	0x3d04bde4	0.032407656
152	0x3d304d6a	0.043042578
153	0xbdf40ed9	-0.119168945
154	0x3d5a0c34	0.053234294
155	0xbe5a18bb	-0.21298496
156	0xbd03e5ba	-0.032201506
157	0xbb073fc0	-0.0020637363
158	0xbccbbae8	-0.024869397
159	0xbe223c57	-0.1584333
160	0x3b9e4a0c	0.0048306044
161	0xbe0e162d	-0.13875647
162	0xbe14babe	-0.14524361
163	0x3d8df63c	0.06931731
164	0x3cd754b0	0.0262855
165	0x3d7861c1	0.0606401
166	0x3d00ebeb	0.03147499
167	0xbda3699e	-0.07979129
168	0xbd9670c7	-0.07345729
169	0xbe274898	-0.16336286
170	0xbdb8716e	-0.0900601
171	0x3d1d4f1c	0.038405523
172	0xbd9d759d	-0.076884486
173	0xbcb6be25	-0.022307465
174	0xbdfe7e02	-0.12426378
175	0xbd77e293	-0.060518812
176	0xbdd15c8f	-0.10222732
177	0xbdad2286	-0.084538504
178	0xbd97b92e	-0.07408367
179	0x3da706d5	0.081556
180	0x3dd3ab1c	0.10335371
181	0xbcd0e690	-0.025500566
182	0xbe0bd110	-0.1365397
183	0x3cdddc58	0.027082607
184	0xbe0d3585	-0.13789947
185	0x3d944f46	0.07241683
186	0x3dbeb007	0.09310918
187	0x3d84cbc6	0.06484179
188	0xbe14e171	-0.14539124
189	0xbd58445b	-0.052799564
190	0xbde027d0	-0.10945094
191	0x3c96cdf7	0.018408759
192	0xbdb63aa9	-0.08897907
193	0x3df81ee2	0.121152654
194	0xbd9425d4	-0.07233778
195	0xbe9390d8	-0.28821445
196	0xbd26cd88	-0.040723354
197	0xbb6b4b19	-0.0035902916
198	0x3d6d7cec	0.057980463
199	0xbc836639	-0.016039954
200	0xbd141fa8	-0.036163002
201	0xbccdaba0	-0.025106251
202	0x3dd48700	0.10377312
203	0xbde0322d	-0.1094707
204	0xbe07fc4a	-0.13279834
205	0xbe027d2c	-0.12743062
206	0xbe1bc62a	-0.15212312
207	0xbd8a143e	-0.06742142
208	0xbdf6dd42	-0.1205392
209	0xbe73352b	-0.2375075
210	0xbd977c1b	-0.07396718
211	0xbc5c2310	-0.013436094
212	0xbe3efde1	-0.18651535
213	0xbe526b3f	-0.20548724
214	0xbc914e58	-0.017737553
215	0x3de3dc74	0.111260325
216	0xbdd7cefe	-0.105375275
217	0xbc69a739	-0.01426106
218	0xbcaf3b02	-0.021390442
219	0xbd245931	-0.040124122
220	0x3c7577c6	0.0149821695
221	0x3d1079bc	0.035272345
222	0xbddce4f7	-0.10785859
223	0xbe4499be	-0.19199273
224	0x3d1e7052	0.038681336
225	0xbe36aa20	-0.17838335
226	0xbd9560f1	-0.07293881
227	0xbdff9eb2	-0.124814406
228	0xbdc4ef30	-0.09615934
229	0x3db92860	0.09040904
230	0x3b086c74	0.0020816596
231	0xbe0fb895	-0.14035256
232	0x3d16e25c	0.036836967
233	0xbd2cfcbc	-0.042233214
234	0x3d7765cd	0.06039982
235	0xbd898c7e	-0.0671625
236	0xbd96d229	-0.073643036
237	0xbc67c95f	-0.014147132
238	0xbcd46f71	-0.025932046
239	0xbc5eff1a	-0.013610626
240	0xbca082fb	-0.019593706
241	0x3c3507e0	0.011049241
242	0xbbb146fa	-0.0054100724
243	0xbdc03e57	-0.093868904
244	0xbdf3d458	-0.11905736
245	0xbe3c115b	-0.18365996
246	0xbd45d17f	-0.048295494
247	0xbd502420	-0.0508157
248	0x3baf0dcc	0.005342221
249	0x3d146180	0.036225796
250	0x3db517a4	0.088424
251	0xbdd224cf	-0.10260927
252	0x3ce55e1f	0.027998982
253	0xbe4026e7	-0.1876484
254	0xbcddb480	-0.027063608
255	0xbe162c8d	-0.14665432

fc3.bias f4 [27]
0	0x3e4858b4	0.19565088
1	0xbd340527	-0.043950226
2	0x3b6c539f	0.0036060584
3	0x3d9f3150	0.077730775
4	0xbbd58935	-0.0065166005
5	0x3d72bdd0	0.05926305
6	0x3dab7e5a	0.08373709
7	0xbe04abe9	-0.12956204
8	0xbc6741de	-0.014114825
9	0x3da6c447	0.08142906
10	0x3e0680cf	0.13135074
11	0xbdfdc10a	-0.12390335
12	0xbd802529	-0.06257088
13	0x3e035b12	0.1282771
14	0xbd9c1ec2	-0.07623054
15	0x3ccedc5c	0.02525156
16	0xba3139d3	-0.00067606306
17	0xbdb47c5f	-0.088127844
18	0x3d24a779	0.040198777
19	0x3d4f8fec	0.050674364
20	0xbe0aa791	-0.13540484
21	0x3d1dfc99	0.038570974
22	0x3d6c68ac	0.05771701
23	0x3ba5d48d	0.0050607384
24	0xbd0fe8f5	-0.035134275
25	0xbcb419db	-0.021984985
26	0xbdf171d8	-0.11789292

exp_avg f4 [128, 4]
0	0xb89f4fc5	-7.596569e-05
1	0xb92ec699	-0.00016667916
2	0xb9467a08	-0.00018928212
3	0xb9b65678	-0.0003477817
4	0xb6f6103c	-7.3332612e-06
5	0xb90bae37	-0.00013320973
6	0xb90c048e	-0.00013353137
7	0xb72cd960	-1.03026105e-05
8	0xb85f6e90	-5.3270312e-05
9	0xb99ab8fd	-0.00029510996
10	0xb9951bdd	-0.00028440254
11	0x38967168	7.173681e-05
12	0xb95e7d74	-0.00021218305
13	0x392323b4	0.00015558192
14	0x393c2471	0.00017942653
15	0x388e3e8d	6.782739e-05
16	0xb90ec284	-0.00013614638
17	0xb739a096	-1.1064249e-05
18	0xb726545a	-9.914011e-06
19	0xb8f9bcd4	-0.00011908417
20	0xb7a32ca0	-1.9451894e-05
21	0xb7b852ca	-2.1973061e-05
22	0xb7c1cdf4	-2.3103297e-05
23	0xb8068799	-3.2074375e-05
24	0xb929b92b	-0.00016186076
25	0x3905c802	0.00012758377
26	0x39056496	0.0001272134
27	0xb9265918	-0.00015864184
28	0xb8ed9a10	-0.00011329737
29	0xb9a401a2	-0.00031281734
30	0xb99c6c09	-0.0002983513
31	0x3875a5ba	5.8566897e-05
32	0xb9785958	-0.00023684406
33	0xb8915f47	-6.9318856e-05
34	0xb870007b	-5.7220906e-05
35	0xb8cc6744	-9.746713e-05
36	0x00000000	0.0
37	0x00000000	0.0
38	0x00000000	0.0
39	0x00000000	0.0
40	0x00000000	0.0
41	0x00000000	0.0
42	0x00000000	0.0
43	0x00000000	0.0
44	0x3847b132	4.7610323e-05
45	0xb8bd2a34	-9.020083e-05
46	0xb8d3d588	-0.00010101037
47	0xb8b532c9	-8.640212e-05
48	0xb9231aee	-0.00015554923
49	0x38e0f059	0.000107259206
50	0x3900677e	0.00012245585
51	0x37f1418f	2.8759967e-05
52	0xb7548284	-1.2666573e-05
53	0xb92c234d	-0.00016416349
54	0xb9338d94	-0.00017123512
55	0xb8d282f0	-0.00010037969
56	0xb97aaab8	-0.00023905456
57	0x392936e7	0.00016137549
58	0x392a73b2	0.00016255563
59	0xb975c711	-0.00023439179
60	0xb88c56c8	-6.6918845e-05
61	0x384fa5cb	4.9507053e-05
62	0x37e137a4	2.6848e-05
63	0xb9a65572	-0.0003172565
64	0xb89a062c	-7.344442e-05
65	0x37961894	1.7892839e-05
66	0xb6d392dc	-6.3053867e-06
67	0xb9b78e3d	-0.00035010456
68	0x00000000	0.0
69	0x00000000	0.0
70	0x00000000	0.0
71	0x00000000	0.0
72	0x36070c68	2.012379e-06
73	0xb8f8d72b	-0.0001186564
74	0xb906592e	-0.00012812458
75	0xb8f4a8a4	-0.000116662384
76	0xb7d3a7f6	-2.5231373e-05
77	0xb95b63e7	-0.00020922684
78	0xb96525ac	-0.00021853176
79	0xb9119771	-0.00013884694
80	0xb9304f4c	-0.00016814208
81	0xb91c8fbc	-0.00014930865
82	0xb9099b08	-0.00013123092
83	0x3808a7e5	3.258129e-05
84	0xb8fd492d	-0.0001207761
85	0xb97e42f3	-0.00024248268
86	0xb97fa9f9	-0.00024382015
87	0xb912ecd7	-0.00014011875
88	0x00000000	0.0
89	0x00000000	0.0
90	0x00000000	0.0
91	0x00000000	0.0
92	0xb972d32e	-0.00023157589
93	0xb86cdf92	-5.6475e-05
94	0xb7ebaa1a	-2.8093393e-05
95	0x38daf78d	0.0001044116
96	0xb9016552	-0.00012340143
97	0xb9e2d2b5	-0.00043263068
98	0xb9e4bede	-0.00043629756
99	0xb92e61f4	-0.00016630423
100	0xb7ee6bfc	-2.8422095e-05
101	0xb92f902a	-0.00016743006
102	0xb944c714	-0.00018766179
103	0xb98b92e4	-0.00026621588
104	0x382e291f	4.152313e-05
105	0xb804e1ec	-3.168166e-05
106	0xb8520c50	-5.007937e-05
107	0xb94cc63f	-0.00019528808
108	0xb8f0fd37	-0.00011491257
109	0xb8c555ec	-9.409696e-05
110	0xb8cb110f	-9.682972e-05
111	0xb916f766	-0.00014397278
112	0xb74a8838	-1.2071854e-05
113	0xb924cbc0	-0.00015716162
114	0xb9334d1e	-0.00017099499
115	0xb93a40f6	-0.00017762542
116	0xb90aa87a	-0.00013223468
117	0xb91d23ee	-0.00014986072
118	0xb929ee3e	-0.00016205848
119	0xb992c29c	-0.00027992285
120	0xb90695b2	-0.00012835002
121	0xb90e4061	-0.00013566158
122	0xb90e11de	-0.00013548831
123	0xb90098f0	-0.00012264005
124	0xb77976b0	-1.4869191e-05
125	0xb9c5479f	-0.0003762813
126	0xb9c2376c	-0.00037043856
127	0x3830b350	4.2128668e-05
128	0x00000000	0.0
129	0x00000000	0.0
130	0x00000000	0.0
131	0x00000000	0.0
132	0xb967e3da	-0.00022114758
133	0x39231ca2	0.00015555558
134	0x3934d60f	0.00017245881
135	0xb829caca	-4.0481602e-05
136	0xb521b580	-6.024129e-07
137	0xb9204243	-0.00015283473
138	0xb93ef408	-0.00018210721
139	0xb9b41a92	-0.00034352072
140	0xb919d2dd	-0.0001466977
141	0x37c897a4	2.3912471e-05
142	0x3795d842	1.7862887e-05
143	0xb95b0268	-0.00020886364
144	0xb93f148c	-0.00018222834
145	0xb8bba932	-8.94837e-05
146	0xb8950b36	-7.106962e-05
147	0x38273f9c	3.9875144e-05
148	0xb979dba2	-0.0002382831
149	0x39196e66	0.00014632344
150	0x3927333c	0.00015945447
151	0xb8c6f1b0	-9.4863935e-05
152	0xb9112b0f	-0.00013844318
153	0xb90af510	-0.00013251998
154	0xb919d7a2	-0.00014671547
155	0xb99b1c47	-0.00029584972
156	0xb8e94571	-0.0001112324
157	0x38053974	3.176318e-05
158	0x378fd139	1.7144355e-05
159	0xb9926266	-0.00027920603
160	0xb8aceee5	-8.246097e-05
161	0xb97733b0	-0.0002357501
162	0xb9706302	-0.00022925067
163	0xb7355ff8	-1.0810785e-05
164	0x00000000	0.0
165	0x00000000	0.0
166	0x00000000	0.0
167	0x00000000	0.0
168	0xb7dcefb0	-2.6337657e-05
169	0x381612da	3.5780344e-05
170	0x380c0544	3.3383505e-05
171	0xb85d6c67	-5.2791464e-05
172	0xb94d3cfc	-0.00019573042
173	0xb8d569e3	-0.000101763544
174	0xb8a2cad8	-7.7625446e-05
175	0x38bc13ac	8.968203e-05
176	0x37f8c846	2.9657163e-05
177	0xb9883711	-0.0002598097
178	0xb9912266	-0.00027682184
179	0xb93ba1a4	-0.00017893926
180	0xb8c5cad4	-9.431472e-05
181	0xb95f4487	-0.00021292466
182	0xb9522cda	-0.00020043869
183	0x38582f10	5.1542243e-05
184	0xb9803fc4	-0.00024461572
185	0x3947b7a1	0.00019046526
186	0x3948c26f	0.00019145918
187	0xb960ca83	-0.00021437746
188	0x00000000	0.0
189	0x00000000	0.0
190	0x00000000	0.0
191	0x00000000	0.0
192	0xb8969ead	-7.182113e-05
193	0xb6b18ee9	-5.291648e-06
194	0x3692512f	4.36059e-06
195	0x384b2fed	4.8443606e-05
196	0x00000000	0.0
197	0x00000000	0.0
198	0x00000000	0.0
199	0x00000000	0.0
200	0x00000000	0.0
201	0x00000000	0.0
202	0x00000000	0.0
203	0x00000000	0.0
204	0xb795d39f	-1.7860728e-05
205	0xb92b07ab	-0.00016310687
206	0xb9400fe7	-0.00018316471
207	0xb984b0dd	-0.00025308775
208	0xb8d0c23a	-9.9543904e-05
209	0xb6bf3c98	-5.6992976e-06
210	0x363a1aae	2.773169e-06
211	0x36b5018a	5.3943995e-06
212	0xb8ef19c6	-0.00011401209
213	0x39128de2	0.000139765
214	0x39128626	0.00013973619
215	0xb8db67c2	-0.0001046206
216	0x00000000	0.0
217	0x00000000	0.0
218	0x00000000	0.0
219	0x00000000	0.0
220	0x38975219	7.215533e-05
221	0xb9ad7142	-0.00033081515
222	0xb9b5db96	-0.00034686615
223	0xb90cc770	-0.00013425737
224	0x00000000	0.0
225	0x00000000	0.0
226	0x00000000	0.0
227	0x00000000	0.0
228	0xb7f7c1b3	-2.9534893e-05
229	0x386c3d25	5.632373e-05
230	0x381d6432	3.752503e-05
231	0xb984062f	-0.0002518161
232	0xb931f422	-0.00016970982
233	0xb8fd5742	-0.00012080233
234	0xb8e07032	-0.0001070205
235	0xb7a892a4	-2.0095446e-05
236	0x00000000	0.0
237	0x00000000	0.0
238	0x00000000	0.0
239	0x00000000	0.0
240	0xb82e5ed0	-4.1573134e-05
241	0xb9d75dd8	-0.00041077915
242	0xb9da60a4	-0.00041652203
243	0xb8f2599f	-0.000115561525
244	0x38177153	3.6106747e-05
245	0xb90649e5	-0.00012806764
246	0xb915b2bb	-0.0001427633
247	0xb9148291	-0.0001416302
248	0xb8da84f4	-0.000104198145
249	0xb7339928	-1.0704891e-05
250	0x377d8358	1.5110556e-05
251	0x394c8ab0	0.00019506621
252	0xb9664c6c	-0.00021962979
253	0xb8a08832	-7.654763e-05
254	0xb84bb560	-4.856789e-05
255	0x38db9e0c	0.00010472172

exp_avg_sq f4 [128, 4]
0	0x3500fbc9	4.805011e-07
1	0x3606d4b2	2.009136e-06
2	0x363b4ac6	2.7908695e-06
3	0x373ae573	1.1139887e-05
4	0x34fdce43	4.7274997e-07
5	0x36242eb7	2.4465096e-06
6	0x3623222d	2.4308786e-06
7	0x34de887e	4.1450033e-07
8	0x3623fd93	2.4436492e-06
9	0x36a17a88	4.8124384e-06
10	0x369797c7	4.51782e-06
11	0x36d6e786	6.40465e-06
12	0x37443244	1.1694214e-05
13	0x35c62eab	1.4765732e-06
14	0x35b993ab	1.3826551e-06
15	0x359f19f2	1.1853974e-06
16	0x361beadb	2.3233504e-06
17	0x3512b007	5.464539e-07
18	0x35137b48	5.4941165e-07
19	0x36115c0f	2.166027e-06
20	0x35853f72	9.927737e-07
21	0x35cd5ade	1.5300136e-06
22	0x35d5bf50	1.5925416e-06
23	0x35e2c996	1.6896981e-06
24	0x36926ef4	4.3640557e-06
25	0x364322fe	2.9077632e-06
26	0x364374be	2.9125217e-06
27	0x3650dc92	3.1122804e-06
28	0x36330823	2.6677815e-06
29	0x36b415ce	5.3669564e-06
30	0x36a2b6f1	4.8492734e-06
31	0x36b41f72	5.3680787e-06
32	0x36b9713d	5.5266123e-06
33	0x35a86dcd	1.2548932e-06
34	0x359ebd3e	1.1826994e-06
35	0x35ac10e0	1.281991e-06
36	0x00000000	0.0
37	0x00000000	0.0
38	0x00000000	0.0
39	0x00000000	0.0
40	0x00000000	0.0
41	0x00000000	0.0
42	0x00000000	0.0
43	0x00000000	0.0
44	0x359d91c4	1.1739835e-06
45	0x363c88ac	2.8093737e-06
46	0x36533bb9	3.1476213e-06
47	0x362d5d72	2.5833401e-06
48	0x3745c590	1.1788114e-05
49	0x3650a9bf	3.109322e-06
50	0x363a6110	2.7772658e-06
51	0x36116d28	2.167022e-06
52	0x35715ef4	8.991767e-07
53	0x35ce6435	1.537736e-06
54	0x35dd6727	1.6495804e-06
55	0x355cde9a	8.2280314e-07
56	0x3716003c	8.940751e-06
57	0x3614b4df	2.2159e-06
58	0x36117de1	2.1679955e-06
59	0x36eb3aeb	7.0104047e-06
60	0x358ef6d3	1.065166e-06
61	0x35b4e05d	1.3476343e-06
62	0x35eaa18d	1.7481376e-06
63	0x37783fa4	1.4796769e-05
64	0x36242f81	2.4465555e-06
65	0x3620a94c	2.3940402e-06
66	0x36194604	2.283953e-06
67	0x373ace45	1.113449e-05
68	0x00000000	0.0
69	0x00000000	0.0
70	0x00000000	0.0
71	0x00000000	0.0
72	0x35dccefb	1.6451517e-06
73	0x36ae58b2	5.1959296e-06
74	0x36b5726d	5.4075413e-06
75	0x363f0da6	2.8469162e-06
76	0x35d50727	1.5871818e-06
77	0x3602bfd3	1.9483166e-06
78	0x360d733f	2.107772e-06
79	0x35cb1885	1.5131815e-06
80	0x36987df6	4.544617e-06
81	0x35d438e1	1.5811785e-06
82	0x35a6a42f	1.2415748e-06
83	0x3628e790	2.5168738e-06
84	0x314e2517	2.9998029e-09
85	0x321fcca5	9.301549e-09
86	0x3223824a	9.517473e-09
87	0x319a58f6	4.4921036e-09
88	0x00000000	0.0
89	0x00000000	0.0
90	0x00000000	0.0
91	0x00000000	0.0
92	0x3724d1d2	9.824014e-06
93	0x3605cdcb	1.9938332e-06
94	0x35cb54d5	1.5149368e-06
95	0x35556918	7.9501615e-07
96	0x345e7430	2.071763e-07
97	0x35101e21	5.3688024e-07
98	0x3514467d	5.523687e-07
99	0x34ae328b	3.24468e-07
100	0x362c76c2	2.5699123e-06
101	0x35bb5253	1.3956545e-06
102	0x35b84b18	1.3730923e-06
103	0x36439bc8	2.914794e-06
104	0x33644522	5.3148263e-08
105	0x348cfa39	2.6259093e-07
106	0x34f2b01c	4.520415e-07
107	0x36b4bda9	5.3864974e-06
108	0x355e6a43	8.2856076e-07
109	0x3598e379	1.1391086e-06
110	0x35a867fb	1.2547238e-06
111	0x362981c4	2.5258496e-06
112	0x359c57f1	1.16485e-06
113	0x35ed0ac2	1.7661007e-06
114	0x36086dbc	2.0329453e-06
115	0x35d26789	1.5676352e-06
116	0x34416b90	1.8013657e-07
117	0x33ccd957	9.539024e-08
118	0x33f5b105	1.1440901e-07
119	0x361604fe	2.2354648e-06
120	0x3625a9cf	2.4685758e-06
121	0x35722b6e	9.0215224e-07
122	0x3561926d	8.403211e-07
123	0x3570d53b	8.971726e-07
124	0x368e47c4	4.2402844e-06
125	0x3783d763	1.5716714e-05
126	0x3782b320	1.558062e-05
127	0x3655cdd1	3.1859274e-06
128	0x00000000	0.0
129	0x00000000	0.0
130	0x00000000	0.0
131	0x00000000	0.0
132	0x37af8d23	2.0927348e-05
133	0x36a0094a	4.769453e-06
134	0x3689325e	4.0887817e-06
135	0x36838d22	3.9205343e-06
136	0x36941baf	4.4139665e-06
137	0x362698e9	2.4824933e-06
138	0x36354341	2.7010249e-06
139	0x374befd1	1.21555795e-05
140	0x3663d93e	3.3952088e-06
141	0x35e481cf	1.7025103e-06
142	0x35ecc8fe	1.7641867e-06
143	0x36f33f1d	7.2493117e-06
144	0x3613a847	2.2002657e-06
145	0x3548ae94	7.475985e-07
146	0x35539f49	7.8835416e-07
147	0x36098561	2.0492228e-06
148	0x377ce5f9	1.5073915e-05
149	0x36755d3b	3.6562112e-06
150	0x3660f43e	3.3520769e-06
151	0x369ef5b6	4.7373715e-06
152	0x3634e15c	2.6953267e-06
153	0x364bb01f	3.0351873e-06
154	0x363d6207	2.8220254e-06
155	0x368ea98a	4.2516667e-06
156	0x35f3162e	1.8111366e-06
157	0x35cf37f1	1.5438983e-06
158	0x35af94fe	1.3081878e-06
159	0x36fea2e6	7.5887538e-06
160	0x3594cfc2	1.1087325e-06
161	0x35c9225a	1.4985665e-06
162	0x35c2d80e	1.4517007e-06
163	0x363fde31	2.859055e-06
164	0x00000000	0.0
165	0x00000000	0.0
166	0x00000000	0.0
167	0x00000000	0.0
168	0x35b72152	1.364426e-06
169	0x35df7c48	1.6650965e-06
170	0x35e72073	1.7220285e-06
171	0x360965ca	2.047384e-06
172	0x368f71c8	4.274978e-06
173	0x358dc90a	1.0563829e-06
174	0x3564bb0b	8.52088e-07
175	0x36031dfa	1.953797e-06
176	0x3606363a	1.999912e-06
177	0x36fc1d9f	7.5136336e-06
178	0x371072bd	8.609783e-06
179	0x36debf81	6.6384096e-06
180	0x360fd079	2.1430008e-06
181	0x366a47b0	3.4910445e-06
182	0x364e79ce	3.0767292e-06
183	0x35be4af9	1.4177923e-06
184	0x3734959f	1.0763672e-05
185	0x36989a1b	4.5478932e-06
186	0x3697374e	4.506589e-06
187	0x3728cdb5	1.0061475e-05
188	0x00000000	0.0
189	0x00000000	0.0
190	0x00000000	0.0
191	0x00000000	0.0
192	0x34f24b05	4.5130597e-07
193	0x30ef27b0	1.7400819e-09
194	0x306f72cf	8.7110846e-10
195	0x3403f6da	1.229013e-07
196	0x00000000	0.0
197	0x00000000	0.0
198	0x00000000	0.0
199	0x00000000	0.0
200	0x00000000	0.0
201	0x00000000	0.0
202	0x00000000	0.0
203	0x00000000	0.0
204	0x365d6646	3.2991097e-06
205	0x35f9d929	1.8615148e-06
206	0x361c4e31	2.3291325e-06
207	0x36ce7f56	6.1541023e-06
208	0x35715139	8.989769e-07
209	0x3142e756	2.8362215e-09
210	0x30255e0f	6.0160316e-10
211	0x30b9c2ee	1.3515924e-09
212	0x368f950d	4.279084e-06
213	0x35dc9977	1.6435941e-06
214	0x35e2ecfd	1.6907285e-06
215	0x36d8e122	6.4635105e-06
216	0x00000000	0.0
217	0x00000000	0.0
218	0x00000000	0.0
219	0x00000000	0.0
220	0x36b423bc	5.368578e-06
221	0x36e50fd5	6.826575e-06
222	0x36f60faa	7.333195e-06
223	0x36581124	3.2196485e-06
224	0x00000000	0.0
225	0x00000000	0.0
226	0x00000000	0.0
227	0x00000000	0.0
228	0x35c93276	1.4990353e-06
229	0x35e9fde8	1.7433749e-06
230	0x360581ae	1.9894028e-06
231	0x374be696	1.215343e-05
232	0x3633a829	2.677096e-06
233	0x3575e690	9.1605125e-07
234	0x3546b0b0	7.401786e-07
235	0x345b262a	2.0409848e-07
236	0x00000000	0.0
237	0x00000000	0.0
238	0x00000000	0.0
239	0x00000000	0.0
240	0x37161b78	8.947092e-06
241	0x37016bd6	7.714107e-06
242	0x37048839	7.89953e-06
243	0x36ec8c17	7.0496567e-06
244	0x351a9b14	5.759514e-07
245	0x3631f9c0	2.652043e-06
246	0x36487b5f	2.9874134e-06
247	0x36184675	2.2690776e-06
248	0x37151fb2	8.888472e-06
249	0x36ade21d	5.182125e-06
250	0x368ffb0d	4.2909583e-06
251	0x35f180cc	1.7993384e-06
252	0x370d28dc	8.413768e-06
253	0x35f817a8	1.8484325e-06
254	0x35b0eca8	1.3181898e-06
255	0x348f0a40	2.6643283e-07

exp_avg f4 [128]
0	0xb99331f6	-0.0002807525
1	0x37a60fb4	1.9796054e-05
2	0xb9b8a2c8	-0.00035216496
3	0x39271743	0.00015935027
4	0xb8df7078	-0.000106544176
5	0x3919dc83	0.00014673364
6	0xb84c7a3e	-4.8751237e-05
7	0xb9e3fd37	-0.00043485474
8	0xb99f627e	-0.00030400226
9	0x00000000	0.0
10	0x00000000	0.0
11	0x381cbee7	3.737109e-05
12	0x393732e6	0.00017471201
13	0xb9870070	-0.00025749533
14	0x380bf999	3.337264e-05
15	0xb9032355	-0.00012506296
16	0xb914e710	-0.00014200457
17	0x00000000	0.0
18	0x37e919f8	2.7787857e-05
19	0xb9b07bce	-0.00033661578
20	0xb93f465f	-0.00018241395
21	0xba024984	-0.0004970061
22	0x00000000	0.0
23	0xb9375d73	-0.00017487053
24	0xba575aaf	-0.0008215112
25	0xb9d86d40	-0.00041280128
26	0xb99aa919	-0.00029499157
27	0xb8a3a5c8	-7.803325e-05
28	0xb949cb96	-0.00019244695
29	0xb9c92073	-0.00038361884
30	0xb92cb4b9	-0.00016470523
31	0xb97f8827	-0.00024369416
32	0x00000000	0.0
33	0x3925c7bd	0.00015810035
34	0xb9a23790	-0.00030940445
35	0x384abc38	4.8335845e-05
36	0xb96e2709	-0.0002271199
37	0x38c1e38c	9.245341e-05
38	0xba0d0316	-0.0005379183
39	0xb902806b	-0.00012445606
40	0xb9cb18c1	-0.0003873762
41	0x00000000	0.0
42	0x3957c919	0.00020578913
43	0xb90cc0ff	-0.00013423337
44	0xb94728c8	-0.00018993311
45	0xb904bbf3	-0.00012658518
46	0x380f596e	3.4177145e-05
47	0x00000000	0.0
48	0xb91612d0	-0.00014312123
49	0x00000000	0.0
50	0x00000000	0.0
51	0xb987711e	-0.00025833485
52	0xb952c5d8	-0.00020100863
53	0x3931de5e	0.00016962874
54	0x00000000	0.0
55	0xb9e8e1c1	-0.00044418688
56	0x00000000	0.0
57	0x3897878a	7.225487e-05
58	0xb9c5b35a	-0.00037708395
59	0x00000000	0.0
60	0xba398cde	-0.0007078181
61	0xb7d30fca	-2.5160512e-05
62	0x38de3ae0	0.00010596751
63	0xb904aa3d	-0.0001265192
64	0xba556f6f	-0.000814191
65	0xb98e446f	-0.00027135338
66	0x3755b9a4	1.2739012e-05
67	0x3841cfc2	4.6208275e-05
68	0x00000000	0.0
69	0x00000000	0.0
70	0xba4a4012	-0.00077152357
71	0x00000000	0.0
72	0xb822d9a2	-3.8826496e-05
73	0x38cf74da	9.8922945e-05
74	0x00000000	0.0
75	0xb8e89e6d	-0.00011092131
76	0x00000000	0.0
77	0xb978bb76	-0.00023720958
78	0x00000000	0.0
79	0x00000000	0.0
80	0xb9e24167	-0.00043154808
81	0xb8de4b42	-0.00010599803
82	0x393e7a5d	0.00018165396
83	0xb9090777	-0.00013068119
84	0x00000000	0.0
85	0x3841989d	4.6156918e-05
86	0xb9c267f0	-0.00037080003
87	0x00000000	0.0
88	0x38995e36	7.313157e-05
89	0xb93d10b0	-0.00018030661
90	0x00000000	0.0
91	0xb9cfeb8c	-0.00039657613
92	0x38af4032	8.3566076e-05
93	0x00000000	0.0
94	0x38a2e2e3	7.767023e-05
95	0x00000000	0.0
96	0x00000000	0.0
97	0x00000000	0.0
98	0x38a58061	7.8917255e-05
99	0xb932c2aa	-0.00017047921
100	0xb9762dc4	-0.00023477437
101	0x00000000	0.0
102	0xba3f9ac2	-0.00073091325
103	0xb9a986d2	-0.0003233464
104	0x00000000	0.0
105	0xba30f2d8	-0.0006750054
106	0xb8389900	-4.401151e-05
107	0x398e961c	0.0002719619
108	0x38df0659	0.00010634651
109	0xb9dad016	-0.00041735236
110	0xb8df3676	-0.00010643613
111	0x00000000	0.0
112	0x38090141	3.2664513e-05
113	0x380051e6	3.0593852e-05
114	0xb9055428	-0.00012715219
115	0xb992d05a	-0.00028002524
116	0xba2ec8bd	-0.00066674856
117	0xb9d5c3dd	-0.00040772455
118	0xb9f4898d	-0.0004664179
119	0xb9a57a34	-0.000315623
120	0xb8ccde7a	-9.7689175e-05
121	0xb9dae686	-0.00041751954
122	0xb9068243	-0.00012827762
123	0x37b4c91e	2.1551325e-05
124	0x394f94ec	0.00019796536
125	0x00000000	0.0
126	0xb7d0d31e	-2.4893841e-05
127	0x00000000	0.0

exp_avg_sq f4 [128]
0	0x36ab1427	5.098543e-06
1	0x34bd329b	3.5240814e-07
2	0x366c9aaa	3.5256767e-06
3	0x36026028	1.942748e-06
4	0x360dbf9d	2.112217e-06
5	0x3568c411	8.671205e-07
6	0x3605c582	1.993351e-06
7	0x36f30852	7.242933e-06
8	0x36f0930b	7.1696754e-06
9	0x00000000	0.0
10	0x00000000	0.0
11	0x35756a43	9.1424243e-07
12	0x35b5122d	1.3490841e-06
13	0x36201a3d	2.385713e-06
14	0x3661236d	3.3548233e-06
15	0x3696c897	4.4937e-06
16	0x36885ded	4.0640502e-06
17	0x00000000	0.0
18	0x35564d38	7.983358e-07
19	0x3694c9a1	4.4342164e-06
20	0x35e1c49b	1.6821026e-06
21	0x3683991e	3.9219294e-06
22	0x00000000	0.0
23	0x36c7b9c3	5.9522877e-06
24	0x368b5ab4	4.153082e-06
25	0x36c68982	5.916868e-06
26	0x36b2be72	5.326984e-06
27	0x34f08178	4.4797684e-07
28	0x35b7c644	1.3692265e-06
29	0x36c4bddb	5.8633573e-06
30	0x35e71d5e	1.7219388e-06
31	0x368aa781	4.1322205e-06
32	0x00000000	0.0
33	0x3660fa10	3.3524157e-06
34	0x3697059b	4.5008032e-06
35	0x35f82d9d	1.8490715e-06
36	0x36477ef2	2.9727203e-06
37	0x36083bb1	2.0300324e-06
38	0x376f027c	1.42460885e-05
39	0x35e982c9	1.7397916e-06
40	0x369f3247	4.7444223e-06
41	0x00000000	0.0
42	0x35ed70bf	1.769069e-06
43	0x35c0e3e7	1.4371443e-06
44	0x3658316f	3.2215282e-06
45	0x355ac6ba	8.1500514e-07
46	0x366fdf6d	3.5743826e-06
47	0x00000000	0.0
48	0x35f4062e	1.8181215e-06
49	0x00000000	0.0
50	0x00000000	0.0
51	0x36368586	2.7197834e-06
52	0x36a55ec8	4.928417e-06
53	0x359a0dc1	1.1477897e-06
54	0x00000000	0.0
55	0x36c4c6ef	5.864414e-06
56	0x00000000	0.0
57	0x35e9b733	1.7413171e-06
58	0x36c69902	5.9186723e-06
59	0x00000000	0.0
60	0x3795ccb6	1.785751e-05
61	0x35093654	5.1115535e-07
62	0x35cf6384	1.5451665e-06
63	0x3663445c	3.3865426e-06
64	0x37b54d53	2.1612888e-05
65	0x3624d656	2.4562664e-06
66	0x352eadcc	6.507296e-07
67	0x358b5550	1.0381136e-06
68	0x00000000	0.0
69	0x00000000	0.0
70	0x37b2c807	2.1312399e-05
71	0x00000000	0.0
72	0x34844408	2.4636415e-07
73	0x360ba905	2.0810996e-06
74	0x00000000	0.0
75	0x352eed0a	6.516499e-07
76	0x00000000	0.0
77	0x36aa4d9a	5.075429e-06
78	0x00000000	0.0
79	0x00000000	0.0
80	0x37987073	1.8172175e-05
81	0x3692e3f0	4.3776745e-06
82	0x35a65eb7	1.239553e-06
83	0x358800b7	1.0132998e-06
84	0x00000000	0.0
85	0x3542e7eb	7.2608117e-07
86	0x371131ec	8.654297e-06
87	0x00000000	0.0
88	0x355866c0	8.061579e-07
89	0x35f024de	1.7892123e-06
90	0x00000000	0.0
91	0x36e93d57	6.951082e-06
92	0x3681ae06	3.8647586e-06
93	0x00000000	0.0
94	0x365817d5	3.220038e-06
95	0x00000000	0.0
96	0x00000000	0.0
97	0x00000000	0.0
98	0x34da2779	4.0634384e-07
99	0x363f6729	2.8521265e-06
100	0x36b9db4f	5.5389605e-06
101	0x00000000	0.0
102	0x376a65de	1.3971205e-05
103	0x3700b3e2	7.671277e-06
104	0x00000000	0.0
105	0x3789c581	1.6423643e-05
106	0x356b9bcf	8.7771053e-07
107	0x363bec69	2.800278e-06
108	0x35683eb1	8.6517963e-07
109	0x36b7851b	5.4693205e-06
110	0x365e1198	3.3090819e-06
111	0x00000000	0.0
112	0x353429bd	6.711596e-07
113	0x3702b665	7.791071e-06
114	0x35b271d7	1.3295165e-06
115	0x372e7ad6	1.0399808e-05
116	0x37235724	9.735846e-06
117	0x3735422b	1.0803847e-05
118	0x376f23ce	1.42538465e-05
119	0x36f92e1e	7.426147e-06
120	0x358a282f	1.0293496e-06
121	0x36afb2d2	5.236224e-06
122	0x3560b5e6	8.37112e-07
123	0x3496baf3	2.80757e-07
124	0x360865d2	2.0324846e-06
125	0x00000000	0.0
126	0x34a70564	3.1110096e-07
127	0x00000000	0.0
