models/model_20250730_172115_lr0.01.pth (torch, 136154 bytes, 18 tensors)

fc1.weight f4 [128, 4]
000000 fa 43 af be 30 1c c6 bd a4 22 5c 3d f1 ab d3 3d
       -0.3423155 -0.09673345 0.053743973 0.103355296
000010 6d 16 37 bf 9f 36 12 3f f6 c7 63 3f 22 b5 2f bf
       -0.71518594 0.57114595 0.8897699 -0.6863576
000020 1f 2b 75 3e 4c cd 7d 3b b4 ff 12 bf 99 68 d9 3d
       0.2394223 0.0038727103 -0.5742142 0.106156535
000030 bf 1c 05 3f e1 08 54 3e 03 d2 da 3e 52 92 20 be
       0.5199699 0.20706512 0.4273835 -0.15680817
000040 5c e0 1e bf d4 bb 44 3e cd e2 98 3e 90 fe 95 3e
       -0.62061095 0.19212276 0.29860535 0.29295778
000050 30 7d 9a bd 00 db 76 3d c0 72 d5 3d 1c 90 6f be
       -0.07543409 0.06026745 0.104222775 -0.23394817
000060 d0 ef f9 be 62 cc ad be 08 9f 45 3e 80 29 da be
       -0.48815775 -0.33944994 0.19298947 -0.42609787
000070 4f e6 aa 3e 8f 5c 94 3d 24 16 08 3f c9 60 10 3d
       0.33378837 0.07244217 0.53158784 0.03524855
000080 a6 e3 13 3d 2b 59 44 be e0 0b 9b be 51 55 e0 3e
       0.036105774 -0.1917464 -0.30282497 0.4381509
000090 d8 8b 1b 3f 36 c0 ea 3e 21 4d ef bd 88 a8 0c bf
       0.6076026 0.4584977 -0.11684633 -0.5494466
0000a0 6a 01 e5 be b6 d5 01 3e 94 49 1e 3f d8 6f 05 bf
       -0.4472764 0.1267918 0.6183102 -0.52123785
0000b0 64 43 b5 3e 2c ed 08 3f ca 21 22 3f 8b cb 30 3f
       0.35402977 0.53486896 0.6333281 0.6906058
0000c0 c3 82 e5 be e7 53 bb 3b d1 fe 31 3f 6e ee 1f 3f
       -0.44826326 0.005716789 0.69529444 0.6247319
0000d0 39 58 a1 be 0e 6c 1f be 1f 9a 24 3d b3 7c 14 3f
       -0.3151262 -0.15568563 0.040186044 0.58002776
0000e0 f4 68 2b be fa 77 fa be f0 dd 75 be 40 10 21 3c
       -0.16739255 -0.4891966 -0.24010444 0.009830534
0000f0 7c 25 6a be 00 dd 70 3c d0 2a f2 be d0 79 a2 3d
       -0.22865862 0.014701128 -0.47298288 0.0793339
000100 3e f8 31 bf f4 6a 54 bf 6c 2f 1e bf 5e 1e e6 3e
       -0.6951941 -0.829757 -0.6179111 0.44945043
000110 0c 2c 56 be 60 d0 c4 bc c8 10 a8 be 00 35 ba 3b
       -0.2091524 -0.024025142 -0.32825303 0.0056825876
000120 5e 01 8d be 10 92 78 3e 40 c0 57 3c 1a d8 95 be
       -0.27540106 0.24274468 0.013168395 -0.29266435
000130 24 58 a5 3e a9 eb fd 3d 70 32 8f 3d fe 19 dc 3e
       0.32293808 0.12398464 0.06992042 0.4298858
000140 e8 4d 04 3f 97 43 c3 3e f8 8c 80 bd e4 d2 f7 be
       0.51681376 0.38137504 -0.06276888 -0.48403084
000150 b5 9b 22 bf be 44 db be b7 33 da be 3b 3c 1f 3f
       -0.6351884 -0.42825884 -0.4261758 0.6220128
000160 05 3c b2 be 21 a3 3c be b2 0a 19 3f a6 98 37 3f
       -0.34811416 -0.18421604 0.59781945 0.717173
000170 da d4 26 3f 5b 50 e9 3e 7d 42 bc 3e 2b e0 4d be
       0.65168536 0.4556912 0.36769477 -0.20105045
000180 b6 01 9b 3e de b7 13 3e ee 34 8b 3e 7d 4b 00 bf
       0.30274743 0.14425609 0.2718882 -0.50115186
000190 2b f6 0e be 17 fe 0a 3f 03 67 8e 3e 60 ea 31 be
       -0.13961093 0.5429396 0.27812967 -0.17374563
0001a0 04 99 d3 3e 47 60 83 be 3b 30 f1 bd 7c c5 40 3d
       0.4132768 -0.2565939 -0.11776777 0.047063336
0001b0 e6 f2 c6 3e 7d bf 70 3e 22 17 2e 3f 4a 98 24 3d
       0.38857192 0.23510547 0.6800405 0.040184297
0001c0 37 dd 89 3e 30 c0 aa be 07 a5 40 3e 7e 26 6a be
       0.26926586 -0.33349752 0.18812953 -0.22866246
0001d0 d1 61 22 3f 37 3d cf be 8b 3c af be 23 7f c6 3d
       0.63430506 -0.4047639 -0.34225878 0.09692218
0001e0 d8 83 cb bd 42 7c ae be d1 9e 72 3e 3c 64 2c 3f
       -0.099372566 -0.34079176 0.23693396 0.67340446
0001f0 d4 fc 4f 3f 41 9a f4 3e 66 81 20 be 50 e7 e0 3e
       0.8124516 0.47773936 -0.15674362 0.43926477
000200 17 ed 0e bf e1 79 15 3d e7 3b c7 be 04 ea 93 be
       -0.5583052 0.036493186 -0.3891289 -0.28889477
000210 02 61 be 3e ff c0 4f 3e 1d c0 20 3f 0c 45 37 3f
       0.37183386 0.20288466 0.6279314 0.7158973
000220 fe 8b 07 3f fd 7c 16 3e cb a1 b8 3e bc 23 66 3e
       0.52947986 0.14696117 0.36060938 0.22474569
000230 36 86 d0 3d ef f6 b4 3e 16 63 36 3f a3 ff a5 be
       0.10181849 0.35344645 0.71244943 -0.32421598
000240 40 c8 13 3c d0 cf ce 3d a0 68 b1 3c c4 1f 2f be
       0.009019911 0.10098231 0.021656334 -0.17101961
000250 a9 c3 8c be 23 46 c9 3e ed 2d cb 3e b7 92 5a 3f
       -0.27493027 0.39311323 0.39683476 0.8538012
000260 dc 51 84 3e f2 b7 02 3f f4 c1 05 3f 7f a2 8e be
       0.25843704 0.5106193 0.52249074 -0.2785835
000270 fc 36 71 be 36 5e 2d 3e f0 ba 2e 3f 14 3c ad be
       -0.23556131 0.1693047 0.68253994 -0.33834898
000280 d1 8f ac be 76 cc 87 be 37 59 35 3e 64 4b 34 3f
       -0.33703473 -0.2652318 0.17709814 0.70427537
000290 33 6f 52 3f fa 34 18 3f 1f 3c 7f bd fa 0a 36 3f
       0.82200927 0.59455836 -0.062313195 0.711105
0002a0 90 24 fe be 12 59 c7 3e 13 cf 0e be 57 e1 6d 3e
       -0.4963727 0.38935143 -0.1394618 0.23230492
0002b0 6b e0 33 3e d7 19 3c 3f 08 af 05 3f 7a 46 4f 3e
       0.17566077 0.7347693 0.522202 0.20241728
0002c0 0a 0d d5 be 45 66 03 3f 58 a4 82 be da 97 11 be
       -0.4161151 0.51327926 -0.2551601 -0.14218083
0002d0 9a 2b a0 be 4f 0b 0d 3f 75 d0 88 3d 94 ec 5a 3f
       -0.31283265 0.5509538 0.06680385 0.8551724
0002e0 5e a4 f7 3e d3 67 02 3f ac 25 4c bd 13 a2 0b 3f
       0.4836759 0.50939673 -0.049840614 0.5454418
0002f0 65 1a 3b 3f b1 d5 92 bd e7 e4 96 be 4a 38 3d 3f
       0.7308715 -0.07169665 -0.29471514 0.73914015
000300 fe c9 0f 3f 3e 06 00 3e 02 ba d3 3e 0d 77 4e bf
       0.5616759 0.12502381 0.4135285 -0.8065041
000310 da b0 4c 3f 18 3f 36 3e e2 77 32 bf 53 d6 3a 3f
       0.79957354 0.17797506 -0.69714177 0.7298328
000320 fc e2 48 3f 7c a6 e3 3e 44 1d 07 3e 4a d6 09 be
       0.7847135 0.44462955 0.13194758 -0.13460651
000330 95 32 23 3c e3 f9 a0 3d 78 e1 f6 be 46 b8 6a 3d
       0.00996079 0.07860162 -0.48218894 0.057304643
000340 c0 fa a0 3e b5 a3 13 3f 9b 77 0b 3f 6e 69 dc 3e
       0.31441307 0.5767167 0.5447938 0.43049186
000350 f4 89 88 be 9a 1e d1 3e 80 3b 98 bd f8 9b 58 be
       -0.2666775 0.4084366 -0.07433224 -0.21153247
000360 4e 07 be 3e 5a 69 a7 be cc 65 3e 3e a2 03 15 3f
       0.37114948 -0.32697564 0.1859352 0.5820867
000370 d4 ed 22 3f 1f e7 d5 3e 92 85 8e 3e d9 eb 84 be
       0.63644147 0.41777894 0.2783628 -0.25961187
000380 4b cf 3e 3f f2 37 29 be 65 97 d2 3e 6d 36 44 3f
       0.74535054 -0.16525248 0.4113113 0.7664555
000390 b8 fa 3d 3f c0 b1 1d 3f ef 3d 10 3e ea db 04 be
       0.7421069 0.6159935 0.14086126 -0.12974516
0003a0 f9 76 e1 3e 0f be d4 be 07 d2 13 be f4 37 dd 3e
       0.4403608 -0.41551253 -0.14435588 0.4320675
0003b0 33 d7 42 3f b1 0f 98 3e 81 91 9a 3e d2 b1 e8 be
       0.7610962 0.29699472 0.30189136 -0.45448166
0003c0 10 f4 4c 3d b9 eb 1c bf 3b 28 aa be f6 a6 b4 3d
       0.050037444 -0.61297184 -0.33233818 0.08820908
0003d0 e0 35 39 be c5 b8 3d 3b f5 b4 8e 3e 05 58 5b 3f
       -0.18086958 0.0028949243 0.27872434 0.8568118
0003e0 96 f4 2d 3f 61 86 17 3d 0a 7e 15 3f 81 42 76 be
       0.67951334 0.036993388 0.58395445 -0.24048807
0003f0 47 db 8e bd 5f 34 2e be 55 cf 9b 3b 89 37 43 3e
       -0.069754176 -0.17012165 0.0047549405 0.19064154

fc1.bias f4 [128]
000000 ef 81 db be b8 10 1d 3f 05 37 55 3f ad 03 52 be
       -0.4287257 0.61353636 0.8328708 -0.20509215
000010 26 1f 35 3f b8 3a a1 be b2 01 c0 be 8d 88 8c be
       0.70750654 -0.3149011 -0.37501293 -0.2744793
000020 2f 69 46 3f 4f 9f 46 3f 82 03 33 3f 86 e7 93 bd
       0.7750425 0.77586836 0.6992723 -0.07221894
000030 6b 87 f8 bd 00 68 c1 3e 4c 1e cd be bc 43 74 be
       -0.12135204 0.37774658 -0.40062177 -0.23853964
000040 c1 9f 14 3f e6 d1 b7 be 0e 1c e6 be 40 43 02 bf
       0.58056265 -0.35902327 -0.4494328 -0.50883865
000050 71 8e 10 3f 72 11 87 3e 8c f3 c1 3d 5d e5 c8 be
       0.5646735 0.26380497 0.09470281 -0.3923749
000060 97 f6 ac 3e 97 40 87 be 68 ce a7 3e 7d cc d7 be
       0.33781883 -0.26416466 0.32774663 -0.421482
000070 29 76 0a 3f 27 24 36 3f 1d f9 a3 3e 41 b1 f0 be
       0.5408655 0.71148914 0.32025996 -0.47010234
000080 28 03 d3 3e 7c f3 41 3f bd 00 09 3f 06 22 85 be
       0.41213346 0.7576215 0.5351675 -0.2600252
000090 8c 16 fa be 5f c3 83 3e 4a b1 55 3f 80 fd 6c 3e
       -0.48845327 0.25734994 0.83473647 0.23143578
0000a0 82 4f 19 3f 21 d8 06 3f aa cb 2b 3f 25 9b bd be
       0.59886944 0.52673537 0.6710764 -0.37032428
0000b0 7c d7 44 3f 07 e8 60 3e 92 26 3a 3f df 3d 75 be
       0.76891303 0.21963511 0.72715104 -0.23949383
0000c0 60 d3 18 bd f0 ab 32 3d 7a 3f 9f be 60 27 33 3f
       -0.037310958 0.043621004 -0.31103116 0.69981956
0000d0 60 e4 ec be e6 45 e2 be 37 9a 10 3f f7 b7 7e 3e
       -0.46267986 -0.44193953 0.56485313 0.24874865
0000e0 8a 4a 1e 3e 31 9f aa be 61 4b 8a 3e 56 6c 8b 3e
       0.15458122 -0.33324578 0.27010635 0.2723109
0000f0 e2 29 40 3f 21 ea 92 bd ee 67 e5 be 93 90 29 3f
       0.7506391 -0.07173563 -0.44805855 0.6623623
000100 9c ba f3 be 6c 07 4b 3e 97 7c b1 3e 7e 6c be 3b
       -0.4760331 0.1982705 0.34665367 0.005811273
000110 eb a5 da 3e e5 ba cd 3e db 6e cc 3e 35 70 15 3f
       0.4270471 0.40181652 0.39928326 0.5837434
000120 e8 cd 6d be c4 43 e2 3e 16 6a 0b bd 1c 8e 7f 3e
       -0.23223078 0.44192326 -0.03403672 0.24956554
000130 31 b5 8b be 90 28 1e 3f 58 e7 08 bf 44 bd 92 be
       -0.27286676 0.61780643 -0.53478 -0.28660023
000140 cb 84 0f bf e4 24 f9 be ca da 18 3f 82 bd 07 bf
       -0.56062 -0.48660958 0.59708846 -0.5302354
000150 38 8d e3 3e 59 88 0f 3f bf 43 2e 3f d3 aa 17 be
       0.4444368 0.56067425 0.6807212 -0.14811258
000160 2a c5 d6 3e 78 50 d3 be ce e7 85 3e 37 12 8e 3e
       0.419473 -0.4127233 0.26153415 0.27748272
000170 e4 e6 c6 be 00 49 ff bc 16 09 9d bb 57 a2 e9 3d
       -0.3884803 -0.031162739 -0.004792343 0.11407917
000180 54 4d d2 be 2d 5a 30 3f 1b 75 fd 3e d4 8d 3b 3f
       -0.41074622 0.688876 0.49503407 0.7326329
000190 24 25 0d be 7d 0c 3b 3f 1a 04 3a 3f 40 0c b3 be
       -0.137837 0.7306593 0.7266251 -0.34970284
0001a0 ab 5c 97 3e e0 ff 53 3f 15 52 29 3f 18 77 b1 bd
       0.29562888 0.8281231 0.6614087 -0.086652935
0001b0 65 1d 4c 3f aa 45 dd bd 29 1f 0a 3f 55 a4 d7 3e
       0.7973235 -0.10804303 0.53953797 0.42117563
0001c0 3e 2f 16 3d 6c 8b 36 3f c1 e4 cd 3e 8c fd 83 be
       0.036666147 0.7130649 0.40213588 -0.25779378
0001d0 44 c6 b3 3e 8e a0 31 3f c2 d2 15 3f d3 24 b9 3d
       0.35112202 0.6938561 0.58524716 0.09040227
0001e0 53 5f 12 3f f9 7a a5 3e b5 46 a8 be ae a0 76 be
       0.57176703 0.32320383 -0.32866445 -0.24084732
0001f0 e8 e8 29 3e 84 56 71 be 31 eb 5a bd 9d a5 63 3f
       0.16592753 -0.2356816 -0.053446952 0.8892458

fc2.weight f4 [64, 128]
000000 00 1c 73 3a ee fc 08 be 7f 29 cd 3e fa 48 3c 3d
       0.00092738867 -0.13377735 0.40070722 0.045968033
000010 15 14 ee 3c 7d 63 07 bd f6 a3 29 3d d8 2b 96 bc
       0.02906231 -0.033053864 0.04141613 -0.018331453
000020 00 5f 6e 3e 56 06 77 3e 35 d1 8a bd 5a 49 38 bd
       0.23278427 0.2412351 -0.06778184 -0.04499183
000030 f2 6b b8 be 46 34 ad bd 9d 79 a5 bd a0 88 b2 3b
       -0.36019856 -0.08457236 -0.080798365 0.005448416
000040 23 0c c0 3e 11 35 39 bd 0c 3c 89 3c fd 76 49 3b
       0.3750926 -0.045216624 0.016752265 0.0030741089
000050 bc 1f 11 3e 80 5d 9d 3e 7d c8 12 be 8f 52 e3 3d
       0.14172262 0.30735397 -0.14334293 0.11099731
000060 28 b7 47 3c 61 af 65 be 7b e7 ad 3e ec 29 8c 3d
       0.012189664 -0.22430183 0.33965668 0.068439335
000070 8b dd d5 3e 6b 60 c2 3e 41 96 54 3c 95 59 95 3d
       0.41770586 0.37964186 0.012975276 0.07292477
000080 a4 b9 40 3e d2 5b 7f 3d da 5c 15 3e da 63 3f be
       0.18820816 0.062343426 0.14586201 -0.18690434
000090 92 7b 80 bd f3 c9 bb bd 0d f9 fb 3d bf 5e 69 be
       -0.06273569 -0.09169378 0.12303362 -0.22790049
0000a0 5d 45 6d bc 5d 7f 35 3e 1b 6b 7f bd a5 21 c2 bd
       -0.0144818695 0.17724366 -0.062358003 -0.094790734
0000b0 79 a2 23 3e e4 4d 86 3d 12 a2 8a 3d 06 ed 4e 3e
       0.15979947 0.06557825 0.06769194 0.20207605
0000c0 6a 2c a5 be 2a 51 87 3e 3c a0 e1 3d 88 58 9d 3e
       -0.32260448 0.2642911 0.110168904 0.30731606
0000d0 b1 2f 76 bd 2e 1a 61 3d 2b d2 cf 3d a6 13 a4 3b
       -0.060104076 0.054956608 0.10147508 0.005007225
0000e0 dc 43 b6 3d ab d2 b3 3d 48 77 89 3e 47 db 4d 3e
       0.08899662 0.08780416 0.26848817 0.20103179
0000f0 cf 51 ae 3e 26 0f 8c bd dd b8 0a bd 0a 00 62 3e
       0.3404679 -0.06838827 -0.033867706 0.22070327
000100 33 e6 6b bd 55 03 1b bd a9 9e 78 3e fc 03 66 3e
       -0.057592582 -0.037844975 0.24279274 0.22462457
000110 ec a1 79 bd 19 29 5b 3e a9 48 a4 bd 53 04 dd bd
       -0.060945436 0.21402396 -0.08021671 -0.107918404
000120 2c d9 85 bc 40 28 a4 bc 81 73 20 bd 9e 26 21 3d
       -0.016338907 -0.020038724 -0.039172653 0.03934347
000130 a7 67 c2 3d 8a c1 35 bd 88 71 c2 3c 25 5a 7d 3e
       0.09492426 -0.044374026 0.023735777 0.24741419
000140 d3 ba aa bc d2 08 58 bd 80 3c 28 3e 66 51 fc 3c
       -0.020841038 -0.052742787 0.16429329 0.030800533
000150 37 b6 57 be 38 21 8f 3d af d4 11 3e ad 8f 45 3d
       -0.21065603 0.06988758 0.14241289 0.048232723
000160 5a 76 0b be b3 86 a7 3d 6f 6c 95 3d 57 33 31 3e
       -0.13619366 0.08179989 0.07296073 0.17304741
000170 36 f8 08 bd 20 3b 4a 3b 96 41 05 bd 94 ba 99 be
       -0.033439837 0.0030857995 -0.03253325 -0.3002516
000180 32 d5 9f 3e 45 2c 96 3e 3a c0 56 be 4f 55 b9 bc
       0.31217343 0.2933065 -0.20971766 -0.022623686
000190 e4 51 a7 be ce 8a 8d 3e d6 dd 5d 3e b8 9e 72 3c
       -0.32679665 0.27644962 0.21666655 0.014808349
0001a0 09 0c 93 be 44 5d 93 3e 92 dc 71 3e 9e 15 73 bd
       -0.2872012 0.28782094 0.23619297 -0.059346788
0001b0 a3 48 2c 3e 59 44 89 be 27 a5 80 3e c7 9c b9 3d
       0.16824584 -0.26809958 0.25126 0.09063106
0001c0 2b 8b 78 3c 24 f8 44 3e a8 8d c0 bd e8 59 60 bd
       0.015169899 0.19235283 -0.09402019 -0.05477324
0001d0 45 02 a0 be c2 42 53 bd 25 2e 6c 3e 56 a8 31 be
       -0.31251732 -0.051577337 0.23064478 -0.17349371
0001e0 43 a5 12 3c 9d 13 99 be f5 bd 3c bd b8 f0 78 3d
       0.008950534 -0.29897776 -0.046079595 0.060776442
0001f0 14 1e c3 bd 0f a6 11 bd 26 31 7a 3c 9d 35 01 3d
       -0.09527221 -0.035558756 0.015270507 0.03154527
000200 cc d8 da 3c 4a 78 b8 bd 8b 7a 96 bd 40 25 4d bc
       0.026714705 -0.09007318 -0.07347592 -0.012521088
000210 7e 2a c8 bd 0d 2a 86 3d 90 7e af bd 23 98 47 39
       -0.0977373 0.06550989 -0.08569062 0.00019034794
000220 cd bd 97 bd d7 c2 bd bc 07 61 cd bd aa a5 16 be
       -0.074092485 -0.023164196 -0.10028272 -0.14711633
000230 24 85 01 bd ac f2 df bd 9a 20 07 bd 1a cf 7e 3d
       -0.031621113 -0.10934958 -0.032990076 0.062209226
000240 bc 13 07 be fa b7 6c bd 15 5b 0d bd 91 79 b4 3d
       -0.13191122 -0.05779264 -0.03451069 0.088122495
000250 70 8e 35 bd 8a 78 e1 bd 5d f8 3d bc 9c 9d 6b bd
       -0.044325292 -0.11009319 -0.011594859 -0.057523355
000260 55 c5 a6 3c 22 94 57 3d a3 ff d8 bc 95 22 e9 bb
       0.020357767 0.052631505 -0.026489085 -0.007114718
000270 85 58 87 bd 59 f2 58 bd cf 54 e4 bb ee 26 4e bd
       -0.06608681 -0.052965496 -0.006968118 -0.050330095
000280 11 73 02 bb 46 55 b0 bd d3 81 c3 3c 58 d7 53 3c
       -0.001990501 -0.086100146 0.023865616 0.01292976
000290 08 da 6d 3c c4 ab 0c be 04 ba fc bc ab 86 04 be
       0.014517315 -0.13737398 -0.030850418 -0.12941997
0002a0 2a 19 bc 3c ee e5 bd 3c d9 da ad bd 40 2f 60 3c
       0.022961218 0.023180928 -0.084890075 0.01368314
0002b0 42 c8 e5 3c d6 19 e4 bd e6 ad 91 bd 39 4c b0 bd
       0.028049592 -0.1113774 -0.071132466 -0.08608288
0002c0 78 ef 08 bc c2 80 ea bd 70 43 c9 bc ea bb 0c bd
       -0.008357875 -0.1145034 -0.02456829 -0.034358896
0002d0 34 ca b6 bd eb e2 9a 3d 74 ad 86 bd 83 82 11 be
       -0.08925286 0.075628124 -0.06576052 -0.14209943
0002e0 0f 91 c7 3c 8f 90 9a 3d d5 c4 b3 bd 2b bc d1 bd
       0.024361162 0.075471036 -0.08777777 -0.10240968
0002f0 d3 99 f7 bd 5d 9e 6c bc fd 49 9b 3d 6a de f9 bd
       -0.120898865 -0.014442054 0.075824715 -0.12200625
000300 d0 9e 27 bc 50 30 fb bc b8 3d 06 be b7 a4 11 be
       -0.010230735 -0.030662686 -0.13109481 -0.1422299
000310 53 17 c0 bb 6e c5 9f bd 94 75 a1 bd 73 9e fa bd
       -0.0058621555 -0.078013286 -0.078837544 -0.12237253
000320 86 0e 49 3d 10 63 c9 bc 02 a1 65 3d 22 39 0f be
       0.049086116 -0.02458337 0.056061752 -0.13986638
000330 c7 98 2a 3c 43 a7 a4 bc 40 99 f9 3b 1b 16 a9 bc
       0.0104124015 -0.020099288 0.007617146 -0.020640424
000340 19 fc 0d be 46 52 32 3d 39 d0 68 bd 1f bd 11 be
       -0.13865699 0.043535493 -0.0568392 -0.142323
000350 11 c7 ac bb 53 ee 12 be 5f 8d c6 3c 69 69 06 be
       -0.005272754 -0.14348726 0.024237333 -0.13126148
000360 8b 70 20 bd c2 04 1e 3d ad 8d b8 bb 38 7a bc ba
       -0.03916983 0.038578756 -0.0056321234 -0.0014379686
000370 00 e8 5a bb 92 10 9f bd 18 fa 24 bd 16 59 47 3d
       -0.0033402443 -0.077668324 -0.04027757 0.048668943
000380 10 88 f9 bd 99 ba 40 bc 14 b8 16 bd c8 eb 4a bd
       -0.12184155 -0.011763238 -0.036796644 -0.049541265
000390 88 e9 16 bd 77 1d 26 bd 69 f2 8c bd 63 31 70 bd
       -0.036843807 -0.040555444 -0.068821736 -0.05864085
0003a0 7c 74 05 be 7b c2 94 bd be 3f 3e bd ba 59 e5 bc
       -0.13032717 -0.07263657 -0.046447508 -0.027996887
0003b0 90 b1 d8 bd bf 6d 8f bd 6f 79 c6 3c e3 a7 4b bd
       -0.10580742 -0.07003354 0.024227826 -0.049720656
0003c0 55 52 80 3d 6c de d0 bd f6 72 e0 bd a4 e4 9b bd
       0.062657036 -0.101986736 -0.10959427 -0.07611969
0003d0 6c 4f f7 bd 18 f3 ec bc 07 0c e2 bd 87 9b 55 bd
       -0.120756954 -0.02892451 -0.1103745 -0.052150276
0003e0 6a 72 51 bd 91 51 ed bd 40 2d 91 3a d0 ae 15 bc
       -0.051134504 -0.11587823 0.0011076108 -0.009135917
0003f0 70 fe 94 bd c4 8d af bd 93 e5 44 3c 55 6c 13 3b
       -0.072750926 -0.085719615 0.012017625 0.002249499

fc2.bias f4 [64]
000000 a4 4b 14 3e f3 93 cc bd 8e 69 d2 3c df 0c 99 3e
       0.1448198 -0.099891566 0.025685098 0.29892632
000010 44 86 0d 3b 22 d5 47 bd 7c 79 71 bc 99 92 13 3e
       0.002159492 -0.048787244 -0.014738437 0.14411391
000020 1b e4 12 3e 58 d9 7d bd 00 7e 50 bd 13 80 66 3e
       0.14344828 -0.061974853 -0.050901413 0.22509794
000030 51 21 e5 3d ba af 78 3e 60 99 7b 3e a4 cb 16 be
       0.11187995 0.24285784 0.24570227 -0.1472612
000040 28 32 3b be fe 2e 63 bd e3 b3 25 3e d0 8b c7 3b
       -0.18280852 -0.055464737 0.16181903 0.006089665
000050 cd 6f 06 3e 0b e6 af bd 0e e9 ed bd 3d 69 ca 3c
       0.13128586 -0.08588799 -0.11616717 0.024708385
000060 4d 20 4a 3e de 4f a7 3e 19 70 d1 bd e1 da 61 3e
       0.19738884 0.3267812 -0.10226459 0.22056152
000070 b1 5b cc 3d 53 dc 73 3c b9 0f af 3e df ba c0 3d
       0.09978426 0.014884072 0.34191683 0.09410643
000080 e5 64 fb bb 58 65 73 3e 75 34 f1 3d ac 90 36 3e
       -0.0076719397 0.23769128 0.117775835 0.17828625
000090 54 36 b2 bc 68 af 2f bd dd 61 cc bc 9d 1b a8 bd
       -0.021754421 -0.04289189 -0.024949009 -0.08208392
0000a0 d7 27 83 3e 3d e0 80 be 39 01 29 bd 2a 49 37 bd
       0.25616333 -0.2517108 -0.04126093 -0.04474751
0000b0 55 c9 37 bc 81 f0 be 3d f9 0b 36 bd db 5f 92 3d
       -0.011217435 0.09323216 -0.04444501 0.07147189
0000c0 1a 9d 17 be 8f c1 5d 3e 25 d9 a7 3c 02 e5 69 3e
       -0.14806023 0.21655868 0.020489285 0.22841266
0000d0 3e 9e 30 bd 96 e6 3e bd 66 67 5b 3c 7b d4 4b 3e
       -0.04311966 -0.046606623 0.013391351 0.19905274
0000e0 ae 2e 09 be 18 5b 3e bd 19 ce 2b bd 19 85 95 3e
       -0.13396713 -0.046473593 -0.041944597 0.29203108
0000f0 02 51 f6 bd 58 42 da 3d 71 fd 9e 3e 9f 23 a2 3d
       -0.1202717 0.10657185 0.31052735 0.079169504

fc3.weight f4 [27, 64]
000000 c6 89 39 3e b7 7c 1d be 78 9d 5f 3d da fb a7 3e
       0.18118963 -0.15379606 0.054593533 0.32809335
000010 0c 0c 31 be 0b 8e a0 be 21 84 a9 bc 57 c3 f4 bd
       -0.17289752 -0.3135837 -0.020692887 -0.119513206
000020 5a ab ab 3e 64 e9 48 ba 20 a5 6d bc ee 13 57 3e
       0.33529168 -0.00076641724 -0.014504701 0.21003696
000030 f6 63 dd bd 7d a4 61 be 6f 41 b8 3e 8c ba 33 3e
       -0.10810082 -0.22035404 0.35987422 0.1755163
000040 3f 13 e3 be 4c fa 8a 3d ab b4 11 3e f5 1f 43 3d
       -0.4435062 0.067860216 0.14229076 0.0476379
000050 de 96 6e 3e 31 11 8f be 40 33 b2 3c 37 57 56 be
       0.23299739 -0.27942804 0.021752954 -0.20931707
000060 bd d9 78 bd 82 5b a8 3e 90 57 1b be e1 ea 97 be
       -0.060754526 0.32882315 -0.15170121 -0.29671386
000070 d5 bb ce be 86 c3 84 bd 32 54 36 3d bd 8c b2 be
       -0.4037768 -0.06482606 0.04451389 -0.34873
000080 0e 9d a6 3c a2 1a 37 3e b7 12 7b be 7a ee 76 3e
       0.020338561 0.17881253 -0.24518858 0.24114409
000090 18 22 cd 3d 3d 05 94 3d cf 89 de bb 6e 59 ee bd
       0.100162685 0.072275616 -0.0067913304 -0.11638151
0000a0 c2 6a 8a 3e ff 72 6a be 36 d8 b6 be aa fa f6 3c
       0.27034575 -0.2289543 -0.3571183 0.030148823
0000b0 74 d7 26 bd 89 a2 3f be f9 1b e6 3c ba 87 b7 bd
       -0.040732816 -0.18714346 0.02808951 -0.08961435
0000c0 ee 19 c2 3d d0 b8 06 3e 7a 0b 1f be 0d 5c 69 3e
       0.09477602 0.13156438 -0.15531722 0.22789021
0000d0 f0 f7 45 3d 75 fe c8 be 3a 16 f0 bd d4 ad 87 3e
       0.048332155 -0.39256635 -0.117229894 0.26499808
0000e0 ce cb 70 bc f7 62 2e be 90 99 ba ba b7 43 1b 3e
       -0.014697028 -0.1702994 -0.0014236439 0.1516255
0000f0 18 d3 71 bd b4 72 e0 bb b5 c6 cc 3e 82 93 ea bd
       -0.059039205 -0.006849611 0.3999535 -0.11453916
000100 c6 a8 67 3e 3b a7 83 bc 0f 8d 8e be 5b ac a9 3e
       0.22622976 -0.016070953 -0.27841994 0.3313931
000110 cb 6f 43 bd 82 fd 05 3e 1e 51 21 3e ea d5 ba be
       -0.047714036 0.13084987 0.157536 -0.36491328
000120 56 91 06 be 0a 89 33 bd e0 4a 92 3b bd b8 77 3e
       -0.13141379 -0.043831863 0.004464492 0.24191566
000130 0d 52 b2 3c a9 47 eb be 6f 05 c1 bd e3 70 7b bc
       0.02176764 -0.4595311 -0.094248645 -0.0153467385
000140 10 2a 4f be 00 54 3e 39 de fb 24 be 9f 54 f1 bc
       -0.2023089 0.00018151104 -0.16111705 -0.029459296
000150 20 5c a5 3e c6 a9 3d be 59 51 5b 3d 2e 42 db 3d
       0.32296848 -0.18521795 0.053544376 0.10705982
000160 f1 ea 34 3e 61 d3 84 3e b0 be ea ba 18 13 e0 be
       0.17667748 0.2594252 -0.0017909613 -0.43764567
000170 38 df 6a bc 02 98 de bd cd b8 34 3e 16 4c 18 be
       -0.014335446 -0.10868837 0.17648621 -0.14872774
000180 7e 77 24 3e 50 0a 05 3c 7b 42 18 be 22 19 a9 bd
       0.16061208 0.0081201345 -0.1486911 -0.08256747
000190 b0 04 c1 3c e6 ff 90 bc a1 e7 b6 bc 04 2b 17 3d
       0.023561805 -0.017700147 -0.022327246 0.036906257
0001a0 eb dd 41 3e 8e 15 e7 be da 14 ca be b7 37 16 be
       0.18932311 -0.45133632 -0.39469033 -0.14669691
0001b0 6d 20 66 3d bf 6b 12 3e fe 90 08 be b0 aa 22 bc
       0.056183267 0.14298914 -0.1333656 -0.00992839
0001c0 9d b5 89 3c 63 10 9b 3e 07 cd 32 3d cb f9 c6 be
       0.016810233 0.3028594 0.04365256 -0.38862452
0001d0 50 83 5e 3d c2 90 a3 3d de e2 8d bd 05 5a 4c be
       0.054324448 0.07986595 -0.06928037 -0.19956215
0001e0 a5 26 7c bd 54 7e 04 be 20 57 a7 3c 29 e1 95 3e
       -0.06156029 -0.12938815 0.020427287 0.29273346
0001f0 0e aa e6 3b b0 6b a2 bd de 28 3a 3e 0d 3c 63 3e
       0.007039315 -0.07930696 0.18179652 0.22190876
000200 9e f7 11 be 25 bb 32 be 09 1d 2b bd a4 d1 10 be
       -0.14254615 -0.17454202 -0.041775737 -0.14142472
000210 97 0c ff bd ba a6 4b be 68 94 f0 bd 21 4c 20 be
       -0.12453573 -0.1988782 -0.11747056 -0.15654041
000220 68 55 3f be 78 94 1d 3d d8 99 0e 3d ac 60 84 bd
       -0.18684924 0.03847167 0.034814686 -0.06463751
000230 f6 e4 83 bd 64 18 bb bd a0 e6 19 be f2 e2 41 bd
       -0.06440155 -0.091355115 -0.15029383 -0.047335573
000240 39 00 32 be f0 a1 aa bc 71 dd 83 be 58 85 38 be
       -0.17382897 -0.020829171 -0.25754884 -0.18019617
000250 15 5e d4 3b b3 6c 5b bd 66 e8 7c bd 35 64 4c be
       0.006480942 -0.05357046 -0.06174507 -0.19960101
000260 6d 76 36 be a4 21 50 be fc dd b9 bd db 1e 7d be
       -0.17818613 -0.20325333 -0.09075543 -0.24718802
000270 a2 e6 09 be 2f 72 7f bd 4b 28 5a bd 1b 36 21 be
       -0.13466886 -0.062364753 -0.053261083 -0.15743296
000280 81 f2 5c 3d aa 9f 68 be 82 e5 ca bd be 79 1b be
       0.053942207 -0.22717157 -0.099070564 -0.1518316
000290 00 44 6b bd c3 36 48 3d 03 6d 2c 3d 98 45 57 bd
       -0.057437897 0.04888035 0.04209615 -0.052556604
0002a0 d3 b8 8d be c5 c0 68 be d8 d9 7f bd a4 41 3e bd
       -0.27680072 -0.22729786 -0.06246361 -0.04644932
0002b0 12 df be bd c1 ba 08 be 94 0d c7 bd 0c 95 2c 3d
       -0.09319891 -0.13352491 -0.09719387 0.04213433
0002c0 f4 ca 9e 3d cc 3b 31 be 55 b3 a6 bd 8d 8c 80 be
       0.07753554 -0.17307967 -0.081396736 -0.25107232
0002d0 28 4a e9 bd 70 d2 05 be 70 a1 d6 3c 3d 6b 85 be
       -0.11391097 -0.13068557 0.026200026 -0.2605838
0002e0 42 2e 04 bd 89 17 04 be 68 e1 9a bd 21 d0 11 be
       -0.032270677 -0.12899603 -0.07562524 -0.14239551
0002f0 79 f8 25 be 47 ec 80 be 10 21 01 be ce 20 02 be
       -0.16208066 -0.25180265 -0.12610269 -0.12707826
000300 db 87 54 be e7 e8 6f bd 66 40 b2 bc 0d 0d 81 bd
       -0.2075495 -0.058571722 -0.021759223 -0.06301317
000310 0a 72 f7 bd 0e bc 02 be 38 25 2a bd 50 8f 1d be
       -0.12082298 -0.1276705 -0.0415394 -0.153867
000320 c2 2d 35 be b3 81 04 be 16 06 f9 bd e3 80 a2 bd
       -0.17693236 -0.12940101 -0.12159364 -0.079347394
000330 77 68 36 be 0d d8 26 bd 52 5e 0f bd 76 e3 44 3d
       -0.17813288 -0.040733386 -0.03500206 0.048068486
000340 b3 0c 44 be 74 32 bb bd 7c 0e 25 be 79 2f 3f be
       -0.1914547 -0.091404825 -0.16118807 -0.18670453
000350 b8 fa 0c bd b0 6b 3a bd 49 34 64 bd dd b7 72 be
       -0.03441879 -0.045512855 -0.055713926 -0.23702951
000360 3c 0c 6d be f3 75 35 be 91 a0 23 bd 4f 57 e5 bd
       -0.23149198 -0.17720775 -0.03994805 -0.111982934
000370 fc 4d 05 be 26 e8 3c 3c c9 1f 83 be 92 9b 22 be
       -0.1301803 0.011529958 -0.25610188 -0.15879658
000380 f8 1d 78 3c c9 2e 2c be a1 28 01 be c5 17 b4 bd
       0.015143864 -0.16814722 -0.12613155 -0.08793596
000390 68 27 f9 bc 7c 0a d9 bd b2 29 14 3d 54 6a 43 bd
       -0.030414298 -0.10597703 0.036172576 -0.047708824
0003a0 75 3f 37 be 64 e9 31 be c5 89 b8 bd 4b 9c 60 bd
       -0.178953 -0.17374188 -0.090106525 -0.054836553
0003b0 a8 15 14 3d 99 16 90 be f1 a1 82 3d b0 97 f4 bc
       0.036153466 -0.2814224 0.06378544 -0.029857486
0003c0 68 42 c0 3d 06 ea 75 bd 34 02 0a be fe a2 53 be
       0.09387666 -0.060037635 -0.13477403 -0.20667645
0003d0 a4 c5 ed bd f8 80 18 be 86 2f df bd fb 6f 62 bd
       -0.116099626 -0.14892948 -0.10897736 -0.055282574
0003e0 e4 bd 42 bd 3e 8f 13 be 46 93 66 bd f6 68 80 be
       -0.047544375 -0.14410111 -0.056292795 -0.2508008
0003f0 16 1d cc bc c3 db 85 be 69 cf 22 be e5 34 00 be
       -0.024916213 -0.26144227 -0.15899433 -0.12520178

fc3.bias f4 [27]
000000 da ba 24 3e 23 23 52 ba 22 c0 c6 bd 27 9d 69 be
       0.16086903 -0.00080161 -0.09704615 -0.22813855
000010 90 ff 89 3e 1f 5b a3 3d 00 f0 f4 bc af 5e b4 bd
       0.2695279 0.07976364 -0.029899597 -0.08807122
000020 c5 77 d3 bd a1 63 9a bb f4 a1 f0 3d fa 44 77 be
       -0.103255786 -0.0047115837 0.1174964 -0.24147406
000030 3e cc 38 3d 79 4a 8b 3e 52 ee 40 3d f4 4d 82 be
       0.045116656 0.27205256 0.04710228 -0.254501
000040 f4 f9 db 3b 5b 9b 54 bd bf 3f 84 be 2c df 32 be
       0.0067131463 -0.05190597 -0.25829884 -0.17467946
000050 8b a5 9d bd 57 44 cf bd 17 df 32 bd ae 66 6a be
       -0.076975904 -0.10120457 -0.043669786 -0.22890732
000060 99 8b 01 be 06 93 b0 3d 73 cb e4 bd
       -0.12650909 0.086217925 -0.11171617

exp_avg f4 [128, 4]
000000 04 00 00 00 04 00 00 00 04 00 00 00 04 00 00 00
       6e-45 6e-45 6e-45 6e-45
000010 b7 b5 14 b3 06 6d 09 b5 80 c1 04 b5 52 82 7b 34
       -3.4624204e-08 -5.1195127e-07 -4.945541e-07 2.3423607e-07
000020 54 40 f1 b3 4f 41 51 34 84 12 60 34 fb c1 8a 33
       -1.1234138e-07 1.9488401e-07 2.0868362e-07 6.4614106e-08
000030 88 0b 74 b4 74 10 12 b4 b6 d9 f6 b3 e9 55 ba 32
       -2.2728466e-07 -1.3603295e-07 -1.1494869e-07 2.1692317e-08
000040 86 3f 2a 34 5c b6 16 b4 79 b4 2e b4 ea 34 9f b3
       1.5855593e-07 -1.403618e-07 -1.6270668e-07 -7.4136395e-08
000050 00 00 00 00 00 00 00 00 00 00 00 00 00 00 00 00
       0.0 0.0 0.0 0.0
000060 00 00 00 00 00 00 00 00 00 00 00 00 00 00 00 00
       0.0 0.0 0.0 0.0
000070 98 7d f2 b3 fb 3b f2 b3 86 d0 ec b3 2c 2b c2 b3
       -1.12918485e-07 -1.12799135e-07 -1.10275366e-07 -9.041682e-08
000080 fc 7b fd 31 9b ed b7 33 f9 b2 99 33 72 42 28 b4
       7.3773645e-09 8.564822e-08 7.1571726e-08 -1.5670392e-07
000090 f5 90 4c b4 45 85 fd b2 64 ae 56 31 82 10 5f 34
       -1.9051716e-07 -2.951368e-08 3.1240228e-09 2.0774499e-07
0000a0 38 f8 2b 34 d9 75 65 b3 25 1b 75 b3 14 3b 0f 34
       1.6015917e-07 -5.34254e-08 -5.7068196e-08 1.3339405e-07
0000b0 aa 05 2a b3 58 df f0 b3 18 46 03 b4 ed 0f 33 b4
       -3.958636e-08 -1.1216497e-07 -1.2225826e-07 -1.6676468e-07
0000c0 dc fd cd 32 7e 68 77 b4 16 f7 8c b4 7a 9b ba b4
       2.3980583e-08 -2.3041682e-07 -2.625681e-07 -3.4758324e-07
0000d0 94 f4 6a 33 c4 af 39 b2 60 ea 2e b3 4f d3 9e b4
       5.4704813e-08 -1.0808382e-08 -4.0725695e-08 -2.958354e-07
0000e0 00 00 00 00 00 00 00 00 00 00 00 00 00 00 00 00
       0.0 0.0 0.0 0.0
0000f0 00 00 00 00 00 00 00 00 00 00 00 00 00 00 00 00
       0.0 0.0 0.0 0.0
000100 12 79 43 32 35 4e f6 32 a8 48 c2 32 be 6f 83 b3
       1.1378022e-08 2.8673734e-08 2.2617613e-08 -6.120489e-08
000110 00 00 00 00 00 00 00 00 00 00 00 00 00 00 00 00
       0.0 0.0 0.0 0.0
000120 00 00 00 00 00 00 00 00 00 00 00 00 00 00 00 00
       0.0 0.0 0.0 0.0
000130 22 09 82 b4 5a d0 72 b3 16 dd 93 b3 b8 29 de b4
       -2.4221032e-07 -5.653451e-08 -6.885436e-08 -4.1381077e-07
000140 14 cc 7c b4 93 86 d7 b3 da 19 9f b3 d0 6c 8c 33
       -2.3543572e-07 -1.00361966e-07 -7.408717e-08 6.539051e-08
000150 3c b4 33 33 1c be 84 32 5c b2 01 31 76 df 05 b4
       4.1840607e-08 1.5453274e-08 1.8873356e-09 -1.2467885e-07
000160 50 65 ff 31 24 47 f3 b3 d0 c2 16 b4 3f 0b a3 b4
       7.4329947e-09 -1.132851e-07 -1.4040711e-07 -3.0369299e-07
000170 8a e0 42 b4 71 40 be b3 06 11 99 b3 0e df d4 32
       -1.8149345e-07 -8.859286e-08 -7.127714e-08 2.4781482e-08
000180 7f f9 2e b4 3a 59 11 b4 ca d2 e6 b3 a4 d2 2b 34
       -1.6295779e-07 -1.3536638e-07 -1.0748552e-07 1.6002247e-07
000190 63 a6 0f 32 7d 38 68 b4 94 75 66 b4 89 7c dd 32
       8.3615275e-09 -2.1627234e-07 -2.1463194e-07 2.5784418e-08
0001a0 12 ed a8 b4 09 8d f8 33 62 a5 17 34 ac cd 07 b2
       -3.146493e-07 1.1574054e-07 1.4123137e-07 -7.904799e-09
0001b0 99 79 00 b4 0a 8d 23 b4 22 3d 1d b4 6f 01 69 b3
       -1.1965166e-07 -1.5231868e-07 -1.4644004e-07 -5.4250844e-08
0001c0 ea 7f 05 b4 cf 6a 6e 33 58 c4 9e 33 02 9f b5 33
       -1.2433125e-07 5.5510835e-08 7.393163e-08 8.457393e-08
0001d0 7b 57 98 b4 76 4d 4e 34 e2 d1 68 34 5b c1 a2 32
       -2.8375857e-07 1.9213425e-07 2.1683039e-07 1.894721e-08
0001e0 7a 5b b7 33 3d 8b e8 32 03 40 13 b2 b0 68 b7 b4
       8.538241e-08 2.7071673e-08 -8.571081e-09 -3.4162576e-07
0001f0 0e 15 b3 b4 91 32 94 b3 1d 53 79 b3 9f 71 66 b4
       -3.3356667e-07 -6.900985e-08 -5.805042e-08 -2.1461754e-07
000200 06 76 06 31 5e 68 2e 30 c3 27 de b0 18 5e db b2
       1.9566655e-09 6.3449146e-10 -1.6163927e-09 -2.5537744e-08
000210 61 e9 50 b3 5b 01 aa b3 82 e5 c0 b3 be 93 3d b4
       -4.864103e-08 -7.9164884e-08 -8.982444e-08 -1.7655745e-07
000220 6a 34 ef b3 68 f4 8b b3 16 a5 85 b3 a0 22 a3 b3
       -1.1138839e-07 -6.517149e-08 -6.223324e-08 -7.596577e-08
000230 6a 09 c8 b3 89 40 64 b4 31 16 54 b4 a0 fb bf 33
       -9.314938e-08 -2.1257632e-07 -1.9752112e-07 8.939901e-08
000240 00 00 00 00 00 00 00 00 00 00 00 00 00 00 00 00
       0.0 0.0 0.0 0.0
000250 31 ec 88 33 5b 43 c9 b3 90 24 03 b4 40 e0 93 b4
       6.3759565e-08 -9.372044e-08 -1.2213627e-07 -2.7544047e-07
000260 b8 79 21 b3 be 29 c8 b3 38 af b9 b3 4d 80 46 33
       -3.7596436e-08 -9.3208186e-08 -8.646606e-08 4.6217156e-08
000270 94 8e 55 33 76 87 3e b4 34 d6 3e b4 44 e6 5c 33
       4.97226e-08 -1.774441e-07 -1.7773056e-07 5.1432167e-08
000280 26 e3 b8 b2 e3 43 97 b3 b4 73 c9 b3 3d e8 97 b4
       -2.1523714e-08 -7.043834e-08 -9.380838e-08 -2.8294917e-07
000290 b1 41 1e b4 90 67 56 b3 c1 92 53 b3 72 24 18 b4
       -1.4738795e-07 -4.9919947e-08 -4.9260738e-08 -1.4169362e-07
0002a0 5a 2a 4a 34 f1 ca 91 b3 8c 19 c4 b3 d4 16 91 b3
       1.8828123e-07 -6.7890035e-08 -9.131608e-08 -6.756241e-08
0002b0 fa ae 74 b3 d3 f8 38 b4 e3 f9 3a b4 55 a5 b1 b3
       -5.6969817e-08 -1.7226857e-07 -1.7413508e-07 -8.2722785e-08
0002c0 60 12 99 34 5c a9 83 33 9b 07 66 33 98 0a 62 34
       2.851184e-07 6.130969e-08 5.3557965e-08 2.1051744e-07
0002d0 46 cd 66 33 9a 96 a5 b3 d3 a8 e4 b3 49 f1 a2 b4
       5.3737743e-08 -7.7108055e-08 -1.0647786e-07 -3.035041e-07
0002e0 e1 af 05 b4 43 c5 80 b3 65 21 86 b3 f8 33 26 b4
       -1.2450575e-07 -5.996346e-08 -6.245936e-08 -1.5478861e-07
0002f0 62 3e df b4 2b 4c d3 33 4e 48 e4 33 b6 1a b4 b4
       -4.1582376e-07 9.839308e-08 1.06302295e-07 -3.3547047e-07
000300 67 e7 9e b4 57 6c 31 b4 a4 6d 09 b4 1a dc 22 34
       -2.959816e-07 -1.6523823e-07 -1.2799006e-07 1.5167498e-07
000310 fc 8c a4 b4 94 f5 39 33 b1 ae 59 33 b8 b6 72 b4
       -3.064996e-07 4.329702e-08 5.068313e-08 -2.2604479e-07
000320 83 83 a4 b4 68 77 c9 b3 9a d0 8b b3 8c 8d 07 33
       -3.0643068e-07 -9.381512e-08 -6.510636e-08 3.1560873e-08
000330 0f b6 4e b3 f9 35 9c 32 11 01 c8 32 fc 80 04 33
       -4.8128694e-08 1.8185334e-08 2.328355e-08 3.0850956e-08
000340 b8 a4 c6 b3 ea e8 02 b4 5b 7f 08 b4 eb cc 2e b4
       -9.250056e-08 -1.2191927e-07 -1.2712319e-07 -1.6279562e-07
000350 00 00 00 00 00 00 00 00 00 00 00 00 00 00 00 00
       0.0 0.0 0.0 0.0
000360 73 3b 00 b4 6a 5c 90 b0 3a 33 4d b2 6c b8 86 b4
       -1.1942556e-07 -1.0503645e-09 -1.1944218e-08 -2.509363e-07
000370 8d 2c 22 b4 2c 1e a1 b3 4e d1 7e b3 c3 ed 22 33
       -1.5103633e-07 -7.502635e-08 -5.9329345e-08 3.7934807e-08
000380 ee 35 1e b4 cb b4 3d b3 22 63 51 b3 5b 26 62 b4
       -1.4734516e-07 -4.4169422e-08 -4.8751765e-08 -2.1061844e-07
000390 ad 67 92 b4 fc 49 f8 b3 68 f3 c7 b3 b8 94 f8 b1
       -2.7270053e-07 -1.15618576e-07 -9.310935e-08 -7.2346573e-09
0003a0 9a 85 9e b4 ce 29 4e 34 a9 78 56 34 84 2e 5f b4
       -2.9527e-07 1.9200453e-07 1.9974199e-07 -2.0785416e-07
0003b0 51 8c 7f b4 98 c8 9e b3 e6 52 43 b3 e1 2d db 33
       -2.3799772e-07 -7.393936e-08 -4.547737e-08 1.02063275e-07
0003c0 23 fc 10 b4 7d 93 ee 32 09 5e 17 33 c7 d8 33 b3
       -1.3502772e-07 2.7773916e-08 3.524295e-08 -4.1873843e-08
0003d0 ae 30 a6 b3 86 d7 19 b4 95 52 3f b4 52 0e 03 b5
       -7.738832e-08 -1.4327642e-07 -1.7818304e-07 -4.882214e-07
0003e0 7d 6f 8e b4 d7 35 3f b4 f9 b9 27 b4 cf 5f 9d b2
       -2.653068e-07 -1.7807848e-07 -1.5620743e-07 -1.8320774e-08
0003f0 66 15 7a 33 0a af 4e 33 ea 42 1a 33 cd 43 af b3
       5.8227123e-08 4.812231e-08 3.5916777e-08 -8.1614054e-08

exp_avg_sq f4 [128, 4]
000000 82 77 76 29 90 15 47 2e 68 ff 83 2e c0 23 5d 2f
       5.472663e-14 4.5266513e-11 6.0025596e-11 2.0112534e-10
000010 ef 67 a3 30 68 20 3e 31 4a 01 43 31 50 d6 f4 30
       1.1889351e-09 2.766706e-09 2.8376967e-09 1.7814248e-09
000020 ab 40 07 35 bc 24 82 34 41 11 7c 34 e4 3d 50 34
       5.0385523e-07 2.4241115e-07 2.3475606e-07 1.9394025e-07
000030 c3 63 d3 33 e9 d3 04 34 25 68 ff 33 bb 3e 9c 33
       9.8436e-08 1.237055e-07 1.18933066e-07 7.275727e-08
000040 00 12 56 33 7d 2d 04 34 e7 60 12 34 c5 94 4b 34
       4.984213e-08 1.2310007e-07 1.3632562e-07 1.895997e-07
000050 00 00 00 00 00 00 00 00 00 00 00 00 00 00 00 00
       0.0 0.0 0.0 0.0
000060 00 00 00 00 00 00 00 00 00 00 00 00 00 00 00 00
       0.0 0.0 0.0 0.0
000070 7a f9 28 33 59 79 6e 33 5b e3 68 33 dd 81 19 33
       3.9342446e-08 5.552406e-08 5.4223488e-08 3.57412e-08
000080 36 36 1a 34 03 81 3a 34 77 c8 35 34 c9 e5 02 34
       1.436209e-07 1.7369534e-07 1.6929867e-07 1.2190789e-07
000090 09 53 2a 34 6e 2f d1 33 90 7c da 33 a5 ae 6c 34
       1.5862692e-07 9.740948e-08 1.0174074e-07 2.2042748e-07
0000a0 aa 0b a1 33 b4 90 08 34 42 33 04 34 6e 30 5c 33
       7.4992684e-08 1.271863e-07 1.2312105e-07 5.1266788e-08
0000b0 0b ab 8f 33 8b 42 97 33 cb b4 99 33 66 21 6d 33
       6.690069e-08 7.0435895e-08 7.157504e-08 5.521124e-08
0000c0 41 36 28 32 dd 15 23 33 06 8d 44 33 46 59 e0 33
       9.791223e-09 3.797128e-08 4.5763066e-08 1.04470516e-07
0000d0 55 1f e9 33 32 ff d9 33 5c fb d1 33 19 fc 3f 34
       1.0855607e-07 1.015127e-07 9.778043e-08 1.7879974e-07
0000e0 00 00 00 00 00 00 00 00 00 00 00 00 00 00 00 00
       0.0 0.0 0.0 0.0
0000f0 00 00 00 00 00 00 00 00 00 00 00 00 00 00 00 00
       0.0 0.0 0.0 0.0
000100 3e 2b 28 30 7c 5b 58 30 e3 bd 39 30 28 d3 00 33
       6.1179495e-10 7.871035e-10 6.7572453e-10 2.9994368e-08
000110 00 00 00 00 00 00 00 00 00 00 00 00 00 00 00 00
       0.0 0.0 0.0 0.0
000120 00 00 00 00 00 00 00 00 00 00 00 00 00 00 00 00
       0.0 0.0 0.0 0.0
000130 d8 30 a3 34 04 d7 ac 34 3b 83 b0 34 44 5a d4 34
       3.0396654e-07 3.219394e-07 3.2878037e-07 3.9553754e-07
000140 b1 35 6c 34 66 c6 e7 33 3b 90 e4 33 b0 cc f8 33
       2.1998746e-07 1.0792864e-07 1.0643313e-07 1.15856324e-07
000150 7e 8d b9 30 87 1e 2e 30 bf 10 92 30 ab f4 83 33
       1.3500736e-09 6.3344213e-10 1.0627658e-09 6.144668e-08
000160 b4 28 b0 33 b8 10 db 33 02 8e f2 33 03 bb 8b 34
       8.2030425e-08 1.0201023e-07 1.1294834e-07 2.6026837e-07
000170 f8 14 9e 33 54 43 66 33 e2 34 63 33 3b ce 2b 33
       7.3612625e-08 5.3612283e-08 5.2900653e-08 4.0001606e-08
000180 97 4a f9 33 4b a1 a2 33 48 69 97 33 0f 55 8c 33
       1.1608534e-07 7.573052e-08 7.050636e-08 6.53473e-08
000190 7f 1e 8d 34 bf e6 a4 34 83 38 a1 34 03 98 30 34
       2.6285485e-07 3.071527e-07 3.0029705e-07 1.6446579e-07
0001a0 e8 1e 67 34 0a 17 16 34 6c 69 15 34 ad e7 a5 33
       2.1524795e-07 1.397822e-07 1.3915059e-07 7.725553e-08
0001b0 24 4b 04 34 f1 79 43 34 0d cf 40 34 24 34 f5 33
       1.2320794e-07 1.8205152e-07 1.7956718e-07 1.1418186e-07
0001c0 28 6d 23 34 6b 07 87 33 4e 02 77 33 31 8f 08 33
       1.5220269e-07 6.287777e-08 5.7511265e-08 3.17952e-08
0001d0 94 4a 0b 35 d3 70 b6 34 91 07 b4 34 f2 bc 9f 34
       5.189006e-07 3.3982232e-07 3.3533118e-07 2.9753534e-07
0001e0 c6 02 4f 33 6d c1 8c 33 42 0f 8e 33 74 39 18 34
       4.8198466e-08 6.554442e-08 6.615166e-08 1.4177004e-07
0001f0 9f b2 3e 34 0d 6b 27 34 68 ba 24 34 0b 5a f2 33
       1.7760111e-07 1.5592032e-07 1.5341504e-07 1.1285382e-07
000200 48 cf 2a 2d cb 34 0c 2c 21 2c fa 2c 29 7d 27 31
       9.709407e-12 1.9924503e-12 7.1103267e-12 2.4372844e-09
000210 65 60 db 32 29 71 1f 33 a1 ca 33 33 fd e5 a5 33
       2.553879e-08 3.712299e-08 4.1860975e-08 7.725246e-08
000220 d5 0f 17 33 d1 55 c8 32 dd 7a bd 32 79 9b 78 32
       3.5171826e-08 2.332209e-08 2.2058368e-08 1.447085e-08
000230 5c 13 32 34 88 83 8d 34 b2 5e 8a 34 5e c4 bf 33
       1.6584585e-07 2.6358998e-07 2.5773403e-07 8.9298496e-08
000240 00 00 00 00 00 00 00 00 00 00 00 00 00 00 00 00
       0.0 0.0 0.0 0.0
000250 10 d9 79 33 7e 23 64 33 8d 08 81 33 5a f9 05 34
       5.8172247e-08 5.3117667e-08 6.008586e-08 1.2477304e-07
000260 85 02 19 33 df 4d 13 33 16 a0 0c 33 c8 c0 48 33
       3.562538e-08 3.4296928e-08 3.2741887e-08 4.6741462e-08
000270 e6 c1 02 34 2e 75 39 34 9c 63 36 34 55 b9 92 33
       1.2177733e-07 1.7272097e-07 1.6986309e-07 6.8323665e-08
000280 74 de e9 33 c5 1b 0a 34 3a dc 05 34 44 a7 70 34
       1.0890372e-07 1.2862354e-07 1.2466708e-07 2.2412593e-07
000290 33 f8 b1 33 29 83 f6 32 db e9 ed 32 58 d5 12 33
       8.287352e-08 2.8697814e-08 2.7696776e-08 3.418731e-08
0002a0 48 0f 0b 34 77 eb 12 34 17 dd 14 34 1e 2b 39 34
       1.2950943e-07 1.3682971e-07 1.3864006e-07 1.7245154e-07
0002b0 85 57 ee 33 ea 2c 40 34 7c b4 42 34 d9 9c a0 33
       1.1098658e-07 1.7897733e-07 1.8133318e-07 7.479111e-08
0002c0 dd 91 90 33 9f be aa 33 cb 70 a9 33 62 0e 96 33
       6.732055e-08 7.950916e-08 7.890193e-08 6.9875355e-08
0002d0 db 7c 55 33 b9 ae 00 33 b1 a1 16 33 a7 a8 0a 34
       4.9706482e-08 2.996123e-08 3.5071654e-08 1.2913607e-07
0002e0 c6 1f dc 33 3e 45 61 33 75 bc 57 33 2b ca 5e 33
       1.0250328e-07 5.244987e-08 5.022999e-08 5.1872274e-08
0002f0 8c 7e 33 34 68 fc 30 33 ff 72 28 33 9b b3 c0 33
       1.6716712e-07 4.1207755e-08 3.9220136e-08 8.973367e-08
000300 29 be 06 34 ef cf 6d 33 e3 d4 43 33 ca e0 0c 32
       1.2548902e-07 5.5369977e-08 4.5595595e-08 8.200184e-09
000310 2d c3 71 34 62 e8 fe 33 c0 b9 fe 33 94 c0 ae 33
       2.2515879e-07 1.1870067e-07 1.18615844e-07 8.137536e-08
000320 2f e8 bb 33 40 b1 95 33 d2 31 8d 33 81 78 5a 33
       8.7501e-08 6.970595e-08 6.5748864e-08 5.0866678e-08
000330 04 d9 17 33 c0 0e 68 32 1e f8 73 32 93 60 06 33
       3.53548e-08 1.3507531e-08 1.4200877e-08 3.128714e-08
000340 ce 59 99 33 8d df b1 33 ce db b3 33 66 38 aa 33
       7.140953e-08 8.2828684e-08 8.375319e-08 7.926501e-08
000350 00 00 00 00 00 00 00 00 00 00 00 00 00 00 00 00
       0.0 0.0 0.0 0.0
000360 e7 b1 db 33 45 c9 e3 33 46 c0 e1 33 2a ec 08 34
       1.02303424e-07 1.0607122e-07 1.0512353e-07 1.2751903e-07
000370 78 55 ee 32 8f 17 bb 32 e9 3d a6 32 18 7d 9a 32
       2.7745713e-08 2.1780378e-08 1.9353097e-08 1.7984846e-08
000380 fb c6 5c 33 51 6d 2f 33 43 66 2f 33 91 02 47 33
       5.1403713e-08 4.0844785e-08 4.083837e-08 4.6335632e-08
000390 f0 7a 11 34 73 6c f2 33 6d 79 e4 33 5f c6 8e 33
       1.3548902e-07 1.128873e-07 1.06391646e-07 6.648474e-08
0003a0 e0 23 67 34 d4 46 f9 33 99 a7 ed 33 08 19 b4 33
       2.1526603e-07 1.16078496e-07 1.1066658e-07 8.386456e-08
0003b0 a8 8b a0 33 5a b4 28 33 4e f8 14 33 49 a8 fd 32
       7.475984e-08 3.9279577e-08 3.4684767e-08 2.9529604e-08
0003c0 97 fc 1e 33 52 0a 92 31 7f ae b0 31 cb e7 b3 32
       3.701697e-08 4.2503325e-09 5.142112e-09 2.094375e-08
0003d0 69 de 6a 32 f8 ca 17 33 6a da 3d 33 01 e1 33 34
       1.3671163e-08 3.5342026e-08 4.4203638e-08 1.675253e-07
0003e0 e1 46 e3 33 c6 3d c6 33 ec fb b9 33 76 e4 89 33
       1.0583404e-07 9.23133e-08 8.660558e-08 6.4211164e-08
0003f0 3c e7 0b 34 fb 07 4c 34 e0 5b 4d 34 1d 82 30 34
       1.3029506e-07 1.9001884e-07 1.9125537e-07 1.6438612e-07

exp_avg f4 [128]
000000 04 00 00 00 3e 43 8a b5 b2 e7 fd b4 82 be 2b 33
       6e-45 -1.0301371e-06 -4.7293503e-07 3.9987306e-08
000010 e6 07 11 b5 00 00 00 00 00 00 00 00 4e 58 86 33
       -5.4028203e-07 0.0 0.0 6.255924e-08
000020 f4 35 a0 b4 5d 92 6e b4 cc 04 15 b5 3c cd 83 33
       -2.9841578e-07 -2.2218724e-07 -5.5513806e-07 6.137495e-08
000030 77 26 a2 b3 09 52 57 b4 00 00 00 00 00 00 00 00
       -7.5507096e-08 -2.005328e-07 0.0 0.0
000040 78 3a 24 b4 00 00 00 00 00 00 00 00 a1 c3 73 34
       -1.5294961e-07 0.0 0.0 2.2702308e-07
000050 b4 56 a9 b4 55 27 09 b4 f8 8d df b3 26 1b 7a 33
       -3.1541788e-07 -1.2773428e-07 -1.0410071e-07 5.8232352e-08
000060 0e b0 90 b4 d8 ae 2a b3 49 85 52 b4 11 cc 85 33
       -2.6950187e-07 -3.974023e-08 -1.9606263e-07 6.2304146e-08
000070 54 cf 15 b5 d7 5b ba b4 d2 34 ef b3 86 df d7 33
       -5.580853e-07 -3.4712022e-07 -1.1138913e-07 1.0052376e-07
000080 b9 b1 26 b4 69 42 c9 b3 b2 09 e9 b3 98 ef 25 b3
       -1.552461e-07 -9.371872e-08 -1.08516716e-07 -3.8634965e-08
000090 00 00 00 00 1d f2 41 b3 01 8a 28 b4 fb ae 30 b4
       0.0 -4.5156515e-08 -1.5696425e-07 -1.6454935e-07
0000a0 50 3a 8e b4 4e 40 05 b3 01 1b d5 b4 eb ea 04 33
       -2.649199e-07 -3.102496e-08 -3.969399e-07 3.09473e-08
0000b0 d9 8a 12 b5 02 de 95 b3 8b 33 0e b4 d8 5a 2c 34
       -5.459129e-07 -6.978736e-08 -1.3243532e-07 1.6051797e-07
0000c0 57 a6 2a b4 5a c4 12 33 8c 0c 51 33 19 54 22 b5
       -1.5892998e-07 3.4171855e-08 4.8673016e-08 -6.047208e-07
0000d0 2a 78 32 33 00 00 00 00 09 75 3b b4 f1 2c 63 b3
       4.1553143e-08 0.0 -1.7458309e-07 -5.289343e-08
0000e0 d0 48 fb 31 a3 21 65 33 bd 03 32 b4 0a 20 8e b3
       7.3133393e-09 5.334881e-08 -1.6578902e-07 -6.618218e-08
0000f0 09 45 91 b4 b7 95 c6 b3 0e 8b 5a 33 7f 1f a8 b4
       -2.7058584e-07 -9.2473265e-08 5.088355e-08 -3.1315355e-07
000100 00 00 00 00 c2 ff 36 b4 12 9a 9c b4 0e f6 3e 32
       0.0 -1.7043115e-07 -2.9169365e-07 1.1115402e-08
000110 62 c4 02 b4 a7 cb 22 b4 cc f4 51 b4 bf 63 5e b4
       -1.2178637e-07 -1.5161514e-07 -1.9553698e-07 -2.0711649e-07
000120 00 00 00 00 dc bf b8 b4 d7 f1 7e b2 5c a0 67 b3
       0.0 -3.4412267e-07 -1.4839734e-08 -5.3929725e-08
000130 ab 1c 3f 34 1e 36 8e b4 de 2e 0a 34 72 f5 1d 34
       1.779869e-07 -2.6488937e-07 1.2869302e-07 1.4711057e-07
000140 87 e7 26 34 00 00 00 00 dc f7 66 b4 dc 1f 78 34
       1.5544184e-07 0.0 -2.151059e-07 2.310839e-07
000150 8a 92 8c b4 60 6a 0b b4 d6 06 aa b4 94 d7 08 33
       -2.6183653e-07 -1.2984083e-07 -3.166994e-07 3.1861035e-08
000160 f9 a3 26 b4 00 00 00 00 c7 b9 97 b4 94 b6 12 b4
       -1.5519608e-07 0.0 -2.8261113e-07 -1.3663731e-07
000170 00 00 00 00 00 00 00 00 aa 98 16 33 3a 6a 61 b4
       0.0 0.0 3.5063444e-08 -2.0993403e-07
000180 7e 51 36 34 98 4c bd b4 82 5c d5 b4 7a 37 38 b4
       1.6979718e-07 -3.5259723e-07 -3.974165e-07 -1.7156518e-07
000190 a1 a7 a7 b3 b9 54 e0 b4 17 2a 8d b4 00 00 00 00
       -7.807035e-08 -4.1784895e-07 -2.629392e-07 0.0
0001a0 55 c8 a1 b4 09 85 98 b4 6d 05 06 b4 00 00 00 00
       -3.0134348e-07 -2.8409002e-07 -1.2481696e-07 0.0
0001b0 e1 6b fb b4 ea 7a 2b 33 dd 58 ab b4 40 6e d3 b4
       -4.6830885e-07 3.992583e-08 -3.191589e-07 -3.938203e-07
0001c0 6a e2 f5 b3 98 36 8e b4 e0 e7 c0 b3 00 00 00 00
       -1.1449886e-07 -2.6489283e-07 -8.9828745e-08 0.0
0001d0 60 2a de b4 67 e5 84 b4 11 1b 57 b4 3e 9f 20 b4
       -4.1381554e-07 -2.4753828e-07 -2.0033282e-07 -1.4959093e-07
0001e0 8e a2 f1 b3 9c 22 a3 b4 04 ab 15 b1 ef fd 87 33
       -1.12520055e-07 -3.0386298e-07 -2.1779565e-09 6.3326176e-08
0001f0 5b 7a 08 b4 00 00 00 00 80 bb 88 33 8a 9a 5f b4
       -1.27105e-07 0.0 6.3670996e-08 -2.0824714e-07

exp_avg_sq f4 [128]
000000 1b 50 66 2e 67 9d f7 33 80 76 eb 34 34 b0 0f 33
       5.2367093e-11 1.1530465e-07 4.385838e-07 3.3455038e-08
000010 e7 c3 8a 34 00 00 00 00 00 00 00 00 6a 1d eb 32
       2.584704e-07 0.0 0.0 2.7370977e-08
000020 4a 8d 0e 34 b5 59 d2 33 bc 5f 72 34 38 d1 8b 33
       1.3276181e-07 9.795205e-08 2.2572834e-07 6.5107486e-08
000030 09 83 1e 33 b7 c1 ae 33 00 00 00 00 00 00 00 00
       3.6906417e-08 8.137743e-08 0.0 0.0
000040 07 9f bc 33 00 00 00 00 00 00 00 00 d8 35 3d 34
       8.783359e-08 0.0 0.0 1.7621585e-07
000050 f8 5c 08 34 34 15 82 33 7a 2a ba 33 a8 a9 f6 32
       1.2699809e-07 6.0574536e-08 8.6690264e-08 2.871532e-08
000060 72 23 b1 33 10 07 18 34 b6 24 c4 33 49 13 9a 33
       8.248652e-08 1.4158672e-07 9.133639e-08 7.174692e-08
000070 ea d6 56 34 15 85 fb 34 a3 7b 87 33 d9 13 9c 33
       2.0008488e-07 4.6849223e-07 6.308917e-08 7.267926e-08
000080 85 50 1f 33 df 36 c7 32 22 0c d4 32 c8 01 b8 33
       3.7093304e-08 2.3191602e-08 2.4685566e-08 8.568492e-08
000090 00 00 00 00 e3 51 64 33 ef 30 10 33 49 7b b0 33
       0.0 5.3159862e-08 3.3572118e-08 8.218064e-08
0000a0 ab 78 a3 33 53 55 c8 32 74 d0 2c 34 d4 1e 70 33
       7.6122284e-08 2.3321865e-08 1.6094583e-07 5.5907392e-08
0000b0 3f c4 45 34 5b c1 0c 33 e4 64 32 33 96 4b b4 33
       1.8418449e-07 3.2772146e-08 4.1535614e-08 8.395652e-08
0000c0 1d 87 4f 33 98 47 89 33 f1 8e d1 32 9f f5 6d 34
       4.8318828e-08 6.3925825e-08 2.4395804e-08 2.2161701e-07
0000d0 92 df 20 33 00 00 00 00 13 ed 97 33 a8 29 50 32
       3.745624e-08 0.0 7.074609e-08 1.2116665e-08
0000e0 09 36 d0 32 36 85 29 33 c9 28 25 34 bc 3b d7 32
       2.423896e-08 3.9469533e-08 1.538166e-07 2.5056458e-08
0000f0 7e 3b 87 34 c9 a7 8f 33 88 4f 14 33 d6 3b 3f 34
       2.5188996e-07 6.689476e-08 3.453127e-08 1.781003e-07
000100 00 00 00 00 30 ae 8c 33 46 4c f8 33 a3 9a 21 33
       0.0 6.5509425e-08 1.1562274e-07 3.7626375e-08
000110 fd 86 22 33 01 44 81 33 58 d7 0d 34 ac 36 94 33
       3.7841335e-08 6.0194004e-08 1.320999e-07 6.901732e-08
000120 00 00 00 00 f1 39 d8 33 32 60 d5 33 2b 56 70 32
       0.0 1.0068823e-07 9.936083e-08 1.3989431e-08
000130 0f 1c 9d 33 8a 6b bb 33 7c b0 45 33 0f c3 b9 33
       7.315986e-08 8.727427e-08 4.602815e-08 8.650215e-08
000140 a1 10 e1 33 00 00 00 00 af 01 c7 33 1c 0d 2e 34
       1.0480404e-07 0.0 9.266966e-08 1.6209782e-07
000150 b3 28 d1 33 af 43 a7 32 cf ed 1e 34 80 37 3b 32
       9.739724e-08 1.9472138e-08 1.4801411e-07 1.0897452e-08
000160 88 10 94 32 00 00 00 00 05 26 29 34 f1 49 07 34
       1.7236985e-08 0.0 1.5753183e-07 1.2599754e-07
000170 00 00 00 00 00 00 00 00 36 28 f6 32 56 83 1c 34
       0.0 0.0 2.8656455e-08 1.4576412e-07
000180 b1 9b a6 33 19 27 86 34 5e 69 fd 33 bd c3 bb 33
       7.7582975e-08 2.4987892e-07 1.1800397e-07 8.743471e-08
000190 0f 11 19 34 b5 0c 9a 34 c0 15 ec 33 00 00 00 00
       1.4255441e-07 2.869398e-07 1.0993563e-07 0.0
0001a0 45 9a 1a 34 4f 9f fa 33 9d a6 74 33 00 00 00 00
       1.439849e-07 1.167051e-07 5.696221e-08 0.0
0001b0 1c 2a 58 34 65 01 57 33 5f 21 46 34 8a c3 d7 33
       2.0131887e-07 5.0059857e-08 1.8452327e-07 1.0047286e-07
0001c0 c5 5b ae 33 86 8a ff 33 ba 87 df 32 00 00 00 00
       8.119199e-08 1.189956e-07 2.6022338e-08 0.0
0001d0 6e 5f 7c 34 fa 41 65 33 0a 04 c6 33 0d 8d 3a 33
       2.3504046e-07 5.3378223e-08 9.220828e-08 4.3434785e-08
0001e0 a0 95 e1 32 cb 72 71 34 2e d8 79 33 89 18 09 33
       2.6261489e-08 2.2486635e-07 5.8171445e-08 3.1920113e-08
0001f0 06 cb 11 33 00 00 00 00 09 2e 8f 33 26 0e 23 33
       3.3945092e-08 0.0 6.66733e-08 3.7964263e-08
