models/model_20250730_182023_lr0.0001.pth (torch, 136018 bytes, 18 tensors)

fc1.weight f4 [128, 4]
000000 a1 fa e6 3e ea 5b c2 bd dc f8 09 bd 0c c0 b7 be
       0.4511309 -0.094901875 -0.033684596 -0.35888708
000010 48 e4 54 be da de c9 3e ca be d4 be b8 41 c3 3e
       -0.20790207 0.39427835 -0.4155181 0.38136077
000020 cf a4 06 bc 2d 06 b1 3e f3 05 d4 3c 1d 7e ba be
       -0.008218004 0.34575024 0.025881743 -0.36424342
000030 d9 b7 bf 3e 71 45 2c 3e b7 a6 2a be 31 96 a9 3e
       0.37444952 0.16823365 -0.16665159 0.331224
000040 5d 06 91 3e 22 aa 47 be 45 bf 61 3d ac b5 ae 3e
       0.28325167 -0.19498494 0.05511405 0.3412298
000050 6b 69 da be 88 4e 59 3e 04 8f 19 3e 40 4f df bd
       -0.42658553 0.21221364 0.14995962 -0.109037876
000060 00 48 70 3a 84 e7 0c be 9e 1a d1 be f2 15 83 be
       0.0009166002 -0.13760191 -0.4084062 -0.2560268
000070 e0 07 ff bd 09 fe 1a be 00 a8 87 3e 7e b8 d9 3e
       -0.12452674 -0.15135969 0.2649536 0.4252357
000080 64 4f fc be 8e af 80 be de 31 c6 3d 00 83 f7 be
       -0.4927932 -0.25133938 0.0967748 -0.48342133
000090 c8 e2 c0 bd 38 77 b0 bd 80 ba 9a 3e 70 25 b9 bd
       -0.09418255 -0.08616489 0.30220413 -0.09040344
0000a0 32 09 ca 3e a8 fc 35 be 0e 4e b8 be dc b2 17 3d
       0.3946014 -0.17772162 -0.3599705 0.037035808
0000b0 19 49 30 bc ed cd 9b 3e a7 b4 91 bc bc ea ec 3e
       -0.010759615 0.30430546 -0.017786337 0.46272838
0000c0 67 14 a8 be 2e 95 51 3e 03 94 8f 3e 1e 78 c6 bd
       -0.32828066 0.20467064 0.2804261 -0.09690879
0000d0 1c dd 99 3e d2 5f ef 3e 07 33 c8 be 0a 5c 03 3f
       0.30051506 0.46752793 -0.3910143 0.51312315
0000e0 79 91 27 3e fb 4a 92 be 32 99 f0 3e 6d f7 bb bd
       0.16364087 -0.2857283 0.4699188 -0.09178052
0000f0 7b ff 94 3e df 21 c1 3e 75 77 48 3e 7d 1b 17 be
       0.29101166 0.37721154 0.19576819 -0.1475658
000100 0b 9d ca 3e 90 04 16 be 69 7f f5 bd 37 5a 84 be
       0.3957294 -0.14650178 -0.11987192 -0.25850078
000110 61 4a 30 be b4 61 b3 be 47 fc c6 bc 7b 8a db 3d
       -0.17215873 -0.3503548 -0.024290217 0.107197724
000120 e1 c2 d6 be c2 f2 9b 3e aa a5 78 bd 8f 73 4d 3d
       -0.41945556 0.30458647 -0.060704865 0.050159033
000130 f6 67 cc 3e 56 70 15 be 24 98 77 bd 6d 34 99 3e
       0.39923066 -0.14593634 -0.060447827 0.2992281
000140 7a 4f e7 3d 35 8f ef 3e a1 76 4c 3b 40 a6 52 bd
       0.11294456 0.46788946 0.0031198638 -0.05142808
000150 42 a5 bf 3e 02 6e d3 3e b4 b5 d9 3e ae cf 03 3e
       0.3743077 0.41294867 0.4252144 0.12872192
000160 33 cc d2 3e 07 74 73 3e 00 d2 4c 3e 2f 14 e5 be
       0.41171417 0.2377473 0.20001984 -0.4474196
000170 35 e9 71 be 07 b7 07 3e 36 b1 61 3e 82 80 ef 3d
       -0.23624118 0.13253413 0.22040257 0.11694433
000180 d7 e7 a7 3e de a3 16 3e f4 e0 cd 3e 83 47 d7 3e
       0.32794067 0.14710948 0.40210688 0.42046747
000190 fd 0f 85 3e d4 07 ca be 5e 9f ee 3e bc 90 d4 be
       0.2598876 -0.39459097 0.46605963 -0.41516674
0001a0 10 6e 70 be 58 f4 b7 bd e2 51 cb be 2c 7e 96 be
       -0.23479486 -0.08982152 -0.3971091 -0.29393137
0001b0 35 1a f8 3d e3 f8 4c 3e 67 3d d9 3e d8 e4 89 3e
       0.121143736 0.20016818 0.4242966 0.26932406
0001c0 e6 bc eb be c4 8d 01 be 88 9a 02 3e 1c 52 3f be
       -0.46042556 -0.12651736 0.12754261 -0.18683666
0001d0 cf bc 37 be 32 fb 88 be f5 a2 ae 3e 07 dc f1 3e
       -0.17943119 -0.26754147 0.341087 0.4723818
0001e0 1e f3 fd be c0 d7 22 3c 26 3f d5 3e f4 69 d7 be
       -0.49599546 0.009939134 0.4164974 -0.42073023
0001f0 ae 54 5f 3d 47 b3 93 3e 52 28 78 bd da f9 02 be
       0.054524116 0.28847715 -0.060585327 -0.12790623
000200 c8 bc a7 3e 4e 9d e4 bd 19 5a ab 3e 43 6e 03 bf
       0.32761216 -0.11162816 0.33467177 -0.5134012
000210 fe 41 88 3e 43 0f 54 3c b4 ac a0 be b2 b6 5c 3e
       0.26612848 0.012943092 -0.31381762 0.21554068
000220 6e a6 8d bd 1c 71 8a 3d d9 24 6e 3e c5 6e cb bd
       -0.069165096 0.06759855 0.23256244 -0.09933237
000230 7f f4 5c 3e a7 99 ef be 78 81 cb 3e 6d 57 0f 3e
       0.21577643 -0.46796915 0.39747214 0.13998194
000240 b5 34 bb 3e d8 bd d4 bd 07 2c db be 95 5b a1 bc
       0.3656365 -0.10387772 -0.42807028 -0.01969699
000250 5c 23 ee bc da 46 fa be 6b 03 2f 3e 43 9b 9a bd
       -0.029069595 -0.4888218 0.17091148 -0.07549145
000260 00 9d ab 3c 02 57 c2 be e0 b4 a4 3e e0 51 55 bd
       0.020948887 -0.37957007 0.32169247 -0.052080035
000270 4a cf f9 be 00 9b 48 3c 96 ad 88 be 70 17 e9 bd
       -0.48790962 0.012243986 -0.26694936 -0.113814235
000280 01 3d 40 be 96 0d f4 be 67 ac 36 bd 76 7d aa be
       -0.18773271 -0.47666615 -0.04459801 -0.33298844
000290 72 74 45 be e6 bc ac 3e a9 0f d2 be f4 3a 47 3e
       -0.19282702 0.33737868 -0.41027573 0.19456083
0002a0 4b 02 47 3e c0 e9 ee 3e db 8b 12 be de 6d f1 3d
       0.19434468 0.46662712 -0.14311163 0.11788534
0002b0 1f cb b6 be cc 2e f1 bd c8 c3 ee bc e2 a0 d0 3e
       -0.35701844 -0.11776504 -0.02914609 0.40747744
0002c0 5d 14 10 bd 6a f7 83 3e 18 0b 00 bf 53 08 b3 3e
       -0.03517567 0.257747 -0.5001693 0.34967288
0002d0 fe 22 b7 3e 62 b6 9f be e4 98 df bb b7 07 b2 be
       0.35768884 -0.31193835 -0.006823646 -0.3477151
0002e0 3c 29 0b be bc cf b8 3e b2 1d ee bd 80 5a da be
       -0.13589948 0.3609599 -0.11626758 -0.4264717
0002f0 45 c8 96 3e a6 2c c8 3e f3 e1 6c be dd 7f 0e be
       0.2944967 0.39096564 -0.23133068 -0.13915963
000300 18 e5 fc 3d c6 ab ad 3e 28 c1 af be b3 d4 c6 3d
       0.12348384 0.33920115 -0.34327054 0.09708538
000310 75 2f 7c be b2 1d 78 be 14 6a 22 3d 7c e1 e2 3e
       -0.24627478 -0.24230078 0.039651945 0.44312656
000320 d4 46 9e be 2c a8 17 be 00 3f e8 be c6 c2 c7 3e
       -0.30913413 -0.14810246 -0.45360565 0.39015788
000330 07 1a c5 be 43 40 83 be f4 ab 84 3e cc f5 69 3e
       -0.3849642 -0.25634965 0.2591244 0.2284767
000340 37 75 0c be 45 fc e3 3e 1c e7 bc 3b ad 51 17 3c
       -0.13716589 0.44528404 0.005764855 0.009235782
000350 f4 0e f7 3e 2f 7a e6 3c 49 06 d4 3e 6c f9 62 3d
       0.48253596 0.028134434 0.41411045 0.05541365
000360 c7 31 c7 3e 85 ec 07 3e c4 c5 75 3e 76 06 af 3d
       0.38905165 0.13273819 0.24001223 0.08546154
000370 76 91 88 be a1 28 80 3e 28 87 cb be 57 c8 49 bd
       -0.26673478 0.25030997 -0.39751554 -0.049263325
000380 b7 6f cb bd 49 37 77 bd 27 8b 63 3e da 25 d1 3e
       -0.09933417 -0.06035546 0.22221051 0.4084919
000390 f3 e1 27 be e8 b0 ee 3e 9a 47 20 bd 3e 54 28 3c
       -0.16394787 0.46619344 -0.039130785 0.010273991
0003a0 2c 23 45 3e 44 6b 82 bd 1a 36 ba bd d2 40 cc 3e
       0.19251698 -0.063681155 -0.0909235 0.39893204
0003b0 6c 2a 9d 3e a3 28 98 be 79 1d 17 be 7e ef 39 3d
       0.30696428 -0.29718503 -0.14757337 0.045394413
0003c0 4d a2 c9 3e 27 be 91 be 6e ae c2 3e 15 7c 03 3f
       0.39381638 -0.28465387 0.38023704 0.5136121
0003d0 25 4f 02 bf 88 fd d6 be 66 6e 94 bd 8b eb 86 3e
       -0.50902015 -0.41990304 -0.07247619 0.2635158
0003e0 7a 49 31 bd c1 4f 41 be 6a 5e cd be 7c 63 58 be
       -0.043282963 -0.1887808 -0.40111095 -0.211317
0003f0 4b b5 91 3e be d5 8b 3e 1e 0e 53 3e 7a e5 3f be
       0.28458628 0.2731151 0.20610854 -0.18739882

fc1.bias f4 [128]
000000 e9 92 8c be 6d a8 26 3e fe 57 6d bd b0 e5 6e 3d
       -0.27455834 0.16275187 -0.057945244 0.058324516
000010 30 75 1f be 7d 36 1e be b8 df ab bd e8 39 a2 3d
       -0.15572047 -0.15450473 -0.0839228 0.07921201
000020 55 78 d1 3e 48 00 74 be b0 4b 2e bd 78 e3 c8 3d
       0.4091212 -0.23828232 -0.04255265 0.09809011
000030 69 b4 4e 3c f5 6c f2 3e 6b e1 b6 3d f4 49 96 be
       0.012616255 0.47348753 0.08929714 -0.29353297
000040 a2 01 9a 3e 1d a2 de 3b 04 22 0c 3e ef 08 54 be
       0.3007937 0.0067942278 0.13684851 -0.20706533
000050 71 04 3f be 44 25 be 3e fc 10 9e 3e 9e ee 20 3e
       -0.18654038 0.37137806 0.30872333 0.15716025
000060 6f 61 28 3e 57 6d c4 3e 30 2d 71 be 9e bf 48 3e
       0.16443418 0.3836467 -0.23552394 0.19604346
000070 5c 52 01 be 62 e1 59 3c e8 1f 98 be 82 de dc 3e
       -0.12629074 0.013298364 -0.29711843 0.4313851
000080 d0 07 f6 be 2e 32 31 3e 90 a5 0e be dd 59 d3 be
       -0.48052835 0.17304298 -0.13930345 -0.41279498
000090 cd d2 b1 3e c4 dc 92 3e b0 b3 40 bd 08 9b 95 bd
       0.3473114 0.28684056 -0.047046363 -0.073049605
0000a0 6e 2b 00 3f 57 f1 d0 3e 5e 6a f9 be 66 cf 3c 3c
       0.5006627 0.40809128 -0.48713964 0.011524057
0000b0 0e 68 15 3e 05 e3 a5 3e 7f 98 07 3e 03 8f 30 be
       0.14590475 0.32399765 0.13241766 -0.17242055
0000c0 4d 72 19 be 29 78 87 3e e6 50 fb bc 1c b2 13 3e
       -0.14985009 0.26458862 -0.030678224 0.14423412
0000d0 90 dc 3b 3e 20 75 fa 3e ec b0 97 be f5 26 64 3e
       0.18345857 0.48917484 -0.29627168 0.22280486
0000e0 7f dd 61 3e 50 6f aa 3e 23 5c 50 be 7f d1 35 3e
       0.2205715 0.3328805 -0.20347647 0.17755698
0000f0 d9 8d 9f 3e a7 03 a0 3e 8c b5 f2 3d a0 fd 8b 3e
       0.3116291 0.31252787 0.118510336 0.27341938
000100 34 32 7a 3e 89 ab 9b be 5c 7c ef bc 56 bc b0 be
       0.24433213 -0.30404308 -0.029234104 -0.3451869
000110 b1 d0 f2 be ae 72 01 3f b4 f0 72 be c4 1b 9f be
       -0.47424844 0.5056561 -0.23724633 -0.3107587
000120 fc 91 c5 3e 13 85 cb 3e 90 7d 72 3e ab f7 1f 3e
       0.3858794 0.39749965 0.23680711 0.15621822
000130 ed b9 f5 3e 71 a9 a1 3e 2b 69 8a 3e fa 3d df be
       0.47993413 0.31574586 0.27033362 -0.43601972
000140 54 9d 2f be 2c 58 81 be b4 8d bf be c6 35 a8 3d
       -0.1714986 -0.25262582 -0.37412798 0.082133815
000150 5a 30 dc 3e fa f3 9f be 8f cf f6 3e 87 8b b8 be
       0.4300564 -0.31240827 0.4820523 -0.3604395
000160 68 66 d1 3e 18 83 a1 bd 4e 3c 19 be 44 65 aa be
       0.40898442 -0.07886332 -0.1496441 -0.33280385
000170 cf fa 90 3e e4 e2 9b be 8d 36 88 3e 48 07 a2 be
       0.28316352 -0.3044654 0.2660412 -0.3164618
000180 9a c5 82 be 38 55 50 bd fb 6a 00 3f 06 c1 2f 3e
       -0.25541383 -0.05086252 0.5016324 0.17163476
000190 a3 42 d3 be e0 07 8c 3e 24 77 ef be 16 53 19 bd
       -0.41261777 0.27349758 -0.46770585 -0.037432753
0001a0 a6 96 e5 3e 3d b2 a1 3e 00 e8 c4 3e 59 8c 8f 3e
       0.44841498 0.31581298 0.38458252 0.28036764
0001b0 6a f4 bc 3e e6 48 e7 3e ec 17 b1 be 2b b2 d9 3e
       0.36905223 0.45172805 -0.34588563 0.42518744
0001c0 0d 8c 61 3e 3f f2 a4 3e 57 b2 d1 be 5b b7 83 be
       0.22026081 0.3221607 -0.40956375 -0.25725827
0001d0 2b 8d c5 3c 2b 4a c7 bd 80 35 eb be 4c 48 a6 be
       0.024115166 -0.09730943 -0.45939255 -0.32477033
0001e0 8f 39 9f 3e 5f 04 e6 3e e4 46 4e 3e a0 f7 9d be
       0.310986 0.4492521 0.2014423 -0.30852985
0001f0 8f 68 50 3e 4b f4 a1 be da 2e b1 be bc f6 59 3d
       0.20352386 -0.31631693 -0.34606057 0.05321382

fc2.weight f4 [64, 128]
000000 ed 06 16 3c 49 87 97 bc 22 a6 82 3d 16 b7 44 3c
       0.009156925 -0.018497126 0.063793436 0.012006542
000010 90 6c a7 bb 6d c9 fc bc 3a 55 42 3d 3d 59 9a bd
       -0.005109377 -0.030857766 0.04744456 -0.07536552
000020 b9 4d b5 bc 7a 54 23 3d 30 4b 7e bc c2 d9 ad bc
       -0.022131788 0.039875485 -0.015520856 -0.021222
000030 55 60 a1 bc 8c dc 1f bd 6e 53 42 bd 76 6b 74 3c
       -0.019699255 -0.03902869 -0.047442846 0.014918199
000040 af 03 94 3d ea 86 07 3d b6 6d 5d bd 78 75 3d 3c
       0.07227265 0.03308765 -0.054059707 0.011563651
000050 3e dc 90 bd d8 2f c9 3d 71 70 a3 3c 2a 74 bb 3d
       -0.07073258 0.098235786 0.019951077 0.09153016
000060 cf 7e 1d bd cc 5e b8 3d aa 9c 58 3d ce 11 51 3c
       -0.038451012 0.09002456 0.05288378 0.012760593
000070 93 f4 90 3d 2a 70 41 3d 8b 1e 9c bd 78 bb 78 bd
       0.07077899 0.04722611 -0.07623013 -0.06072566
000080 71 59 28 bd 97 3f c9 bc 47 77 f1 3c 60 be 50 bd
       -0.041100923 -0.024566455 0.029475821 -0.050962806
000090 d9 fc 3c 3d a0 36 5c 3d c0 62 43 bc 32 fe 6f bd
       0.04613957 0.053763032 -0.011925399 -0.05859203
0000a0 a3 50 af 3d d8 b4 81 3c c0 31 4a bd 9f d3 95 3d
       0.08560302 0.015833303 -0.04936385 0.07315754
0000b0 ff 0a a8 3d 37 cf 2c 3b aa a7 6f 3d 7f a2 25 bd
       0.08205222 0.0026368627 0.058509506 -0.04043817
0000c0 df 28 a6 bc 48 ad 8c 3c 26 e1 0c 3d eb e1 f5 bc
       -0.02028316 0.01717247 0.034394406 -0.030014953
0000d0 69 dc 5e bc 78 a6 b5 3d 33 a6 12 bd ba 82 82 3d
       -0.013602355 0.08869642 -0.03580303 0.0637259
0000e0 9f 97 2c 3d a6 aa 7a bd b2 ed 99 3d 83 24 b0 bc
       0.042136785 -0.0611979 0.0751604 -0.021501785
0000f0 48 30 9d 3d 10 b9 4c 3d 32 5d b7 3d 3d 84 61 3d
       0.076752245 0.049981177 0.089533225 0.055057753
000100 80 e4 2a bd dc ca ae bd bc 6c 72 bc 24 0c 94 bd
       -0.04172182 -0.08534786 -0.014796432 -0.07228878
000110 81 1e bf ba 6f 72 29 bd 38 8f 61 3c d5 8a 15 ba
       -0.0014581234 -0.041368898 0.013767056 -0.00057045865
000120 cc b5 38 bd ab b2 a4 3d 0f 5c 94 bd 55 ef 09 3c
       -0.04509525 0.08041891 -0.07244121 0.008418878
000130 46 9b 65 bd 21 d3 9a 3d e1 66 89 3c 4f eb 57 3d
       -0.056056283 0.07559801 0.01677269 0.052714642
000140 ba 71 47 bd 6c 9f 2d bc 40 2f 7b bd 9b 9a 47 bd
       -0.048692442 -0.010597091 -0.061324358 -0.048731428
000150 fd d5 58 bd 0e f2 e7 bc 35 50 21 bc 88 de ae 3d
       -0.05293845 -0.028313663 -0.009845783 0.08538538
000160 ef b5 00 3d 81 36 56 bd 9e ac ef 3b 10 47 8e bb
       0.031423505 -0.052298073 0.0073142787 -0.0043419674
000170 6b 20 15 3d d1 0f 85 3d af 3a 99 bd b6 98 1b 3d
       0.03640787 0.06497157 -0.07481896 0.037987433
000180 fc 71 0e 3d 2e 4c 92 bd 53 c4 88 bd 6e 4f 64 bc
       0.034776673 -0.07143436 -0.06678071 -0.013934953
000190 0f 10 84 bb 13 07 c7 3b c9 34 84 3d c4 85 93 bc
       -0.0040302346 0.0060738414 0.064553805 -0.01800812
0001a0 f9 30 c0 3d be 68 2d 3c 93 87 51 bd 17 98 aa 3d
       0.09384341 0.0105840545 -0.051154684 0.0832979
0001b0 13 3b b4 bb f1 09 74 bc b4 28 6c bd 8e 70 a7 bc
       -0.0055002063 -0.014894948 -0.057656005 -0.020439412
0001c0 6a 8f 6b 3b 4c e1 8d 3c fd 57 84 bb 2d 12 0d bd
       0.0035943636 0.017319344 -0.0040388093 -0.034441162
0001d0 41 cc 6e bd 77 1b da bc 41 b1 ba ba c6 11 d9 bc
       -0.05830026 -0.026624424 -0.00142435 -0.026497733
0001e0 fd 44 9f 3d 7d ab 81 3d f9 fc a1 39 b4 63 78 3d
       0.0777683 0.06331537 0.00030896792 0.06064196
0001f0 1c 94 a0 3d c9 a8 1b 3b 7c 62 31 bd e2 b7 b7 3d
       0.078407496 0.0023751727 -0.043306813 0.0897062
000200 a3 03 b8 bd db 63 b6 bd 24 81 1b bd 21 7b cc 3b
       -0.08985069 -0.08905765 -0.037964955 0.006240264
000210 31 87 5e 3d 28 21 59 bd 46 0e 43 3d 2d 36 08 3d
       0.054328147 -0.053010136 0.047621034 0.03325479
000220 15 a2 ad 3d 5e b6 b2 bd 9f c1 9b bd d4 c0 5e bd
       0.0847818 -0.0872619 -0.0760529 -0.054383114
000230 7a 20 14 3d 43 c0 c5 bc 74 ee a8 3c 3a bc a9 bd
       0.036163785 -0.02413953 0.020621516 -0.082878545
000240 d3 12 ed bc 1b 09 89 3d fa b0 ab bd 72 7f bc bb
       -0.02893964 0.0669119 -0.08383365 -0.0057524974
000250 64 34 e4 3b 39 17 88 3d 1d d1 b2 bd b1 74 5c bc
       0.0069642533 0.06645054 -0.087312914 -0.013455556
000260 7a c2 14 bd 50 31 a2 bd 90 96 e5 bc bc 1c 87 3d
       -0.03631828 -0.07919562 -0.028025895 0.065972775
000270 ba 07 22 3d ab eb a4 bd fe 30 69 3d 12 b1 a7 bd
       0.03955815 -0.080527626 0.05693149 -0.0818807
000280 8d ea b4 3d 70 85 86 3d 98 66 27 3c 86 48 3c 3d
       0.088337995 0.0656842 0.010217331 0.0459676
000290 ec 23 9e 3d 57 0a b0 bd d8 77 8a bd 06 05 3a bd
       0.07721695 -0.08595722 -0.0676114 -0.045414947
0002a0 a8 bc 19 bd a8 e3 ef 3c 80 1b 50 bd 12 a2 1d 3d
       -0.037533432 0.02928336 -0.050807476 0.03848464
0002b0 00 dd 63 3d 12 72 19 bd 40 1f e6 3b 65 74 17 3d
       0.055630684 -0.0374623 0.0070227683 0.036976237
0002c0 6d 71 77 3d 4f e5 ef bb ed 3c 58 bd 8d 00 a5 3d
       0.060410906 -0.007321037 -0.05279248 0.08056746
0002d0 b9 5c 40 bd 1f 16 a1 3d dd 49 1d 3d e9 87 4e bd
       -0.046963427 0.078655474 0.03840052 -0.050422583
0002e0 82 af 75 bd 6f 9e 10 3d c0 50 98 bd 45 08 0c bd
       -0.05998183 0.035307344 -0.07437277 -0.034187574
0002f0 6d ec 8e bd 12 a1 70 3d e8 ba e5 3c 9f de 92 3d
       -0.069786884 0.05874736 0.028043225 0.07171368
000300 2b 1c 14 bd 4b 17 26 bd 68 53 0f bd 91 21 b3 bd
       -0.036159676 -0.040549558 -0.03499165 -0.08746637
000310 f9 c9 a1 bd 2e 11 7a 3d ea 7e 8a bd bf f2 7f bd
       -0.07899851 0.06105154 -0.06762488 -0.06248736
000320 68 9b 3c bd 91 c8 88 3c 1a 3b 3f 3c f2 4b a0 3d
       -0.046046644 0.0166972 0.011671806 0.078269854
000330 50 68 34 bc 22 63 9c bd 67 a1 12 3d d2 11 4f 3c
       -0.011011198 -0.076360956 0.035798457 0.012638526
000340 90 94 ef bb 11 29 9b bd f5 c3 b0 3d 6e 4b 93 bd
       -0.007311411 -0.07576192 0.08631126 -0.071921214
000350 5c 82 05 3d e0 e7 c1 bc ab 88 01 bd 29 bd 94 3b
       0.032595024 -0.023670137 -0.031624477 0.004539151
000360 3e 82 88 bd 7e fb 86 bd 38 2f 24 bd a8 4a 4a 3c
       -0.06665467 -0.06590937 -0.040084094 0.012346901
000370 2c f1 c9 3c 32 3a 90 bd 23 47 79 bd 14 cd 88 bd
       0.024651133 -0.0704235 -0.060858857 -0.066797405
000380 38 83 5b 3c 13 bb f5 3c 51 0b a4 bd b5 a0 21 bd
       0.013397984 0.02999643 -0.08009971 -0.039459903
000390 bf 38 a6 bd 34 e8 86 bd d0 7c 95 bd 46 07 63 3d
       -0.08116292 -0.06587258 -0.07299197 0.05542686
0003a0 5b e9 1b 3d b3 51 77 3c 34 46 80 bd 05 24 35 bd
       0.038064342 0.015095162 -0.0626339 -0.044223804
0003b0 6c 77 50 bd 57 71 30 bd 48 e4 07 3d 91 ca cd 3c
       -0.05089514 -0.04307684 0.03317669 0.025121005
0003c0 17 bd 8c 3c 09 9a 9f bc b7 c4 59 3d 47 19 a5 bc
       0.017180009 -0.01948263 0.053166118 -0.020153655
0003d0 20 31 39 3c b1 32 a6 3d 0a 9f 60 3d 12 97 f5 bc
       0.011303216 0.08115137 0.05483917 -0.029979263
0003e0 59 c2 93 3c 45 b5 86 3c 56 e6 52 bd 5e 91 ac 3c
       0.018037008 0.016443858 -0.051489197 0.02106541
0003f0 b5 85 8f 3d 03 ec ee bb c0 0c d3 bc b2 cd 9e bd
       0.070079245 -0.0072913184 -0.025762916 -0.07754077

fc2.bias f4 [64]
000000 57 18 ef 3c 87 12 06 3d e0 10 ae bb 15 70 9d 3d
       0.02918641 0.032732513 -0.0053120703 0.076873936
000010 d5 cf 9f 3d 9f ef 91 3d 9f fb 91 bd 7a 98 19 3d
       0.07803313 0.07125782 -0.07128071 0.03749893
000020 5f 56 56 3d 16 57 80 bd 1a 68 b0 bd 18 64 28 3d
       0.052328464 -0.0626661 -0.08613606 0.04111108
000030 18 63 bc 3b 9e b9 50 bd f0 fc 94 bd 7e 40 bb bc
       0.0057491176 -0.05095827 -0.072748065 -0.0228579
000040 a2 40 7a bd 41 47 99 3d 55 68 07 3d 9b 2a 5d bd
       -0.061096795 0.07484294 0.033058483 -0.05399571
000050 b9 45 46 bd 95 80 07 3d a6 58 81 3d 7b 65 95 bd
       -0.048406336 0.03308161 0.063157365 -0.072947465
000060 99 56 a0 3d 2f 4e 65 3d 46 f3 26 bd f0 e3 ed bb
       0.07829017 0.055982765 -0.040759347 -0.0072598383
000070 f3 13 93 bd 38 5d a4 3d 69 dc 4d 3d 38 35 5d bc
       -0.071815394 0.080255926 0.050259028 -0.013501458
000080 28 51 1b bc 01 09 de bc 92 72 94 3d f9 e9 54 bd
       -0.009479798 -0.027103903 0.07248415 -0.051980946
000090 40 03 aa 3d ab 36 87 3d b0 08 02 3d 13 11 51 3d
       0.08301401 0.06602224 0.031746566 0.051041674
0000a0 f4 2b be 3d f1 f2 a0 3c 4b bd 23 3d e4 48 16 bd
       0.09285727 0.019647093 0.039975446 -0.036690608
0000b0 b8 a4 30 bc f7 95 a7 3c a0 77 83 3d 4b f8 b4 3d
       -0.0107814595 0.020457251 0.06419301 0.088364206
0000c0 ed d6 03 3d 65 d8 0d bd 92 eb 3f 3d 98 6c 75 bd
       0.03218739 -0.034630198 0.046855517 -0.059918016
0000d0 3a 48 aa 3c 8f 72 97 bd cd b3 80 3d 43 f5 a5 bd
       0.020786393 -0.07394897 0.06284294 -0.081034206
0000e0 fc df a5 3b ab 29 82 bd d2 2b 9b bd cb f9 c8 3d
       0.0050621014 -0.06355604 -0.075767174 0.09813269
0000f0 74 c7 bc bc f0 8e 94 bb f5 03 94 bd c7 62 26 bd
       -0.023044325 -0.004533641 -0.07227317 -0.040621545

fc3.weight f4 [27, 64]
000000 88 b7 fa 3d 6c c6 e3 bd 24 a4 c7 3d 98 87 8e 3c
       0.12242037 -0.1112183 0.09748104 0.01739864
000010 70 da c9 bd 08 fc fd bc 14 a2 37 3d 16 81 3f bd
       -0.09856117 -0.031003967 0.044832304 -0.046753965
000020 23 04 cb bd 6b 41 a7 bd b2 55 ce 3c b2 5c 3e 3d
       -0.099128984 -0.08166774 0.025187347 0.04647512
000030 f2 18 b0 bd ba da fe 3d 6a ef 8a bd 6c d8 84 3d
       -0.08598508 0.124440625 -0.06783946 0.06486592
000040 0a 76 dd bd 9a d2 fe bd 37 dd 70 bd db ce ba 3d
       -0.1081353 -0.12442513 -0.058804717 0.09121486
000050 56 23 0a be ca 8a ec bd 17 31 17 bd 3d 3d 7c 3d
       -0.13490042 -0.115499094 -0.03691205 0.06158184
000060 64 1d 10 3d c8 b0 8b bd 67 f8 0e 3d f4 de 6d 3d
       0.03518428 -0.06820828 0.034904864 0.058073953
000070 e7 1b b4 3d f0 5d cc bd de e9 94 3d 80 62 08 be
       0.087943844 -0.09978855 0.07271169 -0.13318825
000080 a0 c3 45 3d 23 1b 1e bd 12 44 a8 3d 51 08 ae 3d
       0.048282266 -0.0386001 0.082161084 0.0849768
000090 33 06 ef bc 47 07 03 bd a6 8e c7 3d 09 f1 8c 3d
       -0.02917776 -0.031989362 0.09744005 0.06881911
0000a0 73 c3 a5 3d 13 a2 a7 bd a0 d0 3a bd 8a 22 bd 3d
       0.080939196 -0.0818521 -0.045609117 0.092351034
0000b0 82 8e 85 3d 98 f2 0a be 48 64 6c 3c e6 e1 fa bd
       0.06521322 -0.13569105 0.014428206 -0.12250118
0000c0 cd 98 a0 bd 68 04 b4 bc d2 0d c1 3d cc cc de 3d
       -0.078416444 -0.021974757 0.09426464 0.10878906
0000d0 d4 73 ca bd 24 e5 fd 3d 70 4c 21 3d 03 6f aa 3d
       -0.09885374 0.12397221 0.039379537 0.08321955
0000e0 10 28 fc bd 87 bc 00 be 80 e1 01 bb b3 32 a7 3d
       -0.12312329 -0.12571917 -0.0019818246 0.08163967
0000f0 66 a7 95 3d 87 14 b7 bd 22 53 d9 bd 68 a1 2a 3d
       0.07307319 -0.08939462 -0.106115595 0.041657835
000100 40 38 f0 3c 8f 83 6b 3d d0 f6 59 3c 60 1c f0 3d
       0.029323697 0.05749851 0.013303474 0.11724162
000110 00 58 80 bb 3e 09 86 3d 3a 78 ad bd 3a 54 9d 3d
       -0.0039167404 0.065447316 -0.08470197 0.076820806
000120 39 49 a3 3d d4 5d 1f bd 0c 54 d6 3c 2a fd 4f bd
       0.079729505 -0.03890784 0.026163124 -0.050778545
000130 15 48 88 3d 9a cb 84 bd 3c e9 92 bd a6 45 4f 3d
       0.066543736 -0.064841464 -0.07173392 0.05060353
000140 2d 91 ee 3d 69 13 64 bd af 51 35 3d e0 2c c2 bc
       0.11648784 -0.055682573 0.044267353 -0.023703039
000150 97 b8 cb 3d 4d 1e 95 bd c1 e6 07 bc 11 5b 61 bd
       0.09947317 -0.0728117 -0.008294762 -0.05501849
000160 cc f3 5a 3d fc a7 a6 bd 21 1c e8 bb 04 e1 98 3d
       0.05345516 -0.08137509 -0.0070834314 0.07464793
000170 1d 3a 0f 3e 68 48 9b bd 64 6f df 3d e3 b9 dd 3c
       0.13987012 -0.0758217 0.10909918 0.027066177
000180 8b fc eb 3d 34 0c 1e bd 95 85 26 3d dd 13 81 bc
       0.11522778 -0.038585857 0.040654738 -0.015756542
000190 1a c1 b8 3d 66 00 f3 bc f2 8d be bd 2a 88 9d bd
       0.09021206 -0.029663276 -0.09304418 -0.07691987
0001a0 b6 b4 a1 3b 08 e1 82 bd 9f b6 8d bd 7c a6 0a be
       0.0049348725 -0.063905776 -0.06919598 -0.13540071
0001b0 8c 69 1b bd 19 99 63 3d fe 01 9d bd 70 f6 d6 3d
       -0.037942454 0.055565927 -0.076663956 0.10496223
0001c0 ae b3 e9 3c 16 ab fe bd be de df bb 4a 76 42 3d
       0.02852806 -0.12434976 -0.006831973 0.04747609
0001d0 b8 0c eb 3c a1 b8 e7 3d f1 f9 04 bd 65 e9 e6 3c
       0.028692588 0.11314512 -0.032464925 0.028187463
0001e0 7e 63 4d 3d a2 a9 d8 bd d0 f7 c7 3d 2c de b3 bd
       0.05014371 -0.1057923 0.09764063 -0.0878261
0001f0 96 96 c9 bd 0f c4 4c bd 55 a7 b5 bd 74 5d c9 bd
       -0.09843175 -0.049991664 -0.08869807 -0.09832278
000200 71 ec d1 3d d2 0e 83 3d b8 bd 2c bd e8 e6 e7 3c
       0.10250176 0.06399311 -0.042173117 0.028308347
000210 90 d4 28 bc 88 a7 6f bd 54 4c 3a bd 44 45 b2 bb
       -0.010304585 -0.05850938 -0.04548295 -0.005440386
000220 56 b9 83 bc 28 99 13 bd 14 a9 8f 3c c2 29 43 3d
       -0.016079586 -0.036034733 0.017536677 0.047647245
000230 09 ba 1a 3d a5 5e 33 bd c6 29 78 3d 2d ab a4 bd
       0.037775073 -0.043791432 0.060586713 -0.08040462
000240 53 51 55 3c d0 b7 05 be cb 0c be 3d 81 61 02 be
       0.0130198775 -0.130584 0.09279784 -0.12732507
000250 f9 2a 7d bc b2 47 ea bc 86 b9 8c bd d8 cf 0e ba
       -0.01545214 -0.02859864 -0.06871323 -0.0005447841
000260 25 eb e2 bd dc 16 a8 3d 40 6b c8 3d c0 f0 d0 bb
       -0.110800065 0.08207485 0.09786081 -0.006376356
000270 65 7a 7d bd 04 57 3a bd df ce c9 bd 02 93 cf bd
       -0.061884303 -0.04549314 -0.09853911 -0.101354614
000280 f7 4a 66 3d 75 60 40 bd 16 f8 a9 bc e9 a9 e8 bc
       0.056223836 -0.04696699 -0.02074818 -0.028401332
000290 2f 6e ce 3d 70 77 8e 3c c2 1a b0 bd 9b d3 4f 3d
       0.100796096 0.017390937 -0.08598854 0.050738912
0002a0 63 9a 95 bc 53 4a f4 3c c1 e8 b2 3d 4f 67 e0 3c
       -0.018262094 0.029820597 0.087358005 0.027393011
0002b0 80 ba b3 bc 5f 9d 31 3d d9 d7 96 3d b8 d6 b3 3c
       -0.021939516 0.04336297 0.073653884 0.021952972
0002c0 1a 2b 14 be fa 64 a9 3d 40 4f 01 3d 00 75 8c bc
       -0.14469567 0.08271213 0.03156972 -0.017145634
0002d0 95 9f ef bd a8 6d 05 bd 7d 5d 20 3d 6d d2 ea bb
       -0.1170036 -0.03257528 0.039151657 -0.007166198
0002e0 c6 de 01 be 37 ea c1 bd 08 67 af bc 28 79 c6 3d
       -0.12682638 -0.09468501 -0.021411434 0.096910775
0002f0 30 9f 6e bd d1 82 53 3d 2e c9 13 3d 94 35 81 bd
       -0.05825728 0.051638428 0.03608053 -0.06309047
000300 6d 7c 97 bd 84 7f d9 3d 00 26 6f ba 9a e3 a0 bd
       -0.07396779 0.10620025 -0.0009122789 -0.078559116
000310 f0 3e d2 3c f8 fa a0 3d e0 cd 89 3b 6f f8 a5 3d
       0.025664777 0.078603685 0.0042054504 0.081040256
000320 b7 03 d1 bc 6f 56 af 3c 9d be 5c bd 32 c7 eb 3b
       -0.025514467 0.02140352 -0.05389272 0.007195377
000330 dc 63 a0 bd 86 6a 93 bd e6 8a 83 3d 0c 57 dd 3d
       -0.07831547 -0.07198052 0.06422977 0.108076185
000340 a7 53 fc bd 1e c2 f5 bd de 02 7d 3d d1 19 9c 3d
       -0.12320643 -0.119999155 0.061770312 0.076221116
000350 e9 de 53 bd 7f 45 2a 3d 32 13 b8 bd 21 78 89 3b
       -0.051726256 0.041570183 -0.08988036 0.0041952287
000360 5a 6d c7 bc 42 e2 e6 3d 5b 12 92 3d 96 66 b0 3d
       -0.024344135 0.11273624 0.07132407 0.08613317
000370 27 66 0d be 5a 69 36 bd c6 b3 71 bd 10 07 7f 3a
       -0.138085 -0.044534065 -0.059009336 0.00097285304
000380 15 94 02 be e2 76 e6 bc 5d d3 de bd 27 ad d7 3d
       -0.12751801 -0.02813286 -0.10880158 0.10531073
000390 b2 93 62 bd e7 d3 b7 3d 7e 09 bf bd b0 75 f1 3c
       -0.055316634 0.08975964 -0.09327982 0.029475063
0003a0 40 d4 af 3d d3 c1 79 3d e0 a7 db bb e7 48 b1 3d
       0.08585405 0.06097586 -0.006703362 0.08656483
0003b0 d0 bd 98 bc 6c 5d 11 bd 28 2e 04 be 93 5a bf 3d
       -0.018645197 -0.035489485 -0.12908232 0.093434475
0003c0 74 68 87 bd 6c 8e 8b 3d 2f 20 61 bd d3 9d e9 3c
       -0.0661172 0.06814274 -0.054962333 0.02851764
0003d0 91 52 cd bc 01 c6 df bd 09 24 75 bd 6f cf 2a 3d
       -0.025063785 -0.10926438 -0.05984882 0.04170173
0003e0 b8 1b fb bd 8e 2f d8 3b 64 25 86 bd 3e b9 06 be
       -0.12261146 0.006597466 -0.065501004 -0.13156602
0003f0 8c 49 e2 bd ad eb b1 3d b7 92 4f 3d 3c b0 2a 3d
       -0.11049184 0.0868753 0.050677028 0.041671976

fc3.bias f4 [27]
000000 4d c1 60 bd 71 cc 2a bc ec 4c 85 bd 5d 68 9f bd
       -0.054871846 -0.010424719 -0.06508812 -0.077835776
000010 a2 50 d3 bd ba d2 af bd ba 06 54 3c a1 61 f0 bd
       -0.10318114 -0.08585115 0.012941057 -0.11737371
000020 02 3d a9 bd 4a 6a bb 3c 4a 62 3e bd 93 91 3d bd
       -0.082635894 0.022877831 -0.046480455 -0.04628141
000030 ff 44 fd 3d d6 c9 07 3d 15 7d ab bd d5 1c ff bd
       0.123666756 0.03315147 -0.08373467 -0.12456671
000040 81 37 2a 3d ec 99 c6 3d bf a8 50 bd e1 45 a0 3d
       0.04155684 0.09697327 -0.05094218 0.07825828
000050 d6 e9 06 3c bb 11 1b 3c c3 cd e3 3d c1 a6 b2 bd
       0.008234462 0.0094646765 0.1112323 -0.08723212
000060 0a 6d 90 3c d1 27 fb 3d 0b 25 80 3b
       0.017630119 0.12263454 0.003910666

exp_avg f4 [128, 4]
000000 98 c1 34 bc 55 a6 c5 bb ff 67 aa bb a4 59 1d 39
       -0.0110324845 -0.006031791 -0.0052003856 0.0001500608
000010 ae 88 05 bb e2 ad a8 bb f7 e8 b5 bb 56 06 f6 bb
       -0.0020375657 -0.0051476816 -0.005551453 -0.0075080795
000020 ed d7 31 bb 86 d2 d7 ba 96 a0 be ba 33 ec 53 b9
       -0.0027136758 -0.0016465939 -0.0014543708 -0.00020210519
000030 6a 41 a1 bb 4e 49 6e bb af 70 64 bb 03 96 2f bb
       -0.004921128 -0.003635961 -0.0034857204 -0.0026792295
000040 d5 b4 11 bb 33 27 04 3b a8 5c 25 3b 15 0d 9b 3b
       -0.0022233028 0.0020164966 0.002523223 0.004731784
000050 8f 8a 14 b9 d4 c0 64 bb 56 36 75 bb db 7d 72 bb
       -0.00014165997 -0.0034904974 -0.003741642 -0.0037001285
000060 00 00 00 00 00 00 00 00 00 00 00 00 00 00 00 00
       0.0 0.0 0.0 0.0
000070 6e 3c 17 ba 73 7a c0 bb 3c d0 db bb 67 de 47 bc
       -0.00057691976 -0.005873972 -0.006708173 -0.012199021
000080 af 7e 51 38 8b 1a ca b5 9a 4c 97 b6 fe 6b 73 38
       4.9947466e-05 -1.5057898e-06 -4.5090683e-06 5.803629e-05
000090 00 00 00 00 00 00 00 00 00 00 00 00 00 00 00 00
       0.0 0.0 0.0 0.0
0000a0 41 2c c1 bb d9 b2 0f bb f2 c0 0a bb 2e d2 9a bb
       -0.005895168 -0.002192667 -0.0021172133 -0.0047247624
0000b0 1c b8 1f bc ce f2 0d bc 4f 6c 12 bc f0 a9 5d bc
       -0.009748485 -0.008663846 -0.008936956 -0.013529286
0000c0 1b ae da bb 11 af 21 bc ee 4e 1e bc 71 a4 8a bb
       -0.006673587 -0.009868399 -0.009662373 -0.0042310287
0000d0 b6 1a 40 bc 3f 2d 26 bc ac ca 2c bc 0f dc 89 bc
       -0.011725118 -0.010142623 -0.010546368 -0.016828565
0000e0 b3 37 a7 3b ba 3e 82 ba 28 98 d1 ba b0 db 63 bb
       0.0051030754 -0.0009936907 -0.0015990781 -0.0034768395
0000f0 88 8d f1 bb e5 47 1e bc 2c f6 1e bc 42 fe 0a bc
       -0.007371608 -0.009660696 -0.009702247 -0.008483471
000100 8e fc ea bb 08 74 90 bb 39 80 5d bb 6b b3 d3 3b
       -0.00717122 -0.0044083633 -0.003379835 0.0064605973
000110 e0 0f 89 38 e3 06 aa 38 7a b8 3b b9 38 aa 58 bb
       6.535626e-05 8.1075144e-05 -0.00017902433 -0.0033060443
000120 14 a4 75 39 26 4e cc ba 75 c1 d5 ba 93 66 31 ba
       0.00023426145 -0.0015587255 -0.0016308265 -0.0006767299
000130 e1 af 3f ba 45 71 40 bb 33 3e 51 bb d3 ed 82 bb
       -0.000731228 -0.002936439 -0.0031927943 -0.003995636
000140 2f 6a 5c ba 98 f6 e7 ba cd 0b c5 ba 83 cc 34 3b
       -0.00084081566 -0.0017697392 -0.0015033424 0.0027587719
000150 87 73 14 bc d7 21 48 bc 87 97 48 bc 99 fe 15 bc
       -0.009060747 -0.012215099 -0.012243158 -0.009154939
000160 e3 6b 0f bc 69 c7 51 bc 54 a5 49 bc 29 90 17 bb
       -0.00875375 -0.012803891 -0.012307484 -0.0023126698
000170 77 8d f8 bb f9 b6 1a bc 00 b5 1c bc b8 33 14 bc
       -0.0075852233 -0.009443038 -0.009564638 -0.009045534
000180 7d 78 6a bc 4c f6 51 bc be 75 50 bc c7 aa 52 bc
       -0.014310953 -0.012815069 -0.012723384 -0.012858099
000190 17 43 33 bc db 66 0e bc 28 a6 02 bc 3c 4f 98 ba
       -0.010941288 -0.008691515 -0.007974185 -0.0011620293
0001a0 00 00 00 00 00 00 00 00 00 00 00 00 00 00 00 00
       0.0 0.0 0.0 0.0
0001b0 82 3e 03 bc b9 5d 56 bc 70 d6 5a bc 87 c8 44 bc
       -0.0080105085 -0.013083869 -0.01335679 -0.0120107
0001c0 00 00 00 00 00 00 00 00 00 00 00 00 00 00 00 00
       0.0 0.0 0.0 0.0
0001d0 cb 2b 36 3b 99 80 63 3b b4 5b 5a 3b 0f 12 9e 3a
       0.0027797099 0.0034714101 0.003331882 0.0012059825
0001e0 00 00 00 00 00 00 00 00 00 00 00 00 00 00 00 00
       0.0 0.0 0.0 0.0
0001f0 60 5a 14 3b fa 1d 53 3b 5b e1 63 3b 5e 31 bc 3b
       0.0022636876 0.0032213912 0.0034771773 0.0057431897
000200 ee 96 11 bb 46 30 2e b9 88 ee 85 38 f7 8f 7c 3a
       -0.0022215205 -0.00016611916 6.386364e-05 0.00096344895
000210 e7 68 0b bb 20 9c 8f 3b 19 89 91 3b cc 88 82 ba
       -0.0021272243 0.004382625 0.004441392 -0.0009958982
000220 d5 c3 4e bb ba 9b 4e bb 05 b2 57 bb 2d 99 a1 bb
       -0.003154983 -0.0031525926 -0.0032912504 -0.00493159
000230 57 63 1d bb 1e 34 0f bb a2 39 0c bb 34 85 e3 ba
       -0.002401551 -0.0021851133 -0.0021396657 -0.0017358423
000240 56 80 9b bb 70 df 94 ba a7 a8 44 ba 78 2c 47 3a
       -0.0047455234 -0.0011358093 -0.0007501938 0.0007597874
000250 55 92 5a ba 5d d9 3b b8 67 3d a0 37 38 ad c7 37
       -0.0008337845 -4.478671e-05 1.9102079e-05 2.380331e-05
000260 00 00 00 00 00 00 00 00 00 00 00 00 00 00 00 00
       0.0 0.0 0.0 0.0
000270 00 00 00 00 00 00 00 00 00 00 00 00 00 00 00 00
       0.0 0.0 0.0 0.0
000280 31 81 a0 3a 6f 6a bd 38 43 06 c7 b8 71 5e 9e ba
       0.0012245533 9.032047e-05 -9.490226e-05 -0.0012082589
000290 c7 fb de 3a 8a 50 90 bb e0 c8 a8 bb e0 08 09 bc
       0.0017012291 -0.0044041323 -0.0051508993 -0.008363932
0002a0 a1 6e 91 ba c5 d6 88 3b 2a fb 91 3b 87 86 3c 3b
       -0.0011095592 0.004175993 0.00445499 0.0028766708
0002b0 91 7e 54 bb f6 20 ad bb 5e 03 c0 bb d5 d4 35 bc
       -0.0032424072 -0.0052834703 -0.0058597764 -0.011098106
0002c0 76 0d 26 3b fa cc 0f 3b ec 55 f0 3a 76 26 17 bb
       0.0025337613 0.0021942244 0.0018336154 -0.0023063696
0002d0 b7 7a 99 bb 27 b9 80 bb 1a cb 69 bb de a2 79 b8
       -0.004683818 -0.003928322 -0.0035674036 -5.9517908e-05
0002e0 35 cd 75 b9 b5 de 2d 3b 88 4b 39 3b 7c 42 0c 3b
       -0.00023441466 0.0026530449 0.002827378 0.0021401932
0002f0 0e 31 c3 3b 1f 10 0b 3c 0b ba 0e 3c 1e da 0f 3c
       0.0059567755 0.00848773 0.008711348 0.0087800305
000300 56 65 1d bc 6f 55 2f bc d2 8a 2b bc 8a c6 d5 bb
       -0.00960668 -0.010701521 -0.010470109 -0.006523912
000310 8b c3 40 3b 02 6d b1 ba 31 e8 f3 ba a1 32 80 bb
       0.0029413428 -0.0013536515 -0.0018608627 -0.0039122854
000320 e0 29 0d bb ed 91 d8 b9 a9 31 3f ba 2e 7a cf bb
       -0.0021539852 -0.00041307454 -0.0007293472 -0.0063317036
000330 be ce 8f b8 1a ec 3e bb a2 04 48 bb a5 4c 04 bb
       -6.85728e-05 -0.0029132427 -0.003052034 -0.0020187285
000340 2a 22 03 bc ba 1f 9b bb 0e bf 8e bb 34 7d 36 bb
       -0.008003751 -0.0047340067 -0.0043562716 -0.0027845623
000350 40 6b b5 bb fc cd dd bb 85 d5 dd bb 1b 50 b4 bb
       -0.005536467 -0.00676894 -0.0067698383 -0.0055027134
000360 be 1e f7 bb 34 66 ac ba d2 cb 5e ba 4f f7 90 ba
       -0.0075415066 -0.0013153017 -0.00084989995 -0.0011060032
000370 2f 53 4f 39 16 34 16 3a de c7 0d 3a 84 fe 96 b8
       0.00019772047 0.00057298073 0.00054085057 -7.1999646e-05
000380 e8 38 10 3b b2 c0 36 bb 90 96 60 bb d7 58 d3 bb
       0.0022006575 -0.0027885851 -0.003426943 -0.0064497995
000390 7d 08 70 bb 1b 29 32 bb e6 d4 0d bb 4d 7c 75 3b
       -0.0036626153 -0.0027185145 -0.002164179 0.0037458122
0003a0 5a 21 b8 b9 1b c0 b0 bb 6e bf c1 bb e8 73 f2 bb
       -0.00035120064 -0.0053939945 -0.005912713 -0.007399071
0003b0 18 2c c6 bb 46 ac b7 3a 45 f4 f6 3a 2f 53 44 3a
       -0.006047737 0.0014013133 0.0018841109 0.0007489202
0003c0 78 06 08 bc 28 fd f2 bb 15 33 fb bb ce a0 39 bc
       -0.0083023235 -0.0074154325 -0.0076660016 -0.011329843
0003d0 4e 04 17 39 23 f7 c7 b9 ac 5c 3e ba 88 cb 8d bb
       0.00014402086 -0.0003814037 -0.0007261734 -0.0043272413
0003e0 3c c0 c4 3a ba 36 9e 38 65 46 20 b8 ef 78 ae 37
       0.0015010904 7.544221e-05 -3.8212533e-05 2.079873e-05
0003f0 dd 55 37 bc 13 22 5d bc 67 02 61 bc 11 90 6c bc
       -0.011189905 -0.013496893 -0.013733483 -0.014438645

exp_avg_sq f4 [128, 4]
000000 b4 db 18 37 07 b4 2d 36 b6 93 00 36 56 8a 54 34
       9.11106e-06 2.5883799e-06 1.9159465e-06 1.9794365e-07
000010 1c ec c9 35 a2 f5 9f 36 13 b6 ad 36 f4 ca c9 36
       1.5044384e-06 4.7671647e-06 5.176998e-06 6.0138937e-06
000020 32 41 13 35 dc ed 83 35 9c d7 83 35 5c e5 9a 34
       5.485664e-07 9.829487e-07 9.823011e-07 2.8851616e-07
000030 c1 de 1b 36 66 d9 f4 35 78 28 f2 35 80 bd eb 35
       2.322646e-06 1.8242688e-06 1.8042183e-06 1.7564016e-06
000040 36 ca b8 35 a9 d7 95 35 68 ff b3 35 f9 e0 8a 36
       1.3767919e-06 1.116413e-06 1.3410872e-06 4.1389108e-06
000050 28 29 82 30 14 92 24 35 8d 1e 3d 35 9e 09 38 35
       9.470442e-10 6.130733e-07 7.0452444e-07 6.8559336e-07
000060 00 00 00 00 00 00 00 00 00 00 00 00 00 00 00 00
       0.0 0.0 0.0 0.0
000070 bc 4e 9c 36 4a 2e 93 36 f8 ad 9c 36 a8 50 0a 37
       4.658328e-06 4.38633e-06 4.669415e-06 8.24422e-06
000080 f8 18 df 2f 41 1c 92 2c 71 49 a7 2c 75 b3 d8 2f
       4.0581205e-10 4.1527064e-12 4.754579e-12 3.9417683e-10
000090 00 00 00 00 00 00 00 00 00 00 00 00 00 00 00 00
       0.0 0.0 0.0 0.0
0000a0 5d 18 3a 36 b0 d1 1f 35 4c c9 0f 35 04 35 df 35
       2.773034e-06 5.953725e-07 5.3564577e-07 1.6630224e-06
0000b0 76 77 e3 36 57 c7 b8 36 cb 2c c8 36 77 1f 80 37
       6.7790343e-06 5.5068335e-06 5.965679e-06 1.5273441e-05
0000c0 8d d6 94 36 9c db 18 37 00 6b 12 37 b7 27 1a 36
       4.4357207e-06 9.111038e-06 8.727191e-06 2.2970905e-06
0000d0 2c 4f 81 37 6f 31 39 37 4d 8b 42 37 f1 99 cf 37
       1.5414866e-05 1.1038369e-05 1.1595735e-05 2.4748007e-05
0000e0 f7 a8 83 37 3f 95 cc 36 7e c6 b2 36 c9 1d 48 36
       1.5695097e-05 6.0970483e-06 5.327921e-06 2.981966e-06
0000f0 10 5c b3 36 95 e9 1c 37 15 b0 1e 37 9e ed f0 36
       5.345333e-06 9.35271e-06 9.458531e-06 7.1802197e-06
000100 cb fb a1 36 9c a1 0c 36 12 b5 d8 35 f7 d4 16 37
       4.8274865e-06 2.0955695e-06 1.6145952e-06 8.9902815e-06
000110 f4 cb 6d 2f 42 b1 28 30 3a 81 3e 31 2c 77 78 35
       2.1627483e-10 6.136994e-10 2.7722096e-09 9.256062e-07
000120 fd 30 9f 34 6c b8 89 35 f7 77 9a 35 98 63 6d 36
       2.9651702e-07 1.0260969e-06 1.1508808e-06 3.5373723e-06
000130 2c 91 1a 36 b7 d5 a9 36 3e 8f b6 36 c1 99 e4 36
       2.303229e-06 5.061472e-06 5.4406983e-06 6.812829e-06
000140 01 46 8c 36 f2 85 3d 36 45 d7 3b 36 08 5c d7 36
       4.1804747e-06 2.824116e-06 2.7990475e-06 6.418213e-06
000150 98 40 e7 36 82 e9 2e 37 0f f4 2f 37 73 29 fc 36
       6.891856e-06 1.0425576e-05 1.0487637e-05 7.5150106e-06
000160 68 b4 90 37 c4 91 e4 37 17 e1 d5 37 9c ed 87 36
       1.7250146e-05 2.7247595e-05 2.5496394e-05 4.050975e-06
000170 10 5f cc 36 aa 7a 01 37 ab 88 03 37 36 06 ed 36
       6.0907405e-06 7.717559e-06 7.840029e-06 7.0638735e-06
000180 65 41 f7 37 95 63 a3 37 cc 27 9f 37 75 d6 ae 37
       2.9475146e-05 1.9477486e-05 1.8972809e-05 2.084228e-05
000190 2c 42 35 37 53 20 0a 37 ff 68 f5 36 15 75 ca 35
       1.08038475e-05 8.232967e-06 7.313792e-06 1.5084248e-06
0001a0 00 00 00 00 00 00 00 00 00 00 00 00 00 00 00 00
       0.0 0.0 0.0 0.0
0001b0 f1 04 9e 36 46 93 5c 37 66 c0 65 37 41 21 33 37
       4.709342e-06 1.3147312e-05 1.369426e-05 1.0676974e-05
0001c0 00 00 00 00 00 00 00 00 00 00 00 00 00 00 00 00
       0.0 0.0 0.0 0.0
0001d0 20 85 3c 36 22 7b 57 36 51 88 57 36 7e fc 42 36
       2.8091672e-06 3.210917e-06 3.2116843e-06 2.9055223e-06
0001e0 00 00 00 00 00 00 00 00 00 00 00 00 00 00 00 00
       0.0 0.0 0.0 0.0
0001f0 e5 99 53 36 7f fa 9a 36 ab 3a a3 36 a2 36 e5 36
       3.1531029e-06 4.6187192e-06 4.8646084e-06 6.831092e-06
000200 44 e9 9f 35 6d 5e 78 34 06 ff 33 34 d0 e1 83 33
       1.1914312e-06 2.3131152e-07 1.6763451e-07 6.141238e-08
000210 0c 14 15 36 f3 f7 24 36 62 b3 25 36 6d d3 ed 35
       2.22144e-06 2.458223e-06 2.469133e-06 1.7719409e-06
000220 e3 f0 3c 36 4d ae 22 36 bf b4 26 36 61 5b 64 36
       2.8154398e-06 2.4241338e-06 2.4841136e-06 3.4027837e-06
000230 c5 bd a6 34 45 21 92 34 5f e9 8d 34 11 c1 72 34
       3.1057985e-07 2.7218826e-07 2.6433096e-07 2.2608243e-07
000240 3c 4e 15 37 3b 43 b9 36 55 13 9d 36 62 f3 32 35
       8.899307e-06 5.5212563e-06 4.681215e-06 6.6664336e-07
000250 21 f5 0e 34 84 95 c5 2f f5 7f 38 30 13 e4 95 34
       1.3313958e-07 3.5940328e-10 6.712065e-10 2.7919359e-07
000260 00 00 00 00 00 00 00 00 00 00 00 00 00 00 00 00
       0.0 0.0 0.0 0.0
000270 00 00 00 00 00 00 00 00 00 00 00 00 00 00 00 00
       0.0 0.0 0.0 0.0
000280 92 37 9c 34 65 c9 b7 30 a7 d9 a1 30 9b af 47 34
       2.9097697e-07 1.3372242e-09 1.1776152e-09 1.8597204e-07
000290 87 50 91 36 1e e3 1e 36 57 8d 3e 36 da 3d e9 36
       4.3307114e-06 2.3676034e-06 2.8394477e-06 6.9511416e-06
0002a0 d0 ea 3d 36 3b b0 10 37 72 75 1a 37 b1 c2 fe 36
       2.8299874e-06 8.624101e-06 9.20646e-06 7.592455e-06
0002b0 82 ce 72 35 2c b2 14 36 85 e2 38 36 8b 12 31 37
       9.0452534e-07 2.2157428e-06 2.7549988e-06 1.05543395e-05
0002c0 0e 29 61 36 65 ee 3d 36 da e1 34 36 74 7a 1b 36
       3.355151e-06 2.8301959e-06 2.6953553e-06 2.3168077e-06
0002d0 b5 7e 8b 36 76 73 04 36 b6 4d f2 35 6d b7 10 36
       4.1572735e-06 1.973674e-06 1.8053022e-06 2.156444e-06
0002e0 6e 90 ee 34 a0 60 0a 36 7f 15 0f 36 2a 99 3b 35
       4.443604e-07 2.0619846e-06 2.1321173e-06 6.988581e-07
0002f0 3e 8c 0c 37 a3 a8 6e 37 4e 50 70 37 7d 8a 18 37
       8.377303e-06 1.4225169e-05 1.4323812e-05 9.09215e-06
000300 e2 ee 83 37 43 03 81 37 d3 2f 76 37 a1 c1 fc 36
       1.5727655e-05 1.5379517e-05 1.4673878e-05 7.5327266e-06
000310 e1 9d aa 36 10 f7 1b 36 ad 0f 17 36 3d ac 41 36
       5.0847743e-06 2.324061e-06 2.2509878e-06 2.8859497e-06
000320 bf 7f 8c 34 f4 1f 18 33 f8 76 ad 33 87 40 5a 36
       2.616998e-07 3.541932e-08 8.0775806e-08 3.2522091e-06
000330 ce 7d d3 33 46 c1 7f 35 a5 fe 81 35 4e bb 59 35
       9.848337e-08 9.527615e-07 9.68536e-07 8.1111364e-07
000340 90 1f f3 36 ac 90 39 36 73 b5 27 36 3b d4 fd 35
       7.2456387e-06 2.7651358e-06 2.4990557e-06 1.8911736e-06
000350 1f f1 ac 36 a7 f6 89 36 16 08 88 36 27 9f 5e 36
       5.1540696e-06 4.1116323e-06 4.054057e-06 3.3173217e-06
000360 12 21 cf 36 a2 ab 32 36 41 91 41 36 c0 0a 08 36
       6.1729306e-06 2.662397e-06 2.884379e-06 2.0271837e-06
000370 99 21 0b 32 f4 49 55 34 db d5 62 34 5d 7a 09 34
       8.098504e-09 1.9864075e-07 2.112569e-07 1.2803635e-07
000380 82 5c 7d 36 ca 2e 8f 35 b0 aa 9c 35 31 9a 12 36
       3.7753784e-06 1.0667948e-06 1.1672582e-06 2.1845447e-06
000390 b6 37 33 36 42 36 e5 35 88 30 df 35 b5 0f c9 36
       2.6705507e-06 1.7077621e-06 1.6628919e-06 5.9920953e-06
0003a0 30 1f 9e 35 45 27 8c 36 dd 03 9e 36 ad 6f 9b 36
       1.1780994e-06 4.1768967e-06 4.7092167e-06 4.6323607e-06
0003b0 85 03 81 36 85 85 3e 36 65 67 57 36 cc ef 99 36
       3.8449093e-06 2.8389925e-06 3.209768e-06 4.5876714e-06
0003c0 e1 a8 c0 36 ff 78 94 36 2d 2e 9e 36 5c 0b 2f 37
       5.741706e-06 4.4248295e-06 4.7141425e-06 1.0433458e-05
0003d0 9a 90 b1 32 4e e4 0f 34 f3 87 5c 34 e0 c6 01 36
       2.067127e-08 1.340097e-07 2.0538555e-07 1.9338258e-06
0003e0 46 88 02 35 d6 18 bb 30 43 f5 b8 2f 37 a7 20 2f
       4.862708e-07 1.36131e-09 3.3643674e-10 1.4611322e-10
0003f0 9d 67 9c 37 0f 81 d6 37 64 cd e0 37 11 48 15 38
       1.8644898e-05 2.5570886e-05 2.6798523e-05 3.5591485e-05

exp_avg f4 [128]
000000 81 c2 08 bc 1c b4 9d ba 21 76 b9 ba 8b 14 7a bb
       -0.008347155 -0.0012031826 -0.0014149585 -0.0038159217
000010 89 37 b9 39 61 0c 70 bb 00 00 00 00 6a 16 bc ba
       0.00035327327 -0.0036628472 0.0 -0.0014349942
000020 72 a5 68 bb 00 00 00 00 ac 50 83 bb 38 72 06 bc
       -0.0035499004 0.0 -0.0040074196 -0.008205943
000030 1a 1a ab bb af 84 1c bc e0 9d c7 3a 91 af a8 bb
       -0.0052216174 -0.009553119 0.0015229546 -0.0051478823
000040 e1 10 31 ba 43 f8 b2 bb 9c 4b 82 ba 23 e3 2a bb
       -0.00067545293 -0.005461724 -0.0009940746 -0.0026075325
000050 f6 95 60 3b b0 2c cb bb b2 f9 9e bb 7f 3e 6a bb
       0.0034269071 -0.0062003955 -0.0048515433 -0.0035742817
000060 75 8c a4 bb 5b cf 10 bc 00 00 00 00 be bf 02 bc
       -0.0050216266 -0.0088385 0.0 -0.007980285
000070 00 00 00 00 73 6a d8 ba 00 00 00 00 da e8 4e b8
       0.0 -0.0016511217 0.0 -4.9331087e-05
000080 d8 b8 84 ba 06 5e 48 3a 90 a1 9b b7 3f 2e 7c ba
       -0.0010125889 0.0007643405 -1.8552673e-05 -0.00096199283
000090 93 a4 e2 ba 36 d2 00 bb 00 00 00 00 00 00 00 00
       -0.0017291479 -0.0019656545 0.0 0.0
0000a0 ab 7d 20 bb dc 75 34 bb d6 fb ca 3a 28 3c f9 bb
       -0.0024488966 -0.002753607 0.001548643 -0.007606048
0000b0 8b 56 94 bb 88 34 33 bb cb f4 af ba 2a 0a a6 3b
       -0.0045269183 -0.0027344543 -0.0013424394 0.0050671296
0000c0 e3 35 a6 bb 0f 3d 4b bb a5 bf cb bb ee 83 75 bb
       -0.0050723418 -0.0031011736 -0.006217914 -0.003746267
0000d0 27 d0 ed bb c3 bf 9d bb 0d b5 83 bb d7 69 13 bb
       -0.0072574797 -0.0048141195 -0.0040193857 -0.0022493505
0000e0 d8 df c2 39 88 0f da ba 47 8b a3 bb 64 04 aa bb
       0.0003716934 -0.0016636709 -0.0049909684 -0.0051885117
0000f0 6b 2c f2 bb c9 c2 f2 bb 48 1f 8b ba 7e 39 16 bc
       -0.007390549 -0.007408474 -0.0010614181 -0.009168981
000100 fd 1f 05 bb 7e 2f b1 b8 d5 42 10 bb d2 3c c1 bb
       -0.0020313256 -8.448864e-05 -0.0022012491 -0.005897143
000110 b3 fa 8c bb be ac 0f bc 00 00 00 00 47 7c bd bb
       -0.0043023466 -0.008769212 0.0 -0.0057826373
000120 43 24 8a ba 55 6b 01 bc 69 2b 32 3a f2 e4 a5 bb
       -0.0010539371 -0.007899125 0.000679663 -0.005062693
000130 5b cb b0 bb b9 2b ba bb c3 20 32 bb 80 65 7b 37
       -0.0053953356 -0.0056814817 -0.0027180172 1.4984398e-05
000140 00 00 00 00 85 26 bf 3a 00 00 00 00 a4 1e 24 bb
       0.0 0.0014583623 0.0 -0.0025042677
000150 f0 c8 c3 bb 83 33 92 bb a0 86 51 37 a8 c9 20 bb
       -0.0059748814 -0.004461707 1.2488716e-05 -0.002453426
000160 13 2c c1 b9 00 00 00 00 36 83 07 bc 00 00 00 00
       -0.00036844666 0.0 -0.008271029 0.0
000170 8c 5a 99 bb 00 00 00 00 92 73 ec 39 00 00 00 00
       -0.0046799835 0.0 0.00045099534 0.0
000180 00 00 00 00 65 45 10 bc 8c 08 9f bb 02 48 53 bb
       0.0 -0.008805607 -0.004853314 -0.0032238965
000190 d8 23 1b bb ea 7b b0 ba 00 00 00 00 8a 54 39 bb
       -0.0023672488 -0.0013464664 0.0 -0.002827915
0001a0 fa 4a ad bb 33 32 da bb 7e 7f d8 bb ba fc a3 bb
       -0.005288479 -0.0066588162 -0.006606995 -0.0050044926
0001b0 ab 82 22 bb 4a 88 ea b9 4e 05 30 bb 2e fe a1 bb
       -0.0024797122 -0.000447335 -0.002685863 -0.0049436307
0001c0 87 f6 4d bb 12 38 94 3b a1 83 92 bb 9e 13 9c bb
       -0.003142746 0.0045232857 -0.004471258 -0.0047630807
0001d0 70 ed 3e bb 2a 4a 65 bb 21 da 97 39 96 a8 63 bb
       -0.0029133223 -0.0034986832 0.00028963483 -0.0034737936
0001e0 71 dc d2 bb 60 50 60 38 6f 26 28 bc e4 6d a1 b7
       -0.00643497 5.3480617e-05 -0.0102630695 -1.9243867e-05
0001f0 40 f6 dd bb 92 80 0a 3a 00 00 00 00 0a b2 bb bb
       -0.00677374 0.00052834407 0.0 -0.005728011

exp_avg_sq f4 [128]
000000 24 98 98 36 9c 69 e8 35 05 17 9e 34 8f 13 d4 35
       4.5476645e-06 1.7316083e-06 2.9446542e-07 1.5800923e-06
000010 03 b2 14 35 8b 30 35 35 00 00 00 00 83 e7 71 36
       5.539334e-07 6.7498394e-07 0.0 3.6046556e-06
000020 a3 b2 f8 35 00 00 00 00 cb f4 90 35 88 dd a5 36
       1.852943e-06 0.0 1.080008e-06 4.943173e-06
000030 61 5c 79 36 d3 c1 11 37 c8 bd cd 36 99 8f 10 36
       3.7157663e-06 8.687802e-06 6.1315695e-06 2.1541257e-06
000040 f8 55 2e 36 c2 cd ed 35 22 45 eb 35 cf dc 8b 36
       2.597806e-06 1.7717759e-06 1.7528985e-06 4.1682283e-06
000050 3c f8 a9 36 d3 47 69 36 22 7b e7 36 e6 a5 16 36
       5.0654908e-06 3.4761513e-06 6.898671e-06 2.2448307e-06
000060 fd 17 bb 36 ba 5d 1f 37 00 00 00 00 86 f3 a5 36
       5.575827e-06 9.498961e-06 0.0 4.945733e-06
000070 00 00 00 00 cb b9 8d 35 00 00 00 00 63 a7 8e 35
       0.0 1.0559392e-06 0.0 1.062854e-06
000080 68 97 99 34 f3 64 a4 35 a5 7e fd 34 01 e2 84 33
       2.8608633e-07 1.2248332e-06 4.7217068e-07 6.187839e-08
000090 36 4a d7 35 12 36 c1 34 00 00 00 00 00 00 00 00
       1.6040347e-06 3.5988393e-07 0.0 0.0
0000a0 fb 86 3c 35 a6 5a 4d 36 84 5b 76 36 05 dc 8f 36
       7.023188e-07 3.0600145e-06 3.6710126e-06 4.2873457e-06
0000b0 16 41 e6 35 bb 80 20 36 ea e8 d5 34 7c 2e 99 36
       1.7155278e-06 2.391679e-06 3.984381e-07 4.565167e-06
0000c0 af 67 9f 36 3e 17 05 36 bc 0c 47 36 1b c7 8a 35
       4.7506396e-06 1.9832073e-06 2.9660723e-06 1.0339749e-06
0000d0 52 6f e3 36 77 7a 39 36 ba 8c ed 35 77 ae a6 34
       6.7780866e-06 2.7638432e-06 1.7698833e-06 3.104685e-07
0000e0 3c df 5a 36 d9 9a db 35 a5 12 24 36 17 86 2e 36
       3.261447e-06 1.6361838e-06 2.4448757e-06 2.600607e-06
0000f0 ef d0 a3 36 89 52 b6 36 c0 59 f2 34 01 63 8d 37
       4.8821016e-06 5.433631e-06 4.5141314e-07 1.6854612e-05
000100 4e 12 3f 35 49 7d e9 34 be 51 03 35 fa 80 7a 36
       7.117968e-07 4.349079e-07 4.8920253e-07 3.7327977e-06
000110 a2 16 1f 36 aa 5f de 36 00 00 00 00 02 51 35 36
       2.370602e-06 6.6272523e-06 0.0 2.7018255e-06
000120 f5 47 c5 35 eb e1 91 36 99 0a 13 36 b2 9f 82 37
       1.4698586e-06 4.347637e-06 2.1910876e-06 1.5571572e-05
000130 b8 f2 1f 36 7e ee 29 36 0e 98 3e 36 b0 2b 86 34
       2.3834127e-06 2.5321783e-06 2.8400714e-06 2.4991232e-07
000140 00 00 00 00 18 ed 09 36 00 00 00 00 70 a3 4f 35
       0.0 2.0552598e-06 0.0 7.735134e-07
000150 b0 b9 28 36 67 69 12 36 57 00 24 35 4f b1 c8 35
       2.5142035e-06 2.1817048e-06 6.1095255e-07 1.4952765e-06
000160 0a f1 56 35 00 00 00 00 a0 66 f3 36 00 00 00 00
       8.007197e-07 0.0 7.2539115e-06 0.0
000170 ee 6d 21 36 00 00 00 00 c6 62 ac 35 00 00 00 00
       2.4054857e-06 0.0 1.2843745e-06 0.0
000180 00 00 00 00 48 6e b6 36 70 49 81 36 3e bb 97 35
       0.0 5.436861e-06 3.853049e-06 1.1304871e-06
000190 88 1c 93 35 0e 09 f4 35 00 00 00 00 b8 db 87 35
       1.0960657e-06 1.8182052e-06 0.0 1.012223e-06
0001a0 87 dd 95 36 67 47 b8 36 d5 97 0a 36 d4 bb 48 36
       4.466335e-06 5.4919396e-06 2.065198e-06 2.9911653e-06
0001b0 3b d4 58 36 fb 3f 49 34 6c 49 d7 34 96 d9 62 36
       3.2310043e-06 1.874286e-07 4.0100292e-07 3.3803276e-06
0001c0 49 9e 33 36 2a 07 68 36 90 a0 b8 35 e2 dd 57 37
       2.6765213e-06 3.4574864e-06 1.3755798e-06 1.286666e-05
0001d0 a6 56 54 35 98 a6 bf 35 87 75 f5 34 81 c5 9b 35
       7.9102244e-07 1.4279094e-06 4.5720319e-07 1.1605881e-06
0001e0 67 eb a8 36 98 55 96 35 39 45 16 37 01 f9 2f 33
       5.0341946e-06 1.1200782e-06 8.956814e-06 4.097183e-08
0001f0 79 d0 a6 36 a0 df 08 36 00 00 00 00 5c 5c 52 36
       4.971455e-06 2.0395746e-06 0.0 3.1346199e-06
