models/model_20250801_130040_lr0.001.pth (torch, 126838 bytes, 18 tensors)

fc1.weight f4 [128, 4]
0	0x3e69f271	0.2284639
1	0xbd20a3fc	-0.039218888
2	0xbecd1a50	-0.40059137
3	0x3d55f041	0.052231077
4	0xbe85a243	-0.26100358
5	0x3e027c3a	0.12742701
6	0x3e83201b	0.25610432
7	0x3e1bd0b7	0.15216337
8	0x3f0f9772	0.5609046
9	0xbe181aea	-0.14854017
10	0x3ed734ef	0.42032573
11	0x3f0778e1	0.5291882
12	0x3e85a944	0.26105702
13	0xbe495d9d	-0.19664617
14	0xbe9c95eb	-0.30583128
15	0x3e6c2b36	0.23063359
16	0x3ece3199	0.40272215
17	0x3e915cbf	0.28391072
18	0x3e4f878a	0.20266548
19	0xbf1c7830	-0.6112089
20	0xbecf581b	-0.40496907
21	0xbe935368	-0.2877457
22	0xbece7bc8	-0.40328813
23	0x3ee2cd91	0.4429746
24	0xbe7d6110	-0.24744058
25	0xbd8f4c97	-0.0699703
26	0xbde81ea2	-0.11333968
27	0x3f02b4ce	0.51057136
28	0xbf13052f	-0.57429785
29	0x3ee10727	0.4395077
30	0xbdcca815	-0.099929966
31	0x3f26d9b5	0.65175945
32	0x3edb207f	0.4279823
33	0x3f0ebb54	0.5575459
34	0x3ee57c7a	0.4482153
35	0x3ef8b3fd	0.4857482
36	0x3cee5060	0.02909106
37	0x3e92b8d2	0.28656632
38	0x3e1f25d4	0.15541774
39	0x3ef7c56d	0.4839281
40	0xbe61d0c9	-0.22052301
41	0xbdb5aae8	-0.088704884
42	0xbe7cfa4d	-0.24704857
43	0x3e8bc6d2	0.27300125
44	0xbeb58165	-0.35450283
45	0x3e4f1c6b	0.20225684
46	0x3e5549a0	0.20828867
47	0xbe9bf516	-0.30460423
48	0xbe82f9d9	-0.25581244
49	0x3ebffc29	0.3749707
50	0x3ec53d75	0.3852345
51	0xbe331ea4	-0.17492157
52	0x3e8b7124	0.27234757
53	0x3ed6b379	0.41933802
54	0xbe480252	-0.19532135
55	0x3edb1123	0.42786512
56	0x3d466128	0.0484325
57	0xbea1ad0d	-0.3157734
58	0xbdd53a5d	-0.104115225
59	0x3eb5c6d9	0.3550327
60	0x3da9e0e3	0.08294847
61	0xbebff39f	-0.37490556
62	0xbe6f9162	-0.23395303
63	0x3ea4911f	0.3214197
64	0x3f1993db	0.59991235
65	0xbe8a5dee	-0.27024788
66	0x3e9ddaef	0.30831096
67	0xbef88e28	-0.48545957
68	0x3ecaf60c	0.39640844
69	0x3d7a16dd	0.06105696
70	0x3e884259	0.2661312
71	0x3e15a1ef	0.14612554
72	0xbe907b03	-0.2821885
73	0xbf2234aa	-0.6336161
74	0xbec896c2	-0.3917752
75	0x3e1940ee	0.14966175
76	0x3eafc2e4	0.34328377
77	0x3e1fb838	0.15597618
78	0xbf09e0e0	-0.53858757
79	0xbf0641bf	-0.5244407
80	0xbf4c1a96	-0.79728067
81	0xbf26dc1b	-0.65179604
82	0xbedf3e63	-0.43602285
83	0xbee61441	-0.44937328
84	0xbd60dd45	-0.05489852
85	0xbab12337	-0.0013514523
86	0x3e7ad7a4	0.24496323
87	0xbed76fae	-0.42077392
88	0xbe24ad2d	-0.16081686
89	0x3ecf2e02	0.4046479
90	0x3d3335a5	0.04375233
91	0xbeeae56f	-0.4587817
92	0x3e8aebc6	0.27133006
93	0xbf024511	-0.50886637
94	0x3e13bd6c	0.14427727
95	0xbc5d6011	-0.013511674
96	0xbe161d39	-0.14659585
97	0xbea85d8b	-0.32883868
98	0x3db4f651	0.088360436
99	0x3d694829	0.056953583
100	0xbf5e2642	-0.86777127
101	0xbe724ecb	-0.2366287
102	0xbef854ae	-0.48502105
103	0xbcbf75a4	-0.023371525
104	0xbecbc01d	-0.39795008
105	0x3e1caacd	0.1529953
106	0x3e2e7c80	0.1703968
107	0xbe0871c3	-0.13324647
108	0xbed91031	-0.42395166
109	0x3d8a05f1	0.067394145
110	0xbb1bcf52	-0.0023774696
111	0x3f1c3919	0.61024624
112	0x3e52e47e	0.20594975
113	0xbe9a4a00	-0.30134583
114	0x3e86b492	0.2630964
115	0xbf0f87a0	-0.5606632
116	0x3e50f16b	0.20404594
117	0xbe1d3df9	-0.15355672
118	0x3e8eb091	0.27869084
119	0xbecc7dca	-0.3993972
120	0x3eccd7ec	0.40008485
121	0xbeca565e	-0.39519018
122	0x3e984143	0.2973729
123	0xbebe7b0a	-0.37203246
124	0x3e7d25ce	0.24721453
125	0xbdd3da49	-0.10344369
126	0xbe3fe65c	-0.18740219
127	0xbe27b91f	-0.16379212
128	0xbe582666	-0.21108398
129	0xbe5844d8	-0.21120012
130	0xbe37bcfb	-0.17943184
131	0x3f241ee6	0.6410965
132	0xbce710ad	-0.028206194
133	0xbdf0c867	-0.11756974
134	0x3d3ec072	0.04657025
135	0xbe4b3b5d	-0.19846864
136	0xbf3d8882	-0.7403642
137	0xbe2ec57c	-0.17067522
138	0xbe01f2a1	-0.12690212
139	0x3ea56da5	0.32310215
140	0x3f0dd4f1	0.5540305
141	0x3b217bdb	0.0024640474
142	0xbeca0dec	-0.39463747
143	0x3e018376	0.12647805
144	0xbe38b44a	-0.18037525
145	0xbeaf5012	-0.34240776
146	0x3e423d36	0.18968663
147	0x3d0442b9	0.032290194
148	0x3f0abc13	0.5419323
149	0xbee04fe9	-0.43810967
150	0x3d7f0755	0.06226285
151	0xbedb1fbf	-0.42797658
152	0xbefa7e3f	-0.48924443
153	0x3ee47f95	0.44628587
154	0xbe4d2dab	-0.20036952
155	0x3e0b8b84	0.1362744
156	0xbd9480ff	-0.072511666
157	0x3e8ac89b	0.27106175
158	0x3ea27450	0.31729364
159	0xbf18ffe5	-0.59765464
160	0x3e982070	0.29712248
161	0xbeff7575	-0.498943
162	0xbdd265f1	-0.1027335
163	0x3eb6097d	0.35554114
164	0x3e8c1333	0.27358398
165	0xbf31b858	-0.6942191
166	0xbc9dfc54	-0.019285358
167	0xbf269845	-0.65076095
168	0xbf00e24f	-0.5034532
169	0x3ea73a55	0.3266169
170	0x3e3e9ca0	0.18614435
171	0xbf20dc09	-0.62835747
172	0xbeeb4797	-0.45953056
173	0xbf1368a2	-0.5758153
174	0xbf1d05cd	-0.61336976
175	0xbe33cab0	-0.17557788
176	0x3edf9029	0.43664673
177	0x3db4b60f	0.088237874
178	0x3d904a71	0.070454486
179	0x3e106b0d	0.14103337
180	0xbe76e9f6	-0.24112687
181	0xbd92499f	-0.07142948
182	0xbde5760f	-0.112041585
183	0x3db7b044	0.08969167
184	0xbf2da88e	-0.6783532
185	0xbe4c8ac8	-0.19974816
186	0x3e2efee5	0.17089422
187	0xbd727901	-0.05919743
188	0x3c822fd2	0.015891943
189	0xbe8b10f6	-0.27161378
190	0xbe7fa7c8	-0.24966347
191	0x3d682024	0.056671277
192	0x3f14fb16	0.58195627
193	0xbe836ba1	-0.25668052
194	0xbe80d93a	-0.2516573
195	0xbe216219	-0.15760078
196	0x3f0bfa77	0.54679054
197	0xbdef7bc8	-0.11693531
198	0x3eba5651	0.3639398
199	0x3efbcfb8	0.49181914
200	0xbeb8c043	-0.36084184
201	0xbc44d848	-0.012014456
202	0xbcad56dd	-0.021159584
203	0x3d687d6c	0.056760237
204	0x3e99394a	0.2992652
205	0xbebf29f5	-0.37336698
206	0x3e75bc1f	0.23997544
207	0xbeb3eed7	-0.35143158
208	0x3df1feb8	0.11816162
209	0xbdb7f9b0	-0.08983171
210	0xbe77d77c	-0.24203295
211	0xbe990f86	-0.29894656
212	0xbd827b10	-0.063711286
213	0x3eb02d3d	0.34409514
214	0xbd62707e	-0.055283062
215	0xbf0ec0ac	-0.55762744
216	0x3ef4df0c	0.4782642
217	0xbe0e851f	-0.13917969
218	0xbd56983c	-0.052391276
219	0x3f16d353	0.58916205
220	0xbe62ebb5	-0.22160228
221	0xbddd5ce6	-0.108087346
222	0x3f18cbed	0.59686166
223	0x3dd6ffee	0.104980335
224	0xbea7841f	-0.32717988
225	0xbef00e18	-0.46885753
226	0xbe9709cb	-0.2949966
227	0xbef8cad0	-0.48592234
228	0xbee55348	-0.447901
229	0x3e55b735	0.20870669
230	0xbdf78aab	-0.12086996
231	0xbbb6ff73	-0.005584651
232	0x3f008997	0.50209945
233	0xbead1f1b	-0.33812794
234	0xbd36bb38	-0.04461214
235	0x3eb31cc9	0.349829
236	0xbe6d7f5f	-0.2319312
237	0xbedbcd9a	-0.429303
238	0xbee83d24	-0.45359147
239	0xbeb68133	-0.35645446
240	0xbe9f6ecf	-0.31139228
241	0x3e1b5d4a	0.15172306
242	0xbe8d1f03	-0.27562723
243	0x3c4bfa19	0.012449765
244	0x3f08eb81	0.5348435
245	0x3e06ecda	0.13176289
246	0x3c5c0583	0.0134290485
247	0xbe5608e6	-0.20901832
248	0xbe503701	-0.20333482
249	0xbd793e27	-0.06085029
250	0xbdcc95a7	-0.099894814
251	0x3de5f372	0.11228074
252	0x3dc70e7a	0.09719558
253	0xbe6eb0a5	-0.23309572
254	0xbdd20919	-0.102556415
255	0xbd46627a	-0.04843376

fc1.bias f4 [128]
0	0x3f02d85c	0.5111139
1	0xbe8cc42d	-0.2749342
2	0xbf1492c6	-0.5803646
3	0x3e286c38	0.16447532
4	0x3c1baee4	0.009502146
5	0xbee7ab14	-0.4524771
6	0x3e3ec7b1	0.18630864
7	0xbe367505	-0.17818077
8	0xbf1c2a49	-0.6100202
9	0xbf452fb3	-0.7702591
10	0x3f1ecb8f	0.62029356
11	0x3f18c9ad	0.5968273
12	0xbf00fc9f	-0.5038547
13	0xbf440afd	-0.76579267
14	0x3ec4e056	0.38452405
15	0x3f367cda	0.7128426
16	0xbeaffb51	-0.34371427
17	0xbf2e79e1	-0.6815472
18	0xbeeef175	-0.46668592
19	0x3c0fdcf8	0.00878071
20	0x3e12183b	0.14267056
21	0x3f162c78	0.58661604
22	0x3ea78e54	0.32725775
23	0x3e24f17b	0.16107742
24	0x3d7c770c	0.06163697
25	0x3cebfb9d	0.028806502
26	0xbe7b6ab2	-0.2455242
27	0xbed84294	-0.42238295
28	0x3eeccd1e	0.46250242
29	0x3f11dd71	0.5697852
30	0x3e996cb6	0.29965752
31	0x3f1d4b18	0.6144271
32	0x3e8625b1	0.2620063
33	0x3f29a76e	0.662711
34	0x3e9cd73d	0.30632964
35	0xbdce35b5	-0.100688376
36	0x3f445962	0.7669889
37	0x3e5da578	0.21645153
38	0x3e4b7ad1	0.1987107
39	0x3e4bf211	0.1991656
40	0xbe120e24	-0.14263207
41	0x3ec48658	0.38383746
42	0x3ead5a8f	0.33858153
43	0x3f143557	0.5789389
44	0xbeb8dd5f	-0.36106393
45	0x3eeffc43	0.46872148
46	0x3ee318fe	0.44355005
47	0x3e7e9fc2	0.2486563
48	0x3e4329f5	0.19058974
49	0xbf1581c1	-0.58401114
50	0x3f391222	0.72293293
51	0x3f066c86	0.52509344
52	0x3ec932e3	0.39296636
53	0x3f0eaf0a	0.5573584
54	0xbf066092	-0.52491105
55	0xbef97ae4	-0.4872657
56	0xbeac2529	-0.336221
57	0x3f3fc740	0.74913406
58	0xbed94367	-0.42434236
59	0xbece6742	-0.40313154
60	0x3f587f38	0.8456912
61	0xbdc5f5a5	-0.096659936
62	0x3f0c549e	0.54816616
63	0x3f0c8502	0.54890454
64	0xbec4c861	-0.38434127
65	0x3e6ea05c	0.2330336
66	0x3edf1fdc	0.43578994
67	0x3ea35dea	0.31907588
68	0x3e99e9ce	0.3006119
69	0xbee64c88	-0.44980264
70	0xbf127089	-0.57202965
71	0x3d9788ec	0.07399163
72	0x3e4ce506	0.2000924
73	0x3d9e845a	0.07740088
74	0x3f3c488c	0.735482
75	0x3e52de23	0.20592551
76	0x3ea58643	0.32328996
77	0xbe82bda3	-0.25535306
78	0x3f2431c4	0.64138436
79	0xbf42cc1d	-0.760927
80	0x3ef70658	0.48247027
81	0x3f404e6b	0.75119656
82	0xbe4cbd45	-0.19994076
83	0x3f425de7	0.75924534
84	0x3ed785f7	0.42094395
85	0xbf1eb84a	-0.6199995
86	0xbe10c981	-0.14139368
87	0x3efaa5dc	0.48954666
88	0x3f393711	0.7234965
89	0x3f2794c6	0.65461385
90	0x3f4a3f5a	0.79002917
91	0xbf130e60	-0.5744381
92	0x3dfb9813	0.12284865
93	0xbe45c245	-0.19312389
94	0xbe242639	-0.16030206
95	0x3f029249	0.51004463
96	0x3f213f23	0.62986964
97	0x3ed185a0	0.4092226
98	0x3efd65e6	0.49491805
99	0x3f1392a3	0.57645625
100	0x3eab17c5	0.33416572
101	0x3f0290a0	0.5100193
102	0x3e2ee0a4	0.17077881
103	0xbf46237c	-0.77397895
104	0x3e75168a	0.23934379
105	0xbec0030b	-0.37502322
106	0x3f46ee85	0.777077
107	0xbf5d3eb0	-0.8642378
108	0xbdf3b850	-0.11900389
109	0x3dacfeac	0.08447012
110	0x3ee7afed	0.45251408
111	0x3f15fbf5	0.5858758
112	0xbed3cc47	-0.4136679
113	0xbea969ca	-0.33088523
114	0xbe73bc2d	-0.23802252
115	0xbf2bf857	-0.6717581
116	0xbeb6e6da	-0.35723
117	0xbe6baaee	-0.23014423
118	0x3e45f970	0.19333434
119	0x3ebede3d	0.3727893
120	0x3e5c3ccf	0.21507572
121	0xbefd4cfa	-0.4947279
122	0x3eb62612	0.3557592
123	0xbdae09f9	-0.08497996
124	0xbdef5ca4	-0.11687592
125	0x3e7392b9	0.23786439
126	0x3f113654	0.56723523
127	0x3da31a4f	0.07964002

fc2.weight f4 [64, 128]
0	0xbe878e7f	-0.26475903
1	0x3e0cdf17	0.13756977
2	0xbd89d5e7	-0.06730252
3	0xbe3a2510	-0.181782
4	0x3b8813c7	0.0041527483
5	0xbe3788e4	-0.17923313
6	0xbdc1cbae	-0.09462677
7	0x3ddc0bb4	0.1074442
8	0x3d3560db	0.04428182
9	0x3d634a5c	0.055490837
10	0xbcf6d0d8	-0.030128881
11	0x3d8b4c28	0.06801635
12	0xbd01a85e	-0.031654708
13	0xbe2d7866	-0.1694046
14	0xbe3a27aa	-0.18179193
15	0xbe205411	-0.15657069
16	0xbc1e5ead	-0.009666127
17	0xbe4d2d00	-0.20036697
18	0xbb9466ce	-0.004528857
19	0xbd33f0ee	-0.04393094
20	0x3e78f5e2	0.24312547
21	0xbddcc534	-0.10779801
22	0xbd21e28d	-0.039522696
23	0xbebdb182	-0.3704949
24	0x3d0491dd	0.03236567
25	0xbd371001	-0.044692997
26	0xbd521985	-0.05129387
27	0x3c5af887	0.013364918
28	0xbd1f42a6	-0.03888192
29	0xbcc5d1e4	-0.024147935
30	0xbc2a8b8d	-0.010409248
31	0xbe5b3686	-0.21407518
32	0xbe799668	-0.24373782
33	0xbe45b0fe	-0.19305798
34	0x3bdf42ac	0.006813368
35	0xbe614fa6	-0.2200304
36	0x3c8d5eea	0.017257173
37	0xbd0107cf	-0.031501587
38	0xbd879738	-0.066206396
39	0xbd4fc9cf	-0.05072957
40	0xbe5a1b2b	-0.21299426
41	0xbf113af4	-0.5673058
42	0x3d126d3a	0.035748698
43	0xbf0e52cb	-0.5559508
44	0xbca4ed94	-0.020132817
45	0xbcc282de	-0.023744043
46	0xbeb4f14a	-0.3534034
47	0xbe856eb0	-0.2606101
48	0xbe244c50	-0.16044736
49	0xbcbb9a83	-0.022900825
50	0x3d2db64c	0.04241018
51	0x3bec2f10	0.0072077587
52	0xbe42c42d	-0.19020148
53	0xbe4ab331	-0.19794919
54	0xbe29abe2	-0.16569474
55	0x3d8a1c42	0.06743671
56	0x3d820773	0.06349077
57	0x3dc884d6	0.097909614
58	0xbe821992	-0.25410134
59	0x3d40792a	0.04699055
60	0xbd274704	-0.04083921
61	0xbe1657f8	-0.14681995
62	0xbdbe43e5	-0.092902936
63	0xbe9a1ee0	-0.3010168
64	0xbdf0bbd7	-0.117545776
65	0xbe2f013e	-0.17090318
66	0xbe5989a4	-0.21243912
67	0xbcfc711a	-0.03081565
68	0x3d8256d8	0.063642204
69	0x3d1f56a7	0.038900997
70	0x3c468ab5	0.012118031
71	0xbe5b85f1	-0.21437813
72	0xbdc931a8	-0.09823924
73	0x3e003c54	0.12523013
74	0xbcfb3e98	-0.030669495
75	0xbdcb7599	-0.09934539
76	0xbe0b101b	-0.13580362
77	0x3d822ba9	0.06355984
78	0xbe0d978c	-0.13827342
79	0xbe8d8e68	-0.2764771
80	0x3cbcb245	0.023034224
81	0x3ca48531	0.020083042
82	0xbe34c9c5	-0.17655094
83	0x3d9f420d	0.0777627
84	0x3d02151e	0.03175842
85	0xbd2015af	-0.03908318
86	0xbd054870	-0.032539785
87	0x3d778133	0.06042595
88	0xbe5129a0	-0.20426035
89	0x3d037cd7	0.03210148
90	0x39ba9255	0.0003558571
91	0xbe89fa08	-0.2694857
92	0x3cc22896	0.023700994
93	0x3de9d683	0.11417868
94	0xbd9a515c	-0.07535049
95	0x3d200a8c	0.03907256
96	0xbe05a916	-0.13052782
97	0xbe935a03	-0.2877961
98	0xbe9ca35c	-0.30593383
99	0xbe769841	-0.24081518
100	0xbdc460f5	-0.095888056
101	0xbe7e1d5a	-0.24815884
102	0x3d830085	0.063965835
103	0xbe3661dc	-0.17810768
104	0xbe93ef46	-0.2889349
105	0x3cb87193	0.022515094
106	0xbd3674b4	-0.04454489
107	0xbccbd3d7	-0.024881287
108	0xbb73c977	-0.003719894
109	0xbde5d99c	-0.11223146
110	0xbe68592f	-0.22690271
111	0x3dec4176	0.11535923
112	0x3d30cabe	0.0431621
113	0xbd1e3609	-0.03862575
114	0xbc9dbfd4	-0.01925651
115	0xbe324119	-0.17407645
116	0xbe436ffb	-0.19085686
117	0xbd3575eb	-0.04430191
118	0xbe95c2dd	-0.2925023
119	0xbe468f36	-0.19390568
120	0xbdda64fe	-0.10663794
121	0x3ba917e8	0.0051603206
122	0xbd860b1e	-0.06545089
123	0xbd765974	-0.060143903
124	0xbcd252e4	-0.025674291
125	0x3de10de6	0.10988979
126	0xbf30dbf7	-0.6908564
127	0xbefe421b	-0.4965981
128	0x3d246daf	0.040143665
129	0x3c74d90c	0.014944326
130	0xbbb04869	-0.0053797257
131	0xbcd48fa2	-0.025947396
132	0xbe47a5ae	-0.19496796
133	0xbf4fdcfe	-0.8119658
134	0x3d82d5ea	0.06388457
135	0x3e01954d	0.1265461
136	0xbd7abcb9	-0.061215136
137	0xbd331858	-0.043724388
138	0xbc042679	-0.008065813
139	0x3e05d33c	0.13068861
140	0x3df9fef9	0.12206835
141	0xbd8172be	-0.063207135
142	0x3d9a95a3	0.07548072
143	0x3d5712d5	0.052508194
144	0xbd7bf877	-0.06151625
145	0xbe414754	-0.18874866
146	0xbf210985	-0.6290515
147	0xbd18090a	-0.037117995
148	0x3e11b260	0.14228201
149	0x3d310803	0.04322053
150	0x3da72943	0.08162167
151	0xb9d15d0e	-0.00039932918
152	0xbe5e0dc2	-0.21684936
153	0xbe3970c8	-0.18109429
154	0x3d97b622	0.07407786
155	0x3db11c13	0.08647933
156	0x3d835f49	0.064146586
157	0xbd9e6ae2	-0.0773523
158	0x3bd62423	0.0065350696
159	0x3e1e7a38	0.1547631
160	0x3dac40b7	0.08410781
161	0x3d455bd8	0.048183292
162	0xbe3da4f5	-0.18519957
163	0xbd80d683	-0.06290915
164	0x3e6fb257	0.23407875
165	0xbcfe2739	-0.031024562
166	0x3c537ad2	0.012907701
167	0x3d0b099d	0.033944715
168	0x3cd3774b	0.02581372
169	0x3e2a55b4	0.16634256
170	0x3ef20954	0.47272742
171	0xbeade49c	-0.33963478
172	0xbc142848	-0.009042807
173	0xbaa90de4	-0.0012897816
174	0x3d832d6a	0.064051464
175	0x3cadb506	0.021204483
176	0x3d092656	0.033483826
177	0xbe0d9562	-0.13826516
178	0x3e4945da	0.19655553
179	0x3d1a448b	0.037663024
180	0x3e1ccee2	0.15313295
181	0x3d144530	0.036198795
182	0xbddd3b88	-0.1080237
183	0x3e7ff24a	0.2499477
184	0x3e4a8da0	0.19780588
185	0x3c86312d	0.01638087
186	0x3ddd8b56	0.10817592
187	0x3d69c113	0.057068896
188	0x3e68fb6e	0.22752163
189	0xbe3d5dab	-0.18492763
190	0x3d86c736	0.06580965
191	0xbd8d220e	-0.06891261
192	0x3d27035b	0.040774684
193	0x3cc290aa	0.023750622
194	0xbd70e5b0	-0.058812797
195	0x3d113522	0.035451062
196	0xbdfad94f	-0.122484796
197	0x3dbaa3a5	0.09113244
198	0xbd8efc17	-0.06981676
199	0xbdf64fff	-0.12026977
200	0xbc19701c	-0.009365108
201	0x3d639623	0.055563103
202	0x3e50bd74	0.2038477
203	0xbe037e87	-0.12841235
204	0x3d655040	0.055984735
205	0x3d721541	0.0591023
206	0x3c060723	0.008180412
207	0xbe83d744	-0.25750172
208	0x3da64286	0.08118157
209	0x3e3eda70	0.18638015
210	0xbde8c25a	-0.113651946
211	0x3dd8acfa	0.10579868
212	0x3e0b26fd	0.13589092
213	0xbcab2037	-0.020889385
214	0xba2403e5	-0.0006256684
215	0x3d886697	0.066601925
216	0xbd2a06d2	-0.04151041
217	0x3e38e55b	0.18056242
218	0x3e17e761	0.14834358
219	0xbc9e443f	-0.019319652
220	0xbcb5ba56	-0.022183578
221	0x3dd22384	0.1026068
222	0xbe738b7d	-0.2378368
223	0x3d9d3893	0.07676806
224	0xbd82d02b	-0.06387361
225	0x3dfbdc5d	0.1229789
226	0x3d62cb4e	0.055369668
227	0x3e01a437	0.12660299
228	0xbe09bf3b	-0.13451855
229	0x3d77e068	0.060516745
230	0x3cf4917f	0.029854534
231	0xbe243d67	-0.16039048
232	0xbf0984f4	-0.53718495
233	0x3d5258d8	0.05135426
234	0x3e5e7c04	0.21726996
235	0x3d9fd2f5	0.07803909
236	0xbdd52725	-0.10407857
237	0xbe3c53e4	-0.18391377
238	0xbe5c935c	-0.21540588
239	0x3e8235dd	0.2543172
240	0x3e398296	0.18116221
241	0xbce53c8d	-0.027982974
242	0xbeb7fc6b	-0.35934767
243	0x3cc4a72d	0.024005497
244	0xbddb8c45	-0.10720114
245	0xbcc7dcd2	-0.024397288
246	0xbe20e50b	-0.15712373
247	0xb9d31d30	-0.00040266803
248	0x3da1afe7	0.07894879
249	0x3dfec0b9	0.12439103
250	0x3b244ad5	0.0025069017
251	0xbd3f1b2b	-0.04665677
252	0xbec1e6a3	-0.37871274
253	0xbceb31d5	-0.028710285
254	0xbf510352	-0.8164569
255	0xbf23cde5	-0.63986045

fc2.bias f4 [64]
0	0x3c6ccf27	0.014453686
1	0x3dfc56b1	0.123212226
2	0x3d926bd0	0.0714947
3	0x3dcd90be	0.10037373
4	0xbd80b58d	-0.06284628
5	0xbc48be4c	-0.012252402
6	0xbd335a44	-0.043787256
7	0x3e8d016b	0.27540144
8	0x3dc7658e	0.09736167
9	0x3e213669	0.15743412
10	0xbd23c4a3	-0.03998245
11	0xbcab0011	-0.020874055
12	0x3d8c22ed	0.06842599
13	0xbe923e6c	-0.2856325
14	0x3db83744	0.08994916
15	0xbd0ac2b8	-0.033877105
16	0xbe6ec4a1	-0.23317195
17	0x3e87378b	0.26409563
18	0xbea3b059	-0.3197048
19	0x3d01b04f	0.03166228
20	0x3a08d2e4	0.00052194134
21	0x3eb91b7c	0.3615378
22	0x3d47f4ed	0.048817564
23	0xbdf871de	-0.121310934
24	0xbcfbfa5f	-0.030759035
25	0x3db63a0a	0.08897789
26	0xbc590f79	-0.013248318
27	0x3d11a5ec	0.035558626
28	0xbe1beabd	-0.15226264
29	0x3daaeb2c	0.08345637
30	0x3de818ff	0.113328926
31	0xbe23548d	-0.15950222
32	0xbd02e03f	-0.03195214
33	0xbe1acb7f	-0.1511669
34	0xbcfada66	-0.030621719
35	0x3ed12573	0.40848884
36	0x3e89681b	0.2683724
37	0xbcaa1ae8	-0.020764783
38	0x3c965365	0.018350312
39	0xbd1cd15d	-0.038285602
40	0xbd54ae05	-0.05192377
41	0xbe8e7f0d	-0.27831307
42	0x3ebb209d	0.3654832
43	0x3ea9ce22	0.3316508
44	0x3eccce49	0.40001133
45	0x3de2d466	0.11075668
46	0x3d7f09ac	0.062265083
47	0x3db5f534	0.088846594
48	0x3d0228e7	0.03177729
49	0x3df09fb5	0.11749212
50	0x3db46f05	0.08810238
51	0xbe498c22	-0.19682363
52	0x3dbeaeca	0.09310682
53	0x3e20edb2	0.15715674
54	0xbc92dc73	-0.017927384
55	0x3df14015	0.11779801
56	0xbdc45438	-0.09586376
57	0x3e136640	0.14394474
58	0x39e0f0c1	0.00042903985
59	0xbd98ad1c	-0.07454893
60	0xbd72edf8	-0.059308976
61	0x3e0a9515	0.13533433
62	0x3e246903	0.16055684
63	0x3d963a82	0.07335378

fc3.weight f4 [15, 64]
0	0xbee1dfdb	-0.441161
1	0x3de27165	0.110567845
2	0xbfab355a	-1.3375657
3	0xbea3d3ba	-0.31997472
4	0xbf1136bc	-0.56724143
5	0xbfc979d7	-1.5740308
6	0xbd74803b	-0.059692603
7	0x3df1ff1d	0.11816237
8	0x3e1e18eb	0.15439193
9	0x3e8ce64c	0.27519453
10	0xbd6377f4	-0.055534318
11	0x3e2625ae	0.16225311
12	0x3de54d55	0.111963905
13	0xbf1353d7	-0.57549804
14	0xbea39cf4	-0.31955683
15	0xbf65e038	-0.89795256
16	0xc015c79c	-2.3403082
17	0x3d04baa2	0.03240455
18	0xbf289059	-0.6584526
19	0xc004d1a7	-2.0752962
20	0xbeb33fbf	-0.35009572
21	0x3df5db71	0.12004746
22	0x3d7d9619	0.061910722
23	0xbcc7850c	-0.024355434
24	0x3d8778c2	0.066148296
25	0xbf533170	-0.8249731
26	0xbf1b3051	-0.606206
27	0x3dd9490c	0.10609636
28	0xbfa70514	-1.3048425
29	0x3e3baa90	0.18326783
30	0xbe2422ff	-0.16028975
31	0xbf13b7d5	-0.5770238
32	0x3e3d7069	0.18499912
33	0xbf4d3b01	-0.8016816
34	0x3e13b1a7	0.14423238
35	0x3e25feb3	0.16210441
36	0x3e100a0e	0.14066336
37	0xbe9dc223	-0.30812177
38	0x3ca38a6e	0.01996347
39	0x3da32dde	0.07967733
40	0xbeb78176	-0.35840958
41	0x3e9dc565	0.30814663
42	0x3c668c1d	0.014071492
43	0xbc8ed116	-0.017433684
44	0x3e47b9ab	0.1950442
45	0xbfc2b92a	-1.5212758
46	0xbe78848e	-0.24269316
47	0xbfaaa34b	-1.3331083
48	0xbe8c60c5	-0.2741758
49	0x3e1b586a	0.15170446
50	0xbf03f4a6	-0.5154518
51	0xbfcacc86	-1.5843666
52	0x3db025ab	0.086009346
53	0xbe3c277f	-0.18374442
54	0xbf5069ad	-0.8141125
55	0xbf9779ff	-1.1834105
56	0x3c7fa13d	0.015602407
57	0xbf6d7af2	-0.92765725
58	0x3df6dcc8	0.120538294
59	0xbf07a105	-0.5298007
60	0xbdad0030	-0.084473014
61	0xbf202783	-0.6256029
62	0x3e6d8066	0.23193511
63	0x3e70718c	0.23480815
64	0xbee26a22	-0.44221598
65	0x3da7f143	0.08200314
66	0xbf992dd5	-1.1967112
67	0xbe90e3f1	-0.28298905
68	0xbdc7209f	-0.09723019
69	0xbfcae5d9	-1.5851394
70	0xbde6d0af	-0.11270272
71	0x3ceca763	0.02888841
72	0x3e2dfa59	0.16990031
73	0x3d231636	0.039816104
74	0xbe9f2242	-0.31080824
75	0xbd10bd26	-0.035336636
76	0xbdd4ede5	-0.10396937
77	0x3d4dc6a9	0.050238285
78	0x3e2c95d0	0.16854024
79	0xbe40bd85	-0.18822296
80	0xbd78d564	-0.06075038
81	0x3e3b5cc3	0.18297105
82	0xbd8c5a40	-0.06853151
83	0xbf79bc9e	-0.9755343
84	0xbbbdccfb	-0.005792258
85	0xbb532804	-0.0032219896
86	0x3e4b9cc4	0.1988402
87	0xbdd38de1	-0.10329796
88	0x3dd8a530	0.10578382
89	0xbf1e5bf2	-0.6185905
90	0xbee15ea4	-0.44017518
91	0x3e1ac54b	0.15114324
92	0xbf42f665	-0.7615722
93	0xbd57b5a8	-0.052663475
94	0x3dce0c74	0.10060969
95	0xc1172eee	-9.448957
96	0x3e67b02f	0.22625802
97	0xc01dda1c	-2.4664373
98	0x3e724a91	0.23661257
99	0x3e17b6b7	0.14815794
100	0xbe3083c2	-0.17237762
101	0xbe7a199e	-0.24423835
102	0xbf2081e6	-0.6269821
103	0x3dce72ff	0.100805275
104	0x3e53650d	0.20644017
105	0xbfa945de	-1.3224447
106	0x3de254c1	0.11051322
107	0x3e120bde	0.1426234
108	0x3e39366c	0.18087167
109	0xbff3e594	-1.9054437
110	0xbf0c4554	-0.54793286
111	0xbf8cc8d2	-1.0998785
112	0xbe562327	-0.20911847
113	0x3e3f6be4	0.18693501
114	0x3e05fb42	0.13084128
115	0xbf198283	-0.5996477
116	0xbe8a182d	-0.2697157
117	0x3e29997d	0.16562457
118	0xbecee128	-0.40406156
119	0xbf9b59c6	-1.2136772
120	0x3d0b7aec	0.034052774
121	0xbf40bd24	-0.75288606
122	0xbeb5b909	-0.35492733
123	0x3d1f4c88	0.038891345
124	0x3dbd39f8	0.09239572
125	0xbe977203	-0.29579172
126	0x3e644c1f	0.22294663
127	0x3e9328ae	0.28741974
128	0x3e0c868d	0.13723202
129	0x3e448bd0	0.19193959
130	0xbdf0d9f9	-0.11760325
131	0x3d3238c9	0.043511186
132	0x3dfed75b	0.124434195
133	0xbf012962	-0.5045377
134	0x3da4acbe	0.080407605
135	0x3dd7b859	0.105332084
136	0x3e2f430a	0.17115417
137	0xbe99e1f8	-0.30055213
138	0x3dbd0530	0.09229505
139	0xbe709df1	-0.2349775
140	0xbef870f8	-0.48523688
141	0xbe3c6965	-0.1839958
142	0x3d30c52c	0.043156788
143	0xbea060f5	-0.31323972
144	0xbedf4772	-0.43609196
145	0x3e182999	0.14859618
146	0xc0908fad	-4.5175385
147	0xbe2dcf9d	-0.1697373
148	0xbec0ca6e	-0.37654442
149	0x3da840e0	0.08215499
150	0x3db6c5af	0.08924424
151	0x3d447a53	0.04796822
152	0x3e12a8a0	0.14322138
153	0x3cc2ab13	0.023763215
154	0xbeb2b64b	-0.34904703
155	0x3e0602f6	0.13087067
156	0xbde34ebe	-0.11099003
157	0xbbd7fbbc	-0.0065912884
158	0x3e558227	0.2085043
159	0xc0a72784	-5.2235737
160	0xbc822851	-0.015888365
161	0xbec562e4	-0.3855201
162	0xbcdc1ce8	-0.026869252
163	0x3e02fa5c	0.12790817
164	0x3e32760b	0.17427842
165	0xbe894567	-0.26810762
166	0xbf259464	-0.6467955
167	0x3decc2a8	0.11560565
168	0xbd19c171	-0.037537996
169	0xbfc8e96e	-1.5696237
170	0x3e2e835e	0.170423
171	0x3c0f8618	0.008759998
172	0x3dfcd90b	0.12346085
173	0xbed60b85	-0.41805664
174	0xbf5e7a08	-0.86904955
175	0xbe383224	-0.17987877
176	0xbef998da	-0.4874943
177	0xbf47480e	-0.7784432
178	0x3dcb827c	0.09936997
179	0xbe371955	-0.17880757
180	0xbe59f2e2	-0.21284059
181	0x3e4bfea6	0.1992136
182	0xbec967f7	-0.3933713
183	0xbdbbe24a	-0.091740206
184	0xbd7407a2	-0.05957759
185	0xba912013	-0.0011072181
186	0xbf11c82c	-0.56946063
187	0x3e35bbfd	0.17747493
188	0x3be7cdd8	0.007074099
189	0xbd8d0a30	-0.06886709
190	0x3e0194e8	0.1265446
191	0x3e50584a	0.2034618
192	0x3e155191	0.14581896
193	0x3e1c804e	0.1528332
194	0xbd83140b	-0.06400307
195	0xbe4ecdb1	-0.20195653
196	0x3e3d66e7	0.18496285
197	0xbf167657	-0.5877432
198	0xbd04da0e	-0.032434516
199	0xbe4ecb07	-0.20194636
200	0x3e660a64	0.22464901
201	0xbf43bced	-0.7646015
202	0x3d3923bf	0.045200106
203	0xbf89319c	-1.0718265
204	0xc05487a2	-3.3207784
205	0x3e58891e	0.21146056
206	0x3e623ce4	0.2209354
207	0xbd966608	-0.0734368
208	0xbdeaf854	-0.11473146
209	0xbe860a11	-0.26179555
210	0xbe052dd2	-0.1300576
211	0x3b247fbf	0.0025100557
212	0xbe904083	-0.2817422
213	0xbe574c07	-0.21025096
214	0x3d1a5416	0.037677847
215	0xbdd9a2e6	-0.106267735
216	0x3e146674	0.14492208
217	0xbd80aac6	-0.062825724
218	0xbf12b45b	-0.5730645
219	0x3df04412	0.117317334
220	0xbc4ae571	-0.012383805
221	0xbf59bb7f	-0.8505172
222	0x3e0f79f7	0.1401137
223	0xc0a94e9d	-5.2908463
224	0x3e26b508	0.16279995
225	0xbf4e7cda	-0.8065926
226	0x3dffe765	0.12495307
227	0xbe338e6d	-0.175348
228	0xbea27378	-0.3172872
229	0xbeaab0c8	-0.33337998
230	0xc0a51a81	-5.1594853
231	0x3cd1bdf0	0.025603265
232	0x3e5de230	0.21668315
233	0xbe86ec23	-0.26352033
234	0xbc1d58d6	-0.0096037
235	0x3d21e588	0.03952554
236	0xbd4e5274	-0.050371602
237	0xbea8e0fc	-0.3298415
238	0xbefc7299	-0.4930618
239	0xbe1e37c4	-0.1545096
240	0xbec98ec4	-0.39366734
241	0xbfb7fb22	-1.4373515
242	0xbf04a4d3	-0.51814
243	0x3e4ae0c7	0.19812308
244	0xbfc5890f	-1.5432452
245	0x3da931f3	0.0826148
246	0xbd716e0e	-0.058942847
247	0xbd3d4f6a	-0.046218313
248	0xbc8abf92	-0.016937051
249	0xbe034250	-0.12818265
250	0xbe54cc77	-0.20781122
251	0xbe0e18b6	-0.13876614
252	0xbd8548ff	-0.065080635
253	0xbd02a3f3	-0.031894635
254	0x3e0b1dc8	0.1358558
255	0x3e45eed1	0.19329382

fc3.bias f4 [15]
0	0xbba7d675	-0.005122001
1	0xbdd493da	-0.10379763
2	0xbd0a83ad	-0.033816982
3	0xbdebaf50	-0.115080476
4	0xbd05f22b	-0.032701652
5	0x3e048183	0.1294003
6	0xbd89779b	-0.06712266
7	0x3e8ff608	0.28117394
8	0xbc07cb65	-0.008288239
9	0x3e825c34	0.2546097
10	0x3d47da55	0.048792202
11	0xbe0cb029	-0.13739075
12	0x3d5b1f97	0.053496923
13	0xbe2766f2	-0.16347864
14	0xbeef02a5	-0.46681705

exp_avg f4 [128, 4]
0	0x3bb6e968	0.0055820234
1	0x3bb4f1b2	0.0055219764
2	0x3b8ddb58	0.0043291263
3	0x3b4250cb	0.0029650207
4	0xbad75972	-0.0016429855
5	0xbb088a35	-0.002083433
6	0xbadca6e2	-0.0016834403
7	0xbaf0cee4	-0.0018372205
8	0x3ad24e0c	0.0016044988
9	0x3bb01477	0.0053735333
10	0x3bc36633	0.005963111
11	0x3b9e1cb9	0.0048252014
12	0x3b52461e	0.003208525
13	0x3b99ae2b	0.004689952
14	0x3b97b22b	0.0046293936
15	0x3b96d075	0.0046024867
16	0xbb826309	-0.003979091
17	0xbb884ed2	-0.0041597867
18	0xbb9b7147	-0.0047437283
19	0x3a305e8c	0.0006727956
20	0x39d571b9	0.00040711256
21	0xb8d64149	-0.000102164755
22	0xb998093a	-0.00028998574
23	0x3a651b50	0.00087397266
24	0xbb3b79c4	-0.0028606514
25	0x3913b5c8	0.00014086731
26	0x3a9526c2	0.0011379349
27	0xba5e1024	-0.0008471033
28	0x3b106d46	0.0022037788
29	0x3b4922ae	0.0030690837
30	0x3b897dd8	0.00419591
31	0x3aa768ba	0.00127723
32	0x3ab9e435	0.0014182391
33	0x3ba8c4b0	0.0051504
34	0x3b9a6909	0.004712228
35	0x3b4a8bba	0.0030906037
36	0xbb6836d1	-0.0035433064
37	0xbb1ca768	-0.0023903493
38	0x39015550	0.0001233418
39	0x3b1e4bbd	0.002415403
40	0x3af77d79	0.0018881998
41	0x3b2576cf	0.0025247817
42	0x3b110781	0.0022129717
43	0x380b9eb0	3.328797e-05
44	0x3b969f54	0.00459663
45	0x3ae70cdf	0.0017627737
46	0x39d35450	0.00040307874
47	0xbbba6d1a	-0.0056892755
48	0xbbf34bd0	-0.007424809
49	0xbc0c8bab	-0.008578221
50	0xbbf5d961	-0.00750272
51	0xbbd476a4	-0.0064838696
52	0xba873d1a	-0.0010317892
53	0xba727bf0	-0.00092500355
54	0xba6977f0	-0.0008906117
55	0x3ac53817	0.0015046623
56	0x3bebb9d2	0.0071937824
57	0x3c09397c	0.008375522
58	0x3c121aa2	0.008917483
59	0x3ba074cc	0.004896736
60	0x3c12e270	0.00896512
61	0x3c12bf02	0.008956673
62	0x3c0cff1d	0.008605746
63	0x3b94f0ef	0.004545323
64	0xbc61b6a4	-0.013776455
65	0xbc51e82e	-0.012811704
66	0xbc51c272	-0.012802707
67	0xbb593a76	-0.0033146418
68	0xbb9be560	-0.0047575682
69	0xbba00cb5	-0.0048843273
70	0xbb877c90	-0.004134722
71	0xb92dc66e	-0.00016572486
72	0xb81ed80c	-3.7871345e-05
73	0x38791bc0	5.939207e-05
74	0xb70db55b	-8.44648e-06
75	0xb928abe2	-0.0001608576
76	0xbb980f9d	-0.004640533
77	0xbb5dc1a1	-0.0033837336
78	0xbb737eb7	-0.0037154385
79	0x3a684b1a	0.00088612887
80	0x3a09ca4a	0.00052562787
81	0x39bad733	0.0003563702
82	0xb916aa14	-0.00014368474
83	0xbab0c662	-0.0013486857
84	0x3b50f4e6	0.0031884252
85	0xba98cb4a	-0.0011657265
86	0xbb754582	-0.0037425463
87	0xbbaa3924	-0.0051948
88	0xba9805e5	-0.0011598436
89	0xbb145569	-0.0022633916
90	0xbb3ad5a4	-0.0028508687
91	0xbb0fe4c8	-0.0021956433
92	0x397cf3f8	0.00024123478
93	0x3a0c2d5b	0.00053473347
94	0x3a890a0f	0.0010455268
95	0x3abc3436	0.0014358822
96	0xb92e4953	-0.00016621249
97	0x38ae8772	8.322195e-05
98	0x38f4c2a8	0.00011671084
99	0x3778d098	1.4830519e-05
100	0x395e65f9	0.00021209558
101	0x39111440	0.00013835821
102	0xb9553a5c	-0.00020335004
103	0xb87c9c0a	-6.0226805e-05
104	0x39f28df8	0.00046263612
105	0xb9de9566	-0.0004245445
106	0xba871c58	-0.001030813
107	0xb9ea206c	-0.00044656114
108	0x3b190f88	0.0023355205
109	0x3bc5b677	0.0060337144
110	0x3c096cbf	0.0083877435
111	0x3bff8217	0.0077974903
112	0xbba42458	-0.0050092153
113	0xbbae5367	-0.005320001
114	0xbbbc9cce	-0.0057559973
115	0xb86413e0	-5.4377946e-05
116	0x3b2f0935	0.0026708369
117	0x3a00ef84	0.0004918503
118	0xbad6fe6a	-0.0016402726
119	0xba461c0c	-0.000755728
120	0xba3dd5fc	-0.0007241664
121	0xba5d43f0	-0.00084406044
122	0xbabdea6a	-0.0014489416
123	0x3930e3fe	0.00016869602
124	0x3b8b2f6a	0.0042475956
125	0x3b001d08	0.0019548554
126	0xb86771c0	-5.518063e-05
127	0x39bc8a48	0.00035961182
128	0x3a90fbfb	0.0011061424
129	0x3b9486ec	0.0045326855
130	0x3bb65a72	0.005564981
131	0x3b53bac4	0.0032307366
132	0x3c1f7c8f	0.009734287
133	0x3bc168da	0.005902392
134	0x3b703d3f	0.00366576
135	0x3a7b3e38	0.00095841615
136	0x39e05ba5	0.0004279289
137	0x39f57e9d	0.00046824376
138	0x3aa6e6c3	0.0012733567
139	0x3a83cb6a	0.0010055129
140	0x391a9c93	0.00014744913
141	0x3ab42de0	0.0013746582
142	0x3a24ff6e	0.00062941655
143	0x3b6631a2	0.0035124798
144	0x3c6bcccb	0.014392088
145	0x3c43ac85	0.011942987
146	0x3c31283b	0.010812814
147	0x3ac25e5c	0.0014829147
148	0xbb731d9a	-0.0037096501
149	0xbb8eee63	-0.004361914
150	0xbb8e0d8b	-0.0043351105
151	0xb8de4548	-0.000105986896
152	0x3ac6c916	0.001516613
153	0x3a663d90	0.0008782977
154	0x3aa826f6	0.0012828994
155	0xb9dc198e	-0.0004198071
156	0xbb6ecb94	-0.003643726
157	0xbb5dd57e	-0.0033849175
158	0xbb7ed5ea	-0.0038884827
159	0xbb0feb63	-0.002196037
160	0xba541142	-0.000808973
161	0x3862df70	5.409069e-05
162	0x39a70430	0.00031855842
163	0xba190493	-0.00058371684
164	0x3b7add90	0.0038279034
165	0x39aa2d3a	0.00032458623
166	0xbaa94ced	-0.0012916602
167	0xb8ccfe88	-9.774888e-05
168	0x3ab1403d	0.0013523173
169	0x3abe7354	0.001453022
170	0x3b196816	0.0023407987
171	0xba98f2d0	-0.0011669043
172	0x3b9112a4	0.004427271
173	0x3ad97cdc	0.0016592997
174	0x3acccdd9	0.0015625312
175	0x3b91d338	0.004450228
176	0xba12662c	-0.0005584683
177	0x3abf24f6	0.0014583159
178	0x3a79d90f	0.00095309404
179	0x3ad7c612	0.0016462228
180	0x399f12f7	0.00030340973
181	0x3a920a96	0.0011142071
182	0x3aebb7f2	0.0017983897
183	0x39855584	0.0002543145
184	0xbb379521	-0.0028012472
185	0xbb48f0e4	-0.003066116
186	0xbab3c53f	-0.00137154
187	0xbbd79b47	-0.00657979
188	0x3aab85e4	0.0013086167
189	0x3a18bfc9	0.0005826918
190	0x3a7b0bfa	0.0009576675
191	0x3ac7c436	0.001524097
192	0xbb904ea7	-0.0044039073
193	0xbba51c38	-0.0050387643
194	0xbbab18fc	-0.005221484
195	0x39c7b3bc	0.0003809015
196	0xb88b5030	-6.6429726e-05
197	0x3b80ea4d	0.003934181
198	0x3b876d90	0.004132934
199	0x3b979b46	0.0046266643
200	0x3c26a409	0.010170945
201	0x3c075cf8	0.008261912
202	0x3bee1de8	0.0072667487
203	0xbae3d2f8	-0.0017381599
204	0xb92bcb28	-0.00016383512
205	0xba0df8e4	-0.0005415811
206	0xbadb58d3	-0.0016734846
207	0x38c806c0	9.5380004e-05
208	0xbb313cc7	-0.0027044283
209	0xbb1fbb48	-0.0024373103
210	0xbafaaaf0	-0.001912443
211	0x3ab91310	0.0014120061
212	0xb9bbaee8	-0.00035797735
213	0xbb95522b	-0.0045569143
214	0xbbbf163e	-0.005831509
215	0xbb889b46	-0.0041689007
216	0x3b33c370	0.0027429722
217	0x3bbed41c	0.0058236253
218	0x3be98457	0.007126372
219	0x3bbf17b1	0.0058316817
220	0xbb93401a	-0.0044937255
221	0xbacc2552	-0.0015575087
222	0x3ade3848	0.0016954029
223	0x3a57b130	0.0008228002
224	0xb5e5710b	-1.7094729e-06
225	0x362fcd65	2.6196587e-06
226	0x3669ebdf	3.4857e-06
227	0x36daac28	6.516948e-06
228	0x3bc8a980	0.0061237216
229	0x3b92503d	0.0044651316
230	0x3b460d44	0.003022031
231	0xbb914282	-0.004432977
232	0x397d4c98	0.00024156494
233	0x3aa92756	0.00129054
234	0x3aeeccc0	0.0018218979
235	0x3ad9e215	0.0016623164
236	0x3425c628	1.5438911e-07
237	0x345e684f	2.0713308e-07
238	0x341034b7	1.3430223e-07
239	0xb2b436b0	-2.0979627e-08
240	0x3c38fcc4	0.011290733
241	0x3bfc1508	0.007692937
242	0x3bbe9d1f	0.00581707
243	0xba9a1170	-0.0011754464
244	0xbb26119d	-0.0025340088
245	0xbad7e9ba	-0.0016472854
246	0xbb39f90a	-0.0028377199
247	0x3a250652	0.0006295192
248	0x3c0fa459	0.008767211
249	0x3c14e5cc	0.009087991
250	0x3c0eb78d	0.008710754
251	0x3b1bac6f	0.0023753901
252	0x3b803153	0.00391213
253	0x3b5ef9f2	0.003402349
254	0x3b3de117	0.0028973275
255	0x3b304a70	0.0026899837

exp_avg_sq f4 [128, 4]
0	0x39b45dc6	0.00034402142
1	0x39bd094d	0.0003605582
2	0x39b392b0	0.0003425083
3	0x39ba4e6c	0.00035535113
4	0x38b24576	8.5006395e-05
5	0x3912e23a	0.00014007921
6	0x391cd83f	0.00014957877
7	0x391f066d	0.00015165815
8	0x3a649487	0.0008719642
9	0x3a5a6081	0.000833042
10	0x3a57ecf8	0.000823691
11	0x3a6052d2	0.0008557263
12	0x3910586d	0.00013765851
13	0x38da29b3	0.00010402817
14	0x38dbb1ed	0.00010475875
15	0x3917bbcc	0.00014470442
16	0x3a19c452	0.0005865741
17	0x3a1564c1	0.00056989124
18	0x3a117cf9	0.00055499334
19	0x39d7521b	0.0004106917
20	0x3647e11e	2.9784346e-06
21	0x35f16285	1.7984572e-06
22	0x3601b50d	1.9327883e-06
23	0x37d5c277	2.5482133e-05
24	0x398a1e09	0.0002634379
25	0x399cb7dd	0.00029891627
26	0x399f959c	0.0003043831
27	0x39a51a57	0.00031490877
28	0x3a1e6719	0.00060425844
29	0x3a5f5ad7	0.0008520311
30	0x3a5ef846	0.00085056236
31	0x3a5cf9e8	0.0008429573
32	0x3a3ad253	0.00071266777
33	0x3a26ed2b	0.0006367738
34	0x3a27fbf2	0.0006408087
35	0x3a433a61	0.0007447359
36	0x3a9d98d9	0.0012023702
37	0x3ab24818	0.0013601808
38	0x3aaab5b3	0.0013024121
39	0x3a9fcd65	0.001219195
40	0x39e2f5e9	0.00043289296
41	0x39de304f	0.00042379132
42	0x39cc026f	0.00038911725
43	0x39bf5589	0.00036494088
44	0x3aa5891a	0.001262936
45	0x3acf581a	0.0015819103
46	0x3ac6543c	0.0015131305
47	0x3a9a239a	0.0011759878
48	0x39aaa276	0.0003254597
49	0x3a29f553	0.00064833945
50	0x3a2a9364	0.0006506948
51	0x39ec446a	0.000450644
52	0x3a5e0e03	0.0008470716
53	0x3a80ce09	0.0009827028
54	0x3a6e6108	0.0009093438
55	0x3a5d1eb4	0.0008435056
56	0x39e2e0c2	0.00043273537
57	0x39bd5079	0.00036108846
58	0x39b5c0c6	0.00034666638
59	0x399c76f5	0.0002984327
60	0x3a4ea474	0.0007882782
61	0x3a3e3c37	0.00072568975
62	0x3a3497a6	0.00068890525
63	0x3a1b4bd5	0.00059240806
64	0x3a8dda8d	0.001082258
65	0x3a69b11d	0.00089146366
66	0x3a6076d3	0.0008562628
67	0x39a0a906	0.0003064351
68	0x3a614cc4	0.0008594508
69	0x3a75fe3f	0.0009383894
70	0x3a6dd736	0.00090729014
71	0x3a4dacd3	0.0007845882
72	0x35f1aa68	1.8005494e-06
73	0x36218753	2.4069639e-06
74	0x36093326	2.0444363e-06
75	0x370623a7	7.995323e-06
76	0x3a0b98a9	0.00053251773
77	0x397300a7	0.00023174529
78	0x38fc3723	0.000120265664
79	0x380645ba	3.2013028e-05
80	0x3733faa0	1.0727585e-05
81	0x370ec6eb	8.510174e-06
82	0x3703e160	7.860683e-06
83	0x3769b354	1.3929635e-05
84	0x3a9d354e	0.0011994035
85	0x3abe47b4	0.0014517219
86	0x3abc0e0c	0.0014347448
87	0x3aa36df2	0.0012468679
88	0x396a81bc	0.00022364309
89	0x39805fb5	0.0002448537
90	0x396c09ca	0.0002251036
91	0x392c5da1	0.00016438078
92	0x3961ba09	0.00021526976
93	0x39044c2d	0.00012616879
94	0x3931a9f9	0.00016943355
95	0x393498d3	0.00017223069
96	0x35be8f78	1.4197858e-06
97	0x35115e9b	5.415438e-07
98	0x358015d1	9.543093e-07
99	0x362d1b24	2.5794807e-06
100	0x35eb4fdc	1.7532107e-06
101	0x35c9a98a	1.5025009e-06
102	0x35e9bd9b	1.7415035e-06
103	0x36bf6984	5.704527e-06
104	0x35a6bbb4	1.2422593e-06
105	0x368cd9b4	4.197669e-06
106	0x36ab8ffd	5.1129596e-06
107	0x3683c781	3.9273295e-06
108	0x3a01168f	0.0004924321
109	0x3a9c817e	0.0011940447
110	0x3aa1cf1c	0.0012345049
111	0x3adf6d00	0.0017046034
112	0x39f2d3f8	0.00046315766
113	0x39954641	0.00028471838
114	0x399388e6	0.00028140022
115	0x3907295e	0.00012890014
116	0x3a0b0426	0.00053030474
117	0x3a35d8fc	0.0006936935
118	0x3a37f6b4	0.00070176576
119	0x3a2a0342	0.0006485471
120	0x39025705	0.00012430183
121	0x38e9bfad	0.00011146008
122	0x3902899a	0.00012449027
123	0x38cc8eca	9.7540746e-05
124	0x3a4017c4	0.000732776
125	0x3a5a75d0	0.00083335955
126	0x3a56a99b	0.00081887253
127	0x3a493a5e	0.0007676239
128	0x3982d58a	0.0002495463
129	0x3996c1e4	0.0002875469
130	0x399b0b3f	0.00029572283
131	0x39b161c9	0.00033832926
132	0x3acb488e	0.0015509294
133	0x3aef7444	0.0018268903
134	0x3ae7fc43	0.0017699081
135	0x3ac3a05e	0.0014925112
136	0x385531fd	5.0829713e-05
137	0x3913eb11	0.00014106582
138	0x393d8902	0.00018075484
139	0x39fa10ea	0.00047696318
140	0x39934f64	0.00028097176
141	0x3996ebbc	0.00028785865
142	0x398a8fdc	0.00026428595
143	0x39ac579f	0.0003287168
144	0x3afc3449	0.0019241656
145	0x3b0eaf90	0.0021772124
146	0x3b0724a6	0.002062121
147	0x3ac59354	0.0015073814
148	0x39a075eb	0.00030605434
149	0x3956f335	0.00020499232
150	0x39612fc9	0.00021475473
151	0x38f9ab6e	0.000119051765
152	0x3960c677	0.00021436239
153	0x39aa8193	0.00032521467
154	0x399b0ed4	0.00029574952
155	0x39a4d375	0.00031438065
156	0x39b0ed27	0.00033746028
157	0x39a7214f	0.0003187754
158	0x399db650	0.00030081207
159	0x393a9fff	0.00017797945
160	0x388e578e	6.787396e-05
161	0x380e758a	3.3964905e-05
162	0x384514ce	4.6987836e-05
163	0x38be8c4a	9.086037e-05
164	0x39fc651d	0.0004814052
165	0x38cc7a80	9.7502954e-05
166	0x38fa060a	0.00011922054
167	0x38bb738b	8.9383764e-05
168	0x399ce290	0.0002992344
169	0x3a0d3330	0.00053863507
170	0x3a035e4a	0.00050113036
171	0x39567b66	0.000204546
172	0x391b8048	0.0001482974
173	0x384635b4	4.7256894e-05
174	0x383fa120	4.5688008e-05
175	0x396e03e2	0.00022698895
176	0x39a3464d	0.0003114216
177	0x39a53e62	0.0003151773
178	0x39a72e63	0.00031887283
179	0x39c36185	0.00037265956
180	0x397f0723	0.00024321354
181	0x39848009	0.00025272396
182	0x397f3964	0.00024340075
183	0x3988caa4	0.0002609092
184	0x393ab7eb	0.00017806857
185	0x3a1059ab	0.00055065256
186	0x3a53ec37	0.000808421
187	0x3a85fc33	0.0010222256
188	0x3815efe4	3.5747784e-05
189	0x3743fbc7	1.1681527e-05
190	0x375cef53	1.3168744e-05
191	0x3824afb3	3.926428e-05
192	0x39d781b8	0.00041104644
193	0x3980367d	0.0002445466
194	0x39654a37	0.00021866789
195	0x393d4d3d	0.00018053218
196	0x3a75119a	0.0009348631
197	0x3a7adc04	0.0009569528
198	0x3a790839	0.00094998215
199	0x3a7faa25	0.00097528315
200	0x3aefb05f	0.0018286816
201	0x3b0e3a96	0.00217024
202	0x3b063f73	0.0020484596
203	0x3acb06c7	0.0015489691
204	0x399ad9cd	0.00029535443
205	0x399a6f68	0.00029456173
206	0x39a5640f	0.00031545802
207	0x39881417	0.0002595491
208	0x393d348f	0.00018044024
209	0x38bc5fef	8.9824076e-05
210	0x389561f4	7.123119e-05
211	0x3868c9ce	5.5501056e-05
212	0x3a6e38b0	0.00090874266
213	0x3a9019cc	0.0010994016
214	0x3a85b57a	0.0010201179
215	0x3a384183	0.0007028805
216	0x3a984005	0.0011615759
217	0x3a9d6fac	0.001201143
218	0x3a9a5377	0.0011774142
219	0x3a96b179	0.0011496983
220	0x3a151955	0.00056876737
221	0x3a6574d5	0.0008753066
222	0x3a88efcc	0.0010447442
223	0x3a727a73	0.0009249814
224	0x3482d126	2.4366562e-07
225	0x34b24606	3.3206032e-07
226	0x34e1040f	4.191247e-07
227	0x34541b35	1.9753936e-07
228	0x3ab859e1	0.0014064872
229	0x3ad9f73c	0.0016629468
230	0x3acd7f35	0.001567817
231	0x3aa6aa60	0.0012715571
232	0x39acfcda	0.00032994786
233	0x398ab849	0.00026458714
234	0x3995d881	0.00028580803
235	0x39c536be	0.00037615554
236	0x330d056e	3.283406e-08
237	0x33010c53	3.0046362e-08
238	0x33f16205	1.1240267e-07
239	0x32fce208	2.9439448e-08
240	0x3b0e4840	0.0021710545
241	0x3b2913dc	0.002579919
242	0x3b1c3a6e	0.0023838538
243	0x3b033b6b	0.002002443
244	0x39e39b57	0.0004341255
245	0x3a025832	0.00049722486
246	0x3a00db17	0.00049154594
247	0x39e493d1	0.0004359768
248	0x3a633cec	0.0008668441
249	0x3a708fe2	0.00091767136
250	0x3a61d787	0.0008615185
251	0x3a36c55b	0.0006972157
252	0x39cc2632	0.0003893837
253	0x39bbb74b	0.00035803983
254	0x39bf2c7c	0.00036463502
255	0x39c2a9e8	0.00037129153

exp_avg f4 [128]
0	0x3b69fa66	0.0035702228
1	0xbac945ec	-0.0015355921
2	0x3bb3dd60	0.0054890364
3	0x3b2b3f37	0.0026130208
4	0xbb050784	-0.002029867
5	0x3a4ccf56	0.0007812878
6	0xbb251eac	-0.0025195284
7	0x39f5a5c0	0.00046853535
8	0x3b754334	0.003742409
9	0x3acdd8c2	0.0015704858
10	0x399a2a7d	0.00029404825
11	0xbb084490	-0.002079282
12	0xbb9168d1	-0.004437544
13	0x3af52ed1	0.0018705969
14	0x3ba57842	0.0050497362
15	0x3bb0d21c	0.0053961407
16	0xbc0b7b81	-0.008513332
17	0xbae710e0	-0.001762893
18	0xb8d83758	-0.00010309991
19	0xbb188eeb	-0.0023278545
20	0xb9a7a725	-0.00031977255
21	0xbb51a15e	-0.0031987051
22	0xbb1bbda1	-0.002376415
23	0x3aef9b9d	0.0018280629
24	0xb924fdb0	-0.00015734765
25	0xb837ed05	-4.385134e-05
26	0xbab5e5ee	-0.0013877728
27	0x3bd58c5b	0.006516976
28	0xba9542ea	-0.001138774
29	0xba640362	-0.0008698014
30	0xba97bf62	-0.0011577422
31	0x3a83c288	0.0010052482
32	0x3a979644	0.0011565168
33	0x3b53cb5d	0.003231726
34	0x3aadbb2d	0.0013254635
35	0x3a25a2c7	0.0006318506
36	0x3bb1469c	0.0054100286
37	0xbb339de1	-0.0027407336
38	0xba3564b2	-0.0006919607
39	0xbb729f82	-0.0037021344
40	0xb9dcda0e	-0.00042124133
41	0x3b02b314	0.0019943165
42	0x3b7d0a86	0.0038611009
43	0x3c1595ef	0.009129985
44	0x3a82d3dc	0.0009981352
45	0xba1dbbbe	-0.00060170505
46	0xbb217bf0	-0.0024640523
47	0x3a4d875e	0.00078403007
48	0xbb275210	-0.002553109
49	0x3b9cae61	0.00478153
50	0x3b260678	0.0025333446
51	0xb940cfdf	-0.00018387985
52	0x3abbcfc1	0.0014328883
53	0xbb4812ad	-0.003052871
54	0x3bca96de	0.0061825356
55	0x3b263d85	0.0025366258
56	0xb743a74d	-1.16618585e-05
57	0xb91481ac	-0.00014162686
58	0x3a438f4c	0.00074600126
59	0xb4bbb908	-3.4966092e-07
60	0x3b460548	0.003021555
61	0xbae46fd1	-0.0017428343
62	0x3ba01b78	0.004886087
63	0x3b2e78d6	0.0026622317
64	0x3b2ae9e6	0.0026079356
65	0x36507658	3.10633e-06
66	0x3b66c536	0.0035212762
67	0xb9a7f5f9	-0.00032035986
68	0x3a77785c	0.0009440237
69	0x00000004	6e-45
70	0x3798fc35	1.8237255e-05
71	0x3b06f740	0.002059415
72	0x3b5c42b1	0.0033609087
73	0x3a577b70	0.0008219993
74	0x3b54fe59	0.0032500236
75	0xba6a362e	-0.0008934465
76	0x3b0c7a57	0.0021435225
77	0x3aa97875	0.0012929576
78	0xba3a2150	-0.0007100301
79	0xbb81b2da	-0.0039580883
80	0xba799fd7	-0.0009522414
81	0xbab62d21	-0.0013898948
82	0x3a7ddbc2	0.00096839305
83	0xbb2a370b	-0.002597275
84	0x3ae5712f	0.0017505045
85	0x3b0ee0c9	0.0021801463
86	0x00000004	6e-45
87	0x3aa3e3ec	0.0012503839
88	0x3bbe33b8	0.005804505
89	0x3b534eb3	0.0032242953
90	0x377f48c0	1.5216123e-05
91	0x3b499d5e	0.0030763964
92	0x3aa84c97	0.0012840208
93	0xbb6a6ee9	-0.0035771674
94	0xb9ddb36c	-0.00042286084
95	0xbaacc898	-0.001318234
96	0xbb1c9c42	-0.0023896848
97	0x3bd2c56e	0.006432227
98	0x3bb165e4	0.0054137576
99	0x3b903b56	0.0044016046
100	0x3b34e75a	0.0027603717
101	0xb8aa8460	-8.1308885e-05
102	0xbaa42eb3	-0.0012526124
103	0xbc166a09	-0.009180554
104	0x3b786c49	0.003790634
105	0x3b76a91a	0.0037637413
106	0x3b5913ab	0.0033123295
107	0xbbba9313	-0.005693802
108	0x38910ec7	6.916891e-05
109	0x3913938f	0.00014073982
110	0xb9ca63c8	-0.00038602785
111	0xbb2a5dc2	-0.0025995825
112	0x3be72a14	0.0070545767
113	0x3a1357ac	0.0005620669
114	0xb9f2c1ea	-0.00046302314
115	0xb989f2d8	-0.0002631161
116	0xba03d683	-0.0005029218
117	0xba8ab3f3	-0.0010582193
118	0xbc3976ec	-0.011319857
119	0x3aaec025	0.001333241
120	0xbb2eb2c5	-0.0026656848
121	0x39e731a8	0.0004409675
122	0x3abe08a0	0.001449842
123	0xbaf609b1	-0.0018771199
124	0xbad40e36	-0.0016178552
125	0xba21359c	-0.0006149651
126	0x3c286730	0.010278508
127	0xb8494ec8	-4.7995505e-05

exp_avg_sq f4 [128]
0	0x395b42ac	0.00020910305
1	0x38a04320	7.6418975e-05
2	0x3a2cfb41	0.0006598719
3	0x38f0eba0	0.000114879804
4	0x39b7cc99	0.00035056917
5	0x379b71f1	1.8530498e-05
6	0x396d074a	0.00022604797
7	0x39e660f1	0.00043941246
8	0x3a33edba	0.0006863732
9	0x3a3295da	0.0006812491
10	0x39830719	0.00024991555
11	0x3a39ea66	0.0007092118
12	0x39915a36	0.00027723768
13	0x39f3c3b1	0.00046494373
14	0x398bc5c3	0.0002665949
15	0x39dadea1	0.00041746072
16	0x39f45adc	0.00046607002
17	0x39f505ae	0.00046734273
18	0x3741d62d	1.1553563e-05
19	0x3980d065	0.00024569329
20	0x38c9aac6	9.616236e-05
21	0x3a36af0f	0.0006968835
22	0x39109001	0.00013786556
23	0x391b6079	0.00014817891
24	0x36de3a54	6.622906e-06
25	0x379b498c	1.8511688e-05
26	0x3694e685	4.4375797e-06
27	0x3a36ffbd	0.0006980857
28	0x39a143f0	0.0003075893
29	0x39be7a52	0.0003633076
30	0x38ce1eb5	9.828565e-05
31	0x39e11c31	0.00042936348
32	0x3965b5ca	0.00021906864
33	0x3a620baf	0.0008622957
34	0x397acee1	0.00023918926
35	0x3972fd3d	0.00023173257
36	0x3a7a12fb	0.00095395715
37	0x39418deb	0.00018458783
38	0x393a8fef	0.00017791962
39	0x39396114	0.0001767914
40	0x388ed17e	6.8101086e-05
41	0x39ff08a6	0.00048643834
42	0x3a38c054	0.0007047702
43	0x3a309c6a	0.00067371747
44	0x39962f57	0.000286455
45	0x39483734	0.00019094051
46	0x3a895973	0.0010478928
47	0x3867d83d	5.527608e-05
48	0x39843241	0.00025214444
49	0x3a3849ce	0.0007030041
50	0x3a7da3da	0.00096756
51	0x394636b6	0.00018903133
52	0x392c7b10	0.00016449043
53	0x39fe8af9	0.00048550198
54	0x3a3edd03	0.0007280858
55	0x39eaf46d	0.0004481407
56	0x35ce6c72	1.5379758e-06
57	0x3a480a2f	0.0007630912
58	0x395396eb	0.0002017875
59	0x348c0bcc	2.6085615e-07
60	0x3a9b5d09	0.0011853288
61	0x39bbb05e	0.00035798823
62	0x39f5c146	0.0004687404
63	0x39819e2b	0.00024722642
64	0x3962ed8a	0.0002164153
65	0x36c6b4fd	5.9219296e-06
66	0x38eaf55a	0.0001120369
67	0x39029860	0.0001245453
68	0x382eb1b5	4.1650335e-05
69	0x18e2a3b3	5.8584925e-24
70	0x3731b8a7	1.0593015e-05
71	0x39846386	0.00025251153
72	0x398baeea	0.00026642467
73	0x3929aa71	0.0001618059
74	0x3a377acd	0.0006999195
75	0x37a6a31c	1.9864696e-05
76	0x38d3443c	0.00010073974
77	0x390b18fd	0.00013265382
78	0x3a57551c	0.00082142814
79	0x3a0d31c8	0.0005386141
80	0x39a01f05	0.0003054069
81	0x3a526607	0.00080260675
82	0x39ce5dca	0.0003936126
83	0x3a1f618b	0.00060799037
84	0x39cb57e3	0.00038784658
85	0x3a62617c	0.0008635742
86	0x2b977b83	1.0763477e-12
87	0x39b8abd5	0.0003522324
88	0x39d310d0	0.00040257582
89	0x3a8e2794	0.0010845535
90	0x3a7538b3	0.0009354457
91	0x39f1ee27	0.0004614454
92	0x39373ea2	0.00017475573
93	0x397aa1a2	0.00023902071
94	0x362f8b3e	2.6158082e-06
95	0x3a1d9033	0.0006010562
96	0x3a05877c	0.0005093736
97	0x3a229368	0.0006201775
98	0x39b2737b	0.00034036845
99	0x39f012b1	0.00045790293
100	0x393050be	0.00016814747
101	0x3999fc66	0.00029370486
102	0x3809f0e9	3.288771e-05
103	0x3a34b1f8	0.00068929745
104	0x39b315e7	0.0003415786
105	0x39f6ce70	0.00047074584
106	0x3aad760b	0.0013234032
107	0x3a21852a	0.00061615056
108	0x3721617b	9.619044e-06
109	0x372c68a9	1.0276367e-05
110	0x3a67cf82	0.0008842872
111	0x3a34314b	0.00068738003
112	0x3a43425c	0.0007448548
113	0x39031906	0.00012502456
114	0x37220d08	9.6589865e-06
115	0x39b59899	0.00034636704
116	0x39a977ef	0.0003232355
117	0x39184c38	0.00014524243
118	0x3a188dae	0.0005819452
119	0x392cde1d	0.00016485942
120	0x392b856d	0.00016357536
121	0x3a126f3d	0.0005586034
122	0x3987a957	0.00025875375
123	0x399b2d3a	0.000295976
124	0x38810f71	6.1540755e-05
125	0x36d3ab37	6.308222e-06
126	0x39ea14ff	0.000446476
127	0x39b1c466	0.000339064
