models/model_20250730_183021_lr0.0001.pth (torch, 126802 bytes, 18 tensors)

fc1.weight f4 [128, 4]
0	0xbc549f3b	-0.012977417
1	0xbe9f3f3e	-0.31102937
2	0x3e78b014	0.24285918
3	0x3f1d5334	0.6145508
4	0xbcb48380	-0.02203536
5	0x3c8cdbc0	0.017194629
6	0x3dae3f28	0.0850814
7	0xbdde5430	-0.10855901
8	0xbf05f325	-0.52324134
9	0x3e80302b	0.2503675
10	0xbe1912d5	-0.1494859
11	0x3f0646c1	0.5245171
12	0xbf0d60a3	-0.5522558
13	0x3f205272	0.626258
14	0xbe28705e	-0.16449115
15	0x3ba4b796	0.005026768
16	0x3ce869d9	0.028370785
17	0xbe31eb68	-0.17374957
18	0x3ec5fbbe	0.38668627
19	0x3f1ddce9	0.6166521
20	0x3eba2f35	0.3636414
21	0x3ee7a919	0.452462
22	0xbeba2a6c	-0.3636049
23	0xbee6bbc3	-0.45065126
24	0xbe598c35	-0.21244891
25	0x3e965d2e	0.29367965
26	0x3f11ec19	0.5700088
27	0xbdd3b0d6	-0.10336463
28	0x3ecafaa7	0.39644358
29	0xbed21714	-0.41033232
30	0x3e513997	0.20432125
31	0x3ae8d69f	0.0017764157
32	0xbeb89232	-0.36049038
33	0xbe75fef4	-0.24023038
34	0x3e17ce90	0.14824891
35	0x3e712da4	0.23552567
36	0x3ebd7584	0.3700372
37	0xbe90bc30	-0.28268576
38	0xba10e800	-0.0005527735
39	0xbeaa9122	-0.33313853
40	0x3e8e582a	0.2780164
41	0x3e8448b7	0.25836727
42	0x3ed1c666	0.40971678
43	0xbe20178a	-0.1563398
44	0xbf0674d1	-0.52522
45	0xbea0e2d7	-0.31423065
46	0x3e537f56	0.20654044
47	0xbef3a346	-0.47585505
48	0xbce4c2f1	-0.027924987
49	0x3ee8969b	0.45427403
50	0x3f07bfcb	0.5302703
51	0x3ed6054e	0.41800922
52	0xbe6f5727	-0.2337309
53	0xbe20a12a	-0.15686479
54	0xbe301fd4	-0.17199641
55	0x3ee92b23	0.45540723
56	0x3f152259	0.58255535
57	0x3e6365e7	0.22206841
58	0x3e1e5e1f	0.15465592
59	0x3c3bfa2d	0.011473221
60	0xbe650cfc	-0.22368234
61	0xbdbd8cd0	-0.092553735
62	0x3e2a172c	0.16610402
63	0x3d4117e0	0.04714191
64	0xbdda3f60	-0.10656619
65	0x3e2c62a0	0.16834497
66	0xbefd050a	-0.49417907
67	0xbe2dc6f0	-0.1697042
68	0xbe53a9f7	-0.20670305
69	0x3e283ef6	0.16430268
70	0x3ec55121	0.3853846
71	0x3f28bcf0	0.65913296
72	0xbe36ecc3	-0.17863755
73	0x3f261aae	0.6488446
74	0x3e1f4f90	0.15557694
75	0xbed6785c	-0.41888702
76	0xbe9e1d02	-0.30881506
77	0x3e9a3260	0.30116558
78	0xbd9ccbf8	-0.076560915
79	0xbb0ba000	-0.0021305084
80	0xbd26bc10	-0.040706694
81	0xbb6a7f00	-0.0035781264
82	0x3e8a3e7e	0.27000803
83	0xbecee3a6	-0.40408057
84	0xbf0b4f66	-0.5441803
85	0x3e91cb4e	0.28475422
86	0x3e5ea8e6	0.21744117
87	0x3f089944	0.53358865
88	0x3e256f56	0.16155753
89	0x3d402253	0.046907734
90	0xbf383703	-0.7195894
91	0xbef6d5cd	-0.48209992
92	0x3ea1a7aa	0.3157323
93	0xbdf072a2	-0.117406145
94	0x3eb5691a	0.3543175
95	0xbec857cf	-0.39129493
96	0x3e121612	0.14266232
97	0x3ea4aa1c	0.32161033
98	0xbd9d0b6d	-0.07668195
99	0x3d63c80e	0.05561071
100	0x3e15c732	0.14626768
101	0x3f2974da	0.66193926
102	0x3f22848c	0.634835
103	0xbe93e4da	-0.28885537
104	0x3d9c7f0c	0.0764142
105	0xbe3c8481	-0.18409921
106	0xbe9540bb	-0.29150948
107	0x3e7bbb59	0.24583186
108	0x3f07ee49	0.5309797
109	0x3efe7257	0.4969661
110	0x3e9a2827	0.3010876
111	0x3eb0234b	0.34401926
112	0x3e910f5e	0.28332037
113	0xbeb02b36	-0.34407967
114	0x3e811894	0.25214064
115	0xbe8ed8a8	-0.2789967
116	0x3edb2bdb	0.42806897
117	0xbe4de7a6	-0.20107898
118	0xbeba3601	-0.36369327
119	0x3ef5e0f5	0.4802319
120	0x3d0a8003	0.033813488
121	0xbdd201e2	-0.10254265
122	0x3e2217cc	0.1582939
123	0x3f1b7291	0.6072169
124	0xbd576710	-0.052588522
125	0x3e455f4c	0.19274634
126	0xbe910538	-0.28324294
127	0xbe92ecee	-0.28696388
128	0xbe73b93d	-0.23801132
129	0x3e59ef64	0.21282727
130	0x3ec6b8d3	0.38812885
131	0xbe0b2274	-0.13587362
132	0xbca25560	-0.0198161
133	0xbe34e870	-0.17666793
134	0x3e053ef8	0.13012302
135	0xbe16bc3c	-0.14720243
136	0xbef2869e	-0.4736833
137	0x3d5b414e	0.053529076
138	0x3f181cf5	0.59419185
139	0xbe903b31	-0.2817016
140	0xbf27fe00	-0.6562195
141	0x3d56d309	0.052447353
142	0xbe7b7505	-0.24556358
143	0xbeb3cfcb	-0.3511947
144	0xbf0fe9d7	-0.56216186
145	0x3e053dbf	0.13011836
146	0x3f052a88	0.5201802
147	0x3e7249a6	0.23660907
148	0x3e893e68	0.26805425
149	0x3eaa5c59	0.3327358
150	0xbda7fce2	-0.082025304
151	0x3ee3cc4c	0.44491804
152	0x3ef268eb	0.4734567
153	0xbe83e80e	-0.2576298
154	0xbec089d3	-0.37605152
155	0x3e6da52e	0.23207542
156	0xbe9de374	-0.30837595
157	0x3e39aeb2	0.18133047
158	0x3ea40fc4	0.32043278
159	0xbd8bc87e	-0.0682535
160	0x3f04b131	0.5183287
161	0xbe5cd045	-0.21563824
162	0xbe4c78c8	-0.1996795
163	0x3f0a46e1	0.540144
164	0x3f1e87a9	0.6192575
165	0xbe8bceac	-0.27306116
166	0x3f102ff7	0.5632319
167	0x3edf8152	0.4365335
168	0x3f2904e7	0.66023105
169	0x3e5ab70a	0.21358886
170	0xbf02bb6c	-0.51067233
171	0x3d9b37d9	0.075790115
172	0xbef95961	-0.48701003
173	0x3dfc8b8f	0.12331306
174	0xbe81f58f	-0.2538266
175	0x3ec594ad	0.38589993
176	0xbf1eea5d	-0.6207636
177	0x3f1688fd	0.5880278
178	0x3db72733	0.089430235
179	0x3ecbb329	0.39785126
180	0xbdf6caf0	-0.12050426
181	0xbedcc952	-0.43122345
182	0x3ede3880	0.4340248
183	0xbe774830	-0.24148631
184	0x3f1f4ada	0.6222359
185	0xbd7097af	-0.058738407
186	0x3edd876f	0.4326739
187	0x3e49b4cd	0.19697876
188	0x3f0aa900	0.54164124
189	0x3e8861e6	0.2663719
190	0x3e8dbd40	0.2768345
191	0x3e1daa13	0.1539691
192	0x3f093665	0.53598624
193	0x3ec76dc1	0.38950923
194	0x3da91a75	0.082569994
195	0xbe61e99e	-0.22061774
196	0xbd9fdb28	-0.078054726
197	0xbee7b4e0	-0.45255184
198	0x3e83807a	0.25683957
199	0xbe010270	-0.12598586
200	0x3ee30491	0.4433942
201	0xbe0420ed	-0.12903185
202	0x3f04ae96	0.51828897
203	0x3eddcf0e	0.43322033
204	0xbe69e848	-0.22842515
205	0xbd370970	-0.044686735
206	0xbdeb6810	-0.11494458
207	0xbdb6ed48	-0.089319766
208	0xbf22af0d	-0.63548356
209	0xbe46356f	-0.19356321
210	0x3ef7a0c2	0.48364836
211	0x3f21449c	0.62995315
212	0x3e89fdb1	0.26951364
213	0x3ed81a75	0.42207685
214	0x3ed971cb	0.4246963
215	0x3f136814	0.57580686
216	0x3ea8c227	0.32960626
217	0x3daa4f92	0.08315958
218	0x3f23fa65	0.64053947
219	0xbe49b72a	-0.19698778
220	0x3f1f03f7	0.62115425
221	0x3e28b040	0.16473484
222	0xbe6aca56	-0.22928748
223	0xbf00f50d	-0.5037392
224	0xbea3b9eb	-0.31977782
225	0xbd163e3e	-0.036680453
226	0x3e6cd768	0.23129046
227	0xbd4032ac	-0.046923324
228	0x3d38e794	0.045142725
229	0xbe8761eb	-0.26441893
230	0x3efb1b75	0.49044386
231	0x3ea9eb4d	0.33187333
232	0xbea6473c	-0.32476223
233	0x3df51360	0.11966586
234	0x3ecc7f33	0.39940795
235	0xbeb86041	-0.36010936
236	0x3f13282e	0.57483184
237	0xbd160cd5	-0.03663333
238	0xbe9fe824	-0.31231797
239	0xbe5a8e88	-0.21343434
240	0x3d27f920	0.04100907
241	0x3db1e480	0.08686161
242	0xbdd46e40	-0.10372591
243	0x3d787020	0.060653806
244	0xbdafdabd	-0.08586643
245	0x3e178bfb	0.14799492
246	0x3eca941a	0.39566118
247	0x3e82fca6	0.2558338
248	0xbf002db0	-0.50069714
249	0x3eef46e8	0.46733785
250	0x3ed3bd58	0.41355395
251	0xbee25685	-0.44206634
252	0xbcef59c0	-0.0292176
253	0xbeae398e	-0.34028286
254	0x3d934a58	0.07191914
255	0xbea5e966	-0.3240463

fc1.bias f4 [128]
0	0xbe76de5b	-0.2410826
1	0xbe207218	-0.15668523
2	0x3ef3ddb0	0.47630072
3	0x3f139bac	0.5765941
4	0xbe6f7d45	-0.2338763
5	0x3f1abcc1	0.60444266
6	0xbeae706f	-0.34070155
7	0x3f234847	0.6378216
8	0xbef8a096	-0.48560017
9	0xbef713e4	-0.48257363
10	0x3e20b696	0.15694651
11	0x3e84a3d3	0.25906238
12	0x3e319c92	0.17344883
13	0x3f2216f2	0.6331626
14	0xbec9fb5a	-0.3944958
15	0xbebec4ec	-0.37259614
16	0xbeab836e	-0.3349871
17	0x3e5b21f5	0.21399672
18	0x3e35255a	0.1769003
19	0xbeaf59fc	-0.3424834
20	0xbee135ea	-0.43986446
21	0xbd7a2a25	-0.06107535
22	0x3ea1d204	0.31605542
23	0x3ef7e618	0.48417735
24	0x3ef64e0d	0.48106423
25	0x3dce41e3	0.10071161
26	0x3ea5bed9	0.32372168
27	0xbea36675	-0.31914106
28	0xbededed4	-0.4352938
29	0x3e1eaf13	0.15496473
30	0xbc1ca2b5	-0.009560277
31	0xbe997f54	-0.29979956
32	0x3f216f5d	0.6306055
33	0xbebd9ba2	-0.370328
34	0x3f12885a	0.57239306
35	0x3e60b427	0.21943723
36	0xbdfdc896	-0.12391774
37	0x3f19ef0b	0.60130376
38	0x3ee9bdf7	0.45652744
39	0x3e3259e6	0.17417106
40	0x3e2502e3	0.16114382
41	0x3c2ae336	0.010430148
42	0x3ed4936a	0.41518718
43	0x3f0e825d	0.5566767
44	0x3e4038be	0.18771645
45	0xbe011fe8	-0.12609828
46	0xba2e9652	-0.0006659973
47	0x3dac22f7	0.084051065
48	0x3c1a8340	0.0094307065
49	0xbecd68f4	-0.40119135
50	0x3ed81acc	0.42207944
51	0xbeffaafc	-0.49935138
52	0x3d7a0c4c	0.061046883
53	0xbf030e3f	-0.5119361
54	0xbecc1aff	-0.39864346
55	0x3f0235fa	0.5086361
56	0x3ec05a38	0.3756883
57	0x3e028124	0.12744576
58	0x3efc2f39	0.49254778
59	0x3f0c8902	0.5489656
60	0xbeb835cc	-0.35978544
61	0xbe2c5dc6	-0.16832647
62	0x3f079676	0.5296396
63	0xbec38768	-0.38189244
64	0xbec8127e	-0.39076608
65	0xbef73a46	-0.48286647
66	0x3f0fe10e	0.5620278
67	0x3f244450	0.64166737
68	0xbe83902b	-0.2569593
69	0x3ef2a65f	0.47392556
70	0x3ea4870e	0.3213429
71	0xbe3c9e58	-0.18419778
72	0x3e433fda	0.19067326
73	0xbdba8dd4	-0.09109083
74	0xba903bb5	-0.0011004122
75	0xbef0e9e8	-0.47053456
76	0x3f08177a	0.5316082
77	0xbba561b5	-0.005047048
78	0xbef334b7	-0.47501156
79	0xbdc93478	-0.09824461
80	0x3f10bca5	0.5653785
81	0xbe0f2277	-0.13977991
82	0x3ea30f13	0.31847438
83	0x3f147ac8	0.5799985
84	0x3edab848	0.4271872
85	0x3e9767a2	0.29571253
86	0xbe8b92ba	-0.2726038
87	0xbdefa534	-0.11701432
88	0x3f1a7d88	0.60347795
89	0x3dbe88fb	0.09303471
90	0x3eda0c35	0.42587438
91	0x3f18fca3	0.59760493
92	0xbee72386	-0.4514429
93	0xbe78880d	-0.24270649
94	0x3e381b15	0.17979081
95	0x3d29936a	0.04140035
96	0x3f16ea90	0.58951664
97	0x3e9648fa	0.29352552
98	0x3d4ee14a	0.05050782
99	0xbdc97520	-0.09836793
100	0xbecf455e	-0.4048261
101	0xbe72c1d2	-0.23706749
102	0x3f12c9ec	0.5733936
103	0x3dce3b4b	0.10069903
104	0x3e86827a	0.2627142
105	0x3ec4917d	0.3839225
106	0x3f1b6a92	0.6070949
107	0xbe86d19a	-0.26331788
108	0x3f25ee6f	0.64816946
109	0x3f0ebfc2	0.5576135
110	0xbe45c3b5	-0.19312938
111	0x3f006911	0.5016032
112	0x3f31d240	0.6946144
113	0xbe74e0e2	-0.23913911
114	0xbe95445a	-0.2915371
115	0x3ee6c285	0.45070282
116	0xbeaeed9d	-0.3416566
117	0xbed8f246	-0.4237234
118	0xbc885a3d	-0.016644591
119	0x3c114474	0.008866418
120	0x3e5c867d	0.21535678
121	0x3d9fc8f3	0.07802
122	0x3f15ef16	0.5856794
123	0x3f026ad6	0.5094427
124	0x3f110e0d	0.56662065
125	0x3f1f43ea	0.62213004
126	0x3f2ad50d	0.6673134
127	0x3eeca221	0.46217445

fc2.weight f4 [64, 128]
0	0x3e5709c8	0.20999825
1	0xba9d5140	-0.0012002364
2	0xbd2a5321	-0.041583184
3	0xbe5f8cd5	-0.21831067
4	0x3e151627	0.14559232
5	0xbe049a0b	-0.12949388
6	0x3de11ad9	0.10991449
7	0xbde20bfe	-0.110374436
8	0x3cba8624	0.022769041
9	0xbd075674	-0.033041432
10	0x3de8c36f	0.11365401
11	0xbd6ef7aa	-0.05834166
12	0x3d70c329	0.05877987
13	0xbdec5f63	-0.11541631
14	0x3e1bd3bc	0.15217489
15	0x3dafc387	0.08582216
16	0xbd42092e	-0.047372036
17	0x3db9b048	0.09066826
18	0xbe5ff7a1	-0.21871807
19	0xbc77f020	-0.015132934
20	0xbd8feaea	-0.07027228
21	0x3da5fe8a	0.0810519
22	0xbda5e864	-0.081009656
23	0xbd3766e9	-0.044775877
24	0x3da78bc6	0.081809565
25	0xbb7ea449	-0.0038855246
26	0xbdf24788	-0.1183005
27	0x3dd2c3cf	0.10291254
28	0x3d9efd07	0.07763105
29	0x3d972fc9	0.07382161
30	0x3e3d4537	0.18483435
31	0xbd510333	-0.05102844
32	0xbd25e0d7	-0.040497627
33	0x3d916fa9	0.071013756
34	0xbe132c9a	-0.14372483
35	0x3db1c92d	0.08680949
36	0x3e468c68	0.19389498
37	0x3d31ab10	0.04337603
38	0xbdf142cf	-0.11780321
39	0xbd20320a	-0.03911022
40	0x3e0d6fd7	0.13812195
41	0x3e10a92f	0.14127038
42	0x3d8b8239	0.068119474
43	0xbdf0db6f	-0.11760604
44	0x3de247e4	0.11048868
45	0xbcbd4e98	-0.023108765
46	0x3e31f64c	0.17379111
47	0x3dedeb6b	0.11617168
48	0x3dba1c2e	0.09087406
49	0xbd756c42	-0.059917696
50	0x3dbcc294	0.092168
51	0x3cb72610	0.022357017
52	0x3e2c0316	0.16798052
53	0x3e5b953a	0.21443644
54	0x3db88863	0.09010389
55	0xbdfac69a	-0.122449115
56	0xbe394498	-0.18092573
57	0x3e2cafac	0.16863889
58	0xbe80f848	-0.25189424
59	0xbddfdf07	-0.10931211
60	0x3c6a6c80	0.014308095
61	0x3e2beb0f	0.16788886
62	0xbe03971d	-0.12850614
63	0x3cf7e894	0.03026227
64	0x3d3061d2	0.04306204
65	0xbccc1b98	-0.024915501
66	0x3d1930ab	0.03739993
67	0xbc6c67ca	-0.014429042
68	0x3e0f73ac	0.14008969
69	0xbe9631ba	-0.29334813
70	0xbe0ac019	-0.13549842
71	0x3d779de6	0.060453318
72	0x3e4aa86b	0.19790809
73	0xbe19b67f	-0.15011023
74	0xbdf2d182	-0.11856367
75	0x3c068f68	0.008212902
76	0xbe0804e9	-0.13283123
77	0x3d1c51cc	0.038163945
78	0x3dce83e3	0.10083749
79	0xbc8db7b0	-0.017299503
80	0x3b3f2f27	0.0029172392
81	0x3e556261	0.2083831
82	0xbe7bdeab	-0.2459666
83	0xbea6b94f	-0.32563254
84	0x3d0db07f	0.034592148
85	0x3da27107	0.079317145
86	0x3c955c84	0.018232591
87	0x3e31b557	0.17354332
88	0xbcd5b386	-0.02608658
89	0x3dc70966	0.097185895
90	0xbe7e153b	-0.24812786
91	0x3dde9fc8	0.108703196
92	0x3d18c241	0.03729463
93	0x3e283d80	0.1642971
94	0xbe43c876	-0.19119439
95	0x3e1ab2fc	0.1510734
96	0xbbdad7ad	-0.0066785426
97	0x3d3e9f8d	0.04653888
98	0x3d050e7a	0.03248451
99	0xbda9be60	-0.08288264
100	0xbd130817	-0.035896387
101	0xbdef2367	-0.11676674
102	0x3cb7194f	0.022350935
103	0x3dc11114	0.094270855
104	0x3e299808	0.16561902
105	0x3d88ec76	0.06685726
106	0x3c1e9e91	0.00968136
107	0x3db0c67f	0.0863161
108	0xbe6cf884	-0.23141676
109	0xbdcb8823	-0.099380754
110	0xbd980c32	-0.07424201
111	0xbe0e6455	-0.13905461
112	0xbe2723b9	-0.16322221
113	0x3e1c858b	0.15285318
114	0x3cff8fd0	0.031196505
115	0x3d3d1093	0.046158385
116	0x3e28bd75	0.16478522
117	0x3d81e9c5	0.06343416
118	0x3d5bf684	0.053701892
119	0x3dca409e	0.09875606
120	0xbe51777a	-0.20455733
121	0xbe4f9346	-0.20271024
122	0xbd34a204	-0.044099823
123	0xbdd84c00	-0.10561371
124	0x3cd1cf2a	0.025611479
125	0x3d6ea3d7	0.05826172
126	0xbe354816	-0.1770328
127	0xbe456fd3	-0.19280939
128	0xbe93d52e	-0.2887358
129	0xbd8db7b1	-0.06919802
130	0xbdfda9ba	-0.123858884
131	0x3dc33ab2	0.095326796
132	0xbe077c9e	-0.13231131
133	0x3e1147f5	0.14187606
134	0x3e5d4c35	0.21611102
135	0xbc94e6f2	-0.01817653
136	0xbb700960	-0.0036626682
137	0x3d36530e	0.0445128
138	0x3e47f2de	0.1952624
139	0x3e34987f	0.17636298
140	0x3daa8ef0	0.083280444
141	0xbd2872d7	-0.041125145
142	0x3e0e325e	0.13886401
143	0xbda5fbfe	-0.08104704
144	0xbcbd2fc8	-0.023094073
145	0xbd9ee951	-0.07759345
146	0x3e1a4b3d	0.15067764
147	0x3ced5de8	0.028975442
148	0x3d5b9cba	0.053616263
149	0xbcdde23c	-0.027085416
150	0x3e817268	0.25282598
151	0x3e68500d	0.22686787
152	0x3e1a102d	0.15045233
153	0x3e1629c0	0.14664364
154	0xbe08af96	-0.1334823
155	0x3ca48d4e	0.02008691
156	0xbbcb3170	-0.006200962
157	0xbe8ae195	-0.2712523
158	0xbd8d337d	-0.06894586
159	0x3d6da5ea	0.058019556
160	0x3db8fba5	0.090323724
161	0xbdaddc4a	-0.084892824
162	0x3e8d72da	0.27626687
163	0x3e85530b	0.2603992
164	0x3d82ba86	0.06383233
165	0x3c096c84	0.008387689
166	0xbe0262bf	-0.12732981
167	0x3e7833ad	0.24238463
168	0xbdaf1807	-0.08549505
169	0xbdd0ce34	-0.1019558
170	0x3d294084	0.041321293
171	0xbcac542c	-0.02103623
172	0x3e0603e0	0.13087416
173	0x3d5a568e	0.0533052
174	0xbd1497b7	-0.0362775
175	0x3da2e7c1	0.0795436
176	0x3e3d5db5	0.18492778
177	0x3b7b00e0	0.0038300082
178	0x3d7b4ea1	0.061354283
179	0xbc90ee0c	-0.017691635
180	0xbde44f40	-0.11147928
181	0xbc2f3311	-0.0106933275
182	0x3e134f0d	0.14385624
183	0x3e09dafd	0.13462444
184	0x3e7f4656	0.24929175
185	0xbd1c1bd1	-0.038112465
186	0x3e17c944	0.1482287
187	0x3e364c4b	0.17802541
188	0xbdaddccf	-0.084893815
189	0x3daf68cf	0.085649125
190	0x3e84518e	0.2584347
191	0xbb52ec20	-0.0032184198
192	0xbc90b3ac	-0.0176638
193	0xbd8f7764	-0.07005194
194	0x3dbf5cd5	0.09343878
195	0x3da1f3c1	0.079078205
196	0x3d95026f	0.07275855
197	0x3e46f2e1	0.19428588
198	0x3e545fb5	0.20739634
199	0x3ca42228	0.020035818
200	0x3c6cca36	0.014452508
201	0x3e599fd9	0.21252383
202	0x3e6f6e33	0.23381881
203	0xbc0b9108	-0.008518465
204	0x3d623744	0.055228487
205	0x3dc30eeb	0.0952433
206	0x3de4a5f6	0.11164467
207	0xbc404ba0	-0.01173678
208	0x3e3c4e7e	0.18389317
209	0xbe2b5338	-0.16730964
210	0x3e4d1f25	0.20031412
211	0x3e0dd623	0.13851218
212	0xbb3f3c3f	-0.0029180197
213	0x3e0c64c8	0.1371032
214	0xbd95497c	-0.07289407
215	0xbe6b86e2	-0.23000672
216	0xbdeb18b2	-0.1147932
217	0x3e564f10	0.20928597
218	0x3e452572	0.19252566
219	0xbdd38c0f	-0.103294484
220	0x3d942527	0.07233649
221	0x3d47008d	0.04858451
222	0x3e5448a5	0.20730837
223	0x3dee35a1	0.11631323
224	0x3d74a328	0.05972591
225	0xbdfc1180	-0.12308025
226	0x3ddea752	0.108717576
227	0x3d97df95	0.07415692
228	0xbd9e6814	-0.07734695
229	0x3e8343b6	0.25637597
230	0x3e4c4f08	0.19952023
231	0xbe287669	-0.1645142
232	0x3cd0acf6	0.0254731
233	0xbd73244d	-0.05936079
234	0xbda42380	-0.080145836
235	0x3c89cbb4	0.016820766
236	0x3e8078fe	0.2509231
237	0x3d21c27a	0.039492108
238	0x3dc44cb4	0.095849425
239	0xbb9d5341	-0.0048011844
240	0x3e77f0cf	0.24212955
241	0xbd2498bb	-0.040184718
242	0xbd44dfc1	-0.04806495
243	0x3e7b3e90	0.24535584
244	0x3dac0b62	0.084006086
245	0x3d6d2e2e	0.05790537
246	0xbe2d967e	-0.1695194
247	0x3c2d5be5	0.010580991
248	0x3e350316	0.17676958
249	0x3e78f0fb	0.24310677
250	0x3e6abfcd	0.22924729
251	0x3dc15ab3	0.09441128
252	0x3cfeba11	0.031094583
253	0x3d98456f	0.074351184
254	0x3e125c6d	0.1429307
255	0xbe43e4ff	-0.19130324

fc2.bias f4 [64]
0	0xbd816d50	-0.06319678
1	0x3df36316	0.118841335
2	0xbc713650	-0.014722422
3	0x3cebb160	0.028771102
4	0xbd985a8c	-0.074391454
5	0xbcbf8f43	-0.023383742
6	0xbbe915ed	-0.0071132095
7	0x3c31f9f8	0.01086282
8	0xbd9ca084	-0.076478034
9	0x3ddb481d	0.10707114
10	0xbc2c2af0	-0.010508284
11	0x3dbf4ed9	0.09341211
12	0x3d94121d	0.07230017
13	0x380fdbeb	3.429867e-05
14	0xbd8ebcac	-0.0696958
15	0x3de65ff5	0.11248771
16	0xbd3babc3	-0.0458181
17	0x3ccdcb56	0.025121372
18	0x3e098dfd	0.1343307
19	0x3cc62260	0.024186313
20	0x3d8bf4e3	0.06833818
21	0x3e351fe3	0.17687945
22	0x3e0ec758	0.13943231
23	0xbde3297f	-0.11091899
24	0xbd6706dc	-0.056403026
25	0x3d579ef3	0.05264182
26	0x3d2b9929	0.04189411
27	0x3b792294	0.0038014995
28	0x3e43b63a	0.19112483
29	0x3cc09b2d	0.023511494
30	0xbd3dc5a0	-0.046331048
31	0x3e000b43	0.12504296
32	0xbc8baba2	-0.017049614
33	0xbdb4a072	-0.08819665
34	0x3e29e33e	0.16590592
35	0x3d1eb8c3	0.03875042
36	0x3e188e7a	0.148981
37	0x3e2e0ae8	0.16996348
38	0xbd381940	-0.044945955
39	0xbd7051fa	-0.05867193
40	0x3cca0e4c	0.02466502
41	0x3c3802dd	0.011231151
42	0x3da705ac	0.08155379
43	0x3c10ca44	0.008837286
44	0x3e33b294	0.17548591
45	0x3e080e31	0.13286664
46	0x3de19695	0.11015049
47	0x3d898ca9	0.06716282
48	0x3d2eb204	0.042650238
49	0xbc2b5818	-0.010458015
50	0x3d02346f	0.031788286
51	0x3d8f38e7	0.06993275
52	0x3ded8ab1	0.11598719
53	0x3dd76160	0.1051662
54	0x3e090e94	0.13384467
55	0x3c828143	0.015930777
56	0xbd48ce25	-0.04902472
57	0xbe1e514c	-0.154607
58	0xbcf3e298	-0.029771134
59	0xbd9b3078	-0.07577604
60	0x3da2335c	0.07919952
61	0x3e540816	0.2070621
62	0xbb919f3c	-0.004444031
63	0xbb67b100	-0.0035353303

fc3.weight f4 [15, 64]
0	0xbd2af34a	-0.041735925
1	0x3e541832	0.20712355
2	0x3df21de0	0.118221045
3	0x3d1689e8	0.03675261
4	0xbe8b863c	-0.2725085
5	0xbe4bbf4b	-0.19897191
6	0x3ddc31af	0.10751664
7	0x3da3d9c4	0.0800052
8	0x3de9e734	0.114210516
9	0xbe9381f7	-0.28810093
10	0x3c4f8de6	0.012668109
11	0xbdfb95b1	-0.12284411
12	0xbe18355f	-0.1486411
13	0xbe77c093	-0.24194555
14	0x3de2c6fe	0.11073111
15	0x3e5da9b1	0.21646763
16	0xbda64016	-0.08117692
17	0xbe127c24	-0.14305168
18	0x3e6929dc	0.22769874
19	0x3d39a67c	0.045324787
20	0xbda98732	-0.082777396
21	0x3e075adf	0.13218258
22	0x3e168af8	0.1470145
23	0xbe31b9ef	-0.17356084
24	0xbe10bbd2	-0.14134148
25	0x3a60f5e7	0.0008581564
26	0x3c45f8a8	0.01208321
27	0xbe21ace9	-0.15788616
28	0xbdd96593	-0.10615077
29	0xbe2b3d57	-0.16722618
30	0xbe6774d7	-0.22603165
31	0x3b50963d	0.003182783
32	0xbe7d1972	-0.24716738
33	0x3dcb188c	0.09916791
34	0x3cb33f7b	0.021880856
35	0x3d07fd6f	0.033200677
36	0x3d7e925d	0.0621513
37	0x3e4c1cf5	0.19932921
38	0xbdc6fa38	-0.09715694
39	0xbdcde18e	-0.10052787
40	0x3e5ca194	0.21546012
41	0xbe36fb24	-0.1786924
42	0xbd40774f	-0.04698878
43	0xbe5c532c	-0.21516103
44	0x3e4befe3	0.19915728
45	0x3e2b67d3	0.16738825
46	0x3e5228e5	0.20523413
47	0xbe6e0c66	-0.23246917
48	0xbe28205f	-0.16418599
49	0xbdc0a4da	-0.09406443
50	0xbaf5d969	-0.001875681
51	0xba9c5180	-0.0011926144
52	0x3d7dd035	0.06196614
53	0x3e13b118	0.14423025
54	0x3e3e7d2e	0.1860244
55	0x3e89e8e8	0.26935506
56	0xbd8eddcc	-0.06975898
57	0xbda4decd	-0.080503084
58	0xbe4d3920	-0.20041323
59	0x3db3a4ba	0.087716535
60	0xbe4bd2fc	-0.19904703
61	0x3e844083	0.2583047
62	0xbe43a74c	-0.19106787
63	0xbb4bfd40	-0.003112629
64	0xbe8eb7e1	-0.27874663
65	0xbe81244c	-0.25223005
66	0x3df3b156	0.118990585
67	0x3dd2e332	0.1029724
68	0x3d8a05a9	0.06739361
69	0x3e2f0e9e	0.1709542
70	0x3e115c27	0.1419531
71	0x3de11e56	0.10992114
72	0x3cd20ab6	0.025639873
73	0xbdc7d188	-0.09756762
74	0xbc446d56	-0.011988958
75	0xbe5310eb	-0.20611922
76	0xbe3be4ad	-0.18348952
77	0xbdd3a011	-0.103332646
78	0x3d7fa804	0.06241609
79	0x3dcae2de	0.09906553
80	0xbd889d64	-0.06670645
81	0xbddd5063	-0.10806348
82	0x3cf6b0f6	0.030113678
83	0xbd84e170	-0.06488311
84	0xbde6e832	-0.112747565
85	0xbe6c46b6	-0.23073849
86	0x3dc0cdad	0.094142295
87	0x3e775a8a	0.24155632
88	0xbe5b906d	-0.21441813
89	0xbe18f466	-0.1493698
90	0xbe1c86ec	-0.15285844
91	0x3e732665	0.23745115
92	0x3e0a8391	0.13526751
93	0x3de2f60f	0.11082088
94	0x3e84d628	0.25944638
95	0x3e467f36	0.19384465
96	0x3dca75c9	0.09885747
97	0x3ca7aaa8	0.020467117
98	0x3da06bc7	0.07833057
99	0xbdbfccc5	-0.093652286
100	0x3e3fa5f2	0.18715647
101	0x3dd79de3	0.105281614
102	0x3d66cbf4	0.05634685
103	0x3d3081a4	0.043092385
104	0x3d82967b	0.06376358
105	0xbe2fb5b9	-0.17159165
106	0xbdad9021	-0.08474756
107	0xbe501f59	-0.20324458
108	0x3e0d37e4	0.13790852
109	0x3d6229ec	0.05521576
110	0x3dd7a3f1	0.10529316
111	0x3d49774f	0.049186047
112	0xbe86f49f	-0.26358506
113	0x3d6db248	0.05803135
114	0xbd7aa354	-0.061190918
115	0xbdb2da08	-0.087329924
116	0x3e7a276b	0.244291
117	0xbe3d94a0	-0.18513727
118	0x3da09d48	0.07842499
119	0x3d2aba3c	0.041681513
120	0x3db33d32	0.087519065
121	0xbe311055	-0.17291386
122	0xbe97ed64	-0.29673302
123	0x3d819536	0.06327288
124	0xbe8f3c98	-0.27975917
125	0x3e0ecb93	0.13944845
126	0xbc064824	-0.008195911
127	0x3dc567bc	0.096389264
128	0xbd820144	-0.06347898
129	0x3e395e0a	0.1810228
130	0xbd6253dc	-0.055255756
131	0x3dd33be8	0.103141606
132	0xbdc73053	-0.09726014
133	0x3e4257a2	0.18978742
134	0xbe812a65	-0.25227657
135	0x3d8e589a	0.06950493
136	0xbda240e8	-0.07922536
137	0xbe939c78	-0.28830314
138	0xbce13224	-0.02748973
139	0xbe9cd69d	-0.30632487
140	0x3dda17ec	0.10649094
141	0x3e09053f	0.13380907
142	0xbdf341de	-0.118777975
143	0xbd49b9f3	-0.0492496
144	0x3d07da58	0.033167213
145	0xbc429662	-0.011876674
146	0x3e67a68f	0.22622131
147	0x3df003cc	0.11719474
148	0xbd5bc15c	-0.0536512
149	0xbdd46331	-0.10370482
150	0xbded16aa	-0.115765885
151	0x3e25cda9	0.16191734
152	0x3e16881d	0.1470036
153	0x3e01f992	0.1269286
154	0xbd2dbeb8	-0.04241821
155	0xbe1269bc	-0.14298147
156	0xbe2d2f19	-0.16912498
157	0x3db5583b	0.08854719
158	0xbe8e8e9e	-0.27843183
159	0xbdc1c5df	-0.09461569
160	0x3d379ade	0.044825427
161	0xbdce2342	-0.10065319
162	0xbe9967e3	-0.29962072
163	0xbd0236d0	-0.031790555
164	0xbd8d8ea5	-0.06911973
165	0xbe03b9c9	-0.1286384
166	0x3d93ad1c	0.07210752
167	0xbc978990	-0.018498212
168	0x3e8afbcf	0.2714524
169	0xbe839b7a	-0.25704557
170	0xbe4d32c8	-0.20038903
171	0xbe993f6f	-0.29931208
172	0x3e0ecf42	0.1394625
173	0x3e214563	0.15749125
174	0x3e0b42b0	0.13599658
175	0xbe3e0d83	-0.18559842
176	0x3dac09f9	0.0840034
177	0x3d4182f0	0.047244012
178	0x3ae06adc	0.001712169
179	0xbd5ed5bc	-0.05440305
180	0x3e458c63	0.19291835
181	0xbd0a62db	-0.033785682
182	0x3d29e48d	0.04147773
183	0xbe1bc718	-0.15212667
184	0x3dd48b14	0.103780895
185	0xbe011558	-0.12605798
186	0x3e4766b5	0.19472773
187	0x3deb47ec	0.114883274
188	0xbd5682ea	-0.052370943
189	0x3e38f8d4	0.1806367
190	0x3d82ebe6	0.0639265
191	0xbcc83978	-0.024441466
192	0xbd5d57fb	-0.054038983
193	0xbe367f72	-0.17822054
194	0x3c43c2d0	0.011948302
195	0x3da72b36	0.08162539
196	0x3de412a3	0.11136367
197	0x3e1988f1	0.14993645
198	0x3dd69b97	0.10478895
199	0xbd6556e4	-0.05599107
200	0xbd67de99	-0.05660877
201	0xbe952bc0	-0.2913494
202	0xbdbb85f8	-0.09156412
203	0xbe86f6b2	-0.2636009
204	0xbcebc0b0	-0.028778404
205	0xbc0cf1fc	-0.008602615
206	0xbaeee480	-0.0018226057
207	0x3dd7d863	0.10539319
208	0x3da87c92	0.08226885
209	0x3d280ad5	0.041025955
210	0x3e09d863	0.13461451
211	0xbde84894	-0.11341968
212	0xbbb43fe0	-0.0055007786
213	0xbe359ab6	-0.17734799
214	0xbdaca363	-0.08429601
215	0x3e832035	0.2561051
216	0xbd35d1ef	-0.04438966
217	0xbe6346e2	-0.22195008
218	0xbea0d9c7	-0.3141615
219	0x3e5ec011	0.21752955
220	0xbeabefe7	-0.33581468
221	0x3e05c4d6	0.13063368
222	0x3df64e1b	0.12026616
223	0x3e299b72	0.16563204
224	0x3e67a72d	0.22622366
225	0xbda00570	-0.07813537
226	0xbe5ef50b	-0.21773164
227	0x3d8d3953	0.06895699
228	0xbdbf4acc	-0.09340438
229	0xbe9b518a	-0.30335647
230	0xbdf08ad0	-0.117452264
231	0x3dd4e0ec	0.10394463
232	0xbde86246	-0.11346869
233	0xbe438401	-0.19093324
234	0xbe7fb0d4	-0.24969798
235	0xbe3f123a	-0.18659297
236	0x3e21c9b3	0.15799598
237	0x3e12fd8e	0.14354536
238	0xbe31eb98	-0.17375028
239	0x3e12f61f	0.143517
240	0xbcc3486c	-0.023838244
241	0x3df72d52	0.12069191
242	0xbdf9f372	-0.12204637
243	0xbcdb8538	-0.026796922
244	0x3dd1bac6	0.10240702
245	0x3d00ceae	0.031447105
246	0x3cd1898c	0.025578283
247	0xbe1bd7d3	-0.15219049
248	0x3dc6537e	0.096838936
249	0x3e462163	0.19348674
250	0x3d9af56c	0.07566342
251	0x3d13a5a8	0.036046654
252	0xbd94ee67	-0.07272034
253	0xbe19e7a5	-0.15029772
254	0xbd36701e	-0.044540517
255	0xbbc2a240	-0.005939752

fc3.bias f4 [15]
0	0x3de5cce3	0.1122072
1	0x3e01126f	0.12604688
2	0x3d847039	0.06466717
3	0xbddcf2dc	-0.10788509
4	0xbcd46cda	-0.02593081
5	0xbdb00de5	-0.085964
6	0x3de1774e	0.11009084
7	0x3d65f40b	0.05614094
8	0xbcb438fa	-0.021999825
9	0xbe0dd057	-0.13849007
10	0xbdbbbbd4	-0.09166685
11	0x3da160ea	0.07879813
12	0x3bdca642	0.0067336867
13	0x3cd8ed66	0.026480388
14	0x3c2f3d05	0.0106957005

exp_avg f4 [128, 4]
0	0xb9ecd342	-0.00045170827
1	0xb9b4cc16	-0.0003448433
2	0xb9eadc41	-0.0004479606
3	0xbadea37a	-0.0016985976
4	0x00000000	0.0
5	0x00000000	0.0
6	0x00000000	0.0
7	0x00000000	0.0
8	0x398fbf1b	0.0002741747
9	0xb955bf19	-0.00020384452
10	0xb9954c76	-0.00028476462
11	0xba30e685	-0.0006748217
12	0x3a592e9a	0.0008284837
13	0xba1af09a	-0.0005910486
14	0xba2525e4	-0.00062998966
15	0x39ef58fa	0.00045651925
16	0xb999392c	-0.0002922503
17	0xb94d45fd	-0.00019576396
18	0xb99c95b0	-0.00029866165
19	0xbacf76fc	-0.0015828307
20	0xba43fb4c	-0.0007476106
21	0xb9b85d46	-0.0003516471
22	0xb98a6cb2	-0.00026402395
23	0x39a5087a	0.00031477568
24	0x39c01801	0.00036638978
25	0xba30d1e4	-0.00067451433
26	0xba31b015	-0.00067782524
27	0x399cdddf	0.00029919946
28	0xba279f99	-0.00063943263
29	0x38b72c02	8.734317e-05
30	0x3912d8f9	0.00014004474
31	0x38248c01	3.9231036e-05
32	0x00000000	0.0
33	0x00000000	0.0
34	0x00000000	0.0
35	0x00000000	0.0
36	0x00000000	0.0
37	0x00000000	0.0
38	0x00000000	0.0
39	0x00000000	0.0
40	0xba05abd1	-0.000509915
41	0xb9eda8de	-0.00045329978
42	0xb9cdbb02	-0.0003923998
43	0x397cc592	0.00024106193
44	0x36a4058b	4.888226e-06
45	0xb4900431	-2.682514e-07
46	0xb4a20d59	-3.0184563e-07
47	0x36af0e1b	5.2170485e-06
48	0x38066dc5	3.205032e-05
49	0xb9bba41e	-0.00035789696
50	0xb9c55fba	-0.0003764609
51	0xb94e80a9	-0.0001969362
52	0xb99d0881	-0.0002995171
53	0xb9845066	-0.00025236903
54	0xb9911f2a	-0.00027679774
55	0xba08d758	-0.0005220077
56	0xba8edd22	-0.0010899643
57	0xb983568f	-0.00025050758
58	0xb93b0e54	-0.00017839047
59	0xb976d550	-0.00023539853
60	0x00000000	0.0
61	0x00000000	0.0
62	0x00000000	0.0
63	0x00000000	0.0
64	0x00000000	0.0
65	0x00000000	0.0
66	0x00000000	0.0
67	0x00000000	0.0
68	0x38365a64	4.3476364e-05
69	0xb96657f8	-0.0002196728
70	0xb999827c	-0.00029279653
71	0xba5f25e0	-0.0008512419
72	0x378eb021	1.7009736e-05
73	0xba8faed8	-0.0010962142
74	0xba8d38ca	-0.0010774371
75	0x394ed482	0.00019724856
76	0x00000000	0.0
77	0x00000000	0.0
78	0x00000000	0.0
79	0x00000000	0.0
80	0x00000000	0.0
81	0x00000000	0.0
82	0x00000000	0.0
83	0x00000000	0.0
84	0x395b1374	0.00020892714
85	0xb9a8f7ca	-0.00032228074
86	0xb9d9de42	-0.0004155506
87	0xba751bad	-0.00093501323
88	0xb98b788d	-0.00026601963
89	0xb67c4791	-3.7592583e-06
90	0x37c2756f	2.3181286e-05
91	0x38924b3d	6.975837e-05
92	0xba2443b6	-0.0006266193
93	0xb9b7232e	-0.0003493069
94	0xb97732db	-0.00023574701
95	0x3a4b5473	0.00077564194
96	0xb9d97454	-0.00041476137
97	0xb95e2327	-0.00021184665
98	0xb937f3c4	-0.0001754305
99	0x387ab394	5.977189e-05
100	0xb922ed2d	-0.00015537879
101	0xba08db33	-0.00052206515
102	0xb9fbc49d	-0.0004802094
103	0x39ba84f6	0.00035575748
104	0xb9d4b4e3	-0.00040570562
105	0x37fc3342	3.006461e-05
106	0x36ed7cc4	7.077675e-06
107	0xba2dba20	-0.0006627161
108	0xba29f2c5	-0.0006483014
109	0xb9a19e1c	-0.00030826114
110	0xb9972fc8	-0.00028836564
111	0xb9daf26a	-0.00041760813
112	0x00000000	0.0
113	0x00000000	0.0
114	0x00000000	0.0
115	0x00000000	0.0
116	0xbaafe1cf	-0.0013418737
117	0x3967990d	0.00022086893
118	0x39580b6d	0.00020603622
119	0xbac6676f	-0.0015137027
120	0xb9984b7a	-0.00029047934
121	0xb8cfaa48	-9.9022465e-05
122	0xb93e1afd	-0.00018129866
123	0xbaac4526	-0.0013143166
124	0x00000000	0.0
125	0x00000000	0.0
126	0x00000000	0.0
127	0x00000000	0.0
128	0x39c5d3cc	0.0003773257
129	0xb9aa6798	-0.0003250211
130	0xb9a9c951	-0.00032384184
131	0x39dcb27c	0.0004209465
132	0x00000000	0.0
133	0x00000000	0.0
134	0x00000000	0.0
135	0x00000000	0.0
136	0x3a1fabff	0.0006090998
137	0xba1c0b36	-0.00059525983
138	0xba1b0d9a	-0.00059148076
139	0x3a3e2f64	0.00072549866
140	0x36b52c13	5.3993513e-06
141	0xb49fa031	-2.9732612e-07
142	0xb4b2503b	-3.321346e-07
143	0x36c1314f	5.7575885e-06
144	0x39b92b3e	0.00035318168
145	0xb9c21e37	-0.00037025075
146	0xb9e75949	-0.00044126276
147	0xba0d3b07	-0.0005387519
148	0xba170512	-0.00057609484
149	0xb9269419	-0.00015886164
150	0xb924de4f	-0.00015723075
151	0xba0bb1b9	-0.0005328912
152	0xbaa5a8c1	-0.0012638794
153	0x37be45dc	2.2682296e-05
154	0x3868bd1e	5.548924e-05
155	0xba5c6a16	-0.0008408142
156	0x3a45ea49	0.0007549865
157	0xba09a45a	-0.00052506255
158	0xba0e9492	-0.0005439009
159	0x3a0fdac3	0.0005487615
160	0xba85a77b	-0.0010197008
161	0x38f9783f	0.00011895643
162	0x38e8644e	0.00011081305
163	0xba943b92	-0.0011309257
164	0xba564479	-0.00081736554
165	0xb8e20307	-0.00010777084
166	0xb8ccdc00	-9.768456e-05
167	0xba37cc98	-0.0007011383
168	0xba6756e6	-0.00088248996
169	0x38df469d	0.000106466214
170	0x393440e6	0.00017190314
171	0xb8a2d35a	-7.764129e-05
172	0x3984834d	0.0002527483
173	0xb7dec154	-2.6554488e-05
174	0xb89bbd5c	-7.426247e-05
175	0xb9a68b5c	-0.00031765818
176	0x39e9d2f6	0.000445984
177	0xb9e59cf1	-0.00043795214
178	0xba03bce0	-0.0005025398
179	0xb9aed0ad	-0.00033343342
180	0x00000000	0.0
181	0x00000000	0.0
182	0x00000000	0.0
183	0x00000000	0.0
184	0xba8464e5	-0.001010087
185	0xb97649ac	-0.00023487833
186	0xb9463b5d	-0.00018904866
187	0xb9ef2475	-0.00045612795
188	0xba567b95	-0.00081818673
189	0xb98725a6	-0.00025777257
190	0xb95ead53	-0.00021236138
191	0xb9889713	-0.000260525
192	0xba5d2b67	-0.00084369484
193	0xb9a82189	-0.00032068443
194	0xb975de7a	-0.000234479
195	0x3963166a	0.00021656757
196	0x00000000	0.0
197	0x00000000	0.0
198	0x00000000	0.0
199	0x00000000	0.0
200	0xba0ab019	-0.0005290523
201	0xb90c652c	-0.0001338913
202	0xb90ad10a	-0.00013238579
203	0xba05b091	-0.0005099858
204	0x00000000	0.0
205	0x00000000	0.0
206	0x00000000	0.0
207	0x00000000	0.0
208	0x3a1c6290	0.00059656147
209	0xb903a182	-0.000125533
210	0xb964f5b6	-0.00021835309
211	0xba0ee265	-0.00054506055
212	0xb9aa8e4a	-0.0003253094
213	0xb9c894ac	-0.00038257742
214	0xb9da6e31	-0.000416623
215	0xba48e775	-0.00076638843
216	0xb9f7c11d	-0.00047255392
217	0xba063c59	-0.0005120687
218	0xb9f5f898	-0.00046915258
219	0xb5c84520	-1.4921279e-06
220	0xba1bd058	-0.00059438264
221	0xb851b040	-4.999363e-05
222	0x3808f94a	3.2657095e-05
223	0x39e50bf9	0.00043687204
224	0x39a4dde2	0.00031445833
225	0xba05fc63	-0.0005111156
226	0xb9f80dae	-0.00047312438
227	0x3a7355f8	0.00092825247
228	0xb99779b7	-0.0002889165
229	0xb980b87f	-0.00024551523
230	0xb9a6d3fe	-0.00031819934
231	0xba9a2afb	-0.0011762077
232	0x39ffefdb	0.00048816096
233	0xba4d05e3	-0.00078210066
234	0xba49ed69	-0.00077029184
235	0x3a1f199a	0.00060691836
236	0xba8f0eeb	-0.001091448
237	0x380de91c	3.383412e-05
238	0x3904c1aa	0.00012660646
239	0x3845ba68	4.7142064e-05
240	0x00000000	0.0
241	0x00000000	0.0
242	0x00000000	0.0
243	0x00000000	0.0
244	0x3849136a	4.7940215e-05
245	0xb9de5c95	-0.0004241212
246	0xb9f36846	-0.00046426262
247	0xb9f5e595	-0.00046901093
248	0x39fcfc39	0.00048253106
249	0xb9f9f19c	-0.00047672994
250	0xb9eb6c0b	-0.0004490319
251	0x3a667a06	0.00087919866
252	0x00000000	0.0
253	0x00000000	0.0
254	0x00000000	0.0
255	0x00000000	0.0

exp_avg_sq f4 [128, 4]
0	0x36ea1b6a	6.976935e-06
1	0x379156ef	1.7325829e-05
2	0x37b0f02d	2.1092676e-05
3	0x38a5e7a1	7.910957e-05
4	0x00000000	0.0
5	0x00000000	0.0
6	0x00000000	0.0
7	0x00000000	0.0
8	0x3733b484	1.0711261e-05
9	0x37208883	9.568527e-06
10	0x373b44c5	1.116208e-05
11	0x3828cd02	4.024525e-05
12	0x376d2638	1.4135199e-05
13	0x3809ef63	3.288629e-05
14	0x3812d1e0	3.5004574e-05
15	0x37954036	1.7792085e-05
16	0x371a17fa	9.184698e-06
17	0x377e6b9c	1.51646345e-05
18	0x3795587a	1.7803384e-05
19	0x3868a718	5.546873e-05
20	0x382c0983	4.1016854e-05
21	0x3759a7fa	1.2973318e-05
22	0x374af5c9	1.2097365e-05
23	0x3776bdf2	1.4706968e-05
24	0x371ff8af	9.53504e-06
25	0x382092fe	3.828387e-05
26	0x3821cdab	3.8576934e-05
27	0x3736b318	1.0889744e-05
28	0x378ed813	1.7028337e-05
29	0x36d0e241	6.2252225e-06
30	0x36eb78e8	7.017621e-06
31	0x36d29847	6.276215e-06
32	0x00000000	0.0
33	0x00000000	0.0
34	0x00000000	0.0
35	0x00000000	0.0
36	0x00000000	0.0
37	0x00000000	0.0
38	0x00000000	0.0
39	0x00000000	0.0
40	0x3753d50d	1.2626185e-05
41	0x36faf8b3	7.479533e-06
42	0x36d28109	6.2735094e-06
43	0x364e1537	3.070874e-06
44	0x30fe33a0	1.8495605e-09
45	0x2db70711	2.080783e-11
46	0x2db99ed5	2.11026e-11
47	0x3103a448	1.9156392e-09
48	0x361b7737	2.3166192e-06
49	0x37082890	8.115676e-06
50	0x37149229	8.855518e-06
51	0x36b28233	5.3199706e-06
52	0x36a093dc	4.7855847e-06
53	0x3688ea6e	4.080407e-06
54	0x3696f602	4.4989874e-06
55	0x3784a95e	1.5814494e-05
56	0x38237a49	3.8976115e-05
57	0x3791e003	1.738966e-05
58	0x3780807e	1.5318623e-05
59	0x37068640	8.01828e-06
60	0x00000000	0.0
61	0x00000000	0.0
62	0x00000000	0.0
63	0x00000000	0.0
64	0x00000000	0.0
65	0x00000000	0.0
66	0x00000000	0.0
67	0x00000000	0.0
68	0x368b8c20	4.1588355e-06
69	0x367b9f31	3.7494576e-06
70	0x36a47961	4.9017112e-06
71	0x37f620cc	2.9340757e-05
72	0x37539f7a	1.2613711e-05
73	0x384aad79	4.8322112e-05
74	0x3845f24d	4.719412e-05
75	0x372a8102	1.0162827e-05
76	0x00000000	0.0
77	0x00000000	0.0
78	0x00000000	0.0
79	0x00000000	0.0
80	0x00000000	0.0
81	0x00000000	0.0
82	0x00000000	0.0
83	0x00000000	0.0
84	0x366d0a3b	3.5321707e-06
85	0x372bd3cb	1.0241706e-05
86	0x375dd38a	1.3221879e-05
87	0x383a125d	4.4362958e-05
88	0x36621691	3.368976e-06
89	0x3240089c	1.1177828e-08
90	0x31875093	3.9381773e-09
91	0x333e7ea1	4.435299e-08
92	0x380d626e	3.370869e-05
93	0x37802bb0	1.5279133e-05
94	0x37612f46	1.3422052e-05
95	0x379e1f8d	1.884976e-05
96	0x37176cf1	9.025666e-06
97	0x36660ed0	3.4281293e-06
98	0x365b140c	3.2645212e-06
99	0x36816c78	3.857127e-06
100	0x37364dbc	1.0866144e-05
101	0x378d9fe1	1.688296e-05
102	0x377bf419	1.5017599e-05
103	0x3684f8bc	3.962863e-06
104	0x35f5121e	1.8259195e-06
105	0x33ce81d6	9.6162395e-08
106	0x33d6698b	9.98435e-08
107	0x36b0a6ce	5.2646274e-06
108	0x376ecb8e	1.4233299e-05
109	0x36bd8513	5.648131e-06
110	0x36b34e95	5.343764e-06
111	0x36ddc653	6.609401e-06
112	0x00000000	0.0
113	0x00000000	0.0
114	0x00000000	0.0
115	0x00000000	0.0
116	0x380cf61d	3.3607812e-05
117	0x36cfd978	6.1943974e-06
118	0x36d4a278	6.337006e-06
119	0x38257e60	3.945676e-05
120	0x369e87c9	4.7245744e-06
121	0x36bea4ad	5.681612e-06
122	0x36dbb561	6.547824e-06
123	0x383cc754	4.500833e-05
124	0x00000000	0.0
125	0x00000000	0.0
126	0x00000000	0.0
127	0x00000000	0.0
128	0x370e8341	8.4944195e-06
129	0x373b958c	1.1180888e-05
130	0x373e5ded	1.1346751e-05
131	0x36e2d246	6.759804e-06
132	0x00000000	0.0
133	0x00000000	0.0
134	0x00000000	0.0
135	0x00000000	0.0
136	0x37b6536b	2.1734935e-05
137	0x381d8ea5	3.7564565e-05
138	0x3820a12b	3.8297072e-05
139	0x37bf330d	2.2792747e-05
140	0x313666d2	2.6542932e-09
141	0x2e0ac6c5	3.155411e-11
142	0x2dee4f5e	2.7092713e-11
143	0x312a285d	2.47612e-09
144	0x374d67a1	1.224308e-05
145	0x37a732c5	1.9931593e-05
146	0x37bd3813	2.2556667e-05
147	0x37c7c7f3	2.3815757e-05
148	0x3764b183	1.3631189e-05
149	0x369dce7d	4.703003e-06
150	0x369c850c	4.664651e-06
151	0x374196e1	1.1538826e-05
152	0x384a7486	4.8269074e-05
153	0x36cef14d	6.1673695e-06
154	0x36dc6e88	6.5693785e-06
155	0x37c020b4	2.2903412e-05
156	0x3773cca8	1.4531579e-05
157	0x37abce58	2.0480875e-05
158	0x37b16872	2.114868e-05
159	0x372573b3	9.861705e-06
160	0x37d43538	2.5297151e-05
161	0x370d22b3	8.412334e-06
162	0x370dd2d2	8.45334e-06
163	0x37efb9a0	2.8577459e-05
164	0x37c18efe	2.3073979e-05
165	0x36aba817	5.1157654e-06
166	0x36a222fe	4.83205e-06
167	0x3745c90c	1.1788925e-05
168	0x37c70c5d	2.3728406e-05
169	0x36d64c95	6.3866123e-06
170	0x37000c6e	7.6322885e-06
171	0x36cb3462	6.0559696e-06
172	0x35a493e7	1.2261997e-06
173	0x35f81714	1.8484156e-06
174	0x36130eca	2.1913315e-06
175	0x3726a25d	9.932174e-06
176	0x36cebf48	6.1615465e-06
177	0x3731eebe	1.0605609e-05
178	0x375ba35a	1.30914505e-05
179	0x379a33fe	1.8382441e-05
180	0x00000000	0.0
181	0x00000000	0.0
182	0x00000000	0.0
183	0x00000000	0.0
184	0x3816e9aa	3.5980403e-05
185	0x36cc675f	6.0917077e-06
186	0x36b16031	5.286209e-06
187	0x36e5bdd5	6.846831e-06
188	0x37c0c4f4	2.2979897e-05
189	0x36b8d2e5	5.5081787e-06
190	0x369f0cb9	4.7400504e-06
191	0x36782d5b	3.698128e-06
192	0x37cd4a1a	2.447241e-05
193	0x36e87675	6.927929e-06
194	0x36c45555	5.851189e-06
195	0x36cc87a7	6.095466e-06
196	0x00000000	0.0
197	0x00000000	0.0
198	0x00000000	0.0
199	0x00000000	0.0
200	0x37008a13	7.661542e-06
201	0x35b931ed	1.3798104e-06
202	0x35b494f6	1.3454398e-06
203	0x36d74cac	6.416425e-06
204	0x00000000	0.0
205	0x00000000	0.0
206	0x00000000	0.0
207	0x00000000	0.0
208	0x3703bf75	7.8527855e-06
209	0x37320883	1.0611609e-05
210	0x375c37a8	1.312598e-05
211	0x37aa9763	2.0336074e-05
212	0x3685df8f	3.9897345e-06
213	0x37405283	1.1463303e-05
214	0x375a7466	1.3020914e-05
215	0x37977202	1.8053692e-05
216	0x37a5e012	1.9773874e-05
217	0x3799c94c	1.8332757e-05
218	0x378a5aac	1.6493104e-05
219	0x36b56563	5.4060233e-06
220	0x3791cb53	1.7380027e-05
221	0x36913016	4.3269347e-06
222	0x368f7a4f	4.2759707e-06
223	0x3706ccfe	8.034751e-06
224	0x35c19175	1.4421954e-06
225	0x362da6c5	2.5876082e-06
226	0x362ce279	2.5761822e-06
227	0x3629701b	2.5248216e-06
228	0x3688a3a1	4.0721648e-06
229	0x367922e6	3.7124205e-06
230	0x369e7be4	4.7231897e-06
231	0x3837e343	4.3842254e-05
232	0x37976dce	1.8051735e-05
233	0x382cbf5f	4.1186224e-05
234	0x382a5937	4.0614246e-05
235	0x379687f8	1.7944709e-05
236	0x389266d2	6.980974e-05
237	0x3761c7ef	1.3457596e-05
238	0x37374b0b	1.0925122e-05
239	0x36f1ef8f	7.210248e-06
240	0x00000000	0.0
241	0x00000000	0.0
242	0x00000000	0.0
243	0x00000000	0.0
244	0x3683f802	3.932976e-06
245	0x37472cb4	1.1871733e-05
246	0x375f1088	1.3295685e-05
247	0x37313726	1.0562862e-05
248	0x37568afc	1.2787754e-05
249	0x37a8dc83	2.0129844e-05
250	0x37a4fa1b	1.9666788e-05
251	0x37a085f0	1.9135856e-05
252	0x00000000	0.0
253	0x00000000	0.0
254	0x00000000	0.0
255	0x00000000	0.0

exp_avg f4 [128]
0	0x3731fd18	1.060895e-05
1	0x00000000	0.0
2	0xba40ecde	-0.0007359515
3	0xbaad00aa	-0.001319905
4	0x39a439f8	0.00031323708
5	0xbaaec7d1	-0.0013334696
6	0x386608ae	5.4844357e-05
7	0xba39f57f	-0.0007093772
8	0x00000000	0.0
9	0x00000000	0.0
10	0xb917f7f4	-0.00014492852
11	0xb9cdcfc9	-0.0003925546
12	0xb72b34f6	-1.0204725e-05
13	0xbaa8dd6e	-0.0012883374
14	0x396c2b77	0.00022522906
15	0x00000000	0.0
16	0x00000000	0.0
17	0xb868bee2	-5.5490884e-05
18	0xbaac4706	-0.0013143725
19	0x00000000	0.0
20	0x00000000	0.0
21	0xb9349b96	-0.00017224098
22	0xb9f7eac9	-0.0004728644
23	0xba971102	-0.0011525454
24	0xba3941e3	-0.0007067008
25	0xb936e5b0	-0.00017442438
26	0xba49727a	-0.00076846
27	0x391476c8	0.0001415863
28	0x00000000	0.0
29	0xb987f18b	-0.0002592917
30	0x390d0490	0.00013448508
31	0x00000000	0.0
32	0xba4a23cd	-0.0007711023
33	0x00000000	0.0
34	0xbabc420d	-0.0014362946
35	0xb9e34782	-0.0004335009
36	0x38d187e4	9.991208e-05
37	0xb9f4a87e	-0.00046664843
38	0xba6803eb	-0.00088506815
39	0xba785527	-0.0009473138
40	0xb8873436	-6.447027e-05
41	0x38928b8e	6.9878166e-05
42	0xb9f4e4fd	-0.00046709916
43	0xba410584	-0.00073631876
44	0xb9d2bd75	-0.00040195478
45	0x00000000	0.0
46	0x3818e516	3.6452977e-05
47	0xb6e1263c	-6.7099736e-06
48	0xb987de7c	-0.0002591497
49	0x00000000	0.0
50	0xb99f435d	-0.00030377033
51	0x00000000	0.0
52	0x38b5b4b4	8.664411e-05
53	0x39690a6a	0.00022224491
54	0x3947fb44	0.00019071723
55	0xba3ef461	-0.000728434
56	0xbad05cec	-0.0015896834
57	0xb987c53d	-0.0002589616
58	0xbad5042b	-0.0016251853
59	0xba8b7476	-0.0010639566
60	0x00000000	0.0
61	0x396957a5	0.00022253262
62	0xba96a412	-0.0011492989
63	0x00000000	0.0
64	0x00000000	0.0
65	0x00000000	0.0
66	0xb9bdfac8	-0.00036235736
67	0xb9e9d5dc	-0.0004460056
68	0x38f0437a	0.0001145666
69	0xbadcc30d	-0.0016842798
70	0xb9a73ba6	-0.00031897164
71	0x00000000	0.0
72	0xb891f2ee	-6.959388e-05
73	0xb98fc704	-0.00027423364
74	0xb9b13ebf	-0.0003380682
75	0x00000000	0.0
76	0xba62f8bf	-0.0008658282
77	0xb8075459	-3.2265063e-05
78	0x39b7e9fc	0.00035078812
79	0x00000000	0.0
80	0xba41b0ab	-0.00073886913
81	0x38a4ee10	7.864472e-05
82	0xba47e44f	-0.0007625268
83	0xbac8eae4	-0.0015328792
84	0xb99ddaa4	-0.00030108273
85	0xb9a102e6	-0.00030710472
86	0x00000000	0.0
87	0x39961e86	0.0002863297
88	0xba0fde82	-0.00054881733
89	0xb95f7236	-0.00021309484
90	0xba1eb323	-0.0006053915
91	0xb9efec86	-0.00045761856
92	0x38c2e19b	9.292663e-05
93	0xb8dad08c	-0.00010433895
94	0xba33bddb	-0.0006856599
95	0x38b18536	8.46483e-05
96	0xb9bd3242	-0.00036086334
97	0xb9dd330d	-0.0004219044
98	0xb9888f65	-0.0002604678
99	0x00000000	0.0
100	0x00000000	0.0
101	0xb96a487b	-0.0002234298
102	0xb9b76e51	-0.00034986672
103	0xb970fa7a	-0.00022981493
104	0xb7f66e76	-2.9376923e-05
105	0xb9d7d003	-0.00041162976
106	0xba47bdb1	-0.0007619514
107	0x00000000	0.0
108	0xbade5702	-0.0016963186
109	0xba61c87e	-0.00086129445
110	0x381f3c2a	3.7964586e-05
111	0xba80cf6d	-0.0009827443
112	0xbab2dca9	-0.0013646084
113	0x39435970	0.00018629967
114	0x00000000	0.0
115	0xb993d80d	-0.00028198995
116	0x381a0984	3.6725323e-05
117	0x00000000	0.0
118	0xb9e149f8	-0.00042970455
119	0x364a8ae0	3.0181182e-06
120	0xba4bf1d5	-0.0007779871
121	0xba1dba32	-0.000601682
122	0xba80cc19	-0.0009826451
123	0xba6aff39	-0.0008964423
124	0xba09efd2	-0.0005261871
125	0xba2596e7	-0.00063167367
126	0xba996a61	-0.0011704677
127	0xba080b63	-0.0005189685

exp_avg_sq f4 [128]
0	0x3757002d	1.281504e-05
1	0x00000000	0.0
2	0x37a268f5	1.936078e-05
3	0x387283b0	5.781994e-05
4	0x36cc90cb	6.09653e-06
5	0x383c212b	4.4853583e-05
6	0x371a4c86	9.196932e-06
7	0x37800cd7	1.5264768e-05
8	0x00000000	0.0
9	0x00000000	0.0
10	0x35f05e30	1.7908806e-06
11	0x3705737d	7.954307e-06
12	0x361408a9	2.205876e-06
13	0x38106fce	3.44364e-05
14	0x369b9281	4.6364153e-06
15	0x00000000	0.0
16	0x00000000	0.0
17	0x35f64036	1.8347116e-06
18	0x3828213f	4.0085284e-05
19	0x00000000	0.0
20	0x00000000	0.0
21	0x3708cbb0	8.153656e-06
22	0x376f2c89	1.4255879e-05
23	0x3837feb9	4.386783e-05
24	0x37381599	1.0972283e-05
25	0x366ba91b	3.5116161e-06
26	0x373b288c	1.1155509e-05
27	0x35d80714	1.6095314e-06
28	0x00000000	0.0
29	0x37b26159	2.1264585e-05
30	0x3683d864	3.9292954e-06
31	0x00000000	0.0
32	0x3786ee32	1.6084963e-05
33	0x00000000	0.0
34	0x386060b0	5.349581e-05
35	0x37399663	1.1061874e-05
36	0x36fd2ce5	7.545214e-06
37	0x370456a5	7.887987e-06
38	0x382225dc	3.865907e-05
39	0x37bc83f6	2.2472796e-05
40	0x36ae5fd7	5.1967613e-06
41	0x368b8590	4.1580715e-06
42	0x371a4e92	9.197409e-06
43	0x377106a1	1.4366263e-05
44	0x36eaf5fa	7.002379e-06
45	0x00000000	0.0
46	0x36354d4a	2.701609e-06
47	0x35c6defd	1.4817048e-06
48	0x36a7cdc2	5.000941e-06
49	0x00000000	0.0
50	0x3666879a	3.4351601e-06
51	0x00000000	0.0
52	0x367d1b33	3.771577e-06
53	0x361ac9ef	2.306533e-06
54	0x36ae3039	5.191218e-06
55	0x3792d4db	1.7503675e-05
56	0x377729ee	1.473211e-05
57	0x36c5aeeb	5.8914206e-06
58	0x38587a05	5.1612053e-05
59	0x3868b634	5.54828e-05
60	0x00000000	0.0
61	0x36688d87	3.4653074e-06
62	0x3801889a	3.0883217e-05
63	0x00000000	0.0
64	0x00000000	0.0
65	0x00000000	0.0
66	0x36f05491	7.162402e-06
67	0x36b90489	5.5139576e-06
68	0x35af4ed7	1.3061461e-06
69	0x3889c0ad	6.568558e-05
70	0x36bcd8b0	5.6280624e-06
71	0x00000000	0.0
72	0x35bcdd60	1.407152e-06
73	0x375972b1	1.2960912e-05
74	0x36b73660	5.460155e-06
75	0x00000000	0.0
76	0x37b751b2	2.1853342e-05
77	0x356c0199	8.7919176e-07
78	0x36deaec0	6.636459e-06
79	0x00000000	0.0
80	0x3776c8f7	1.4709533e-05
81	0x37aad3d9	2.0364228e-05
82	0x379cf4e4	1.8710685e-05
83	0x3851671d	4.9925515e-05
84	0x369c2f27	4.6546515e-06
85	0x3694949e	4.428045e-06
86	0x00000000	0.0
87	0x3710e60c	8.636631e-06
88	0x377605e3	1.4664113e-05
89	0x364d908f	3.0631525e-06
90	0x37c32925	2.326497e-05
91	0x375a42d3	1.3009371e-05
92	0x36a0bb17	4.7901517e-06
93	0x36a2e376	4.854456e-06
94	0x38012156	3.0787043e-05
95	0x35da1fcd	1.6251521e-06
96	0x36718bb2	3.5993112e-06
97	0x37213ac1	9.6100275e-06
98	0x36812358	3.848614e-06
99	0x00000000	0.0
100	0x00000000	0.0
101	0x379734d4	1.8025203e-05
102	0x36c1eb1a	5.7792176e-06
103	0x3799b875	1.8324916e-05
104	0x35cf0db1	1.5426687e-06
105	0x3749d8a9	1.2030979e-05
106	0x378a75de	1.6505768e-05
107	0x00000000	0.0
108	0x384816c0	4.7704903e-05
109	0x37e6f0d1	2.7530275e-05
110	0x367587fe	3.6587003e-06
111	0x37a3eef1	1.954238e-05
112	0x383ee9b6	4.551719e-05
113	0x366625c1	3.4294646e-06
114	0x00000000	0.0
115	0x36bf4c7f	5.701149e-06
116	0x369203fe	4.351604e-06
117	0x00000000	0.0
118	0x37c5d4aa	2.358326e-05
119	0x35f08878	1.7921111e-06
120	0x379d5c32	1.875879e-05
121	0x37683d33	1.3842527e-05
122	0x37ca2368	2.4096764e-05
123	0x37c044e7	2.2920269e-05
124	0x37068fb2	8.020479e-06
125	0x373e9931	1.136055e-05
126	0x37ee6404	2.8418384e-05
127	0x378a1977	1.646274e-05
