models/model_20250801_111659_lr0.0001.pth (torch, 127058 bytes, 18 tensors)

fc1.weight f4 [128, 4]
000000 ab 1e 6b 3c ab 7b b1 be 95 1d 9f be 69 46 27 3f
       0.0143505735 -0.34664664 -0.31077257 0.6534181
000010 32 a6 0f bf a0 68 b5 3e 86 e5 fe 3e 50 44 62 3e
       -0.5611297 0.35431385 0.49784487 0.22096372
000020 53 8a 17 bf b0 84 53 3d 2c cd 26 3d 13 97 0a bd
       -0.5919544 0.051640213 0.04072301 -0.03383548
000030 7f 64 b8 be 42 73 04 3f f2 f0 05 3f 2a ea 4f 3d
       -0.36014172 0.5173837 0.5232078 0.050760426
000040 bb ad 02 bf 99 31 ed 3c 36 d7 7b be 3b 58 8f 3e
       -0.5104634 0.028954314 -0.24593815 0.27997002
000050 59 04 c2 3e 3d 21 b0 be 72 bb 86 3d f9 3d 62 bd
       0.37893942 -0.3440036 0.06578721 -0.055234883
000060 fa 66 ed 3c 3d 8a 5b 3e e6 8b 17 be d8 c5 bd be
       0.028979767 0.21439452 -0.14799461 -0.37065005
000070 2f 24 b1 3e 75 c7 67 3e 94 da 39 bd 63 68 09 bf
       0.34597918 0.2263468 -0.045374468 -0.53674906
000080 57 3f e9 3e 3b 75 dc 3e f9 84 e3 3e 9a f2 07 be
       0.45556137 0.4305819 0.44437388 -0.13276139
000090 e5 7a 6d 3e e1 ef 1f 3f 1d 2f a5 3e 2e 3b 4e be
       0.23191412 0.624754 0.32262507 -0.20139763
0000a0 ad 60 b9 3e aa b4 b4 bd 37 a0 92 be 71 12 d0 3e
       0.3620657 -0.088235214 -0.2863786 0.4063907
0000b0 86 3c 38 3e db f4 aa 3e 12 a6 af be 71 87 a0 be
       0.17991838 0.33389935 -0.3430639 -0.31353334
0000c0 96 d7 e7 3e 0a 4d 21 3c 4b cb 14 3e d0 bf d7 be
       0.45281667 0.009845028 0.14530675 -0.4213853
0000d0 3f 89 72 bd eb 24 9e be 0e 5b 3f 3e ee 01 da be
       -0.05921292 -0.3088754 0.18687078 -0.42579597
0000e0 4d 9a ee be 17 3a bd 3e 73 f9 ba bd d2 35 f9 bd
       -0.46602097 0.36958382 -0.0912961 -0.121684685
0000f0 23 ea ce be e8 87 3f be 58 a2 b4 3d 35 54 12 bf
       -0.40413007 -0.18704188 0.08820027 -0.5715974
000100 a5 a5 25 3f 49 c0 f4 3e 60 f2 11 3f db 30 16 3d
       0.6470588 0.47802952 0.5701046 0.036667686
000110 f4 7c 09 3f 30 94 9d 3e 69 03 c7 3e cf b7 16 bf
       0.5370629 0.3077712 0.3886979 -0.5887422
000120 6b 84 9d 3e c4 8d 8d 3e ab 4b 92 be bd f6 c2 be
       0.3076509 0.2764722 -0.28573355 -0.3807887
000130 5c 7f fc 3e 27 17 5a 3e 13 6f df 3e a5 6d 94 3e
       0.49315917 0.21297894 0.4363943 0.28989902
000140 24 46 de be 61 39 ff 3e ae 56 df 3d 16 12 b4 3e
       -0.43412888 0.49848464 0.10905205 0.35170048
000150 e6 b5 04 bf ef 37 96 bd ab 7a f8 bd 8e 8c 71 3e
       -0.51840055 -0.07334887 -0.12132772 0.23588774
000160 b0 1e 2e 3e de 34 1b bb 7f 17 19 3e 85 13 eb be
       0.17003894 -0.0023682634 0.1495037 -0.4591333
000170 51 20 cf be 71 fa bb 3e 31 a1 49 be b1 49 a4 3c
       -0.40454343 0.3671451 -0.19690396 0.02005467
000180 e8 f6 e4 be 2e fd 05 3f 60 63 27 be 86 ac 6b bd
       -0.44719625 0.52339447 -0.16346502 -0.057537578
000190 e1 2b 25 3f 7d 4f d5 3e 37 df 31 3f e2 3f cc 3e
       0.6452008 0.41662207 0.69481224 0.3989249
0001a0 19 0b 49 be 07 ea d1 be 7b 15 09 bf 9d 60 d1 be
       -0.1963314 -0.4099886 -0.535484 -0.40894023
0001b0 e1 1d e3 be 72 40 df 3e 0d 91 23 3f 30 0b ba 3e
       -0.44358733 0.43603855 0.63893205 0.3633666
0001c0 af 7d 2e 3c fc 64 23 3f 7f 07 2c 3f 8d 07 91 be
       0.0106500825 0.63825965 0.6719894 -0.28326073
0001d0 00 3d b3 3d 55 13 8f 3e ee 8a 2a be a4 4b 2e 3f
       0.08751869 0.27944437 -0.1665456 0.6808417
0001e0 15 b2 5d be d7 b2 2e 3d 69 56 23 3f 93 97 4c 3e
       -0.21649964 0.042651024 0.63803726 0.19979696
0001f0 49 a7 8d 3e a4 4e 01 3f 13 59 c7 3e d1 c3 25 3d
       0.2766669 0.5051062 0.38935146 0.04046995
000200 cf 8a 0c 3f a6 7a b7 be cd bf 80 3d 88 5e 9e 3e
       0.54899305 -0.3583576 0.06286583 0.30931497
000210 50 db 08 bf 3f ca ad 3b a2 3e 87 3e 3a 56 c4 3e
       -0.53459644 0.0053036506 0.26414973 0.38347036
000220 68 a1 a2 3e 18 37 23 3f da fd 9c bd 67 b8 0a be
       0.31763768 0.6375594 -0.07665606 -0.13546906
000230 3a 71 1e 3f d1 b3 f2 3d 59 0d a2 be 4f 5c d7 3e
       0.6189152 0.118507035 -0.31650808 0.42062613
000240 dc 14 c8 be d3 f1 1d bf a5 9a cd be 64 f2 fa 3e
       -0.39078414 -0.6169712 -0.40157047 0.49013054
000250 da 96 6b bd 61 af 80 be 7d ca 0b 3f 5d 78 0e 3f
       -0.05751691 -0.25133803 0.5460585 0.5565241
000260 41 fe db 3e 71 5a ca 3e d6 2a d3 3d 4a e9 36 be
       0.42967418 0.39522126 0.10310905 -0.1786243
000270 73 d4 b6 3d c2 a7 0d 3f df a8 11 3e cb 97 a5 be
       0.0892724 0.55334103 0.14224575 -0.3234237
000280 40 2a 28 3f bb e7 c3 3e 3d 21 e1 be 57 c5 47 be
       0.6568947 0.38262734 -0.4397067 -0.19508873
000290 44 50 9d 3e d9 17 22 3f f7 ee 00 3f 92 e6 92 be
       0.307253 0.6331764 0.5036463 -0.28691536
0002a0 f7 3c f8 3e e0 27 28 3f b4 92 90 3e b1 75 16 3f
       0.48484012 0.65685844 0.28236926 0.5877333
0002b0 5a 23 6d 3d fc e5 8a be b9 3e cc be 42 f1 03 bd
       0.057895042 -0.2712859 -0.39891604 -0.032212503
0002c0 23 a7 3b 3e 08 85 5e be ac 2c 9c 3d c7 c9 41 be
       0.18325476 -0.21730435 0.07625708 -0.18924628
0002d0 96 5d df be 51 03 19 3f 62 42 28 3d 34 a5 8e 3c
       -0.43626088 0.59770685 0.041078933 0.01741276
0002e0 6f 8d 0d 3f b7 96 7a be 80 46 47 be 7c 02 8d 3e
       0.55293936 -0.24471556 -0.19460487 0.27540958
0002f0 1f 1f af 3e 29 05 17 be 8e c7 b1 be da 78 86 3e
       0.3420343 -0.14748062 -0.3472256 0.26264077
000300 3d d9 0d 3f 37 c7 22 3e e9 ce 0d 3f cb 2b 81 bd
       0.55409604 0.15896307 0.55393845 -0.06307181
000310 ca c5 8a be 5e 10 9e 3e b2 d5 d8 bd cb f6 48 be
       -0.27104026 0.30871862 -0.10587634 -0.19625394
000320 90 e4 05 3d 40 cc d3 3c b0 2f 2c bd b8 e7 ff 3d
       0.032688677 0.02585423 -0.042037666 0.12495369
000330 e2 ae 18 3e e7 a3 0e be d3 a1 98 bc 3f be 41 be
       0.14910462 -0.13929711 -0.018631851 -0.1892023
000340 b1 2a 13 bf d8 ea ba be 22 a2 72 3e 99 7d b5 3e
       -0.57487017 -0.36507297 0.23694661 0.35447386
000350 f4 25 ea 3d a0 51 4c 3d ed 7a d2 3e 7d ed 07 3f
       0.1143302 0.04988253 0.4110941 0.53096753
000360 fd 82 69 be 45 a8 e3 3e 31 a6 9d be 69 fe 0e 3f
       -0.22803874 0.44464317 -0.30790856 0.5585695
000370 33 2b 72 3e e2 8d 9c 3e ab dc b7 bd d1 83 e2 be
       0.23649292 0.30576998 -0.08977636 -0.44241193
000380 d2 32 09 3f cb 67 56 be 86 b5 65 3e 88 60 e5 be
       0.5359317 -0.20938031 0.22432527 -0.4480021
000390 39 aa 9a 3e dc 22 0e 3e 30 b6 bb be a2 22 03 3f
       0.30207995 0.13880485 -0.36662436 0.5122472
0003a0 47 5e b2 3e e1 fc b0 3e d9 6e a2 be bc c5 d4 be
       0.34837553 0.3456793 -0.31725195 -0.4155711
0003b0 77 01 12 3f e9 da b8 3d b7 ab a5 3e 0a bd 21 3e
       0.57033485 0.09026129 0.3235757 0.15794769
0003c0 60 2f 1e bf fb af a4 be fb 02 8b bd 00 c0 42 3e
       -0.6179104 -0.32165512 -0.06787678 0.19018555
0003d0 35 ab 2f be b4 1b 01 be 65 39 43 be ab e3 ee 3e
       -0.17155154 -0.12608224 -0.19064863 0.46658072
0003e0 69 5c a6 bd 05 9a f1 3e 90 2f d0 3c ae f6 9c be
       -0.081230946 0.4718782 0.025413305 -0.30656952
0003f0 25 49 e2 be e9 02 d2 be 97 ff 4c be 40 07 8c be
       -0.4419643 -0.41017845 -0.20019375 -0.2734928

fc1.bias f4 [128]
000000 f0 78 24 3f f9 9e 06 3f 3c 7d ea bd 79 8d 0d bd
       0.64247036 0.52586323 -0.11449668 -0.034558747
000010 33 bb 79 3e ac 76 d6 3e c3 45 3f 3f b1 fa c8 3e
       0.24387817 0.41887414 0.7471582 0.39253762
000020 90 10 05 bf f5 78 c3 be c5 4b 9a 3e a9 19 bc 3e
       -0.519784 -0.3817822 0.30135933 0.36738327
000030 23 67 29 3f 5f f9 8d 3e 95 bc 4b 3f 2e 3f ac 3e
       0.66173 0.27729318 0.7958463 0.33641952
000040 84 ce d6 be b4 87 29 3f ab d9 32 3f c5 e4 29 be
       -0.41954434 0.6622269 0.69863385 -0.16591175
000050 22 79 1c 3e c0 0c 8e 3e f6 5c b9 3e 87 fa 28 3f
       0.15280584 0.27744102 0.36203736 0.66007274
000060 95 eb 10 3f 9c 09 9a 3e 67 01 d3 be 5c 77 e5 bd
       0.5660947 0.30085456 -0.41212007 -0.112044066
000070 17 5d e6 3e 0a 3a 89 be 0a 46 84 be 42 f3 ff 3e
       0.44992897 -0.26802093 -0.25834686 0.49990278
000080 e9 cc 29 3d b0 16 2a 3f d0 3f 0c be 56 15 a0 be
       0.041455183 0.6644087 -0.13696218 -0.31266278
000090 b8 fd ec bd f5 8a 86 3e 85 55 29 be 5f c8 32 be
       -0.115718305 0.2627789 -0.1653653 -0.17459248
0000a0 e4 55 d1 3e 84 46 7c 3e 1f 54 ac be 7b 84 fb 3e
       0.40885842 0.24636275 -0.3365793 0.49124512
0000b0 fe b3 14 3f c1 58 c7 bd ea 27 01 be 78 df 0e 3f
       0.58087146 -0.09733725 -0.12612882 0.55809736
0000c0 44 7e a9 3e 68 3f b7 be fa 85 d7 be b8 dd 17 3f
       0.33104146 -0.35790563 -0.42094404 0.5932269
0000d0 08 0b 19 3f 83 8a b6 be bf 72 14 3f 71 ec 3b 3f
       0.5978246 -0.3565255 0.5798759 0.73407656
0000e0 a6 55 3d 3f 3e 79 b4 bd ad 8c 27 3f 9b 08 8c be
       0.73958814 -0.088121876 0.6544903 -0.27350315
0000f0 ac eb 1c 3f ce 4a 17 3f c0 54 5b 3e 8e ac d9 be
       0.61297107 0.5909852 0.21419048 -0.4251446
000100 24 fb 38 3f 6f 5d 3b be f8 90 70 bd 68 b8 f1 3e
       0.7225821 -0.18297361 -0.058732003 0.47211003
000110 0d 9b 16 3f ce 98 b5 be c6 c1 67 3d 2a f6 3f 3e
       0.5883034 -0.35468143 0.05658128 0.18746248
000120 79 9e af 3e 66 2e 19 bf 33 d6 62 3e da f4 33 3d
       0.34300593 -0.59836423 0.22152023 0.04393468
000130 c6 0e 1a 3f d7 75 17 3e 9a 99 11 3f 6c cd b6 be
       0.6017879 0.14791046 0.56875 -0.357036
000140 b0 4b 63 be da 09 4d 3e 5a a0 04 3f a9 fa 87 3d
       -0.22196841 0.2002329 0.5180718 0.066396065
000150 bf d9 ca 3d be 98 1b 3f 1a 3b 83 be 72 f4 c2 be
       0.09904813 0.6077994 -0.25631028 -0.38077122
000160 51 ab 25 bd 92 10 e8 be 30 c1 61 3e 0e 2c b1 3e
       -0.040446583 -0.45325142 0.22046351 0.34603924
000170 b3 e5 0b 3f 9c 61 a1 be 86 6b 02 bf 6a e5 16 3f
       0.5464737 -0.31519783 -0.5094532 0.5894381
000180 6e 01 b9 3e 2e 85 38 3f ad 85 af be 0f 30 2e 3f
       0.36133903 0.72078216 -0.34281674 0.6804208
000190 f1 4e b6 3e 1c bc 3b 3f c7 65 01 3f 67 c2 80 3c
       0.35607103 0.7333391 0.50545925 0.015717698
0001a0 a2 d1 0e 3e 9f de 32 3f 16 97 15 be 9d d2 0f 3e
       0.13947156 0.6987094 -0.14608416 0.14045186
0001b0 e2 a5 23 3e d2 95 2c 3f b5 24 91 3e 17 a4 95 3e
       0.15981248 0.6741611 0.28348318 0.29226753
0001c0 d5 45 a1 be 8a b7 42 3f 20 e3 1e 3f b3 32 93 3e
       -0.3149859 0.7606131 0.62065315 0.28749618
0001d0 a4 cf 8b 3e 97 bf 20 3f fd bc bf 3e aa 0f 96 3e
       0.27306855 0.6279234 0.37448874 0.29308826
0001e0 ea e1 0c 3f 55 9f aa be 0f 84 4d 3e 36 6f 70 be
       0.5503222 -0.33324686 0.20069908 -0.23479924
0001f0 02 b8 d0 bd 32 92 e8 3e 10 75 9c 3d df 1e 34 3f
       -0.10191347 0.45424038 0.076395154 0.70359606

fc2.weight f4 [64, 128]
000000 7a 3c 7f bd 02 cb 23 3e 30 94 01 be da 12 57 3e
       -0.062313534 0.1599541 -0.12654185 0.21003285
000010 80 00 03 be 1b dc 8f bc 0d 2e 0e bd 6a 49 86 3d
       -0.1279316 -0.01756101 -0.034711886 0.06556971
000020 74 cf b2 3d f1 9f 56 3d 4e aa 0e 3c 1a 7e 81 bc
       0.08730975 0.052398626 0.008707596 -0.0158072
000030 b5 44 6b 3d 42 68 85 be 99 70 aa bc 19 24 64 be
       0.05743857 -0.26056105 -0.020805644 -0.22279395
000040 d9 c2 16 3e 85 50 e7 3d 95 cb 68 3b a6 d2 5b 3d
       0.14722766 0.11294655 0.0035521735 0.053667687
000050 2f 0a 06 3e ec ed 53 be 92 a6 02 3d 3e a0 32 3d
       0.13089822 -0.20696229 0.031897135 0.04360985
000060 73 9d ce 3d ac 6b ea 3d 6b 1f 6a 3b 1e 3f 1a 3e
       0.10088625 0.11446318 0.0035724293 0.1506314
000070 e8 82 3e 3e 07 d1 63 3d dd 63 89 3e 38 28 2e 3d
       0.18604624 0.055619266 0.26834002 0.042518824
000080 3d 16 bc bc fa f5 4f 3d db c4 ac 3d 00 f8 12 be
       -0.022959823 0.05077169 0.08435985 -0.14352417
000090 8f 53 62 be 8b 6f 5c 3c 26 34 d1 3d 44 65 4d 3e
       -0.22102188 0.013454328 0.10215025 0.20058161
0000a0 f3 3b 20 bd b1 2c 3a 3e 44 10 27 3e 1a 2d 62 be
       -0.039119672 0.18181111 0.16314799 -0.22087517
0000b0 f9 88 8c bc 45 d4 41 3e 82 9c 89 be 28 4d c1 bc
       -0.017155157 0.1892863 -0.26877218 -0.023596361
0000c0 50 17 b9 3d f2 56 8e bc 20 59 ae bb 35 a1 1b be
       0.0903765 -0.017375443 -0.005320683 -0.15198214
0000d0 57 36 1b be bc 65 1e 3d 86 dc dd 3d 72 c2 41 3d
       -0.15157448 0.03867124 0.10833077 0.047304578
0000e0 a0 5d 70 bd f7 3a 72 bd db 33 dc bd e8 fd a8 3d
       -0.058683038 -0.059138265 -0.10752078 0.08251554
0000f0 2a 22 06 be ce 34 14 be c3 2f ee 3d 91 c6 b0 3d
       -0.1309897 -0.14473268 0.116302036 0.086316235
000100 f3 94 7e bd 28 7c 04 3e f6 a2 d7 3d a2 52 08 3d
       -0.062153768 0.12937987 0.10529129 0.03328193
000110 ea b8 91 bd b2 2b e5 3c 39 64 dc 3d d9 14 7a be
       -0.07115348 0.027974937 0.107613035 -0.24422015
000120 83 25 aa 3d 90 c4 b4 3d 49 8f 99 be 20 b3 99 3c
       0.08307936 0.08826554 -0.2999213 0.018762171
000130 b4 17 6f bd 9a 14 a1 3d f5 97 3e be 33 69 b3 3b
       -0.058372214 0.078652576 -0.18612655 0.005475187
000140 27 d7 58 3d fe 50 a5 bd 07 13 cf 3c fe 09 8b bd
       0.05293956 -0.08072089 0.025277628 -0.06789015
000150 ca 8a 93 bd be c3 47 3d 9a 15 4b 3e 29 bf 7a bc
       -0.07204206 0.04877066 0.19832459 -0.015304365
000160 c2 e2 a3 3d 05 04 a2 3d ff b0 97 be 04 c8 b3 3d
       0.08002235 0.07910923 -0.29627225 0.08778384
000170 f6 af 0d 3d 25 8f a8 bd 39 a4 04 3e f7 df 29 3b
       0.034591638 -0.08230428 0.12953271 0.0025920847
000180 6b 89 21 3d fa 8f 04 3e 6b ae d1 bd 9e 4c 5c 3d
       0.039437693 0.12945548 -0.10238346 0.053784005
000190 7c 22 27 3d 9b 2f ad bd 92 65 dc 3d 84 5b e6 3d
       0.04080437 -0.08456346 0.107615605 0.11247924
0001a0 aa fa ba 3d 34 0d 3e be 11 5d 36 3e 23 5e 0a 3d
       0.091298416 -0.18559724 0.1780894 0.033781182
0001b0 16 fa 17 3e 28 2e 3e bd 4f 0a 14 3e 2c 31 66 bc
       0.14841494 -0.046430737 0.14457057 -0.014049809
0001c0 70 e8 36 bd aa e4 5c 3d 23 6a c3 3c da 15 84 bd
       -0.044655263 0.05392901 0.02385432 -0.0644948
0001d0 08 7b 8c bc 36 d1 65 be 07 a7 29 3d 44 b0 78 3d
       -0.01714851 -0.22443089 0.041419055 0.060714975
0001e0 44 e5 1f 3d 85 2e 10 be 67 52 f7 3d 85 bd d7 3d
       0.039037004 -0.14080246 0.12076264 0.10534195
0001f0 fa 8a 4a 3e 03 e7 db bd cf 74 c8 bd 70 c7 b0 bd
       0.19779578 -0.10737421 -0.097879045 -0.0863179
000200 32 97 c3 3d 8f a9 0a bc ee b1 11 be 0d 3d ac bd
       0.095503226 -0.0084632775 -0.14228031 -0.08410082
000210 45 57 55 be 15 7b 5b 3d cb 25 12 be c0 43 69 bd
       -0.20834072 0.053584177 -0.1427223 -0.056949377
000220 02 cb 14 be 29 a9 fd bd 0e 19 bb 3d 16 c6 56 be
       -0.14530566 -0.1238578 0.09135638 -0.20974001
000230 c2 a5 ed bd 3b 7d 87 be bb 86 0f be 3c 2e ad be
       -0.116038814 -0.2646273 -0.1401624 -0.33824337
000240 fb 8f 8c ba 43 bc fb bb 8d 14 15 bc 61 a2 bc 3d
       -0.0010724062 -0.0076823547 -0.009099138 0.09210659
000250 fc b6 28 bd ab 30 8a bd 0f e2 28 be 04 e7 ab bc
       -0.041190132 -0.06747564 -0.16492485 -0.02098418
000260 b2 45 8a bc 80 11 18 3d dc be 75 3d 04 9c 8b bd
       -0.016878936 0.037126064 0.05999647 -0.06816867
000270 bd 31 62 3d 44 87 36 3e 11 49 e0 bc 78 dd 7b bd
       0.055223215 0.17825037 -0.02737859 -0.061490506
000280 b7 27 19 3e 70 3b 6c 3d af 3b 27 3c 08 d9 b6 3d
       0.14956556 0.05767387 0.010207101 0.08928114
000290 9a 38 e8 bd 07 a0 22 3e 2c 11 0d be 1c 01 7f be
       -0.11338921 0.15881358 -0.13776082 -0.24902767
0002a0 69 18 c9 3d b2 4a ab 3b f0 54 37 3d d5 d8 df bd
       0.09819109 0.0052274102 0.044758737 -0.10930029
0002b0 19 6d 82 bd 98 dc d6 bc 39 ce 35 3e bf b1 37 3d
       -0.06368465 -0.026228234 0.17754449 0.044847246
0002c0 6d 05 a0 3d 66 7c fc 3c 00 56 8f bb 4a 2d f6 bd
       0.07813535 0.030821037 -0.0043742657 -0.12020357
0002d0 cd ef b9 3c 4b 14 25 3e 5e 6c cd 3d af fc 77 bd
       0.022697354 0.16121022 0.10030435 -0.060543712
0002e0 c0 3c 44 3b b6 f4 81 3e 87 cf 52 bc 6b 99 0b bc
       0.0029943436 0.25382012 -0.012866861 -0.008520464
0002f0 29 e1 7e be cf cd 2e 3e 79 d5 05 be f3 53 c5 bc
       -0.2489058 0.17070697 -0.13069715 -0.024087882
000300 5e ae cc bb eb 8b 1b 3d e4 71 3f 3e 62 53 1d 3d
       -0.006246372 0.037975233 0.1869579 0.0384096
000310 51 2b c3 bd ee 4a 3c 3d 6f da e1 3d 5e 0a 08 be
       -0.09529746 0.045969896 0.11027991 -0.13285205
000320 a1 52 46 3d b8 27 c1 bc 71 86 f2 bd 76 9a 41 be
       0.048418645 -0.02357851 -0.11842049 -0.18906578
000330 80 11 cb bd e3 c4 db bd 93 03 08 3e 2d ad 80 3d
       -0.09915447 -0.107309125 0.13282613 0.06283031
000340 e0 51 8e bc 6d 32 1e 3d 20 53 db 3d 86 b1 91 be
       -0.017373025 0.03862231 0.10709214 -0.28455752
000350 85 57 90 3d b8 3c f1 bb 4c 83 f0 bc 4a 9a 13 be
       0.07047943 -0.0073619746 -0.029359482 -0.14414325
000360 1c e3 28 3e b6 4e 75 3d 42 2b 43 be 72 3d ff 3d
       0.16492885 0.059889518 -0.1905947 0.12462892
000370 f2 60 3a 3d b9 e7 08 3d c2 cb 26 3e 05 2e 0e 3e
       0.04550261 0.033424113 0.16288665 0.13884743
000380 59 ce a6 bb e5 b8 a5 3d eb 86 85 bc 75 c8 5c 3e
       -0.0050905165 0.080919065 -0.016299685 0.21560843
000390 f2 ae d5 3d 33 64 1b 3e 7d 3a 2b bb 87 3d 9c bc
       0.10433759 0.15174942 -0.002612739 -0.019072307
0003a0 a3 14 e9 3d df c9 0d 3e 43 16 0a 3e 88 75 c3 3d
       0.11380889 0.13846539 0.13485055 0.09543902
0003b0 da 26 01 be ce 7e 1d bd 81 99 c6 3d 96 2a 01 3b
       -0.12612477 -0.03845101 0.09697247 0.001970922
0003c0 bf e4 c6 bd 0a 40 41 3d 56 27 1a 3e 97 eb 55 bd
       -0.097115986 0.047180213 0.15054068 -0.05222663
0003d0 dd 3b a5 3d a7 f4 74 be 85 9a 49 3e ad c7 22 bd
       0.08068059 -0.23921452 0.19687851 -0.039741207
0003e0 9b e9 d5 3d 2f bf 84 3e b4 fb e8 3d 54 58 be bd
       0.10444947 0.25927112 0.113761336 -0.09294191
0003f0 e1 ea f0 bd 90 24 04 3d 9d 54 bc 3d 1c 3e c7 bc
       -0.117635496 0.03226143 0.09195826 -0.024321608

fc2.bias f4 [64]
000000 a9 e4 0d 3d 15 38 fc bc 7f 4a 9b bc 43 34 57 3d
       0.034641895 -0.03078846 -0.018956421 0.052540075
000010 e4 50 91 bc 38 d4 54 3d 11 4a 08 3e 6d 4a 20 3e
       -0.017738767 0.0519602 0.13309504 0.15653391
000020 7a 57 ac bd 65 3b 54 3e 00 1b b1 bc 54 15 59 3e
       -0.08415122 0.20725782 -0.02161932 0.21199542
000030 ec 82 6c bd ee a5 a9 3c b8 a5 07 3d ad 10 2d 3e
       -0.057742044 0.020709004 0.033117026 0.16900893
000040 b8 41 8c bd 10 8e 15 bd 59 91 25 3d f5 dc 88 3d
       -0.06848472 -0.036512434 0.040421817 0.06682769
000050 7d 63 a8 bd 3e 35 0b 3e 8b 00 2b 3e 7c 67 cb bc
       -0.08222101 0.13594529 0.16699426 -0.024829619
000060 85 e1 3d 3e fc a3 11 3e bd b6 c8 3d 7a f8 6e 3d
       0.1854306 0.14222711 0.098004796 0.058342434
000070 27 6e 16 3e 67 53 04 3e 51 e6 c4 bc 2e b9 7b 3e
       0.14690457 0.1292244 -0.024035605 0.24582359
000080 b9 00 31 3d c5 4c 35 3d a4 3e 17 3d fd 30 12 3e
       0.04321358 0.044262666 0.036924973 0.142765
000090 46 62 06 3e b3 3e 35 bd 4f 6a f0 3d 40 a8 e1 bb
       0.13123426 -0.044249248 0.11739027 -0.006886512
0000a0 0a 08 5c 3d 48 74 dd 3d 05 1c 35 3e 90 1b 3a 3d
       0.053718604 0.108131945 0.1768647 0.045436442
0000b0 30 f3 b0 bb 6f 31 17 bd 38 c9 9f bd 55 12 0c bd
       -0.005400084 -0.036912378 -0.07802051 -0.03419717
0000c0 6b 76 71 3b 22 c2 a9 3d 8b 85 9e bd 7c e3 0c 3e
       0.0036844264 0.08288981 -0.07740315 0.13758653
0000d0 2e 03 f7 bd 32 89 8c bd 91 80 1e 3e e8 b8 e5 bd
       -0.12061153 -0.068621054 0.15478732 -0.11216909
0000e0 67 6b 63 bd 8e 0f 1b 3e d0 5f e7 3d 51 13 36 3d
       -0.05552235 0.15142652 0.11297572 0.044452015
0000f0 42 ae 46 3c e2 ee e1 3d b7 04 74 3e 24 40 38 3e
       0.012126507 0.110318914 0.23829924 0.17993218

fc3.weight f4 [15, 64]
000000 05 53 98 be 75 8d 8e be 1c ec 7f be e7 04 41 3d
       -0.2975084 -0.27842298 -0.24992412 0.047123816
000010 80 92 a1 bb b5 c4 4c be a0 ef ca 3d e8 72 d4 3d
       -0.0049307942 -0.19996913 0.09908986 0.10373479
000020 2c ad bc be 1f 37 97 3e 38 12 ca 3d aa 28 26 3e
       -0.3685087 0.29534242 0.09866756 0.1622645
000030 d0 6a b2 bc b1 d0 4f 3e 6c e0 3c 3e f0 56 35 3e
       -0.021779448 0.20294453 0.18444985 0.17708945
000040 a7 f4 b8 be 65 90 88 be 52 3a 8d bd 39 0a 51 be
       -0.36124155 -0.26672664 -0.06895889 -0.20414056
000050 64 9f b5 3d 92 76 9c bc 46 1c 5a 3e 59 66 99 bd
       0.08868292 -0.019099507 0.21299848 -0.074902244
000060 ed b3 19 3e 02 f8 bf bd 6b 60 75 be 31 d4 1e 3e
       0.15010042 -0.093734756 -0.23962562 0.15510632
000070 e3 5f 4e 3e 8d 49 0a 3e b3 32 f3 3d 87 67 1b 3e
       0.20153765 0.1350462 0.118749045 0.15176211
000080 3b c6 27 be 36 1c 1d be a1 64 08 be 23 01 98 3d
       -0.16384213 -0.15342793 -0.13319637 0.07422092
000090 05 9a 61 bc 06 a3 20 be 94 a3 c8 bc c0 40 8a bb
       -0.013769631 -0.15687189 -0.024492063 -0.0042191446
0000a0 e5 a7 66 be f2 ac 72 3d b8 bd 71 3e 3e 56 8a be
       -0.22524984 0.059246965 0.23607528 -0.27018923
0000b0 08 17 dd bd 85 39 31 be 2c 4c 00 3d 55 98 6e be
       -0.107954085 -0.17307098 0.031322643 -0.23300298
0000c0 82 5f 30 bd d0 29 3a be 8c 09 ae be 22 08 fc bc
       -0.043059833 -0.18180013 -0.3399166 -0.030765597
0000d0 ff da 98 be 58 5f 43 bd d1 fc 66 3e 58 a4 a4 be
       -0.2985458 -0.04769835 0.2255738 -0.32156634
0000e0 af 51 5f 3b 07 ba 57 3e 13 d2 c3 bb ba 90 24 be
       0.0034075787 0.21067058 -0.0059759705 -0.16070834
0000f0 1d 2b 4f be e7 1e 94 3d f4 4c 93 bc bf dc 63 3e
       -0.2023129 0.07232457 -0.01798103 0.22252177
000100 2f f8 8d be fa ed 0d bd 0f 2a ae be fa 1e 38 be
       -0.27728412 -0.03465078 -0.34016463 -0.17980567
000110 6c 1d 9d 3d b2 eb 7c be d9 2c 32 bc de f3 0c 3e
       0.076716274 -0.24699286 -0.01087495 0.13764903
000120 7d 34 10 be 95 ab 4e 3e dc aa d3 3d 75 17 78 3e
       -0.14082523 0.20182641 0.10335323 0.24227698
000130 20 3e ec bd 1c f8 cb 3d 15 d3 1e 3e 44 1f ff 3d
       -0.11535287 0.099594325 0.15510209 0.12457135
000140 5e 0a b9 be 27 52 4a be 92 c5 00 be 1d 56 d0 bd
       -0.36140722 -0.19757901 -0.12575367 -0.10172675
000150 dc 1d d4 3d d1 17 27 3e ea bb 38 3e d7 76 d4 3d
       0.10357258 0.16317679 0.18040434 0.103742294
000160 01 ea 47 3e 30 56 a7 3d 53 5d 25 be 8c 34 6f be
       0.19522859 0.08170736 -0.16148882 -0.23359889
000170 12 f7 c6 bd 40 dd 86 be dd 16 61 be 54 37 0e 3e
       -0.09715094 -0.26340675 -0.21981378 0.13888294
000180 48 5a 65 3e 7c 43 c4 3d 18 7b 7c 3d d3 59 eb 3c
       0.22397721 0.09583184 0.06164083 0.028729355
000190 c5 37 0c 3e a7 15 d5 3d db 1c 29 be 5c 48 a6 3d
       0.1369315 0.104045205 -0.16514914 0.0811927
0001a0 35 dd ac 3d 2f 0b 8c bd c9 34 66 3d 92 75 a9 be
       0.084406294 -0.068380706 0.056202684 -0.33097512
0001b0 10 5d 8a bc e7 c5 b6 be 18 fe 3f bd 60 f6 3b 3d
       -0.016890079 -0.35697863 -0.046873182 0.04588926
0001c0 d1 32 eb bd 1e bf 35 3d cb b2 9b be 47 8a 5a 3e
       -0.11484302 0.044371717 -0.30409846 0.21341811
0001d0 bd 5f 4e be 00 f1 f6 3b e3 2e 8d 3d 66 9a 89 be
       -0.20153709 0.0075360537 0.068937086 -0.2687561
0001e0 51 10 d0 bc cb f6 61 3c d3 04 37 be ff 26 44 3e
       -0.025398405 0.01379175 -0.17872934 0.19155501
0001f0 99 b5 83 be 99 45 86 be b6 60 f3 3d e0 e0 f0 3b
       -0.25724486 -0.26224974 0.118836805 0.007351026
000200 1c 4b af 3d d4 9f 26 bd 2d b5 1d 3e 08 4c 80 be
       0.08559248 -0.040679768 0.15401144 -0.25058007
000210 d8 ef 1d 3d 6f bb 03 3e 35 0d 17 bd 80 df 89 bd
       0.03855881 0.12864469 -0.03687783 -0.06732082
000220 31 f8 2d be e5 22 9f 3e 80 d8 07 bd 46 17 66 3e
       -0.16989209 0.3108131 -0.033165455 0.22469816
000230 e8 9b 30 bd b7 fe 17 be 6a bb 98 3d 9e 37 1d be
       -0.043117434 -0.1484326 0.074576214 -0.15353248
000240 b4 9f 25 3d 91 dc 54 be e5 8c dd bc b5 34 5a be
       0.040435508 -0.20787264 -0.027044723 -0.21309169
000250 ec f1 33 bd 8b f5 c3 bd e5 c0 0b 3e af cf 41 bc
       -0.043931887 -0.09568318 0.13647802 -0.011829301
000260 3d e3 9b 3c ba df af bd 5c 6a b3 3d da 67 29 3e
       0.019029254 -0.08587594 0.08760521 0.16543522
000270 37 91 88 3e 89 7b 11 be 0c 57 61 be ee b5 ef 3d
       0.2667329 -0.14207281 -0.22005862 0.11704622
000280 41 5c 24 3e 24 6f 9f bc 07 4f 3c be a5 49 85 bd
       0.16050817 -0.019462176 -0.18389522 -0.06508187
000290 ef 8e 29 3d 63 69 b9 bd 35 90 8f be 72 8d da bd
       0.041396078 -0.09053304 -0.2803971 -0.1067151
0002a0 19 9b cf bd 74 e3 56 be c3 07 33 3e b0 0e 1e 3d
       -0.101370044 -0.20985204 0.1748343 0.038588226
0002b0 aa ca e0 3d 40 85 09 be d8 5e a0 3c bd 0a ff bc
       0.10976155 -0.13429737 0.019576475 -0.03113305
0002c0 4f 5d fd bd 44 6c c3 bc f9 29 54 3d 24 8b 2d 3e
       -0.12371313 -0.023855336 0.05179784 0.16947609
0002d0 fb be 0e be 38 d2 c2 3d 6b f9 5d 3d 3c 9e 42 be
       -0.13940041 0.09512752 0.05419294 -0.19005674
0002e0 55 2a e6 bc 82 83 88 3e 46 d1 16 be 22 ca 6c 3d
       -0.028096357 0.26662832 -0.14728269 0.057809956
0002f0 1a a3 6b bd 62 41 83 be 74 df 02 be 98 e8 5c 3e
       -0.057528593 -0.2563582 -0.12780553 0.21573102
000300 32 29 4b bc 12 ed 60 3d 5a f5 98 bd bc 75 36 be
       -0.012399958 0.054913588 -0.07468672 -0.1781835
000310 90 4d 7f 3d e7 e6 63 3d d1 19 52 3e 3a c2 2f be
       0.06232983 0.055640128 0.2051766 -0.17163935
000320 8b b1 51 bd dd 6b 8e bd 58 41 0d 3d 26 7b 50 bd
       -0.05119471 -0.06954167 0.034486145 -0.050898694
000330 48 c9 43 3d b7 28 92 3d f0 e0 64 3e 0d 8f 82 be
       0.04779938 0.07136672 0.22351432 -0.25499764
000340 fc 07 d2 3d 16 ed 7a be b0 8e 96 be 1f 44 aa be
       0.10255429 -0.24504504 -0.29405737 -0.33255097
000350 b6 7d d1 3d 27 c6 db 3d 90 2b 73 3e b5 bc cf bb
       0.102290556 0.10731154 0.23747087 -0.0063396343
000360 80 53 cb 3d ee 67 ae be 3f a7 f9 bd 54 23 cc bc
       0.09928036 -0.34063667 -0.12190103 -0.02491919
000370 e2 4f c6 be 22 72 78 be be eb b7 bd 0e 06 c9 bb
       -0.3873282 -0.24262288 -0.08980511 -0.006134755
000380 44 c5 50 3e d0 82 76 3d 1a 4b 16 3e 9d 60 8d 3d
       0.20387751 0.060183346 0.14677086 0.06903193
000390 56 2f 59 3e f7 f0 ec 3d bf e6 01 be 34 28 28 bd
       0.21209463 0.11569398 -0.12685679 -0.041053966
0003a0 ad 63 91 be 4b 24 97 be fc 7b 3c 3d 8d 6c 48 3c
       -0.2839636 -0.29519877 0.04601668 0.012232912
0003b0 98 42 bc bd 10 cd 3c bd 24 73 16 3d d8 05 6f 3e
       -0.09192389 -0.046094 0.0367309 0.23342073
0003c0 5f 4e ea 3d ee d6 a3 3d 86 1f 62 3c eb 4c 1c 3e
       0.11440729 0.07999979 0.013801461 0.15263717
0003d0 84 0c f0 bd a0 1d f9 3b 66 c6 a0 be ae 9c bb 3c
       -0.11721137 0.0076024085 -0.31401366 0.02290186
0003e0 76 02 b4 bc 51 50 20 be 59 14 b4 be bc e9 a3 3d
       -0.02197383 -0.15655638 -0.35171774 0.08003566
0003f0 c7 ff e2 bc 16 26 70 be 32 01 6a be 94 02 44 be
       -0.027709855 -0.23452029 -0.22852018 -0.19141608

fc3.bias f4 [15]
000000 b5 be 14 3d 96 b8 07 3e e9 8b 0c 3e 74 52 19 3d
       0.036314685 0.13254008 0.13725246 0.03743215
000010 d9 9a 98 3d 9a f8 21 3e ac 6d 5e 3d d0 5e 08 3e
       0.0745141 0.1581749 0.05430381 0.13317418
000020 57 ee e1 3c 9d 30 b8 3d fe 31 d5 bd 5d 30 15 be
       0.02757947 0.08993647 -0.10409926 -0.1456923
000030 88 1d ae bd 7f 5e 7f 3d 02 9b a5 bc
       -0.085017264 0.062345978 -0.020215515

exp_avg f4 [128, 4]
000000 8a 28 a7 39 dc 50 ae 39 ae 97 b2 39 e2 54 bd ba
       0.00031882926 0.0003324811 0.00034063816 -0.0014444853
000010 23 6e 28 3b 8a cb ec 3a aa 9c db 3a c0 a3 a3 39
       0.0025700412 0.001806603 0.0016755064 0.00031211786
000020 af a0 07 b8 d7 54 f7 b8 e1 93 91 38 e2 08 18 38
       -3.2336156e-05 -0.000117936805 6.9416834e-05 3.6247897e-05
000030 72 7c c6 3a 40 dc f3 b8 60 43 ba b9 e6 e7 42 bb
       0.0015143289 -0.00011628168 -0.00035526883 -0.0029740273
000040 5e 5e 75 bb 92 56 fb bb ff e4 09 bc 36 bf 52 bc
       -0.003744028 -0.007670232 -0.008416413 -0.012862971
000050 5c 0c af ba e6 5a 0c 3b fc 1d 5d 3b ea e0 d5 3b
       -0.0013355124 0.0021416484 0.0033739796 0.006527056
000060 cc 88 ea ba 64 18 b0 3a 29 53 58 3b d5 3d 09 3c
       -0.0017893552 0.0013435003 0.0033008552 0.008376558
000070 7f d2 76 bb 39 c2 2e bb e2 3b fe ba c4 a8 d3 3a
       -0.0037662087 -0.0026666059 -0.0019396509 0.0016148319
000080 38 00 17 ba 80 25 9e 38 70 c0 85 ba 98 4f 46 3a
       -0.00057602255 7.541012e-05 -0.0010204446 0.0007564961
000090 80 41 a6 ba d0 95 c0 b9 20 10 74 ba b2 6f ae 39
       -0.0012684315 -0.00036732713 -0.0009310264 0.00033271086
0000a0 88 ac 80 3a 96 e9 10 3b e2 e2 19 3b a4 20 0f 3b
       0.0009817043 0.0022111884 0.002348118 0.0021839524
0000b0 f9 a7 c6 bb 03 b8 c2 bb bb fd bd bb e6 db c4 ba
       -0.0060625044 -0.005942346 -0.0057980693 -0.0015019148
0000c0 18 13 5c ba 42 c0 5b 3b e6 fc 92 3b 1e ef 1e 3c
       -0.0008395179 0.0033531343 0.0044857142 0.009700565
0000d0 33 47 46 3b a8 eb 0e 3a 92 d8 dd 39 f3 0d af 3a
       0.003025484 0.00054519856 0.00042313762 0.0013355598
0000e0 24 8c b7 3a 89 bc bd 3a 47 a7 0e 3b 9e 6d 1e 3b
       0.0014003557 0.0014475744 0.0021767186 0.0024174224
0000f0 4b 59 8a 3a 0d f8 c3 39 97 5e 22 b9 85 2d 92 3a
       0.0010555176 0.0003737811 -0.00015484761 0.0011152482
000100 a0 eb c1 b9 04 70 2d 3a 84 bb ad b9 46 e9 9b 3a
       -0.00036987383 0.0006616118 -0.0003313684 0.0011895082
000110 00 f8 e2 b7 8f a9 3a 3b 50 74 71 3b d7 15 f0 3b
       -2.7056783e-05 0.0028482412 0.003684301 0.0073268223
000120 8b 60 f8 ba b8 f7 9c 3a 74 f0 14 3b b7 5b c4 3b
       -0.001894967 0.0011975681 0.002272633 0.0059923786
000130 2a b0 36 3a 92 d8 94 3a 14 db 04 3a 65 bc 00 3a
       0.00069689995 0.0011356047 0.00050680456 0.00049108855
000140 97 44 11 3b f8 be 4e ba 6c fb 79 ba 38 29 6f bb
       0.0022166127 -0.0007886733 -0.0009536061 -0.0036493074
000150 22 9f 69 bb e8 cd ed bb ee 72 fd bb 0d c8 49 bc
       -0.003564783 -0.007257212 -0.007734648 -0.012315762
000160 db c3 9b bb 25 b2 79 bb 3a e2 21 bb 69 c8 c9 3a
       -0.0047535724 -0.0038100567 -0.0024701492 0.001539481
000170 70 65 73 39 88 a3 c2 b9 62 97 e3 39 80 7d d4 38
       0.00023212074 -0.00037124404 0.00043409603 0.00010132324
000180 f1 0f 07 3b 16 84 a2 3a dc 53 0f 3b d8 f5 e5 3a
       0.0020608867 0.0012398984 0.0021870052 0.0017544581
000190 52 c6 0f 3a b6 3a 56 3a 2c bb 0d 3a c0 2a 36 b7
       0.0005484569 0.0008172201 0.0005406614 -1.0857999e-05
0001a0 6c 44 80 35 5e 19 b6 35 d2 10 5c 35 08 15 2c 35
       9.556657e-07 1.356744e-06 8.1980863e-07 6.41056e-07
0001b0 f7 ea 9e 3a 90 34 74 ba 66 51 a8 ba f3 66 56 bb
       0.0012124468 -0.0009315694 -0.0012841641 -0.003271517
0001c0 d5 c7 c0 3a e8 df 1f 3b 32 b4 39 3b ac 43 8d 3b
       0.0014707992 0.0024394933 0.0028336165 0.0043110456
0001d0 5d 1d 64 3b 74 2c 42 ba 48 27 e9 ba 18 68 f3 bb
       0.003480754 -0.0007407137 -0.0017788196 -0.0074281804
0001e0 30 0e 49 3a 70 73 f1 ba 2c 42 2e bb 43 76 da bb
       0.00076696556 -0.0018421244 -0.0026589734 -0.00666693
0001f0 5a 89 d6 3a d0 73 46 3b d5 ae 54 3b 4c 74 8b 3b
       0.0016367838 0.0030281432 0.003245284 0.004255807
000200 44 3e 69 3a 6e 07 3a 3b 68 d3 43 3b 4b 4e 48 3b
       0.0008897523 0.0028385776 0.0029880647 0.0030564244
000210 a6 e1 1d 3b 9a 4c ae 3a 44 02 62 3a 62 95 7a ba
       0.0024090796 0.0013297976 0.00086215534 -0.0009559003
000220 73 98 d6 ba f4 2c 03 ba fc c0 4b ba e9 6c dd 3a
       -0.0016372338 -0.0005003952 -0.00077725924 0.001689342
000230 34 b2 eb ba 29 4c f6 ba eb 3f 01 bb 68 bc 80 bb
       -0.0017982186 -0.0018791008 -0.0019721936 -0.00392871
000240 af c7 d8 37 62 57 83 39 5f 63 25 b9 36 50 0a 3a
       2.5842191e-05 0.00025051372 -0.00015772645 0.00052762346
000250 02 2c 35 3b 3c f7 d6 3a 3c 47 9d 3a a8 b9 39 ba
       0.002764464 0.0016400586 0.0011999379 -0.0007084855
000260 d8 76 ac ba 08 5a a7 39 60 9c a0 b8 56 31 37 3b
       -0.0013157977 0.000319198 -7.658522e-05 0.002795299
000270 59 e6 9d bb 26 a9 44 bb 8e 2a 38 bb 34 a0 be ba
       -0.0048187193 -0.0030008047 -0.0028101536 -0.0014543594
000280 d8 ea ce b9 0c 53 1c 3b 10 9f 2a 3b 1e 82 be 3b
       -0.00039466354 0.002385321 0.002603475 0.005813851
000290 76 9d 67 3a b8 28 50 3b 79 66 56 3b 8f 6d b2 3b
       0.0008835414 0.0031762552 0.0032714887 0.0054451893
0002a0 79 71 74 3a 04 63 a8 38 9a 14 53 ba ac de 05 bb
       0.000932477 8.029307e-05 -0.0008052081 -0.0020426912
0002b0 50 7b 9c b9 a5 82 1f ba 61 b0 e3 b9 0c 78 98 3a
       -0.00029846514 -0.0006084836 -0.00043428226 0.0011632456
0002c0 a7 de f5 ba 02 35 c1 3a 16 58 5c 3b a3 94 f3 3b
       -0.0018758372 0.0014740529 0.003362184 0.0074334904
0002d0 48 38 e6 b9 23 85 10 bb 51 12 14 bb 04 9e c9 bb
       -0.0004391095 -0.0022052012 -0.0022593925 -0.00615287
0002e0 f8 3e 4c ba 6a 06 22 3b ed b4 8a 3b 54 08 4f 3b
       -0.00077913655 0.0024723061 0.004232994 0.0031590657
0002f0 3c 6e 5d 39 34 91 05 3b f0 a4 3e 3b 4a e2 94 3b
       0.00021117268 0.0020380737 0.002909001 0.0045435773
000300 c7 0d ba 3a 81 fa 5e 3b 3e 8e 63 3b 67 71 a6 3b
       0.001419478 0.0034023824 0.0034722234 0.0050794366
000310 cd f3 27 a7 fd a7 09 27 4e ec 55 26 7c 11 b5 a6
       -2.330807e-15 1.9103636e-15 7.421947e-16 -1.2564137e-15
000320 00 00 00 00 00 00 00 00 00 00 00 00 00 00 00 00
       0.0 0.0 0.0 0.0
000330 54 cc 3c ba c0 14 4a 3b 42 00 9d 3b 21 b9 12 3c
       -0.0007202078 0.0030835122 0.0047912905 0.008955271
000340 96 a0 cd ba da f9 8e bb 6d f5 86 bb b7 56 dd bb
       -0.0015688117 -0.0043632807 -0.0041186125 -0.006754722
000350 6f 7c 81 3b 94 4f 23 3a 20 0d 8f ba 02 a0 83 bb
       0.003951601 0.00062298146 -0.0010913946 -0.004016877
000360 bf 44 75 3b e1 53 5d 3b 9c 4c 58 3b e0 bf a7 3a
       0.003742501 0.003377192 0.0033004647 0.0012798272
000370 8c ba 51 3a 0a 55 9f 3b 83 25 cf 3b 9f c5 3d 3c
       0.0008000515 0.0048624324 0.0063216104 0.011582761
000380 7a b7 4f ba 8a 36 2f 3b e3 9f 7b 3b 02 4d ef 3b
       -0.00079237635 0.0026735389 0.003839486 0.007302881
000390 18 df 5e 3a 78 8d 31 b9 ac 1d 3c ba a8 a2 ac bb
       0.00085018715 -0.00016932737 -0.00071760523 -0.0052684136
0003a0 0b 60 3f bb b8 ba d8 ba 8a 11 ad ba 54 31 da 3a
       -0.0029201533 -0.0016535139 -0.001320408 0.0016646781
0003b0 10 60 22 3a b1 93 00 3b 5b 0c a0 3a 58 fe 19 3b
       0.0006194124 0.001961928 0.0012210713 0.0023497548
0003c0 6e 81 0c bb e4 6b d6 bb db 3e db bb a6 f7 28 bc
       -0.002143945 -0.0065436233 -0.0066908426 -0.01031295
0003d0 80 3f d5 38 86 41 54 ba 10 14 50 ba 5a 61 2f bb
       0.00010168459 -0.0008096922 -0.000793756 -0.0026760907
0003e0 f7 01 2f bb 20 f3 ba 38 8c 70 71 3a 54 a3 35 3b
       -0.0026704052 8.914457e-05 0.0009210191 0.002771576
0003f0 e6 a1 0e 35 2c fb 34 35 b3 5e c2 34 49 52 b6 34
       5.3134715e-07 6.742073e-07 3.620422e-07 3.3960012e-07

exp_avg_sq f4 [128, 4]
000000 a7 1e 24 39 3d 63 0b 39 e6 b0 05 39 34 45 f0 38
       0.00015651678 0.00013293042 0.00012749768 0.00011456982
000010 16 e5 5d 39 24 70 43 39 c9 48 3c 39 8d d2 24 39
       0.00021161544 0.00018638425 0.00017956192 0.00015718695
000020 4b 8e d1 34 c3 ec 14 35 e5 7e 42 35 e9 c4 26 36
       3.9032815e-07 5.547883e-07 7.245529e-07 2.4850544e-06
000030 78 57 34 39 ef 29 4d 39 bb 09 47 39 68 e2 38 39
       0.00017198722 0.00019565945 0.00018981744 0.0001763195
000040 bd ba f8 37 87 bd ab 38 49 27 ba 38 8b a6 90 39
       2.965086e-05 8.1892176e-05 8.8764886e-05 0.00027589904
000050 4f 18 1d 39 67 5e 4a 39 97 45 4a 39 96 55 61 39
       0.00014981742 0.00019299389 0.00019290145 0.00021489555
000060 6e 29 08 3a f3 b1 15 3a ea a0 13 3a b5 28 0d 3a
       0.0005194162 0.00057104154 0.0005631583 0.0005384789
000070 26 90 b7 39 cd da a7 39 a6 45 9f 39 c0 c7 62 39
       0.0003501188 0.0003201574 0.00030378735 0.00021627452
000080 67 cf 57 39 36 60 4a 39 f2 7f 42 39 19 84 18 39
       0.00020581261 0.00019300063 0.00018548945 0.0001454506
000090 e7 aa 01 39 84 4f f5 38 e7 4a ea 38 cd 0d ad 38
       0.00012366065 0.00011697321 0.00011171941 8.2518534e-05
0000a0 5f 56 ee 38 59 f2 fa 38 1e 47 f3 38 1b 95 f2 38
       0.00011364812 0.0001196607 0.000116003896 0.00011567232
0000b0 72 9f 77 39 9f 45 52 39 21 b2 34 39 ec 61 0c 39
       0.00023615154 0.00020053097 0.00017232496 0.00013387919
0000c0 c8 03 94 39 bc ff b0 39 80 91 b1 39 ac c2 b5 39
       0.00028231577 0.00033759873 0.00033868477 0.00034668052
0000d0 36 92 6c 38 37 ae b4 37 af 10 f7 37 8f 31 97 37
       5.6402954e-05 2.1538797e-05 2.9452463e-05 1.802368e-05
0000e0 f1 6e 12 3a 6b 70 23 3a c3 2b 21 3a 12 38 0e 3a
       0.00055859896 0.0006234708 0.00061481836 0.0005425225
0000f0 e3 8c c8 37 9d 36 4a 37 77 ff 45 37 6c 7a ca 37
       2.3907463e-05 1.2052854e-05 1.1801595e-05 2.4137284e-05
000100 63 5b 04 39 72 57 0a 39 20 cd 08 39 f7 1e e4 38
       0.00012622545 0.00013193281 0.00013046386 0.00010877655
000110 25 84 33 39 a9 5b 58 39 46 c8 5a 39 8a 60 5f 39
       0.00017119998 0.00020633511 0.00020864708 0.00021302901
000120 fa 56 79 39 00 c8 8f 39 23 c7 8b 39 f6 f1 8f 39
       0.00023778892 0.00027424097 0.00026660514 0.0002745536
000130 0e 0f a1 38 a4 60 aa 38 eb c3 a9 38 b0 92 a8 38
       7.6798824e-05 8.1242324e-05 8.0950405e-05 8.038187e-05
000140 7f 27 77 39 83 74 8b 39 78 61 89 39 b3 82 79 39
       0.00023570469 0.00026598954 0.00026203296 0.0002379518
000150 56 3a 01 38 73 95 b3 38 61 cb c6 38 1f e4 8f 39
       3.0810326e-05 8.563222e-05 9.479258e-05 0.0002744505
000160 d5 1f dd 39 c5 44 bd 39 85 4b b6 39 4a ef 5e 39
       0.00042176121 0.00036100126 0.00034770012 0.00021260712
000170 91 91 e2 39 10 e5 07 3a cd bd 06 3a 14 27 f6 39
       0.00043214535 0.0005183974 0.0005139977 0.00046949892
000180 13 01 10 3a d2 ef 22 3a 64 a7 1d 3a 27 6d 09 3a
       0.0005493324 0.00062155456 0.0006014018 0.00052424
000190 a4 a7 f0 36 7a 80 cf 36 04 a2 ce 36 7a d5 e8 36
       7.1720733e-06 6.1840374e-06 6.1581395e-06 6.9389907e-06
0001a0 a1 9d 62 30 0a 82 69 30 2c 7d 55 31 22 5b 90 31
       8.2442325e-10 8.4949703e-10 3.1066731e-09 4.201312e-09
0001b0 b6 28 12 39 64 bc 2f 39 0e a3 2e 39 84 87 2b 39
       0.00013938811 0.00016759482 0.00016654676 0.00016358314
0001c0 6e bb ba 38 55 aa c4 38 e7 81 c2 38 38 bb d0 38
       8.904083e-05 9.377735e-05 9.274837e-05 9.953085e-05
0001d0 aa 91 07 3a 48 5a 0b 3a af af 0a 3a 78 ca 0c 3a
       0.0005171547 0.0005315882 0.0005290461 0.00053707464
0001e0 2d 95 89 39 fe de ba 39 ae c5 bb 39 64 d7 c1 39
       0.0002624182 0.00035642827 0.00035814702 0.00036972307
0001f0 a9 3c d8 37 5b 81 0f 38 77 1e 12 38 ee 93 1f 38
       2.5777454e-05 3.421433e-05 3.4837485e-05 3.8046324e-05
000200 0d b2 a2 39 ca 73 ba 39 6f 6c b9 39 68 e0 b5 39
       0.00031031706 0.00035562954 0.0003536674 0.00034690206
000210 a3 53 b6 39 a2 5e b9 39 40 db b7 39 04 30 93 39
       0.0003477606 0.00035356457 0.00035067834 0.000280738
000220 33 8a 02 39 1f 37 e9 38 36 e4 df 38 7a a2 a2 38
       0.0001244925 0.00011120573 0.00010675976 7.7550256e-05
000230 4c 44 59 3a 5d db 52 3a 2f 9d 4a 3a d6 d3 43 3a
       0.000828807 0.0008043552 0.00077291107 0.00074702257
000240 45 a3 9e 36 7e 70 0e 36 ca f9 17 36 23 f1 ec 37
       4.727774e-06 2.1225128e-06 2.264615e-06 2.824568e-05
000250 4b d5 e9 38 42 4d b3 38 72 09 a9 38 7d 12 62 38
       0.00011150035 8.5497755e-05 8.060307e-05 5.3899817e-05
000260 17 34 51 39 45 98 51 39 b0 73 4d 39 d8 c7 1a 39
       0.00019951198 0.00019988518 0.0001959342 0.00014761032
000270 45 d2 ad 39 c1 e3 b4 39 e4 0c ac 39 12 65 47 39
       0.00033153794 0.00034501965 0.00032816 0.0001901577
000280 1c 61 f0 38 50 5f 29 39 8e ce 27 39 8f 6d 47 39
       0.0001146218 0.00016152603 0.00016003309 0.00019018933
000290 f1 71 72 38 4d 3e 97 38 fb b4 9b 38 51 3f b4 38
       5.7803412e-05 7.2118455e-05 7.424686e-05 8.5948624e-05
0002a0 17 d3 c8 38 ec 29 dd 38 dc 66 dc 38 4c 34 e8 38
       9.576062e-05 0.0001054591 0.000105095765 0.00011072363
0002b0 9c 0b 25 38 4c 54 4a 37 27 e3 41 37 fc 8c 09 38
       3.9349878e-05 1.2059765e-05 1.15565845e-05 3.2794647e-05
0002c0 44 dd ca 39 28 7b e3 39 ec 10 e1 39 64 1e eb 39
       0.00038693298 0.00043388573 0.00042927952 0.00044845336
0002d0 c1 7c 37 39 70 d0 ad 39 10 39 aa 39 64 6a a8 39
       0.00017498714 0.0003315243 0.00032467442 0.00032122724
0002e0 53 fb 03 3a ca c8 d0 39 41 57 cb 39 22 e0 d7 39
       0.00050347036 0.0003982245 0.00038784186 0.00041174988
0002f0 6e 65 ab 38 78 e2 d7 38 9a 39 cc 38 a0 de e8 38
       8.172808e-05 0.00010294182 9.738207e-05 0.00011104089
000300 9c 85 8c 37 27 d1 f9 37 60 91 05 38 05 78 4a 38
       1.6751517e-05 2.9780507e-05 3.1845062e-05 4.827233e-05
000310 8d d3 20 2a 7d 13 d8 29 50 75 82 28 13 ed 3a 29
       1.4284251e-13 9.5957076e-14 1.4483776e-14 4.1505926e-14
000320 00 00 00 00 00 00 00 00 00 00 00 00 00 00 00 00
       0.0 0.0 0.0 0.0
000330 0b 7d b4 39 22 91 d4 39 fa 27 d3 39 ff 78 e2 39
       0.0003442544 0.00040543923 0.0004027484 0.00043196228
000340 68 75 87 38 41 26 01 39 3f 72 14 39 88 f7 79 39
       6.45917e-05 0.0001231665 0.0001415694 0.00023838703
000350 15 0f 86 39 86 2c 8f 39 05 eb 8b 39 9c 72 7b 39
       0.0002556971 0.00027308258 0.0002668725 0.0002397992
000360 a6 b7 63 39 09 ad 31 39 ed 77 25 39 c8 ce c4 38
       0.00021716821 0.00016944496 0.00015780302 9.384524e-05
000370 c0 74 bd 39 80 e4 de 39 22 76 df 39 60 79 fd 39
       0.00036135875 0.00042513385 0.0004262189 0.00048346352
000380 36 57 48 39 d7 92 77 39 70 f0 77 39 f0 01 88 39
       0.00019105975 0.00023610458 0.00023645326 0.00025941385
000390 96 bf 3b 3a 61 10 38 3a fc 45 34 3a c6 98 3a 3a
       0.00071620324 0.00070214836 0.00068768836 0.0007118102
0003a0 01 57 9f 39 1b ad b0 39 c5 81 ab 39 d2 28 a8 39
       0.00030391666 0.0003369831 0.00032712347 0.0003207387
0003b0 68 8a 3f 39 4f f5 4f 39 b0 45 4e 39 cf bb 3e 39
       0.0001826674 0.00019832443 0.00019671652 0.00018189776
0003c0 1a ac 56 38 cd 91 d1 38 2f 29 f1 38 24 1e a4 39
       5.1181858e-05 9.993054e-05 0.000114994466 0.00031302974
0003d0 f4 d2 34 39 c4 62 39 39 f0 72 35 39 9b c7 1c 39
       0.00017244724 0.00017679768 0.00017304323 0.00014951678
0003e0 d5 7a c2 39 29 18 ea 39 d2 82 e5 39 0d 05 a4 39
       0.0003709408 0.0004464996 0.00043775752 0.0003128428
0003f0 a3 40 96 2c 15 82 c5 2c 75 98 9e 2a b8 73 2a 2b
       4.2704325e-12 5.6135188e-12 2.8172226e-13 6.0556725e-13

exp_avg f4 [128]
000000 00 76 26 bb a8 0f f5 3a 78 07 30 38 b0 19 25 39
       -0.0025399923 0.0018696683 4.1968626e-05 0.00015745196
000010 a5 90 cd bb 7d c3 be 3a bf bb 81 3b ca 72 19 ba
       -0.0062733465 0.001455411 0.0039591487 -0.0005853592
000020 d4 d5 9a 3a 6c 7f 10 3a 8c 1e 3b ba d6 24 5b bb
       0.0011812993 0.00055121514 -0.0007138036 -0.0033438704
000030 ab 38 aa 3b e3 70 82 3b 28 45 30 3b b9 7d 64 3b
       0.0051947436 0.0039807423 0.002689669 0.0034864976
000040 02 12 7d 3a 3c d2 89 3b 3d 5a f8 3a d0 fd fd 39
       0.00096538675 0.00420597 0.0018947792 0.00048445025
000050 30 19 34 ba 0d 8b b8 bb 46 4a d0 b9 54 77 5d 3a
       -0.00068702083 -0.0056318105 -0.0003972819 0.0008448262
000060 84 94 33 3b 80 db eb 37 13 b5 46 b6 50 bc 2b ba
       0.0027401755 2.8116396e-05 -2.9609698e-06 -0.0006551193
000070 e2 b3 7d 3b 48 d0 66 bb b4 c8 1a bb 15 67 3a 3b
       0.0038711955 -0.003521936 -0.0023618164 0.002844279
000080 90 61 6b ba 4a f4 35 3a e4 6f 44 3a 42 94 ad bb
       -0.00089790765 0.0006941004 0.00074934796 -0.0052972147
000090 fe 7a bc b7 d8 99 7b 39 99 34 c9 3a 07 50 e3 ba
       -2.246862e-05 0.00023994537 0.0015350758 -0.0017342576
0000a0 48 c4 9d 3a 9f d4 63 3b 48 61 2d ba 78 58 b9 b9
       0.0012036646 0.0034764183 -0.00066139223 -0.00035351864
0000b0 f8 01 1e 3b d2 75 3f bb 2d 7d df ba 90 23 9b 39
       0.002411006 -0.0029214513 -0.0017050855 0.000295904
0000c0 da a9 53 3b be 74 89 27 00 00 00 00 6a b6 55 3b
       0.0032297284 3.815171e-15 0.0 0.0032609948
0000d0 ee ec 32 bb e0 e8 63 b9 a2 df 94 3a ba 92 cd 3b
       -0.0027301866 -0.0002173516 0.0011358152 0.0062735947
0000e0 c0 95 60 3b 11 b7 b0 bb b2 6b 17 ba 55 0d ca 3a
       0.0034268945 -0.005392917 -0.0005776241 0.001541535
0000f0 d0 50 1a bb 2a 55 2f bb f8 11 04 3b f1 67 c3 b5
       -0.0023546703 -0.0026753643 0.0020152312 -1.4558883e-06
000100 31 7c b6 3b e2 06 40 3a 08 1c 7d ba 61 9b aa 3a
       0.005569004 0.00073252444 -0.0009655361 0.0013016277
000110 3e e8 44 3b 3f 75 6c b8 32 80 5b bb 18 d8 06 3b
       0.0030045654 -5.637598e-05 -0.0033493158 0.002057558
000120 ba 85 04 3b 53 cf 31 3a c3 e5 4c 3b 35 bd 8b bb
       0.0020221309 0.0006782908 0.0031264878 -0.0042644986
000130 b6 37 2b 3b b6 22 43 3b 83 a1 f7 ba d5 d3 2f 33
       0.0026125736 0.0029775328 -0.0018892739 4.0938023e-08
000140 28 fd 81 b9 41 6e c8 ba c6 68 27 3a 18 a3 a4 ba
       -0.00024793413 -0.0015291647 0.0006386157 -0.0012560813
000150 00 77 83 37 fc 44 c9 3a 38 d8 65 b9 f8 0c 54 b9
       1.567183e-05 0.0015355642 -0.0002191969 -0.00020222727
000160 3c 8d cb b9 00 00 00 00 be 1e 29 3b 96 b7 ac 3a
       -0.00038824405 0.0 0.0025805677 0.0013177271
000170 f9 c9 7f 3b 75 8b 0c b7 45 11 df ba 90 a6 a5 39
       0.0039030297 -8.37712e-06 -0.0017018697 0.0003159535
000180 61 24 35 3b 92 07 59 3a d1 6f 07 bb a6 50 0b ba
       0.0027640092 0.0008279021 -0.0020666013 -0.0005314447
000190 0a 86 a6 3a 5a e8 a5 ba 1e 83 8d 3b 06 10 38 3a
       0.0012704742 -0.0012657747 0.004318609 0.00070214306
0001a0 30 bd 2f 39 07 3b c7 ba 49 b1 86 bb ec ae 11 bb
       0.00016759778 -0.0015200087 -0.0041104895 -0.0022229506
0001b0 55 83 5c 3b 28 64 b3 b9 b8 72 7c 39 21 fa 92 bb
       0.0033647616 -0.00034216163 0.00024075329 -0.004485384
0001c0 22 2f d5 ba 28 ac 56 3b 70 70 fa ba 50 ce 4f b9
       -0.0016264657 0.0032756422 -0.0019106995 -0.00019817916
0001d0 30 5e bc ba 7b 6e 56 3b 70 e8 33 bb c0 04 39 b8
       -0.0014371332 0.003271966 -0.0027451776 -4.411186e-05
0001e0 42 4d 3f 3a 10 ba 71 bb 9c 81 9b b9 05 d3 06 3b
       0.0007297584 -0.0036884584 -0.0002966047 0.0020572555
0001f0 c4 2d bf b9 f2 ec 59 bb c6 23 e7 bb 38 6d 79 3b
       -0.00036464457 -0.0033252803 -0.007053825 0.0038059484

exp_avg_sq f4 [128]
000000 60 68 dd 38 41 fe 0d 39 95 87 33 36 7a 3b e9 38
       0.000105575426 0.00013541525 2.6751998e-06 0.00011121384
000010 d6 f3 0e 39 5e 49 ff 38 51 ee c8 39 16 87 45 39
       0.00013633011 0.00012173013 0.00038324532 0.00018837707
000020 87 ae f2 38 ff 94 85 38 87 41 c3 38 cf a8 08 39
       0.000115719675 6.369687e-05 9.31053e-05 0.00013032857
000030 1f c5 5e 39 b4 d9 0b 39 f1 d7 cd 39 77 fc 4f 39
       0.00021245003 0.00013337174 0.00039261536 0.00019835109
000040 12 41 b1 38 6f 40 01 39 fe d6 35 39 b2 84 77 38
       8.452138e-05 0.00012326402 0.00017341596 5.901297e-05
000050 6b d5 25 39 05 88 10 39 78 66 90 39 f5 db ad 39
       0.0001581513 0.00013783581 0.00027542165 0.00033161012
000060 f6 ca c9 39 d1 14 23 37 44 9d d0 31 0e dd c8 38
       0.00038488925 9.720404e-06 6.0714758e-09 9.577918e-05
000070 c3 be 99 38 1f 53 bb 39 09 f1 3f 39 d0 38 c5 37
       7.331141e-05 0.0003572935 0.00018304972 2.3510685e-05
000080 50 28 88 39 b9 0a 60 39 64 b3 8c 38 92 d7 04 3a
       0.00025969977 0.00021366299 6.709134e-05 0.0005067523
000090 b3 39 c5 37 c5 b4 86 38 7f 14 f2 38 f9 2e 36 39
       2.3511098e-05 6.423289e-05 0.00011543277 0.00017374371
0000a0 d8 89 e0 38 2c 82 4e 38 3e ab 9b 38 9c 46 63 38
       0.00010706828 4.923546e-05 7.422872e-05 5.4186778e-05
0000b0 60 6c 92 39 7c e1 21 39 98 40 a5 39 e8 18 97 38
       0.00027928036 0.00015438156 0.00031519379 7.20488e-05
0000c0 a8 fe c9 37 b7 72 d7 2a 00 00 00 00 4f 4a 84 39
       2.407965e-05 3.8271271e-13 0.0 0.00025232366
0000d0 26 5c 13 39 b5 7c 2e 39 51 67 ec 38 ff 12 97 39
       0.0001405334 0.0001664039 0.00011272601 0.00028815118
0000e0 f3 2b 23 39 96 4c 09 3a 92 3a 5b 39 c2 62 0a 39
       0.00015561264 0.00052375474 0.00020907287 0.00013197496
0000f0 d6 b1 66 39 b4 55 f8 38 37 9d 80 39 2d 74 45 2d
       0.00022000758 0.00011841525 0.00024531197 1.122395e-11
000100 e1 0d 6c 39 b7 1a 98 38 ac 9f 27 39 33 bb 4a 39
       0.00022511884 7.252901e-05 0.00015985843 0.00019333958
000110 da 05 a4 39 90 a5 93 34 15 35 50 39 57 9b 75 38
       0.00031284877 2.7501346e-07 0.000198562 5.8557223e-05
000120 a4 ce a8 37 da bd 83 38 ab 92 9e 38 e3 87 f7 38
       2.0123385e-05 6.2819294e-05 7.561346e-05 0.00011803189
000130 b2 35 b2 39 a6 a7 00 39 e8 12 ab 38 87 21 db 2f
       0.00033990812 0.00012269485 8.157437e-05 3.985969e-10
000140 d4 f3 14 36 04 8b 80 38 23 c1 22 38 af 9e 66 38
       2.2195645e-06 6.129409e-05 3.8803682e-05 5.498406e-05
000150 5e 44 48 39 8b a2 11 38 c9 93 b6 38 4c 6a d9 38
       0.00019098955 3.4722074e-05 8.7059634e-05 0.00010367166
000160 f3 33 aa 38 00 00 00 00 d1 3a b7 38 f6 f2 f1 38
       8.115908e-05 0.0 8.7370754e-05 0.000115370305
000170 70 77 10 39 87 8d e3 31 b9 6f 54 39 7f 3a a3 37
       0.00013777404 6.6226593e-09 0.00020259515 1.9458354e-05
000180 e7 4f 39 38 4f 29 82 39 92 79 aa 39 30 d2 15 39
       4.4181852e-05 0.0002482631 0.00032515504 0.00014288048
000190 61 5d 94 37 01 0f 0a 39 2e 5a 48 39 0e 61 7f 38
       1.7686458e-05 0.00013166295 0.00019107081 6.0887127e-05
0001a0 a0 16 13 38 0d c9 a7 38 71 ba 5f 39 03 e0 d6 38
       3.5068602e-05 8.000629e-05 0.00021336392 0.000102460406
0001b0 6c fc 08 39 bf f7 b4 39 31 dc 91 38 25 40 15 39
       0.00013064005 0.0003451686 6.955153e-05 0.00014233643
0001c0 95 3a 9e 39 66 0f 79 39 90 e9 20 39 0d f1 2a 39
       0.00030179755 0.00023752227 0.00015345798 0.00016302262
0001d0 94 24 26 39 15 a1 ce 38 2e 7e 0a 39 76 28 a1 39
       0.0001584462 9.852849e-05 0.00013207711 0.0003073846
0001e0 73 f7 2c 38 a4 6b 08 3a d5 2e 7d 38 4c c2 95 38
       4.123845e-05 0.0005204028 6.0363516e-05 7.141064e-05
0001f0 6a d1 08 39 cb 12 0b 39 90 f7 c6 38 40 27 c4 39
       0.00013047984 0.00013263074 9.487488e-05 0.00037413277
