models/model_20250730_193102_lr0.0001.pth (torch, 127058 bytes, 18 tensors)

fc1.weight f4 [128, 4]
0	0xbcf19209	-0.02948858
1	0x3e2e5a09	0.17026533
2	0xbf06cc06	-0.52655065
3	0x3ebb2dd9	0.36558416
4	0xbea5fc67	-0.3241913
5	0x3d4a6f36	0.049422465
6	0x3cf82bf3	0.030294394
7	0x3f0eee68	0.5583253
8	0x3f35d65e	0.71030223
9	0x3e9e22c0	0.30885887
10	0xbe76de71	-0.24108292
11	0x3d5bb5c5	0.053640146
12	0x3eed5001	0.463501
13	0xbea262e0	-0.3171606
14	0xbe881737	-0.26580212
15	0x3ec791f5	0.38978544
16	0xbcc1983f	-0.023632167
17	0x3ea58b95	0.32333055
18	0xbe2e482d	-0.1701972
19	0x3e531713	0.20614271
20	0x3e88cdba	0.26719457
21	0x3f1ea56f	0.6197118
22	0x3e3c3a8d	0.1838171
23	0x3f30d62d	0.69076806
24	0x3e2287da	0.15872136
25	0x3e505005	0.20343025
26	0x3ea0b115	0.31385103
27	0xbef059ae	-0.4694342
28	0xbd9c3471	-0.0762719
29	0xbec8afe8	-0.39196706
30	0x3ed69b5c	0.41915405
31	0xbeff0f4c	-0.49816358
32	0xbebc4017	-0.36767647
33	0x3ebf8bb6	0.37411278
34	0x3dd0ca58	0.10194844
35	0xbd154804	-0.036445633
36	0x3edb0eff	0.4278488
37	0x3f01359c	0.50472426
38	0x3eab48d4	0.33454
39	0xbeb2cdf9	-0.3492277
40	0xbeed614f	-0.46363303
41	0x3ea46de6	0.32115096
42	0x3ebdb01e	0.3704843
43	0x3f00ec27	0.5036034
44	0x3e0662e2	0.13123658
45	0xbeee3d0e	-0.46530956
46	0xbebb1601	-0.36540225
47	0xbecb16af	-0.39665744
48	0xbe897b63	-0.2685195
49	0xbe6074ac	-0.21919507
50	0xbcac198a	-0.021008272
51	0x3f2ab87e	0.6668776
52	0x3e8900b3	0.26758346
53	0xbeb06ef6	-0.34459656
54	0xbe8afdf0	-0.27146864
55	0x3f192b0c	0.5983131
56	0x3f27fb40	0.6561775
57	0x3c8b6f5b	0.017020872
58	0xbec52dbf	-0.38511464
59	0xbddcbeb9	-0.10778565
60	0xbe7654b0	-0.24055743
61	0x3f096d4b	0.5368239
62	0x3f20cb42	0.62810147
63	0x3e3f0a06	0.18656167
64	0xbeb2b31a	-0.3490227
65	0xbf013450	-0.5047045
66	0xbed2183a	-0.41034108
67	0x3ec6322f	0.38710162
68	0x3f0690cb	0.52564687
69	0x3e14d08b	0.14532678
70	0xbd96eac8	-0.07369
71	0xbf0588b3	-0.5216171
72	0x3ddf4c8a	0.109032705
73	0x3ec7c321	0.3901606
74	0x3f1b8c39	0.6076084
75	0xbe319814	-0.1734317
76	0xbf0778c6	-0.5291866
77	0x3dc77e57	0.09740894
78	0xbe4f1b8c	-0.20225352
79	0xbed6cf0c	-0.4195484
80	0x3f0b31f7	0.54373115
81	0xbda7a658	-0.081860244
82	0x3edc571a	0.43035203
83	0x3db3bdb5	0.08776418
84	0xbd17b596	-0.03703841
85	0xbde72565	-0.11286429
86	0xbe856788	-0.2605555
87	0x3f1d2586	0.6138538
88	0x3e716e39	0.23577203
89	0xbecd389a	-0.40082246
90	0x3ef207f9	0.47271708
91	0x3cd12100	0.025528431
92	0xbcadbe0c	-0.021208785
93	0x3efbf84e	0.4921288
94	0x3e9f21bb	0.31080422
95	0xbdf6dd52	-0.12053932
96	0x3e4accef	0.19804738
97	0x3eed86e4	0.46391976
98	0x3eca35b1	0.39494088
99	0x3db98926	0.09059362
100	0xbeb2bf57	-0.34911606
101	0xbe914fd0	-0.28381205
102	0x3ee8da13	0.45478877
103	0x3f03f661	0.5154782
104	0x3eb76e3a	0.35826284
105	0xbec1f122	-0.37879282
106	0xbda7b955	-0.08189646
107	0x3dc9c3ec	0.09851822
108	0xbf1d54e8	-0.6145768
109	0xbf161678	-0.58628035
110	0x3e9b9ca8	0.30392957
111	0x3e8ba03e	0.27270693
112	0xbecc3dde	-0.3989095
113	0xbec4b85c	-0.38421905
114	0x3d871959	0.065966316
115	0xbe320dbf	-0.17388056
116	0x3f0de2d9	0.5542427
117	0xbdc0daf9	-0.09416766
118	0x3f1cb71c	0.612169
119	0x3e3c47ef	0.18386815
120	0xbea948e1	-0.33063415
121	0x3f181f62	0.59422886
122	0x3edfba4e	0.43696827
123	0xbd6b81a7	-0.057496693
124	0xbebd662b	-0.3699201
125	0x3f0fccb4	0.5617173
126	0x3dbd190b	0.09233292
127	0xbe7d1297	-0.24714123
128	0x3f09e66f	0.5386724
129	0xbca2bc1c	-0.019865088
130	0x3f14d245	0.58133346
131	0xbd93d687	-0.07218652
132	0xbe557fa0	-0.20849466
133	0xbebc2706	-0.36748523
134	0xbd1cc73e	-0.03827595
135	0xbed80795	-0.42193285
136	0xbecc97c8	-0.3995955
137	0xbee7e4e2	-0.4529181
138	0xbe8c9868	-0.27460027
139	0xbe7bdb49	-0.2459537
140	0x3f16867d	0.5879896
141	0x3e55b999	0.20871581
142	0x3ee4ec05	0.4471132
143	0xbe70ab64	-0.2350288
144	0x3e54e96b	0.20792167
145	0xbe951bf5	-0.29122892
146	0x3d994d00	0.0748539
147	0xbe7c56bf	-0.24642466
148	0xbe89cb27	-0.26912805
149	0x3e9ed7ab	0.31023917
150	0x3ef676ad	0.48137417
151	0x3e7f4708	0.2492944
152	0x3e2a8a60	0.16654348
153	0xbdf2ec4e	-0.11861478
154	0x3ef860cd	0.48511353
155	0x3eaa2b2a	0.33236057
156	0x3f21842a	0.6309229
157	0xbe7c08df	-0.24612759
158	0x3f13b0d6	0.57691705
159	0xbc571585	-0.013127689
160	0x3e48faca	0.19626918
161	0xbea075b3	-0.31339797
162	0xbe962198	-0.29322505
163	0x3ee52a8c	0.44759023
164	0x3cc14474	0.023592211
165	0x3ed0e960	0.4080305
166	0xbc6c44e4	-0.014420722
167	0xbec58286	-0.38576144
168	0xbeece9d5	-0.4627215
169	0x3e8cf23c	0.2752856
170	0xbed5e603	-0.41777048
171	0xbe0cf842	-0.13766578
172	0xbe66758b	-0.22505777
173	0x3e800cd8	0.250098
174	0xbec0f4bd	-0.3768672
175	0x3f17dd1c	0.5932176
176	0xbec7b343	-0.39003953
177	0xbdc00369	-0.093756504
178	0x3f183aad	0.5946453
179	0x3e30026d	0.17188425
180	0x3ed6fb90	0.41988802
181	0x3f22a274	0.63529134
182	0x3ddef53e	0.1088662
183	0x3f1de736	0.61680925
184	0x3eed43e9	0.46340874
185	0xbe222dd5	-0.15837796
186	0xbc027d6f	-0.007964476
187	0xbddb18a3	-0.106980585
188	0x3e551a30	0.20810771
189	0x3e1a2dae	0.15056488
190	0xbf109367	-0.5647492
191	0x3db22392	0.08698191
192	0x3e985517	0.29752418
193	0x3e9caabf	0.3059902
194	0x3d097941	0.033562902
195	0xbe3bb5a7	-0.18331014
196	0x3defe52c	0.11713633
197	0xbdb7696a	-0.08955653
198	0xbdda7325	-0.10666493
199	0x3f1f7e09	0.6230169
200	0xbeedb71f	-0.46428773
201	0xbea5b7be	-0.32366747
202	0x3e88ddb3	0.26731643
203	0x3f1650bf	0.5871696
204	0x3eba3295	0.36366716
205	0xbea76fd4	-0.32702506
206	0xbd258fdf	-0.04042041
207	0x3db29ab9	0.08720917
208	0xbe9d6793	-0.30743083
209	0xbd82a25e	-0.06378625
210	0x3f08ce87	0.53440136
211	0xbecfb1fa	-0.40565473
212	0x3dac6d0e	0.08419238
213	0xbe1be64d	-0.15224572
214	0x3ecc6cb8	0.39926696
215	0x3f2dbc48	0.6786542
216	0x3e93e4ee	0.28885597
217	0xbf066808	-0.5250249
218	0xbedd8e6a	-0.43272716
219	0xbe8eb31b	-0.27871022
220	0x3ed9ee70	0.42564726
221	0x3e0e503c	0.13897794
222	0xbea4b45c	-0.32168853
223	0x3d861f19	0.065489
224	0x3ed3bd08	0.41355157
225	0x3e83038d	0.25588647
226	0xbe7a887a	-0.24466124
227	0x3ed9d347	0.42544004
228	0x3ecba426	0.39773673
229	0xbe204b10	-0.15653634
230	0x3ef4203c	0.47680843
231	0x3f275af5	0.65373164
232	0x3ce79e8e	0.028273847
233	0xbedc480b	-0.43023714
234	0xbe5eaa2c	-0.21744603
235	0xbc0bd535	-0.008534719
236	0xbf0f683b	-0.5601842
237	0x3eab74c8	0.33487535
238	0xbebb1960	-0.36542797
239	0xbedd6545	-0.43241325
240	0x3e3d51f3	0.18488292
241	0x3f14785a	0.5799614
242	0x3f0195b4	0.50619054
243	0x3ef539af	0.47895572
244	0x3f149fe3	0.5805647
245	0xbef870cb	-0.48523554
246	0x3e98f0c6	0.29871196
247	0x3cbd95b5	0.023142675
248	0x3dd9e50c	0.1063939
249	0x3e56aa2b	0.20963351
250	0xbf0bca98	-0.5460601
251	0xbe31949f	-0.1734185
252	0xbf0ecfd5	-0.55785877
253	0x3e9f59af	0.3112311
254	0x3f16ac57	0.5885672
255	0x3e6240d2	0.2209504

fc1.bias f4 [128]
0	0x3d9474f3	0.07248869
1	0x3f2d18ac	0.6761577
2	0xbe28f1ba	-0.16498461
3	0x3ec0409c	0.37549293
4	0x3f2e7b60	0.68157005
5	0x3e8ca19d	0.2746705
6	0x3ec0cde3	0.3765708
7	0xbea9ff3d	-0.33202544
8	0x3e8a3a24	0.26997483
9	0x3ebe0d29	0.37119415
10	0x3d8b37c9	0.067977495
11	0xbebe3120	-0.37146854
12	0x3f00e05b	0.5034234
13	0x3e825c8b	0.2546123
14	0x3e8e82e7	0.27834246
15	0x3f2be653	0.6714832
16	0xbe8d7e63	-0.27635488
17	0xbe244d11	-0.16045024
18	0x3e7f4463	0.24928431
19	0x3e9fb08d	0.31189385
20	0x3ecbdacd	0.3981537
21	0x3e53ce4d	0.20684166
22	0xbe7f3718	-0.2492336
23	0x3d618994	0.055062845
24	0x3ed98410	0.42483568
25	0xbe72eda4	-0.23723465
26	0x3e1c2ec2	0.15252212
27	0xbdc0ee07	-0.094204
28	0xbeae5aad	-0.34053555
29	0xbd19ca37	-0.037546363
30	0xbe9f5219	-0.31117323
31	0x3ee125e8	0.43974233
32	0xbe0b3b5e	-0.13596866
33	0xbdc5cf39	-0.09658665
34	0x3f0eeb76	0.55828035
35	0xbe3feffa	-0.18743888
36	0x3f3a79e9	0.7284227
37	0xbbad7c86	-0.0052943854
38	0xbecb5bba	-0.3971842
39	0x3e91590f	0.2838826
40	0x3ea1337b	0.3148459
41	0x3e824993	0.25446758
42	0x3d87c01c	0.06628439
43	0x3e80ccc1	0.25156215
44	0x3ed5179c	0.41619575
45	0x3db88f89	0.09011752
46	0x3eae8376	0.34084672
47	0x3eb26d5e	0.34849066
48	0xbdf88b79	-0.12135977
49	0xbe7cf596	-0.24703059
50	0x3f14cd24	0.5812552
51	0x3d10cd63	0.035352122
52	0xbdae306a	-0.08505328
53	0x3e36d904	0.17856222
54	0x3d07ac12	0.033123083
55	0x3cc378af	0.023861257
56	0xbed19ac1	-0.4093838
57	0xbe497201	-0.19672395
58	0xbe692c9e	-0.22770926
59	0x3eb9fa1c	0.3632363
60	0xbef8295c	-0.48469055
61	0x3ef84273	0.48488197
62	0xbe865643	-0.26237687
63	0x3e6036bd	0.21895881
64	0x3c308eab	0.010776202
65	0xbea4bf5d	-0.3217725
66	0xbe3f16b2	-0.18661001
67	0xbe2f0bec	-0.17094392
68	0x3f24c675	0.6436532
69	0xbd94382f	-0.07237279
70	0xbe89dce8	-0.2692635
71	0x3ed30a1c	0.4121865
72	0x3f0f5cf9	0.5600124
73	0xbe4edde1	-0.20201828
74	0x3ee1054b	0.4394935
75	0x3f4b6e6a	0.79465353
76	0x3f3a87b2	0.72863305
77	0x3e0e993a	0.13925639
78	0x3dd47d44	0.10375455
79	0x3e3978b9	0.18112458
80	0xbe8e5905	-0.27802292
81	0x3f4600ac	0.77344775
82	0x3f28d92c	0.6595638
83	0xbeb9b5ae	-0.36271423
84	0xbea61c74	-0.32443583
85	0x3e844c78	0.2583959
86	0x3f2a1400	0.6643677
87	0xbf035a77	-0.51309913
88	0xbcf281c8	-0.0296029
89	0xbedc55a1	-0.4303408
90	0xbed3a10a	-0.413338
91	0xbe2aea11	-0.16690852
92	0x3f414f69	0.75511795
93	0xbe910c34	-0.28329623
94	0x3ef34a74	0.4751774
95	0x3f432b19	0.76237637
96	0xbf07657e	-0.5288924
97	0xbef6be22	-0.48191935
98	0x3d2f7be5	0.042842764
99	0xbeb479e5	-0.35249248
100	0xbe92f78f	-0.28704497
101	0xbdeec17c	-0.11657998
102	0x3e1b7523	0.15181403
103	0x3ea6928c	0.3253368
104	0x3f3bde37	0.7338595
105	0x3f4a8728	0.7911248
106	0x3eb82fd6	0.35973996
107	0x3ec21adc	0.37911117
108	0x3d923c9b	0.07140466
109	0xbd94647a	-0.07245727
110	0x3e4200ba	0.1894559
111	0xbe7d6cd0	-0.2474854
112	0xbd14123f	-0.036150213
113	0x3e588118	0.21142995
114	0x3ddc2f72	0.10751237
115	0xbebac68e	-0.3647961
116	0x3e8ac88b	0.27106127
117	0x3e3a8f89	0.18218817
118	0x3f3d2063	0.73877543
119	0x3ed70ea4	0.42003357
120	0x3f3a0c6e	0.72675216
121	0xbee22f2e	-0.4417662
122	0x3eea8e8c	0.4581188
123	0xbeb04adc	-0.34432113
124	0x3f037f7d	0.51366407
125	0x3f32cbf1	0.6984244
126	0xbef2bc5b	-0.4740933
127	0x3e563882	0.20919994

fc2.weight f4 [64, 128]
0	0xbd9a9cc2	-0.075494304
1	0xbbdbc185	-0.006706419
2	0xbcb006ef	-0.021487681
3	0x3e39730a	0.1811029
4	0x3d9991b2	0.07498492
5	0x3d21db8c	0.039516017
6	0x3e338edd	0.17534967
7	0xbdc40c63	-0.09572675
8	0xbd492067	-0.049103167
9	0x3e0219f7	0.12705217
10	0xbdee3449	-0.11631066
11	0xbd226867	-0.039650347
12	0x3d5929cd	0.05301838
13	0x3d86ffbe	0.06591748
14	0x3dde8bb1	0.10866488
15	0x3cb8ade3	0.022543853
16	0xbe6ddea5	-0.23229463
17	0x3e89e16e	0.26929802
18	0x3e1d1dc9	0.15343393
19	0xbe85c568	-0.26127172
20	0x3d0f847c	0.035038456
21	0xbcf8f688	-0.030390993
22	0x3ca25fe2	0.019821111
23	0xbc83f693	-0.016108787
24	0x3e24a538	0.16078651
25	0xbe326bae	-0.17423889
26	0x3d041345	0.03224494
27	0xbdee4ce4	-0.116357595
28	0xbcf84e11	-0.030310662
29	0x3dbe1c39	0.09282727
30	0xbe6f399d	-0.23361821
31	0x3e405c15	0.18785127
32	0x3d91a9df	0.071124785
33	0xbde3e107	-0.11126905
34	0xbe83e504	-0.25760663
35	0x3da09134	0.07840195
36	0x3c0e6ca1	0.008692891
37	0xbdcb0707	-0.0991345
38	0xbe4d4542	-0.20045951
39	0x3db52076	0.08844082
40	0xbd35a6f5	-0.044348676
41	0x3ea7735d	0.32705203
42	0xbe01e724	-0.1268583
43	0xbbd7cf76	-0.0065860106
44	0x3e0eab61	0.13932563
45	0x3d3291fc	0.043596253
46	0x3e3bd4dc	0.18342918
47	0x3e663195	0.22479852
48	0x3dc2a1d0	0.095035195
49	0xbe80b0cb	-0.25134882
50	0x3d3be5e7	0.04587355
51	0x3de96314	0.11395851
52	0xbdf301b7	-0.118655615
53	0x3d7d3a35	0.06182309
54	0xbb05c963	-0.0020414225
55	0x3dcde1ab	0.100528084
56	0xbe9fd936	-0.31220406
57	0x3cd1bacd	0.025601769
58	0xbd416e73	-0.047224473
59	0xbe5e8bf2	-0.21733072
60	0xbda35ff6	-0.079772875
61	0x3e2cab96	0.1686233
62	0x3e07c09a	0.13257065
63	0x3d111692	0.035421915
64	0x3cfac824	0.030613013
65	0xbde82174	-0.11334506
66	0xbdf23659	-0.11826772
67	0xbd375d55	-0.044766743
68	0x3e081db5	0.13292582
69	0x3e13340a	0.1437532
70	0xbe69a27e	-0.22815892
71	0xbe8a1112	-0.2696615
72	0x3de96961	0.113970526
73	0xbc9c40c5	-0.019073853
74	0xbdad07be	-0.08448742
75	0x3de9c1d2	0.114139214
76	0x3e623a98	0.22092664
77	0x3d99bee3	0.07507112
78	0x3da7f051	0.082001336
79	0x3e6388e3	0.22220187
80	0xbdee9826	-0.11650114
81	0x3da179a2	0.07884528
82	0x3e23a420	0.15980577
83	0xbde7d1da	-0.11319323
84	0xbde08856	-0.10963504
85	0x3e183231	0.14862897
86	0x3e94a231	0.29029992
87	0xbe46af44	-0.19402796
88	0xbd281ba9	-0.041042004
89	0xbd825527	-0.06363898
90	0xbda950d9	-0.082673736
91	0xbd77c8f0	-0.060494363
92	0x3eaad8ca	0.33368522
93	0xbe462480	-0.19349861
94	0x3ca77d6e	0.020445552
95	0x3e6cab25	0.23112161
96	0xbe5a4bb9	-0.21317948
97	0xbe169ac5	-0.14707477
98	0xbe8097c3	-0.25115785
99	0xbdab27fa	-0.08357234
100	0xbd7afffd	-0.061279286
101	0xbe8580fc	-0.2607497
102	0x3d5c288b	0.053749602
103	0x3e3e6c44	0.18595988
104	0x3e0a768d	0.13521786
105	0x3e4c861e	0.19973037
106	0x3da5332e	0.080664024
107	0x3d567879	0.052360985
108	0xbe834c94	-0.25644362
109	0x3de44ce0	0.11147475
110	0x3e4f91fb	0.20270531
111	0xbc8d5640	-0.017253041
112	0xbd502477	-0.050816026
113	0xbd4b40bc	-0.049622282
114	0xbd15a16b	-0.036530893
115	0xbd4d7f67	-0.05017033
116	0xbe291599	-0.16512145
117	0xbce8b2ce	-0.028405573
118	0x3dfd291a	0.12361355
119	0x3d39857a	0.04529331
120	0x3d863221	0.0655253
121	0xbe899ddb	-0.26878247
122	0xbe906a9d	-0.2820634
123	0xbe31d3b4	-0.17365915
124	0x3e0de91f	0.1385846
125	0x3e6153bf	0.22004603
126	0xbe077b8a	-0.1323072
127	0x3d056a30	0.03257197
128	0x3da6ab6f	0.08138167
129	0x3e0378c2	0.12839034
130	0x3cda3dbb	0.026640764
131	0x3d8cbee1	0.06872345
132	0x3e0a11ee	0.13483402
133	0x3d8e80aa	0.069581345
134	0xbde7654c	-0.11298618
135	0xbcf2b47b	-0.029627075
136	0x3df28ddb	0.11843463
137	0xbd4c837f	-0.049930092
138	0x3da427d5	0.0801541
139	0xbda1167f	-0.07865619
140	0x3e81632e	0.2527098
141	0x3e40e334	0.18836671
142	0xbcbcf440	-0.023065686
143	0x3df70088	0.12060648
144	0xbe374989	-0.17899145
145	0xbea75324	-0.3268062
146	0x3b60fb7f	0.003432959
147	0xbe364cd1	-0.1780274
148	0x3da1cf62	0.07900883
149	0x3e01bdf3	0.12670116
150	0x3d6e1156	0.058122
151	0xbd67241f	-0.056430932
152	0x3cf4652e	0.029833402
153	0x3e820fab	0.2540258
154	0x3e075b30	0.13218379
155	0x3b452e15	0.0030087281
156	0xbd20364d	-0.039114285
157	0x3d986566	0.07441215
158	0x3d754fa6	0.05989041
159	0xbceccba9	-0.028905706
160	0xbb1e908a	-0.0024195039
161	0xbdedf70e	-0.116193876
162	0xbeb09689	-0.3448985
163	0xbdabddb0	-0.08391893
164	0xbd7ab9d2	-0.06121237
165	0x3e348875	0.17630179
166	0x3cadf029	0.021232681
167	0x3ca2b795	0.01986293
168	0x3e2f0f5c	0.17095703
169	0xbe910c81	-0.28329852
170	0xbe42d612	-0.19026974
171	0x3e353228	0.17694914
172	0x3e147994	0.14499503
173	0x3d70ef9a	0.05882225
174	0xbdaa0ceb	-0.08303245
175	0x3da5a4f4	0.08088103
176	0xbddc7ac6	-0.10765605
177	0x3e4fbb2b	0.20286243
178	0x3e325441	0.17414953
179	0x3d8c7f4e	0.06860219
180	0xbc2c33be	-0.010510383
181	0x3d6acf77	0.05732676
182	0xbdc595ec	-0.09647736
183	0xbd1707d7	-0.03687271
184	0x3e22a96d	0.15884943
185	0x3d6ee524	0.058323994
186	0x3dbecf06	0.0931683
187	0xbe35514d	-0.17706795
188	0x3dea7093	0.11447253
189	0xbd43366c	-0.047659323
190	0x3c89b58f	0.016810207
191	0x3de5813d	0.11206291
192	0xbdea4a1e	-0.11439918
193	0x3db70e69	0.089382954
194	0x3dae2985	0.08504013
195	0xbdcefc88	-0.1010676
196	0xbd04f853	-0.032463383
197	0xbe42c907	-0.19021998
198	0x3e88a8c3	0.26691255
199	0xbe635e72	-0.22203997
200	0x3dd3dee8	0.1034525
201	0xbd36f700	-0.04466915
202	0xbe694ab3	-0.22782402
203	0x3de25057	0.1105048
204	0xbd9abbb4	-0.07555333
205	0x3d198a78	0.03748557
206	0x3ddf851b	0.1091406
207	0xbc5a2744	-0.013315026
208	0x3e27fc79	0.16404904
209	0xbc7a1df3	-0.0152659295
210	0x3d1921b3	0.037385654
211	0x3d57fba8	0.052730232
212	0xbd323648	-0.043508798
213	0xbdc09e58	-0.09405202
214	0xbe1c2083	-0.15246777
215	0x3d378a7d	0.044809807
216	0x3c9ea7ac	0.019367062
217	0xbdd9274b	-0.10603198
218	0x3e2511e0	0.161201
219	0xbc5cf22c	-0.013485473
220	0xbe24ad57	-0.16081749
221	0x3e4ce331	0.20008542
222	0x3d78df02	0.06075955
223	0x3d11ba79	0.035578225
224	0x3c1ce595	0.009576221
225	0x3bc4e69a	0.006008935
226	0xbe351637	-0.17684256
227	0x3db8c010	0.09021008
228	0xbc9d1102	-0.019173149
229	0xbd91bb50	-0.07115805
230	0x3dbdaf14	0.09261909
231	0x3df1c783	0.11805632
232	0x3d06659a	0.03281174
233	0x3e2824b0	0.16420245
234	0x3e005eda	0.12536183
235	0x3d6a0162	0.057130225
236	0xbd5b6d86	-0.053571247
237	0x3d584808	0.05280307
238	0x3dbd78ca	0.09251554
239	0xbe4c82f7	-0.19971834
240	0x3deff4c6	0.11716609
241	0x3e41b778	0.18917644
242	0x3e35b923	0.17746405
243	0x3e03aa97	0.12858044
244	0xbe8fa5c1	-0.28056148
245	0x3c6358bc	0.013876136
246	0x3b8d3e2d	0.0043103904
247	0xbd9f7cb3	-0.07787456
248	0x3e5d19d5	0.21591885
249	0x3db770bc	0.08957049
250	0xbea9da93	-0.3317457
251	0x3d25ecf1	0.040509168
252	0x3ce45c8a	0.027876157
253	0xbd9043f0	-0.07044208
254	0x3bcd5b0c	0.006266957
255	0xbe815b64	-0.25265038

fc2.bias f4 [64]
0	0x3e2007dd	0.15628
1	0x3cfcf801	0.030879976
2	0x3b47bb4d	0.003047663
3	0xbd5e4d59	-0.054272983
4	0xbe21eeca	-0.15813747
5	0x3e412939	0.18863381
6	0x3c5cede5	0.013484453
7	0x3bbb0a3e	0.005708008
8	0xbd170e07	-0.036878612
9	0x3e1e1761	0.15438606
10	0xbd9769f0	-0.07393253
11	0xbcf865fd	-0.03032207
12	0xbbdc800f	-0.006729133
13	0x3dad08bc	0.084489316
14	0xbd9a7d52	-0.07543434
15	0x3e6db824	0.23214775
16	0x3d895543	0.067057155
17	0x3dc9ba80	0.09850025
18	0x3e0f584e	0.1399853
19	0x3dfbffdf	0.12304663
20	0x3cfe2ac0	0.031026244
21	0xbc5e4d97	-0.013568304
22	0x3deda127	0.11603003
23	0x3e680807	0.22659312
24	0x3dc4d2f2	0.09610547
25	0x3df612fb	0.12015339
26	0x3d442978	0.04789111
27	0xbd94cc31	-0.07265509
28	0xbdeae880	-0.11470127
29	0xbc25d730	-0.0101221055
30	0xbcdca488	-0.026933923
31	0x3e05d265	0.1306854
32	0x3e22ec16	0.15910372
33	0x3df8d662	0.12150265
34	0x3de74ef1	0.11294354
35	0xbc2406e0	-0.010011405
36	0x3e4bd86b	0.19906776
37	0xbd8eb35d	-0.069678046
38	0xbe2a529e	-0.16633078
39	0x3e8df89c	0.27728736
40	0x3d8de8fc	0.06929204
41	0x3cdda10b	0.02705433
42	0xbb665160	-0.0035143718
43	0x3d830b29	0.06398613
44	0x3e0222e3	0.1270862
45	0x3e1baafd	0.15201946
46	0x3e079127	0.13238965
47	0x3d15af2c	0.03654401
48	0x3dd1b777	0.10240071
49	0xbd86b30d	-0.0657712
50	0x3e0dd6eb	0.13851516
51	0xbd587915	-0.052849848
52	0x3cef541c	0.029214911
53	0xbd4f5508	-0.0506182
54	0x3c587e74	0.0132137425
55	0x3e5c4b82	0.21513179
56	0xbdb29ab9	-0.08720917
57	0x3e0885f2	0.13332346
58	0x3dac12b0	0.08402002
59	0x3e4d085a	0.20022717
60	0xbd8e071b	-0.06934949
61	0xbd2e3f02	-0.042540558
62	0x3d0a4434	0.03375645
63	0x3d8328ac	0.06404242

fc3.weight f4 [15, 64]
0	0xbe3f6086	-0.18689165
1	0xbe7776d2	-0.2416642
2	0xbe2c2ef1	-0.16814782
3	0xbe89e835	-0.26934972
4	0xbe0e3ab9	-0.13889588
5	0x3e7fe42b	0.24989383
6	0xbe24ebbc	-0.1610555
7	0x3d08c484	0.033390537
8	0xbe7397dc	-0.23788399
9	0x3e448ee3	0.19195132
10	0x3dfb80f6	0.12280457
11	0xbdecbb19	-0.115591235
12	0xbe8f99cc	-0.28047025
13	0xbe6214fb	-0.22078316
14	0xbddb3196	-0.10702817
15	0x3e297bba	0.16551104
16	0x3e05a68d	0.13051815
17	0xbe816675	-0.2527348
18	0xbd8009a1	-0.062518366
19	0x3e32e8bd	0.17471595
20	0xbe1a394a	-0.15060917
21	0xbe93fac4	-0.28902256
22	0x3d74a4da	0.059727527
23	0x3e1ea4e4	0.15492588
24	0x3dc1f3fa	0.09470363
25	0xbdeca0eb	-0.1155413
26	0x3dee7d25	0.11644963
27	0x3de2727e	0.11056994
28	0xbe463592	-0.19356373
29	0x3e08242e	0.13295051
30	0xbe9868df	-0.2976751
31	0x3d8f8d1d	0.07009337
32	0x3e4ceb53	0.20011644
33	0x3dc4a2f0	0.0960139
34	0x3d294da4	0.04133381
35	0x3cd68daf	0.026190607
36	0x3e7c0dd6	0.24614653
37	0xbe426810	-0.18985009
38	0xbe8a3456	-0.26993054
39	0x3e5df766	0.21676406
40	0xbe8794cf	-0.2648072
41	0xbea37ed6	-0.31932706
42	0x3dcd7242	0.100315586
43	0xbd93c3fe	-0.07215117
44	0x3e416da3	0.1888948
45	0xbe82147c	-0.25406253
46	0x3e7219ff	0.23642729
47	0xbe55ded9	-0.20885791
48	0xbe0d0d91	-0.13774706
49	0xbeb397aa	-0.35076648
50	0x3e675d91	0.22594287
51	0xbea34029	-0.31884888
52	0xbe53ee31	-0.20696332
53	0xbe5999cf	-0.2125008
54	0x3c28f440	0.01031214
55	0x3e7de22d	0.2479331
56	0xbe03d5db	-0.12874548
57	0x3e14c68f	0.14528869
58	0x3e1ec25e	0.15503833
59	0x3e5c68b9	0.21524324
60	0xbeaab83d	-0.33343688
61	0xbe877563	-0.26456746
62	0xbe963b1a	-0.29341966
63	0xbe5c75a4	-0.21529251
64	0xbd6f2ace	-0.05839043
65	0x3c956d16	0.018240493
66	0xbd109460	-0.03529775
67	0xbe3887c2	-0.18020537
68	0xbe9d6bf8	-0.30746436
69	0x3e80716e	0.2508654
70	0xbe7637f2	-0.24044779
71	0xbdebedb9	-0.115199514
72	0xbe515021	-0.20440723
73	0x3e08f203	0.1337357
74	0x399dfe00	0.00030134618
75	0x3d892e48	0.066982806
76	0xbe5e78ce	-0.21725771
77	0x3d290a8d	0.041269828
78	0xbdfbe9e1	-0.12300468
79	0x3e29756d	0.165487
80	0xbe8d05db	-0.2754353
81	0x3e57ccd4	0.2107423
82	0x3e3cb4ab	0.18428294
83	0xbd94fd83	-0.07274916
84	0x3dfc9c1b	0.12334462
85	0xbd961c0d	-0.07329569
86	0xbe94958f	-0.29020354
87	0x3e495c50	0.1966412
88	0xbd403a5c	-0.046930656
89	0x3e669995	0.22519524
90	0xbc9df9f5	-0.019284228
91	0xbdf035b6	-0.117289945
92	0xbe970046	-0.29492396
93	0x3e03fc9d	0.12889333
94	0xbe01b4f2	-0.12666681
95	0x3dfaed2b	0.122522675
96	0x3e543e7a	0.20726958
97	0xbdba011f	-0.09082245
98	0x3e6a1064	0.22857815
99	0xbe9f67c3	-0.3113385
100	0x3e7b1b99	0.24522246
101	0xbe461386	-0.19343385
102	0xbe5108d8	-0.2041353
103	0x3d0b55d8	0.034017414
104	0x3e3a9a10	0.18222833
105	0x3d99dbe0	0.07512641
106	0xbdc314fc	-0.09525487
107	0xbd607e0c	-0.054807708
108	0xbe4e75e4	-0.20162159
109	0xbd988dae	-0.07448898
110	0x3d3e9eae	0.046538047
111	0xbe9e7868	-0.30951238
112	0x3e1d298c	0.1534788
113	0x3d00c6a3	0.031439435
114	0xbe17bcf9	-0.14818181
115	0xbe5d889a	-0.2163414
116	0xbe85d5d6	-0.26139706
117	0xbea8fffa	-0.33007795
118	0xbdec42cd	-0.11536179
119	0x3d8ca8aa	0.068681076
120	0xbe880095	-0.26562944
121	0xbdf48b65	-0.1194065
122	0xbe3ebbb2	-0.18626288
123	0x3d9cb10b	0.07650956
124	0xbdcfec9e	-0.10152553
125	0xbe99afd6	-0.30016965
126	0xbe669854	-0.22519046
127	0xbe5f35bd	-0.21797843
128	0xbd1bb66f	-0.03801578
129	0x3dd0cb80	0.101950645
130	0x3e4ba634	0.1988762
131	0xbeb595aa	-0.35465747
132	0xbe7326b6	-0.23745236
133	0x3e3a6b14	0.1820491
134	0x3d85141d	0.06497977
135	0xbe4afff8	-0.19824207
136	0xbd944c6e	-0.0724114
137	0x3db8a227	0.09015303
138	0x3dfa7132	0.122286215
139	0x3dc6c32a	0.09705193
140	0xbdfa32a8	-0.12216693
141	0x3d2ce1db	0.04220758
142	0x3d046dda	0.032331325
143	0x3da812b5	0.08206693
144	0xbd41bf3c	-0.047301516
145	0x3e0e712d	0.1391036
146	0x3e62809f	0.22119378
147	0x3d9d8c52	0.076927796
148	0xbd6d310a	-0.057908095
149	0xbb5a3012	-0.0033292812
150	0xbc03feba	-0.008056337
151	0xbda979d8	-0.08275193
152	0xbd4e1355	-0.050311405
153	0xbd34e6b9	-0.044165347
154	0xbd24f8de	-0.0402764
155	0x3de684d2	0.11255802
156	0x3bf34562	0.0074240426
157	0x3dce7c02	0.10082246
158	0xbe6e862b	-0.23293369
159	0x3dea27a9	0.11433346
160	0xbc818222	-0.015809122
161	0xbd6fca4d	-0.05854254
162	0x3e71f020	0.23626757
163	0xbdd2243b	-0.10260817
164	0xbc11f9a4	-0.008909617
165	0xbe695797	-0.22787319
166	0xbe9652ca	-0.29360038
167	0x3e48a5d6	0.19594511
168	0xbe4832fc	-0.19550699
169	0xbe7e7717	-0.24850117
170	0x3c8cd370	0.017190665
171	0xbd1262af	-0.035738643
172	0xbea0afa7	-0.31384012
173	0xbe892690	-0.26787233
174	0x3e522c8c	0.20524806
175	0xbdf2288f	-0.11824142
176	0xbdb98724	-0.09058979
177	0x3e4e22fe	0.20130536
178	0xbe701ce3	-0.2344852
179	0x3e3c3182	0.1837826
180	0xbe0673f5	-0.13130172
181	0xbdffa9cb	-0.12483557
182	0xbd52ad9e	-0.051435106
183	0xbef2145f	-0.47281167
184	0x3d196d73	0.037457895
185	0x3d1a5e0a	0.03768734
186	0x3db676ea	0.089094
187	0x3e1c3827	0.15255795
188	0xbe905ecc	-0.28197324
189	0xbe2fa202	-0.17151645
190	0xbdbe9866	-0.093064114
191	0x3d7262b2	0.059176154
192	0xbea67d5e	-0.32517523
193	0x3db1e93e	0.086870655
194	0xbe834190	-0.25635958
195	0xbe973304	-0.2953111
196	0xbe88f64a	-0.26750404
197	0x3d62e119	0.05539045
198	0xbc81eef7	-0.015861018
199	0xbe18def0	-0.14928794
200	0xbe36e282	-0.17859843
201	0xbd85a2b6	-0.06525175
202	0x3dd17ef0	0.102292895
203	0xbccf1843	-0.025280124
204	0xbe853e68	-0.26024175
205	0x3c0b9cfd	0.008521316
206	0xbdbdc583	-0.09266188
207	0x3dea3dc9	0.11437566
208	0xbea08c16	-0.31356877
209	0x3e24d77d	0.16097827
210	0xbecca8e9	-0.39972618
211	0xbea843f7	-0.32864353
212	0xbe01d6f3	-0.12679653
213	0x3ddf4798	0.10902327
214	0xbeae6484	-0.34061062
215	0xbed92140	-0.4240818
216	0xbeb5f994	-0.35541975
217	0x3e01f31d	0.12690397
218	0xbe381414	-0.17976409
219	0x3c0e7468	0.008694746
220	0x3e033ac1	0.12815382
221	0x3db31de9	0.08745939
222	0xbe50ccae	-0.20390579
223	0x3db33d53	0.08751931
224	0x3e43b286	0.1911107
225	0xbe8104ce	-0.25198978
226	0xbc8e15dd	-0.01734441
227	0xbe840111	-0.25782064
228	0x3d2809dd	0.04102503
229	0x3c80716b	0.015679082
230	0xbdc77df2	-0.09740819
231	0x3d7ad7dd	0.06124102
232	0x3e533743	0.2062655
233	0x3dab7c02	0.08373262
234	0x3bebc020	0.007194534
235	0x3cba3c73	0.022733903
236	0xbdd66311	-0.10468114
237	0xbe82b55f	-0.25529
238	0x3d47738d	0.048694182
239	0x3d83d763	0.06437566
240	0xbe677828	-0.2260443
241	0x3e724e78	0.23662746
242	0xbd9dc7bc	-0.07704112
243	0xbcd66784	-0.026172407
244	0xbec3ebb0	-0.38265753
245	0xbe426325	-0.18983133
246	0xbdb73e1e	-0.08947395
247	0xbebf6f29	-0.37389496
248	0x3d673338	0.05644533
249	0xbe13106e	-0.14361736
250	0xbba6bcfc	-0.0050884467
251	0x3e13af5c	0.14422363
252	0xbe14a599	-0.14516295
253	0x3d8b92ae	0.06815086
254	0xbe909d60	-0.28245068
255	0x3e3ffe83	0.18749432

fc3.bias f4 [15]
0	0xbd170d2e	-0.036877804
1	0x3dfd702f	0.12374913
2	0xbd108ac6	-0.035288595
3	0x3d590880	0.05298662
4	0x3df8c485	0.12146858
5	0x3dbafbc9	0.091300555
6	0x3c338b3f	0.010958492
7	0x3db354ef	0.08756434
8	0xbe100067	-0.14062653
9	0xbd0d1dfe	-0.03445243
10	0xbde9eba9	-0.11421902
11	0xbe25486b	-0.16140907
12	0xbd4fb04c	-0.05070524
13	0xbe1edb3f	-0.15513323
14	0x3c195d2f	0.009360596

exp_avg f4 [128, 4]
0	0x3b0bee05	0.0021351587
1	0x3b2eba85	0.0026661467
2	0x3a8f53db	0.0010935025
3	0x3aac22ed	0.0013132967
4	0x3b27a700	0.0025581717
5	0x3aac90e4	0.0013165739
6	0xba8efd5e	-0.001090925
7	0x3b62dca6	0.003461638
8	0xbac14d74	-0.0014747814
9	0xba92b248	-0.0011192048
10	0x3b07735a	0.002066812
11	0xbb3ca6f0	-0.0028786026
12	0xbb9682cc	-0.004593229
13	0xbb8b6362	-0.0042537907
14	0xbb4de6b4	-0.0031418027
15	0xbb1a4992	-0.0023542386
16	0xbb0d177f	-0.0021528897
17	0xbb3a596b	-0.0028434645
18	0xbb62d477	-0.0034611502
19	0xb774ed00	-1.4598714e-05
20	0x3be6c2c6	0.007042262
21	0x3baeecb6	0.0053382767
22	0x3b9031fd	0.0044004903
23	0x3b612a57	0.0034357512
24	0xbc51b70c	-0.012799989
25	0xbc46626c	-0.012108427
26	0xbc15f8fc	-0.009153601
27	0xbba3ff3e	-0.0050047925
28	0x350b3d18	5.187044e-07
29	0x35095c2e	5.1170616e-07
30	0xb5a69df0	-1.241393e-06
31	0x3479c005	2.3259788e-07
32	0xbc17bfd7	-0.009262047
33	0xbc1d3d4a	-0.009597132
34	0xbc3d8713	-0.011567849
35	0xbb084b72	-0.0020796922
36	0xbb881faa	-0.0041541653
37	0xbb892309	-0.0041850847
38	0xbb1206ab	-0.0022281806
39	0xbb02da19	-0.0019966422
40	0x3c04a286	0.008095389
41	0x3c065b78	0.008200519
42	0x3b98d526	0.004664081
43	0x3bb5c0ea	0.005546679
44	0xb69f790a	-4.75266e-06
45	0x3721cfc9	9.644727e-06
46	0x37486b1f	1.194587e-05
47	0x3481c493	2.417115e-07
48	0x3aac6cb2	0.0013154952
49	0x3a11fc4c	0.0005568906
50	0xbb08e3cf	-0.0020887738
51	0x3b4f8ced	0.0031669692
52	0x3aaf5420	0.0013376512
53	0x3a97d9c8	0.001158529
54	0x3a3f6a10	0.00073018763
55	0x3abeb75f	0.0014550498
56	0xbc40e5e6	-0.011773562
57	0xbc3eebf4	-0.011652935
58	0xbc0f6937	-0.0087531125
59	0xbc06cace	-0.008227063
60	0x3ac7f538	0.0015255576
61	0x3a0c698c	0.0005356304
62	0xb9dca53c	-0.0004208478
63	0x3ae34918	0.0017340509
64	0xb8fb6f7d	-0.00011989379
65	0x39807108	0.00024498277
66	0x3991f986	0.00027842465
67	0x3a321117	0.0006792708
68	0xbc8a8d00	-0.016912937
69	0xbc668557	-0.014069877
70	0xbc1d3d90	-0.009597197
71	0xbc0f7acc	-0.008757304
72	0x3a38af7c	0.0007045192
73	0xb8e54950	-0.000109332264
74	0x39902a18	0.00027497183
75	0x3a16802c	0.0005741145
76	0x3ada8ca8	0.0016673999
77	0x39d2f5aa	0.00040237355
78	0xb92af0c4	-0.00016302156
79	0xb9c71b3d	-0.00037976532
80	0xbad2097e	-0.0016024557
81	0xbb10ff60	-0.0022124872
82	0xba8642a8	-0.0010243254
83	0xba3ab4f8	-0.00071223034
84	0x3b699e51	0.0035647342
85	0x3b553e87	0.003253849
86	0x3a4035e0	0.0007332247
87	0x3b03b7d6	0.0020098588
88	0x3a8f386b	0.0010926848
89	0x3b04ee6b	0.002028371
90	0x3b0a73b4	0.0021126093
91	0x3a054257	0.0005083433
92	0x3a89688a	0.0010483426
93	0xb9a7e278	-0.00032021455
94	0xb96a3cc0	-0.0002233861
95	0x39fcbd40	0.00048206188
96	0x3aa32160	0.001244586
97	0x38fe5e70	0.00012129254
98	0x39009680	0.00012263097
99	0x3aa1fecf	0.0012359264
100	0x3b71d6e2	0.0036901762
101	0x3bbbcc6c	0.005731156
102	0x3b174e3e	0.0023087407
103	0x3b1d8450	0.0024035163
104	0xbc401fbd	-0.011726317
105	0xbc0b55b1	-0.008504317
106	0xbbd7822e	-0.006576798
107	0xbba60ae7	-0.0050672176
108	0xb92ede9b	-0.0001667686
109	0x39bf7cfb	0.00036523477
110	0x39f1ad58	0.00046096253
111	0x3a10adcd	0.00055190624
112	0x34df6aa2	4.1614572e-07
113	0x34d3b77d	3.9435318e-07
114	0xb5134a2d	-5.486971e-07
115	0x31c3c3da	5.6975127e-09
116	0x3ba424ce	0.0050092703
117	0x3b97c7b4	0.0046319608
118	0x3b98f006	0.004667285
119	0x3a88f95d	0.0010450293
120	0x3c0027a3	0.00782195
121	0x3bfcd534	0.0077158455
122	0x3bc08492	0.0058751786
123	0x3b06a308	0.0020543952
124	0xbc202c56	-0.0097761955
125	0xbc392f74	-0.011302818
126	0xbc3c73e4	-0.01150224
127	0xbb03bb98	-0.0020100828
128	0x3b41560e	0.0029500755
129	0x3b31b3ab	0.0027115147
130	0x3b76dcce	0.003766823
131	0x3a2f14a0	0.00066787936
132	0xb7f0816e	-2.86705e-05
133	0x37ef8e46	2.8557271e-05
134	0xb37152cc	-5.618749e-08
135	0x3850274c	4.9627663e-05
136	0x3a9bb62e	0.0011879855
137	0x3a5d1633	0.0008433789
138	0x39b28396	0.00034048845
139	0x3a42b61c	0.0007427649
140	0xba6c4d1c	-0.0009014176
141	0xba35ca64	-0.00069347606
142	0x3aee0b65	0.0018161355
143	0xba8378b6	-0.0010030481
144	0xbcbb20b0	-0.022842735
145	0xbcaed718	-0.021342799
146	0xbc988af6	-0.01862095
147	0xbc276e25	-0.010219132
148	0x3c0333b0	0.008007929
149	0x3be63c6d	0.0070262463
150	0x3b98dd39	0.0046650437
151	0x3b995514	0.0046793316
152	0x3c89b016	0.016807597
153	0x3c7e535c	0.015522804
154	0x3c53c437	0.012925199
155	0x3bb6e3c7	0.0055813524
156	0xbb5d85c7	-0.0033801661
157	0xbb6be33c	-0.0035993597
158	0xbae44a30	-0.0017417129
159	0xbb0cf4c3	-0.0021508194
160	0xbb9c116e	-0.00476282
161	0xbb27529d	-0.002553142
162	0xbae5a109	-0.0017519306
163	0xba038e90	-0.0005018497
164	0xbc98461a	-0.018588115
165	0xbca1d4c4	-0.019754775
166	0xbc73f3ef	-0.014889701
167	0xbc018e70	-0.007907495
168	0x3a4e525f	0.00078705506
169	0x392341e4	0.00015569438
170	0xb998ce58	-0.00029145437
171	0xb9b6b7ec	-0.00034850778
172	0x3b74904a	0.0037317448
173	0x3b81aaff	0.003957152
174	0x39dd74b0	0.00042239344
175	0x3b727df8	0.0037001353
176	0xba3fc8ae	-0.00073159754
177	0xbb06e659	-0.0020584075
178	0xbb4d9d69	-0.0031374341
179	0x3b4f3d48	0.003162222
180	0x3bd39c4f	0.0064578424
181	0x3ba56ced	0.0050483854
182	0x3b99a23e	0.00468853
183	0x3b18c051	0.002330799
184	0xbc10afba	-0.008830959
185	0xbc1631ea	-0.009167174
186	0xbbbed2e4	-0.00582348
187	0xbbb16504	-0.0054136533
188	0xbc572f34	-0.013133813
189	0xbc45af90	-0.012065783
190	0xbc1d5e19	-0.009604954
191	0xbbe46250	-0.0069697276
192	0xbb9826d5	-0.004643301
193	0xbba32454	-0.004978696
194	0xbaa64164	-0.0012684283
195	0xbb9bb9ed	-0.0047523887
196	0x3c315530	0.010823533
197	0x3c215732	0.009847449
198	0x3bf04c85	0.0073333406
199	0x3b26374a	0.0025362545
200	0x3b58e6ef	0.0033096632
201	0x3b15db4a	0.0022866302
202	0xba8d608a	-0.0010786217
203	0x3b81ed53	0.003965059
204	0xbc362d90	-0.011119261
205	0xbbdd660c	-0.0067565497
206	0xbba2b84a	-0.0049658166
207	0xbb8edc9f	-0.004359796
208	0xba593f77	-0.000828735
209	0xba949c48	-0.0011338079
210	0xbadcb7ba	-0.0016839423
211	0xb9c4d8ca	-0.00037545554
212	0x3c167713	0.009183663
213	0x3bea7012	0.007154473
214	0x3bb47efc	0.005508302
215	0x3b7d23e0	0.003862612
216	0xbaaac17c	-0.0013027634
217	0x394bbf12	0.00019430768
218	0xb91e5061	-0.00015097998
219	0x390c5e29	0.00013386518
220	0xbb97ac9a	-0.00462873
221	0xbb6d5c64	-0.00362184
222	0xba877aa8	-0.0010336237
223	0xbb8b894a	-0.0042583095
224	0x3c6b54b7	0.014363459
225	0x3c57204a	0.013130257
226	0x3c455936	0.012045195
227	0x3a6dc220	0.00090697594
228	0x3bfb813e	0.007675319
229	0x3bd87e00	0.0066068172
230	0x3bbbdaec	0.0057328846
231	0x3afdcaac	0.0019362769
232	0xb7e53939	-2.7325574e-05
233	0x3793dcd0	1.762659e-05
234	0x37b95cb5	2.2096889e-05
235	0x3791e7fd	1.7393375e-05
236	0x3abb7d14	0.0014304244
237	0x39dbe084	0.00041938212
238	0xb9bf4cab	-0.0003648748
239	0xba2b8dbb	-0.0006544252
240	0x3c278862	0.010225387
241	0x3c1a75fc	0.009427544
242	0x3c016bf5	0.007899274
243	0x3b520ad8	0.003204992
244	0xbbaf6182	-0.0053522
245	0xbbb354ce	-0.005472756
246	0xbb641b14	-0.003480618
247	0xbb39b91c	-0.0028339094
248	0xb9e52510	-0.00043705897
249	0xb99ac3d7	-0.0002951908
250	0x3971290a	0.00022998839
251	0x386a6ecd	5.589314e-05
252	0x3b5a4e7c	0.003331094
253	0x3b3c71d8	0.002875438
254	0x3a121018	0.0005571856
255	0x3b885d60	0.004161522

exp_avg_sq f4 [128, 4]
0	0x38a4fd7a	7.867343e-05
1	0x38986d4d	7.268284e-05
2	0x38820770	6.2002684e-05
3	0x38f3c926	0.0001162461
4	0x39a1e147	0.00030876158
5	0x398efad3	0.0002727123
6	0x398a5a46	0.0002638867
7	0x397153ed	0.00023014816
8	0x39c48ef9	0.00037490556
9	0x39def826	0.00042528025
10	0x39dd3325	0.0004219051
11	0x39eb8676	0.00044922874
12	0x38d61e25	0.0001020993
13	0x38e0d157	0.00010720145
14	0x38d44f6d	0.00010123742
15	0x38ee8692	0.0001137379
16	0x38d2fc6d	0.00010060598
17	0x38d989f8	0.00010373065
18	0x38d4f222	0.000101540485
19	0x38be5969	9.07656e-05
20	0x3894f010	7.101905e-05
21	0x38350a65	4.3163443e-05
22	0x381f328c	3.795563e-05
23	0x37d766cb	2.5677864e-05
24	0x3a0e4937	0.000542778
25	0x3a13326b	0.0005615118
26	0x3a1103fe	0.0005531906
27	0x3a05e5e7	0.00051078055
28	0x346ec7e5	2.2238198e-07
29	0x336c0dc1	5.496054e-08
30	0x342308b9	1.5183731e-07
31	0x32ccda5d	2.3848026e-08
32	0x3a41019e	0.00073626067
33	0x3a725473	0.00092441513
34	0x3a6ecca9	0.0009109476
35	0x3a5ed708	0.000850067
36	0x38fe7f90	0.00012135424
37	0x3910f949	0.00013825776
38	0x3912b6cb	0.0001399174
39	0x3920b6cc	0.00015326886
40	0x3978fac6	0.00023744543
41	0x398b3166	0.0002654895
42	0x3985a67b	0.00025491774
43	0x3973361c	0.00023194443
44	0x332d5ff9	4.0366988e-08
45	0x32792364	1.45017545e-08
46	0x3208a0f6	7.95284e-09
47	0x31fe5a57	7.4026434e-09
48	0x39c7613e	0.0003802869
49	0x39c51979	0.00037593747
50	0x39c2c742	0.00037151022
51	0x39acdcc7	0.00032970888
52	0x3979459f	0.00023772426
53	0x393e710c	0.00018161925
54	0x3932a2bb	0.00017036025
55	0x391eb2a0	0.00015134597
56	0x39612f96	0.00021475399
57	0x3974e129	0.00023353532
58	0x395ef029	0.00021261036
59	0x394fd711	0.00019821177
60	0x38b79d49	8.755417e-05
61	0x38a4b553	7.853904e-05
62	0x389e6ec3	7.554658e-05
63	0x3884f7fb	6.3404405e-05
64	0x3635e817	2.7106196e-06
65	0x35bcc61b	1.4064748e-06
66	0x36004cef	1.9118268e-06
67	0x376c2d79	1.4077284e-05
68	0x3a866867	0.0010254503
69	0x3a2beb93	0.00065582356
70	0x3a13c339	0.00056366954
71	0x39631873	0.00021657515
72	0x388f1d52	6.824233e-05
73	0x388a76c5	6.602475e-05
74	0x3888b2be	6.518279e-05
75	0x38874475	6.450053e-05
76	0x3736209c	1.0855638e-05
77	0x36ed85f9	7.078747e-06
78	0x3718d965	9.110522e-06
79	0x37b51acd	2.1589361e-05
80	0x37bda0b6	2.2605393e-05
81	0x381b7b62	3.706979e-05
82	0x381b722f	3.706122e-05
83	0x385d5681	5.277107e-05
84	0x3998801c	0.00029087148
85	0x39983c88	0.00029036799
86	0x39955cc9	0.00028488625
87	0x398f3a4f	0.0002731853
88	0x3926ba10	0.00015900307
89	0x392c45f6	0.0001642926
90	0x393cb678	0.00017997052
91	0x392521d7	0.00015748233
92	0x38965315	7.1680326e-05
93	0x38a72196	7.9694364e-05
94	0x38a319d3	7.777256e-05
95	0x38943f99	7.069036e-05
96	0x3847447e	4.7509086e-05
97	0x383501bf	4.315539e-05
98	0x3830f909	4.2193602e-05
99	0x38432f12	4.653546e-05
100	0x397995fd	0.00023802365
101	0x39d89c0d	0.00041314997
102	0x39e9b63b	0.00044576995
103	0x3a15c85d	0.00057137554
104	0x3905b9c0	0.00012753066
105	0x389e95d5	7.5619355e-05
106	0x38a40999	7.821917e-05
107	0x38f43a7c	0.0001164572
108	0x3681d77f	3.8695866e-06
109	0x369647a6	4.4786893e-06
110	0x371929ac	9.129213e-06
111	0x381f18f5	3.7931797e-05
112	0x2e09634f	3.1238397e-11
113	0x2e2a4c18	3.872111e-11
114	0x2d09f02c	7.840877e-12
115	0x2e10e66e	3.2946472e-11
116	0x38a2f99b	7.7712546e-05
117	0x38b3593a	8.552005e-05
118	0x38b59315	8.658149e-05
119	0x38c88357	9.561207e-05
120	0x390a2cf1	0.00013177448
121	0x39513468	0.00019951316
122	0x39437474	0.00018640031
123	0x393afb8c	0.00017832051
124	0x3a506300	0.00079493225
125	0x3a7a197a	0.00095405395
126	0x3a767920	0.00094022043
127	0x3a5d168e	0.0008433842
128	0x38de159d	0.00010589811
129	0x390b12c9	0.00013263071
130	0x39107bce	0.00013779031
131	0x392d2a4c	0.00016514322
132	0x34e78b29	4.3128355e-07
133	0x3425b574	1.5432835e-07
134	0x34589050	2.0169068e-07
135	0x348e4d9a	2.6506024e-07
136	0x37fcb09f	3.0122987e-05
137	0x36eba5e1	7.0228566e-06
138	0x373a07c1	1.1088269e-05
139	0x37f3c46b	2.9059322e-05
140	0x39596985	0.00020734042
141	0x39625dde	0.00021588008
142	0x395ef9fc	0.00021264696
143	0x394442dd	0.00018716925
144	0x39d22982	0.00040085247
145	0x39c93216	0.00038375024
146	0x39c35395	0.00037255572
147	0x39b7c2d3	0.00035049635
148	0x392f5900	0.00016722456
149	0x393b49b9	0.00017861174
150	0x393128ee	0.00016895283
151	0x391df358	0.0001506334
152	0x39be7e16	0.00036333565
153	0x39c26593	0.00037078242
154	0x39be34b3	0.00036278888
155	0x39a8a002	0.00032162672
156	0x386dbaa7	5.6679037e-05
157	0x389a9f06	7.372913e-05
158	0x38999c97	7.324776e-05
159	0x38ab48a8	8.167449e-05
160	0x38fa49d1	0.00011934678
161	0x38c09588	9.183126e-05
162	0x38c0560b	9.1713e-05
163	0x38d4594b	0.0001012558
164	0x3a68f80b	0.0008887059
165	0x3a7e3965	0.00096978835
166	0x3a6d4c7a	0.00090522284
167	0x3a3c317d	0.0007179005
168	0x360715a8	2.0129173e-06
169	0x35dcb288	1.6443237e-06
170	0x360b833e	2.0789007e-06
171	0x36c19d28	5.7701436e-06
172	0x39972ff8	0.00028836704
173	0x399ef04e	0.0003031515
174	0x399957a0	0.0002924772
175	0x39975a69	0.00028868325
176	0x39e72b7b	0.0004409215
177	0x39e0bad3	0.00042863804
178	0x39dd67ce	0.00042229745
179	0x39c8ba55	0.000382858
180	0x3873f4b0	5.8163598e-05
181	0x382ec196	4.1665124e-05
182	0x3825a3b8	3.949154e-05
183	0x382b11aa	4.0786028e-05
184	0x394f4719	0.00019767544
185	0x3995b6b0	0.00028555607
186	0x39924045	0.00027895175
187	0x39a48148	0.0003137684
188	0x3914dbe4	0.00014196296
189	0x3901b4c6	0.00012369742
190	0x38ce454d	9.835754e-05
191	0x390e77d2	0.00013586812
192	0x3a0c4f04	0.00053523504
193	0x39ffb057	0.00048768774
194	0x39f1e923	0.00046140802
195	0x39b1a8ff	0.00033885983
196	0x3a69f7cc	0.0008925169
197	0x3a6434e4	0.0008705391
198	0x3a63ff00	0.0008697361
199	0x3a7add8a	0.0009569755
200	0x3994eed1	0.00028406692
201	0x39a6a309	0.00031783458
202	0x39ab51f1	0.00032676713
203	0x39b2d02b	0.00034105903
204	0x397a4ca6	0.00023870412
205	0x392385b4	0.000155947
206	0x392ee70c	0.00016680005
207	0x3964c288	0.00021816243
208	0x383a8aab	4.4475e-05
209	0x388f368d	6.828932e-05
210	0x38b8a061	8.8036766e-05
211	0x37e0e7ee	2.6810882e-05
212	0x392b9f93	0.00016367277
213	0x38e1fb36	0.00010775628
214	0x38d00b4e	9.9203186e-05
215	0x3899c4d3	7.33227e-05
216	0x3804607b	3.1561107e-05
217	0x3602b12d	1.947464e-06
218	0x362d47e1	2.5820848e-06
219	0x36ed47a4	7.0714905e-06
220	0x3993f1b3	0.00028218105
221	0x399314b7	0.0002805346
222	0x398adeef	0.0002648751
223	0x398aff04	0.00026511413
224	0x3a87cfa1	0.0010361561
225	0x3a8a535a	0.0010553405
226	0x3a87d987	0.0010364511
227	0x3a897f2f	0.0010490174
228	0x39036fc3	0.00012534768
229	0x3900277e	0.00012221743
230	0x38fe40d5	0.0001212374
231	0x38fee822	0.00012154902
232	0x358290ca	9.727894e-07
233	0x348e4337	2.6498466e-07
234	0x339d73ed	7.331969e-08
235	0x3462bbf8	2.1116273e-07
236	0x370e3901	8.477132e-06
237	0x36c619bb	5.9038553e-06
238	0x36eac90d	6.997149e-06
239	0x37892262	1.6347683e-05
240	0x38ddc19c	0.00010574164
241	0x38e7fcef	0.00011062051
242	0x38e2cf31	0.00010815112
243	0x38c06bbe	9.175342e-05
244	0x3879b508	5.9534825e-05
245	0x38ba7c00	8.892268e-05
246	0x38b60dfa	8.6810396e-05
247	0x38e3ec13	0.00010868176
248	0x33a987d3	7.894382e-08
249	0x32f6dd90	2.8738924e-08
250	0x3443ee1e	1.8247417e-07
251	0x32edff8b	2.7706639e-08
252	0x3996bec8	0.00028752373
253	0x39ab7c0a	0.00032708078
254	0x39a89523	0.00032154573
255	0x39a4b41d	0.00031414712

exp_avg f4 [128]
0	0x3b0d5234	0.002156389
1	0x3b09cf5e	0.0021028141
2	0xba595fc0	-0.0008292161
3	0xbb23b062	-0.0024976959
4	0xba8322e2	-0.0010004903
5	0x3bad4370	0.00528758
6	0xbc180254	-0.009277899
7	0xb607fad8	-2.0262578e-06
8	0xbc06a2f6	-0.008217564
9	0xbb3d4c7e	-0.0028884704
10	0x3bbad762	0.005701945
11	0xb7bdf576	-2.2644857e-05
12	0x3b0b06f9	0.0021213873
13	0x3b03e961	0.0020128118
14	0xbc11f65b	-0.008908833
15	0x3a52bacc	0.0008038699
16	0x39eedf44	0.00045561243
17	0xbc49b88a	-0.012312064
18	0xb7bc5080	-2.2448832e-05
19	0x3ab5c577	0.0013868053
20	0xba2984bc	-0.00064666173
21	0x3b2ad111	0.0026064555
22	0x3ab96bac	0.0014146469
23	0x39bf2030	0.0003645434
24	0x3a998324	0.0011712057
25	0x3a184050	0.0005807923
26	0xbbefc65d	-0.007317348
27	0x39561406	0.0002041609
28	0xb574cbe5	-9.119379e-07
29	0x3b775273	0.0037738353
30	0x3b1925f0	0.002336856
31	0xbbfcff57	-0.0077208686
32	0x3b56c646	0.0032771989
33	0xb916c67e	-0.00014379059
34	0x3b00cc7a	0.0019653128
35	0xb9c4a4e0	-0.00037506875
36	0xbc81e0e0	-0.015854299
37	0x3b8609c9	0.004090522
38	0x3c31a3ba	0.010842258
39	0xbb0dfba8	-0.0021664891
40	0xbb1333cc	-0.0022461293
41	0xbc694fc6	-0.014240211
42	0xb82daf00	-4.1409396e-05
43	0x3b5cba20	0.0033680275
44	0xba218d1c	-0.00061626895
45	0x3b93b441	0.004507572
46	0xbbc1cb84	-0.0059141535
47	0xbc15daff	-0.009146451
48	0xbb8c06e3	-0.004273282
49	0x3ba852af	0.00513681
50	0x3afe2530	0.0019389745
51	0xbbf0acfc	-0.00734484
52	0xba921d88	-0.0011147717
53	0x3bc94526	0.0061422763
54	0xba81837f	-0.0009881108
55	0xbb59bce8	-0.003322417
56	0x3c0ed035	0.008716633
57	0x3ba63380	0.0050720572
58	0xb84ad7cb	-4.8361526e-05
59	0x39b101aa	0.0003376131
60	0x3bcd3e3e	0.0062635234
61	0xbb55cc1c	-0.003262288
62	0xba3acb7c	-0.00071256584
63	0x3abb81c0	0.0014305636
64	0xbc3a6a36	-0.011377862
65	0x398aa190	0.00026441785
66	0xbb26aefe	-0.0025433893
67	0xbb2e5fae	-0.0026607323
68	0xbb770c18	-0.0037696417
69	0xbc1b788e	-0.009489192
70	0x3bf00c3b	0.0073256767
71	0x3b2e22fe	0.002657115
72	0xbc153356	-0.009106478
73	0xb6b52caa	-5.39942e-06
74	0xb89292f8	-6.9891976e-05
75	0xbb8a21f6	-0.0042154742
76	0xbc1774f6	-0.009244194
77	0x3a641998	0.00087013235
78	0x3acbc794	0.001554715
79	0xbb85a3a1	-0.004078344
80	0x3c176226	0.009239709
81	0xbc63e096	-0.013908526
82	0xbadd42ee	-0.0016880909
83	0x3c1035af	0.008801862
84	0x3b9d0800	0.0047922134
85	0xbc2b962e	-0.010472817
86	0xbc50f50b	-0.012753735
87	0x3c246f13	0.010036248
88	0x3b0a02c4	0.0021058777
89	0xb37c2348	-5.870541e-08
90	0x3c1c9604	0.009557251
91	0xbbb4bfc4	-0.0055160243
92	0xbc73e1c6	-0.014885372
93	0xb926d8c0	-0.0001591174
94	0x39cc5c80	0.0003897883
95	0xbbeeb3ed	-0.0072846324
96	0x3c374921	0.011186869
97	0x3c1f5abf	0.009726225
98	0x3a33dbcb	0.000686106
99	0x3ba55d87	0.0050465497
100	0x3ba271eb	0.0049574277
101	0xb9797608	-0.0002379046
102	0x3b844912	0.004037031
103	0xbb5c9956	-0.0033660731
104	0xbc1eeef5	-0.0097005265
105	0xbbb74594	-0.005593011
106	0x3af51b1e	0.0018700098
107	0x39907f26	0.00027560553
108	0x3b4ef854	0.003158112
109	0xbb80d47c	-0.00393158
110	0xbbef51f0	-0.007303469
111	0xb92cf630	-0.0001649491
112	0x3c1deb8a	0.009638676
113	0x3b00bb7f	0.0019643006
114	0xb99b5740	-0.0002962891
115	0x3bc28614	0.0059363935
116	0xb982cce7	-0.00024948196
117	0x3ab31026	0.0013661429
118	0xbc1c3492	-0.009534018
119	0xba929e76	-0.0011186141
120	0xbc160be6	-0.00915811
121	0x3c0e877c	0.008699294
122	0xba26c798	-0.0006362139
123	0x38fccfbb	0.00012054989
124	0xbc0ee1d8	-0.0087208375
125	0xbc65bc30	-0.014021918
126	0x3bdecbba	0.0067991884
127	0xbaa28511	-0.0012399276

exp_avg_sq f4 [128]
0	0x38a4175e	7.824482e-05
1	0x394488f8	0.00018743041
2	0x398d0f26	0.00026904902
3	0x38a46bca	7.840207e-05
4	0x387104fa	5.7463512e-05
5	0x383fa579	4.5692057e-05
6	0x39b97868	0.0003537566
7	0x34cd2ae4	3.8215433e-07
8	0x3a17cf47	0.00057910796
9	0x38c8639c	9.555297e-05
10	0x392cef3d	0.00016492321
11	0x33998b90	7.150004e-08
12	0x39819c3c	0.000247212
13	0x39194427	0.00014616606
14	0x391cc63d	0.00014951169
15	0x3854d234	5.0740506e-05
16	0x37a36aba	1.9480813e-05
17	0x39e49df9	0.00043605248
18	0x383bac58	4.4744782e-05
19	0x390161e6	0.00012338869
20	0x37f4c017	2.9176515e-05
21	0x395fff81	0.0002136212
22	0x38a94d61	8.072961e-05
23	0x38475880	4.752772e-05
24	0x38072fea	3.223113e-05
25	0x39830f14	0.000249975
26	0x38d25dc1	0.00010031043
27	0x381379b4	3.5160876e-05
28	0x2f06fc6e	1.227691e-10
29	0x389803c9	7.24863e-05
30	0x38d616c8	0.000102085585
31	0x3a0db26d	0.00054053107
32	0x38c0564b	9.171347e-05
33	0x360fcf89	2.1429462e-06
34	0x390b4216	0.00013280692
35	0x3906c911	0.00012854139
36	0x39a1ce3a	0.00030861964
37	0x38d49547	0.00010136753
38	0x395d8291	0.00021124842
39	0x384ba847	4.8555692e-05
40	0x38b5323e	8.640111e-05
41	0x3a0d9df4	0.000540226
42	0x37da0823	2.5991414e-05
43	0x39649b23	0.00021801567
44	0x3994de36	0.0002839432
45	0x3840b10d	4.594126e-05
46	0x39359c79	0.00017319796
47	0x38d93f5e	0.000103591694
48	0x39923cd6	0.00027892616
49	0x3a1ce786	0.00059854274
50	0x39791615	0.00023754717
51	0x3938ed6c	0.00017636054
52	0x3816afcf	3.592652e-05
53	0x38d2a88e	0.00010044976
54	0x3807a174	3.2336873e-05
55	0x39527d9c	0.00020073954
56	0x3a287811	0.00064265827
57	0x38bef860	9.1061695e-05
58	0x358cc5b7	1.0488355e-06
59	0x38baa45f	8.899788e-05
60	0x3889c907	6.570113e-05
61	0x38765e45	5.8738766e-05
62	0x3516bcb9	5.615398e-07
63	0x394d0d19	0.00019555203
64	0x398d9ba4	0.00027009577
65	0x3983b9ac	0.00025124603
66	0x38f6fb15	0.00011776962
67	0x391dd422	0.00015051712
68	0x38987dfe	7.271393e-05
69	0x39be1000	0.00036251545
70	0x397219bc	0.00023088505
71	0x38c8e280	9.578932e-05
72	0x3a32e41e	0.0006824153
73	0x31d4e368	6.195865e-09
74	0x38dcc72a	0.00010527515
75	0x391a2787	0.0001470131
76	0x39dc777f	0.000420507
77	0x38cc802f	9.751354e-05
78	0x38b40a76	8.585017e-05
79	0x394b17c0	0.00019368436
80	0x39501194	0.00019842974
81	0x3a233e3c	0.000622723
82	0x384b91ee	4.853488e-05
83	0x3903443c	0.00012518553
84	0x38aac7e2	8.143463e-05
85	0x39b1c731	0.0003390848
86	0x39b02ad8	0.00033601257
87	0x396b6dae	0.00022452205
88	0x39115d1d	0.00013862965
89	0x2b1bc32e	5.533793e-13
90	0x391fb176	0.00015229531
91	0x39d54c6c	0.00040683465
92	0x3a039d4b	0.0005020692
93	0x399ae92e	0.000295469
94	0x38be32f2	9.069395e-05
95	0x394b0aae	0.00019363567
96	0x3993b4df	0.00028172784
97	0x39377aec	0.00017498032
98	0x38934109	7.02162e-05
99	0x3856e96c	5.1238967e-05
100	0x38db26b1	0.000104499406
101	0x359c378f	1.1639075e-06
102	0x3959450f	0.00020720459
103	0x38beb57b	9.0937094e-05
104	0x392077d0	0.00015303423
105	0x39a15018	0.00030767987
106	0x378e6a2a	1.6977156e-05
107	0x37952e4c	1.7783743e-05
108	0x38d4f588	0.000101546815
109	0x38827f1f	6.222561e-05
110	0x39056c65	0.00012724249
111	0x3968b2b3	0.00022191815
112	0x3993ed2d	0.00028214735
113	0x39947352	0.0002831468
114	0x39411455	0.00018413489
115	0x388e5274	6.786446e-05
116	0x38a8e4ec	8.053504e-05
117	0x37f9fc32	2.980055e-05
118	0x393fb255	0.00018281613
119	0x3832dfed	4.2647054e-05
120	0x3a1863ed	0.000581323
121	0x3934e448	0.00017251179
122	0x392ef56f	0.00016685364
123	0x33c76700	9.285395e-08
124	0x39b4ba73	0.0003447119
125	0x39b8eed2	0.0003527315
126	0x38b8dbdb	8.814755e-05
127	0x38b03de7	8.403864e-05
