models/model_20250730_182846_lr0.0001.pth (torch, 126802 bytes, 18 tensors)

fc1.weight f4 [128, 4]
000000 40 97 4e 3d be 75 c4 be ea 73 ed 3e 74 1e 1a be
       0.050437212 -0.3837108 0.46377498 -0.1505068
000010 2a 51 a4 be 5c 25 c5 be b6 c1 bb be f6 e5 f2 be
       -0.32093173 -0.38505065 -0.36671227 -0.4744107
000020 cc 39 93 be 94 83 bd 3e 64 b7 1a be 7c 16 eb be
       -0.28755033 0.3701445 -0.1510902 -0.45915592
000030 bb ee 02 3f 3b 3a e0 be 5a af d4 be 24 a9 07 3f
       0.51145524 -0.43794426 -0.41540033 0.52992463
000040 d8 40 8c 3e 03 ed ef 3b 30 e7 24 3f 74 67 5c 3e
       0.27393222 0.007321955 0.64415264 0.21523839
000050 76 d8 f4 bd 2b e8 0d be aa 53 db 3e b1 36 16 be
       -0.11955349 -0.13858096 0.42837268 -0.146693
000060 94 3e 9a be 38 7e c3 bd 1e f9 eb be b0 7d e7 bd
       -0.30125868 -0.09545559 -0.460885 -0.1130327
000070 ef 30 14 be 0d bb fe 3e 9a 86 1a 3d fb c1 36 3e
       -0.14471792 0.49752083 0.037726022 0.17847435
000080 c1 be 3b 3e a1 08 13 bd 76 19 17 bf e9 3e d1 be
       0.18334486 -0.0358969 -0.59023225 -0.4086831
000090 fa 97 24 3f e7 5c 6c 3d 51 f6 04 3f 85 12 c7 be
       0.642944 0.057705786 0.5193835 -0.38881317
0000a0 fc c2 82 be 0b 07 08 3f c9 05 6f be f9 91 84 be
       -0.25539386 0.53135747 -0.2334205 -0.25892618
0000b0 11 84 97 3e 67 92 86 be 8f 20 cc be 34 42 10 3f
       0.29592946 -0.2628357 -0.3986859 0.5635102
0000c0 e0 9b b0 3c b0 11 f7 be cc cd 63 3e c0 fd 71 3c
       0.021558702 -0.48255682 0.22246474 0.014769971
0000d0 39 49 3f 3e 45 b4 25 3f a7 fa 9c bd 56 d5 14 bf
       0.18680276 0.64728194 -0.07664996 -0.58138025
0000e0 24 fc f7 be 65 da e7 3e f4 0f 10 bd 30 ae fd 3c
       -0.48434556 0.4528381 -0.035171464 0.030966848
0000f0 f9 24 20 3f a5 2b 0f be 41 a9 37 3e bf 2b 22 bf
       0.62556416 -0.13981493 0.17935659 -0.63348
000100 dc 00 ba 3d c7 15 f7 bd 6c c4 be bc e7 9b 40 be
       0.09082195 -0.120647006 -0.02328702 -0.18809472
000110 f7 e9 b7 3e ed cd 86 be 8e 53 81 3e 61 1d 1b 3f
       0.3592069 -0.26328984 0.2525906 0.60591704
000120 e9 eb 02 3f 51 d7 8d bd 28 3c 0d be fc 7d fc 3e
       0.5114122 -0.06925834 -0.13792479 0.49314868
000130 00 b6 bd 3e 42 21 70 3d 75 c8 05 3f 87 33 5d bd
       0.37052917 0.058625467 0.52259 -0.05400422
000140 46 8c e9 be 90 fc c8 3d 20 6a ce be 10 48 1f bd
       -0.45614833 0.098137975 -0.40315342 -0.038887084
000150 87 7c 3b 3e 0c 8e c7 be bd 52 2f bd 5e b2 60 3e
       0.18309222 -0.3897556 -0.042803515 0.21943042
000160 03 68 4f be 41 6a d4 3e 40 4a 2e 3e 43 76 7f bd
       -0.20254521 0.41487315 0.17020512 -0.062368643
000170 06 e3 01 3f 41 ea 33 3e 33 f0 40 3e 51 fc 80 3d
       0.50737035 0.1756983 0.18841629 0.062981255
000180 e0 bf 74 3e 50 df ba be 60 aa 86 3c a8 59 70 be
       0.2390132 -0.364985 0.016438663 -0.23471701
000190 f4 ad 06 3f 3d 42 d4 be c7 e0 b1 bd 03 25 b8 3e
       0.5260918 -0.41456786 -0.08685451 0.35965738
0001a0 d7 a1 e5 be fc 60 69 bd 07 1b e7 3e eb c3 58 be
       -0.44850037 -0.056977257 0.45137808 -0.21168487
0001b0 b0 42 49 bd a4 6e 6e be de 15 93 be 20 9d b2 bc
       -0.049135864 -0.23284394 -0.2872762 -0.021803439
0001c0 50 ec d0 3e f1 f3 a3 3e 91 72 c9 be 56 8b ef 3d
       0.40805292 0.3202205 -0.3934522 0.11696498
0001d0 0d b4 b4 3e d4 e1 9d 3e e4 e8 ee bd 33 c3 99 be
       0.35293618 0.30836356 -0.11665514 -0.30031738
0001e0 2e 87 cc be 14 9d 0b be e3 7c e0 3e a1 75 47 be
       -0.39946884 -0.1363414 0.4384528 -0.19478466
0001f0 38 56 e7 be 9c 0a ad be d4 f8 ff be b8 61 de bd
       -0.45182967 -0.33797157 -0.49994528 -0.10858482
000200 dc e5 89 3e d2 f9 a4 be 09 bd a2 bd b7 ce a6 3d
       0.2693318 -0.32221848 -0.07946212 0.081448965
000210 7f c6 a0 bd 36 55 70 be 10 6e 58 be 3c cd 10 3f
       -0.0785036 -0.23470005 -0.21135736 0.5656316
000220 1e 1a eb be 90 d6 05 3e 27 d7 79 3e 4c 8b 77 3e
       -0.45918363 0.1307013 0.2439848 0.24174231
000230 9f d3 0d 3f 3e df 22 3f 76 61 67 3e eb c8 69 3d
       0.55401033 0.6362189 0.22595772 0.057076376
000240 db 75 9f 3e e8 9e 38 3e ef 9f 77 3d 53 82 10 bc
       0.31144604 0.18029368 0.06045526 -0.008820134
000250 13 6d 13 be 56 dc c9 3e b5 33 a2 3e 15 c4 bd 3e
       -0.14397077 0.39425915 0.31680074 0.3706366
000260 c4 77 2b 3e d4 27 fe be a6 5c f6 3e 62 ff a7 be
       0.16744906 -0.4963976 0.4811756 -0.3281203
000270 6c c3 fd 3e fa eb f0 bd 3d 15 7f 3e 45 a9 e7 bd
       0.49563158 -0.11763759 0.24910446 -0.113115825
000280 ed cf 1c be d0 1a 06 bf fa 74 4b be 8d cd d6 3d
       -0.15313692 -0.5238466 -0.19868842 0.104884245
000290 d6 6c d0 3e bf 32 88 be c3 cf 66 bc 4e 97 83 3d
       0.40708035 -0.26601216 -0.01408762 0.064253435
0002a0 4a 67 07 3f 44 59 d4 be 3c 62 53 3e 37 7c b5 be
       0.5289198 -0.41474354 0.20642942 -0.3544633
0002b0 88 24 25 3f 2e 85 b7 3d 0f af 13 3f db 43 bb be
       0.6450887 0.08960949 0.57688993 -0.36575207
0002c0 68 31 b0 3e 40 8e 92 3e 22 82 78 bd ae f4 08 bf
       0.34412694 0.28624153 -0.06067098 -0.5349835
0002d0 db 6a 27 3d da 55 7c be 7e 8c 2e be d7 09 af 3e
       0.04087339 -0.24642125 -0.17045781 0.34187195
0002e0 c9 26 ba 3e 5e 8d 19 3f e7 c3 84 3d 8b 0c d3 be
       0.36357716 0.59981334 0.06482678 -0.41220507
0002f0 8a d3 d7 be 37 6f 06 3f e3 5b a6 3e a3 8e a0 be
       -0.4215358 0.5251345 0.3249198 -0.31358823
000300 32 fd fe be a4 ca 05 3e e0 1a 32 bd f8 93 01 be
       -0.49802548 0.13065583 -0.04348266 -0.12654102
000310 c6 77 6f be 9c 9f fe 3e 97 68 8d 3e 8e f9 5a 3e
       -0.23385534 0.49731147 0.27618858 0.2138426
000320 20 b6 ff 3e 10 c4 fa 3e ed be eb 3e fc e0 23 3d
       0.49943638 0.4897771 0.46044102 0.040009484
000330 16 e7 bf be 22 cd 9c 3e 20 c6 5d 3e 2b 48 46 be
       -0.37480992 0.30625254 0.2165761 -0.19363467
000340 28 95 03 bf 09 38 10 bc 3c 17 e6 3d c0 23 9c 3e
       -0.5139947 -0.008802422 0.112349 0.30496025
000350 7b b4 22 3f 71 ff f6 3e 14 30 cc 3b da 01 16 bf
       0.6355664 0.4824176 0.0062313173 -0.58596575
000360 fc 37 76 3e b0 b2 3e 3d 3c d1 92 be 18 b1 b8 3d
       0.24044794 0.04655713 -0.28675258 0.09018153
000370 9e a3 b8 3e 6d dc cb 3e 75 fe 20 be 13 1c a7 bd
       0.3606233 0.3981661 -0.15722068 -0.081596516
000380 6f ca 9c 3e 60 71 77 be 7d 83 88 be 00 97 21 3f
       0.30623195 -0.24164343 -0.26662818 0.6312103
000390 a7 8b eb 3e dd 6e 0b 3f 86 b5 4a bc 71 63 66 be
       0.46004984 0.5446604 -0.01237238 -0.22498871
0003a0 c4 09 0c 3f e1 ab 62 3e 77 54 73 3e d5 21 b3 3b
       0.547024 0.22135879 0.2376269 0.0054666796
0003b0 5c ff 5f be 78 6f 02 3e 00 53 24 3d da 8e bb be
       -0.21874756 0.12737834 0.040118217 -0.36632425
0003c0 78 10 ae 3d 28 02 3c 3e 1c 1c e2 be 0e 22 84 be
       0.08499235 0.18360198 -0.4416207 -0.25807232
0003d0 5e 6c aa be 6e 22 f3 be f8 61 d0 bd 76 0a d6 be
       -0.33285803 -0.47487205 -0.10174936 -0.41804856
0003e0 9a 17 87 3e 96 a4 0d 3d cc a9 05 bf 51 ec 05 3f
       0.26385194 0.03458079 -0.52212214 0.52313715
0003f0 14 e6 e0 be c8 ae e2 be ec dc 09 be b4 c5 53 3e
       -0.43925536 -0.44273973 -0.13463181 0.20680887

fc1.bias f4 [128]
000000 a0 44 c3 be 18 5e ed be 0c 52 e2 be ed 4f 11 3f
       -0.38138294 -0.4636085 -0.44203222 0.5676258
000010 01 6f 6b be 21 38 98 be a0 1a c2 bd 09 58 13 be
       -0.22991563 -0.29730323 -0.094777346 -0.14389051
000020 cb 63 74 3e ac 55 d7 3e 84 bc fa 3e 4e a3 c9 3e
       0.23866193 0.4205755 0.4897195 0.39382404
000030 6c be 73 be 96 5e 12 3e 90 21 fb 3e 15 f9 dc 3c
       -0.23803109 0.14293894 0.49049044 0.02697424
000040 71 61 06 3f f9 0a b4 be fc 8a 9d be 54 ee b5 3e
       0.52492434 -0.3516462 -0.307701 0.35533392
000050 40 84 62 be 87 57 ab 3e 2c 61 b7 3d f6 ca 76 bd
       -0.22120762 0.33465216 0.08954081 -0.060252152
000060 ca 27 ac be 19 f5 98 3d 7c c5 31 3f 80 51 70 bc
       -0.33624107 0.07468624 0.6944196 -0.014667869
000070 8c c6 22 3f e5 69 1d bd 6f 75 19 3f 80 09 69 bd
       0.6358421 -0.038431067 0.59944814 -0.056893826
000080 9b cb af 3e 8b 25 dc 3e 6b f9 87 3e ec f6 01 bf
       0.34335026 0.42997393 0.26557478 -0.507674
000090 df 9c 6b be f4 6a 4b bd 84 81 a8 be 76 23 88 3d
       -0.2300906 -0.049662545 -0.32911313 0.06647389
0000a0 61 da ff 3e cd 65 aa 3e 2a 9f 0f 3f 03 c2 4b bc
       0.49971297 0.33280793 0.5610224 -0.012436393
0000b0 f3 b9 ff 3e 36 10 d8 3e 8b 85 16 be f9 89 8c 3e
       0.49946555 0.42199868 -0.1469938 0.27449015
0000c0 52 68 a1 be 92 fe cd be 09 13 4b bd 09 cb c9 3e
       -0.31524903 -0.40233284 -0.0495787 0.39412716
0000d0 69 07 08 3f 3e 8e 2e 3f bc 07 ac be 38 9c ce 3d
       0.53136307 0.68185794 -0.3359965 0.1008839
0000e0 52 76 79 3d 86 05 69 be fd 77 4e be 6c 68 40 be
       0.060903855 -0.22756013 -0.2016296 -0.18789834
0000f0 d8 ab 3a be 5a 91 d9 be 45 22 3c 3e a4 e3 70 be
       -0.18229616 -0.42493707 0.18372448 -0.23524338
000100 61 d7 d7 3e 9f 37 ad 3e 3b df 0a 3f ce c6 6f 3e
       0.4215651 0.33831498 0.5424687 0.23415682
000110 c6 92 02 bf b7 22 d2 3e 06 01 15 3f dc d9 e2 be
       -0.5100521 0.4104211 0.58204687 -0.4430684
000120 89 f0 1a 3f 03 ec a5 3e f6 90 59 3e 43 8d 29 3f
       0.6052328 0.32406625 0.21246704 0.66231173
000130 12 ac 2f bd 67 98 15 3f be b3 df 3e ae ce 84 be
       -0.04288871 0.5843567 0.4369182 -0.25938934
000140 10 58 f5 3e 57 9f 26 3f fc 11 b9 3e c2 b9 13 be
       0.4791875 0.65086883 0.36146533 -0.1442633
000150 cc 80 8a 3d 88 03 c7 bd 24 66 8d bd 78 4f 09 3e
       0.06762847 -0.097174704 -0.069042474 0.13409221
000160 3e 03 e2 bd b1 18 ca 3e fd d3 aa 3e dd 10 ee 3e
       -0.11035775 0.39471963 0.3336486 0.4649724
000170 7a 09 12 3f ba 6a ac be 43 6c c7 3e d9 4d e7 3d
       0.5704571 -0.33675176 0.38949785 0.11294145
000180 3b af be 3e 71 05 0a 3f 22 7a 7f 3e 8f 93 00 3f
       0.37243065 0.5391455 0.24948934 0.50225157
000190 9b 09 eb 3e b2 31 00 bf 9c 64 19 3f 15 48 66 3e
       0.45905766 -0.5007583 0.5991914 0.22488435
0001a0 7f 04 68 3e 1b 69 c6 be f7 be 67 3e bb 5b 1c be
       0.22657965 -0.38752064 0.22631441 -0.15269367
0001b0 9f f4 5c be fc a5 27 3f fb 47 64 bd e4 8d 20 be
       -0.2157769 0.6548765 -0.05573271 -0.15679127
0001c0 e6 3f e9 be 0b 59 e2 3e af 4a 80 be fe 02 86 3e
       -0.45556563 0.4420856 -0.2505698 0.26174158
0001d0 f9 a3 a9 3e d2 56 db be 89 06 07 3f 0e 65 18 3c
       0.33132914 -0.42839676 0.52744347 0.009301437
0001e0 6e 89 dd be c4 23 6c 3e 74 d0 72 3e 29 a2 24 3f
       -0.43268913 0.23060519 0.23712331 0.64309937
0001f0 70 0f 9e 3d 2e b1 b9 be 59 f9 63 bc 33 20 1c 3f
       0.07717788 -0.3626799 -0.01391443 0.6098663

fc2.weight f4 [64, 128]
000000 30 37 7e 3c 87 56 99 3d 00 52 9b bb 81 00 94 bd
       0.015516087 0.07487207 -0.00474 -0.072266586
000010 38 79 73 3c a7 45 8e 3d 7b d9 a0 3d 60 95 a7 3b
       0.014860444 0.06946879 0.07853981 0.0051142424
000020 22 ce 3c 3d 76 f9 75 bd 8a 30 74 bd b8 d5 81 bd
       0.04609502 -0.060052358 -0.059616603 -0.06339592
000030 bb e7 1e bd 1d 14 8e 3d 78 68 03 bc 33 75 55 bd
       -0.038795214 0.0693743 -0.008020513 -0.052113723
000040 40 82 9a bd 1e db 75 3d ee 09 a9 bd 6d 74 25 bd
       -0.075443745 0.06002342 -0.08253847 -0.040394235
000050 9c 65 83 bd 53 5a b1 bd 5a 1b 0c bd 75 e5 88 3d
       -0.06415865 -0.08659806 -0.034205772 0.066843905
000060 02 dc 85 bd 85 29 8e bd 58 16 2e bc 91 17 95 3d
       -0.06536104 -0.06941513 -0.010625444 0.072798856
000070 d9 83 94 3d ee 65 45 3d 81 87 36 bd 83 1d 93 bd
       0.072517104 0.04819291 -0.04456282 -0.07183363
000080 24 79 9a bc da 37 11 bd 00 2b 19 bb b4 7f e6 bc
       -0.018856592 -0.035453655 -0.0023371577 -0.028137065
000090 b5 f6 4d bd 38 52 7b 3c 1e 33 74 3d 52 e0 7c 3d
       -0.050284106 0.015339427 0.05961906 0.061737366
0000a0 40 f3 43 bb a9 a0 00 bd 90 05 99 bd 5e 73 ec bc
       -0.0029899627 -0.031403217 -0.07471764 -0.028863605
0000b0 28 a7 6b 3c 13 3f a8 3d a5 52 a4 bd ca e7 af bd
       0.014383115 0.082151555 -0.08023576 -0.08589132
0000c0 7f 4d 4c bd 5e d5 14 bd eb 6a 96 bd a8 28 08 bc
       -0.049878594 -0.036336295 -0.07344612 -0.008310474
0000d0 8e 35 55 3d 8b 9a 8a 3d 0e 1f 47 3d f6 aa 26 3d
       0.052053027 0.06767758 0.0486136 0.040690385
0000e0 d7 20 96 bd e4 c0 47 bd 2a f6 e7 bc 40 58 25 bc
       -0.073304825 -0.04876794 -0.028315622 -0.010091841
0000f0 85 0f 81 bd af 28 a7 3d 70 0e 31 bd e0 79 0f 3d
       -0.06301788 0.08162057 -0.04322666 0.03502834
000100 48 09 15 3c 88 03 81 bd 1a c9 3f 3d c5 46 1f bd
       0.009096451 -0.06299502 0.046822645 -0.03888585
000110 1c 56 f5 bc 6a a3 61 3d 99 b0 ab bd db a0 82 3d
       -0.029948287 0.055087484 -0.08383293 0.06378337
000120 06 11 29 bd 2e 19 89 bd 1d d6 98 bd 46 d8 7a 3d
       -0.041276 -0.06694256 -0.07462714 0.06124141
000130 39 a7 9b bd 72 0c 43 bd 78 37 fb bc 4e 4f 3d 3d
       -0.076002546 -0.04761929 -0.030666098 0.04621821
000140 c3 d1 62 bd 6e 26 52 bd 5f df 82 3d 05 0e a6 3d
       -0.055375826 -0.05130618 0.06390261 0.08108143
000150 db 78 9d 3d 00 17 91 bc ec 36 c8 3c 16 40 0e bd
       0.07689067 -0.017711163 0.024440251 -0.034729086
000160 01 b1 b3 3d 31 ba 50 bd 8c d0 95 bd 84 7d c8 bc
       0.08773995 -0.050958816 -0.07315168 -0.024473913
000170 88 39 83 bd fe 1d 7b 3d 0e 96 47 3d 20 26 78 3b
       -0.064074576 0.0613079 0.048727088 0.003786452
000180 88 80 72 bc a1 db b2 3d 6c 3b 7e bd 2f 6a 8e 3d
       -0.014801152 0.08733297 -0.062068388 0.06953847
000190 13 ea 28 bd b5 ea 8f 3d 08 19 a3 bd a8 3e 8d 3c
       -0.041238856 0.07027189 -0.07963759 0.01724179
0001a0 28 28 0e bd 44 c8 8e bc d6 8d 7f bd 7b 95 83 3d
       -0.034706265 -0.017429478 -0.062391125 0.064249955
0001b0 76 9b 73 3d 1e a1 86 bd b5 fb 57 bd 20 7a 88 bb
       0.05947443 -0.065736994 -0.05273028 -0.004164949
0001c0 64 a9 ed bc 33 42 1c bd 76 c9 27 3d b0 49 3e 3c
       -0.029011436 -0.03814907 0.040963612 0.011614248
0001d0 60 2c 87 bd ca c5 4d 3d 85 84 5e bd 55 30 92 bd
       -0.06600261 0.050237454 -0.0543256 -0.07138125
0001e0 6a c7 ff bc 64 58 5a bd 00 02 86 b9 90 48 1b 3c
       -0.031223018 -0.053306952 -0.00025559962 0.0094777495
0001f0 dc ca 0b 3d 74 56 90 bd d4 12 ad bd 92 92 6e bd
       0.03412901 -0.070477396 -0.08450857 -0.05824525
000200 2c 5e bd 3c 78 93 03 3c 45 dc 96 3d 1f 1f cb bd
       0.023116194 0.008030765 0.07366232 -0.09918045
000210 72 32 84 3c 08 84 c2 3d 90 76 f5 3c c4 4a e7 3c
       0.016137335 0.09497839 0.029963762 0.028233893
000220 46 1b 4d 3e c5 99 02 3e bb bd 86 3e f6 e7 1b 3d
       0.20029935 0.12753971 0.26316628 0.038063012
000230 49 6f aa 3d bc 6d 1a 3e 13 57 23 3e dc a8 0d 3e
       0.08322007 0.15080923 0.15951185 0.13833946
000240 13 19 59 3d 12 34 08 be a0 c9 16 be a9 40 91 bc
       0.05300243 -0.13301113 -0.14725351 -0.017731028
000250 20 0e 6f 3b 94 95 70 3d b3 24 a0 3d 4b 0f b3 bd
       0.0036476925 0.0587364 0.078195 -0.08743151
000260 0a 7e 32 3d b5 a5 fd bd 6a 10 df 3d a8 e2 79 bd
       0.04357723 -0.12385122 0.108918026 -0.061007172
000270 1e fa ba 3c 69 56 e9 3d 4b 86 05 3e 80 53 04 3d
       0.022824343 0.113934346 0.1303951 0.032306194
000280 a8 cb 40 3d ca e9 1c 3e de 77 53 3e 9f c5 93 3c
       0.04706922 0.15323558 0.20651194 0.018038569
000290 67 21 33 bd 46 0c d8 bd fb 9f 18 bd c4 29 c8 bd
       -0.043733027 -0.10549216 -0.037261944 -0.09773591
0002a0 df cf 36 3e 9b 22 a6 3c ce fd bd 3c 79 13 ff 3d
       0.17852734 0.020280173 0.023192313 0.12454886
0002b0 25 cb 50 3e cd 74 c4 bd 9b ad 20 3e a5 95 da 3d
       0.20389993 -0.095925905 0.15691225 0.10673074
0002c0 14 8f f9 3c 9b 2b 2f 3e 31 89 91 bd 0b 70 0a 3e
       0.030463733 0.17106478 -0.07106245 0.13519304
0002d0 b4 54 86 3d e6 8e e0 3d fe 6f f3 bc 9e 84 4b 3d
       0.065591246 0.10964756 -0.029716488 0.04968702
0002e0 c4 ca ba bd e9 8a 8a 3c 37 d2 b2 3b 54 58 02 3d
       -0.09120706 0.01691194 0.0054571885 0.031822518
0002f0 b0 a0 e3 3c e0 c9 ca 3c 38 4a 4c be 80 8d a8 3b
       0.027786583 0.024754465 -0.19950187 0.0051438212
000300 a8 2a 7d 3e ca c0 1f bc 52 4f 5d 3c ac 4c 64 3e
       0.24723303 -0.009750554 0.013507681 0.22294873
000310 dc 18 19 be 54 c0 62 3d ef 38 c7 3d 12 9f 75 bd
       -0.1495089 0.0553592 0.09727656 -0.059966154
000320 44 e3 4b 3e c6 91 57 3d ec e3 c1 bd e5 cf 28 3e
       0.19910914 0.052629255 -0.09467301 0.16485555
000330 71 a0 ba 3c 74 7c 63 3e 83 9e d6 3d d0 cf 0f 3c
       0.022781583 0.22215444 0.104794525 0.008777574
000340 12 bb c4 3d 8b 58 a4 3d 55 6d 4e 3e 1f a2 e4 bd
       0.09605993 0.08024701 0.20158894 -0.11163735
000350 d8 25 e5 3b 30 b9 85 3b 32 09 15 3e d6 12 58 bd
       0.0069930367 0.004080914 0.14554289 -0.05275234
000360 b5 41 b4 3d 67 77 85 3d a1 e5 2a 3c 93 f2 07 3e
       0.08801595 0.06516915 0.010430724 0.13276128
000370 22 a1 bb 3d c3 c1 7e bd 2a 1a 20 3e 41 61 b0 bd
       0.09161593 -0.062196504 0.15634981 -0.086123
000380 b3 10 62 3e 82 c9 a6 3b f1 3c f2 3d 9f af 77 3e
       0.22076683 0.0050899396 0.1182803 0.24188088
000390 a2 93 15 3e 7b 3e 47 bc f8 e5 39 ba 62 45 8b 3d
       0.14607099 -0.012160893 -0.0007091458 0.06800343
0003a0 c1 4f 01 be 50 7e a0 3d 8e 0a 08 3e c3 7a 90 3b
       -0.1262808 0.07836592 0.13285276 0.0044091656
0003b0 a7 61 20 be 2d ba fa 3d 06 65 07 3e 81 19 02 bd
       -0.15662251 0.122425415 0.13222131 -0.031762604
0003c0 97 d7 42 be 88 29 a0 bd 29 62 a7 bd 72 e4 33 be
       -0.19027553 -0.078204215 -0.081730194 -0.17567614
0003d0 0b 11 47 3e 96 6a 08 3d d8 5c 2f 3e ef d5 ab bd
       0.19440095 0.033304773 0.17125261 -0.08390414
0003e0 c0 9f 1c be 1b 75 ee 3d 21 a3 71 bd 32 9c 7d 3e
       -0.15295315 0.1164343 -0.058993462 0.24766615
0003f0 fd 21 9f 3d c0 3b cd ba b4 6e ac bd be 99 b5 bc
       0.077701546 -0.0015658066 -0.084195524 -0.022168037

fc2.bias f4 [64]
000000 c5 16 af bd 26 7b 67 3d ac 8f 14 3d ce 2a 67 3d
       -0.08549265 0.056513928 0.03626983 0.056437306
000010 a0 c9 58 bb 27 38 b1 bd 5d 8a a7 bc f7 69 04 3e
       -0.0033079162 -0.08653288 -0.020451719 0.12931047
000020 1b bf 87 3c 4d 30 41 3e a9 12 ac ba 68 a5 50 3b
       0.016570618 0.18866082 -0.001312812 0.003183687
000030 1a fa 2b 3e 6c 1c 0c 3d 36 cb 49 3e 28 47 ec 3d
       0.16794625 0.034206793 0.19706425 0.115370095
000040 7a f3 45 bd 67 61 59 3e cd 82 50 bd 8d c5 94 bd
       -0.0483279 0.21228562 -0.05090599 -0.07264242
000050 82 98 ea 3c 0a 0f 6e bd 10 f6 cf bc d9 43 31 3d
       0.028637175 -0.05811981 -0.025385886 0.043277595
000060 34 90 13 3e b9 04 3c bd 47 87 98 3c 37 2a 0e 3d
       0.14410478 -0.04590294 0.018619193 0.034708228
000070 28 62 4b bc 6e 2b 41 3e eb 9a a8 bd 7f 16 34 3e
       -0.012413539 0.18864223 -0.08232673 0.17586707
000080 df b1 b7 3d 26 cb b7 bc 6a 12 5d 3e 41 96 1c 3e
       0.08969473 -0.022435736 0.21589056 0.15291692
000090 d9 ea b0 bd c2 aa cc 3d 9d a2 e6 bb 7d 0f 13 3e
       -0.08638544 0.09993507 -0.007038428 0.14361377
0000a0 ff a5 9a 3d aa 64 c0 3d a8 d3 32 3e 37 97 04 bc
       0.075511925 0.093942 0.17463553 -0.008092693
0000b0 42 e6 93 bd e3 5d 03 3e 25 2d 1d 3e e0 61 96 3c
       -0.072216526 0.12828784 0.15349253 0.018357217
0000c0 77 5a 80 bd 42 03 47 bd c5 b6 ab bd 5c 6a 84 3c
       -0.06267255 -0.04858709 -0.0838447 0.016163997
0000d0 a8 35 28 3e 8c 76 b4 bd aa ff e1 b9 9d a3 53 3e
       0.16426718 -0.088116735 -0.0004310583 0.20667882
0000e0 39 ca 38 3d 04 e0 e6 3c d8 0e e8 bc d2 55 8b bd
       0.04511473 0.02818299 -0.02832739 -0.06803478
0000f0 fc ca 95 3d c2 67 4e 3e 54 b6 b6 3c d8 3a d1 3d
       0.07314107 0.20156768 0.022303738 0.10216302

fc3.weight f4 [15, 64]
000000 d8 19 2e bd 31 99 65 3e b6 b7 32 be 04 0a 19 bd
       -0.042505115 0.22421719 -0.17452893 -0.037363067
000010 34 4b e0 bd 1f 98 30 be 29 0b 36 be 22 b4 5a 3e
       -0.10951844 -0.1724553 -0.17777695 0.21357778
000020 4d 5f 23 be f0 18 68 3e dc 8c 50 be 16 79 4f 3d
       -0.15954323 0.22665763 -0.20366234 0.050652586
000030 f6 0c 37 3e a0 23 95 3b 68 47 2c 3e e0 6c 58 3e
       0.17876038 0.004551366 0.16824114 0.21135283
000040 db 43 e8 bd 72 cc 1c 3e 6d 9a 76 be 18 fc b8 bc
       -0.113410674 0.15312365 -0.24082346 -0.022581145
000050 d4 10 7d be da 3a 8d 3d 1f 53 78 bd 23 56 09 3e
       -0.2471345 0.06895991 -0.060626145 0.13411765
000060 c8 37 2b be bd f1 c6 bd d4 ef 2f be 0c 22 88 be
       -0.16720498 -0.09714077 -0.17181331 -0.26588476
000070 f6 e0 a2 bd df 50 10 3e 0a 9b b1 bd c1 42 fd 3d
       -0.07953064 0.1409335 -0.086721495 0.12366248
000080 dc 52 dc bd 1b 7f d2 3b b9 bc 58 3e cd 12 6c 3e
       -0.10757992 0.0064238436 0.21165742 0.23054047
000090 dd 79 58 be 71 39 50 be 52 57 9d be f6 b9 3b be
       -0.21140237 -0.20334412 -0.30730683 -0.18332657
0000a0 8c 5a a6 be 17 fd 56 3e 56 b9 7c 3d ab f0 3d be
       -0.32490957 0.20994984 0.061700188 -0.18548839
0000b0 84 7f 74 3d b8 00 78 be 1f 01 74 be a0 05 93 bd
       0.05969192 -0.24219024 -0.23828553 -0.07178807
0000c0 7c 46 a0 3c e2 ea 8a be c3 22 3b be 84 ef 6d be
       0.01956486 -0.27132326 -0.1827498 -0.23235899
0000d0 29 dc 83 3d e9 e3 a9 3d c9 7d 69 bd 45 ff 5f 3e
       0.064384766 0.082954235 -0.057004724 0.21874721
0000e0 91 2d f1 bb b0 20 51 3e 7a 15 a1 3d f0 d1 61 3d
       -0.0073601683 0.20422626 0.078654245 0.055131853
0000f0 96 b2 76 be ab 9e 38 3e be 28 28 3e 54 85 42 be
       -0.24091563 0.18029277 0.16421792 -0.18996173
000100 a4 95 4a 3d 06 b6 04 3e 8f 19 20 be 58 3c aa 3d
       0.049459115 0.12960061 -0.1563475 0.08312291
000110 60 eb 40 bd cf 40 66 be a4 c9 ee bd a0 c8 a0 3d
       -0.04709947 -0.2248566 -0.11659554 0.07850766
000120 19 cb eb 3d af d5 4b 3e 4e 11 25 be 16 06 14 3e
       0.11513347 0.19905733 -0.16119882 0.14455447
000130 5e ee 30 3e 1c 58 e0 3d 7b 38 b2 3d 3f 08 4c 3e
       0.1727843 0.109543055 0.08702179 0.1992502
000140 1f 7f f8 bd 80 08 19 3d 1f 4d 10 3d 40 2b 89 3b
       -0.121336214 0.03736162 0.0352298 0.004186064
000150 f5 ac 0a be f9 d6 0a 3e f2 ab d6 bd 72 4b b9 3d
       -0.1354254 0.13558568 -0.10482015 0.09047593
000160 2b 3a 82 be 8a 64 a0 bd 32 17 1d be ea 8b 2d be
       -0.25435004 -0.07831676 -0.1534088 -0.16947904
000170 c0 04 69 bb aa 94 27 3e e8 c1 6f 3d 96 83 60 3d
       -0.003555581 0.16365305 0.058534533 0.05481299
000180 34 75 86 bd f2 96 2b bd 3b 7c 49 3d 1d 64 91 be
       -0.065653235 -0.041892 0.04919074 -0.28396693
000190 b6 e6 1f be 15 67 9f 3d 03 81 53 3e 66 0e cd bd
       -0.15615353 0.07783333 0.20654683 -0.10012512
0001a0 9e 90 8b 3e 9d df 44 3b 0d dd 7e 3e 5c 87 d3 3d
       0.27258772 0.003004051 0.24889012 0.10328552
0001b0 80 e7 84 3a 33 3e 3e be 80 ed 10 3e ca 4c 8c 3d
       0.0010139793 -0.18578415 0.14153099 0.06850584
0001c0 22 b5 f8 3d e9 05 01 3e d1 57 fd bd eb 6f d6 3a
       0.12143923 0.12599911 -0.12370265 0.0016360258
0001d0 2f 4e 87 be 1a c3 af bb f1 f8 4a be fe 1f ef 3d
       -0.26426837 -0.005363834 -0.19821526 0.11676024
0001e0 2b 32 74 be cb 63 c3 3b a6 be 8b bd 4c fe 15 3d
       -0.23847263 0.005962824 -0.06823473 0.03661947
0001f0 72 ff cc 3a 4d e1 f4 3d e6 65 ee 3d d7 72 ca 3d
       0.0015640093 0.11957035 0.11640529 0.09885185
000200 c6 7e e2 bd f6 75 39 3d 1c ac 3a 3e 30 75 34 3c
       -0.11059336 0.045278512 0.18229717 0.011014268
000210 80 6f 10 bb f3 53 79 be 57 87 8d be 94 74 2f be
       -0.0022039115 -0.2434843 -0.2764232 -0.17134315
000220 a9 83 16 be 6f 04 60 be 54 3d 00 be e5 4f 9b be
       -0.14698662 -0.21876691 -0.12523395 -0.30334392
000230 32 44 c1 3d 38 0d 5c 3d ba 3e 45 3e 49 48 43 3e
       0.09436835 0.053723544 0.1926221 0.19070543
000240 27 55 9d bc 63 e0 41 be 83 69 49 be 9e a1 a8 bd
       -0.019205643 -0.18933253 -0.19669156 -0.08233951
000250 59 30 4f be 24 a0 b6 bd af 9b 0a be f7 26 60 be
       -0.20233287 -0.08917263 -0.13535951 -0.21889864
000260 2c 74 76 3e 42 d7 b2 bd 8c e7 8e be b9 64 27 be
       0.24067754 -0.087324634 -0.2791103 -0.16347016
000270 00 20 85 bb c3 aa 51 3d d0 0a b3 3d c3 09 40 bd
       -0.0040626526 0.05118824 0.08742297 -0.04688431
000280 a4 43 4b be d4 d9 ed bd d7 7b 07 3e 05 b5 9b 3e
       -0.19850022 -0.11613813 0.13230835 0.30411544
000290 ae d9 0c bd bf da bc 3d f6 0c 8b 3c a1 dd b3 3d
       -0.034387283 0.0922141 0.016973954 0.08782507
0002a0 22 fb 24 be b2 89 88 3e 75 05 4e 3e c8 7d e7 bc
       -0.16111425 0.26667553 0.20119269 -0.02825822
0002b0 48 dd c1 3d ff f1 d3 bd 4e e8 80 bd c8 fb 2d 3d
       0.09466034 -0.103488915 -0.062943086 0.042476445
0002c0 89 13 5f be b2 39 3d be 20 62 16 be 47 16 92 3b
       -0.21784796 -0.1847904 -0.14685869 0.004458222
0002d0 ad 62 df bd f3 7d 0b 3c 81 7b 38 bd 63 07 0c 3e
       -0.10907493 0.008513915 -0.045039658 0.13674693
0002e0 a1 e5 15 3e 89 60 85 be f0 30 f2 3c c8 72 f8 3d
       0.14638378 -0.26050213 0.02956435 0.12131268
0002f0 57 f7 15 bd 6d 0a 3b 3e 89 55 19 3e 27 34 f2 3b
       -0.036612835 0.18265696 0.14974035 0.007391471
000300 6a 84 ee bd 20 92 86 bd 05 22 e5 3c c0 46 f1 bd
       -0.1164635 -0.0657084 0.027970323 -0.117810726
000310 00 85 21 bd c2 08 a9 bc a6 f4 32 3e 95 0c 3b be
       -0.03943348 -0.020634059 0.17476138 -0.18266518
000320 0d bd 87 3d 33 a4 8a be 5e 9b 6d be 88 68 1a 3d
       0.066278554 -0.270784 -0.23203799 0.037697345
000330 cc 46 8f 3d 0c 92 80 3d 3e 8d ac bd 21 4a 9e 3d
       0.06995925 0.06277856 -0.08425377 0.07728983
000340 74 e8 7b be 6a b9 1a be 1a bb 5b bd ee f5 b8 3d
       -0.24600393 -0.15109792 -0.05364523 0.09031282
000350 14 2f 7c 3d 4a 2e 3e 3e 04 d0 93 be 85 f0 96 be
       0.061568335 0.18572345 -0.2886964 -0.29480377
000360 ab d7 dd 3d 14 88 b5 bd 76 64 04 be 37 12 22 be
       0.10832151 -0.088638455 -0.12928948 -0.15827261
000370 20 8d 39 bd b5 ab 37 3e 03 21 1a bd ea fe cf 3b
       -0.045300603 0.17936595 -0.03762914 0.006347527
000380 82 b7 97 be db 4c 8b 3d cb b8 b3 bd 63 2b 1b bd
       -0.29632193 0.068017684 -0.08775481 -0.037883174
000390 b9 5f ec bd d3 40 42 3e 14 c6 23 3e b9 98 4c 3d
       -0.11541695 0.18970041 0.1599353 0.049950335
0003a0 02 b1 84 be e5 65 40 3e 21 51 01 be a7 ba 43 3e
       -0.25916296 0.1878887 -0.12628604 0.19114171
0003b0 94 0d b5 3d 0a 18 9d be a3 10 14 3e e0 27 89 bc
       0.088404804 -0.30682403 0.14459471 -0.016742647
0003c0 ff f4 49 bd 86 a1 6a 3e 65 d3 f5 bd 5d 44 44 3e
       -0.049305912 0.22913179 -0.12003211 0.19166704
0003d0 c7 57 a2 be 64 50 a8 bd 15 5b 87 3c 03 18 94 be
       -0.31707594 -0.08218458 0.016522923 -0.2892457
0003e0 11 15 e9 bd af d2 c4 bc 50 2e 1f bc 70 33 be 3c
       -0.11380971 -0.024026243 -0.009715632 0.023217887
0003f0 9f 33 59 3d d1 b9 f5 3d 70 62 37 3e e2 34 e0 bd
       0.053027745 0.11998332 0.17908645 -0.109475866

fc3.bias f4 [15]
000000 48 f8 17 3e 71 b7 a9 bd a5 ba 0b 3e f1 c5 40 3b
       0.14840806 -0.08286942 0.13645418 0.0029414857
000010 8c 09 af bd f9 8f bb 3d 6a 7f 11 3d 49 20 2f bc
       -0.08546743 0.0915832 0.035521902 -0.01068885
000020 c4 00 03 be 32 74 ca bd 0a 9d ac bd a5 f5 7d bd
       -0.12793261 -0.09885444 -0.0842839 -0.062001843
000030 e0 12 c5 3d 9c a2 9b 3c cb cd 25 be
       0.09622741 0.018998437 -0.16191785

exp_avg f4 [128, 4]
000000 00 00 00 00 00 00 00 00 00 00 00 00 00 00 00 00
       0.0 0.0 0.0 0.0
000010 00 00 00 00 00 00 00 00 00 00 00 00 00 00 00 00
       0.0 0.0 0.0 0.0
000020 00 00 00 00 00 00 00 00 00 00 00 00 00 00 00 00
       0.0 0.0 0.0 0.0
000030 3c 76 15 ba a9 13 2e b9 c4 f4 5d b9 43 73 97 ba
       -0.0005701517 -0.00016601257 -0.00021167385 -0.0011554736
000040 dc cf 6d b9 4f dd dd b9 09 57 e2 b9 c5 77 b3 b9
       -0.00022679515 -0.00042317293 -0.00043170925 -0.00034230776
000050 04 00 00 00 04 00 00 00 04 00 00 00 04 00 00 00
       6e-45 6e-45 6e-45 6e-45
000060 00 00 00 00 00 00 00 00 00 00 00 00 00 00 00 00
       0.0 0.0 0.0 0.0
000070 ce 2f 4c 39 e6 dc 0c ba 74 11 15 ba a1 81 45 b9
       0.00019472765 -0.00053734926 -0.00056864996 -0.00018835675
000080 80 38 23 b9 c2 42 e7 b6 28 e8 62 37 84 8a c7 38
       -0.00015565939 -6.892108e-06 1.3524703e-05 9.51486e-05
000090 8a 9e fe b9 5a ab b2 b9 76 b7 8f b9 d3 5c b4 39
       -0.00048564776 -0.00034078473 -0.00027411774 0.00034401435
0000a0 8c 5a a2 39 4a 64 1f ba 0b 5d 19 ba c2 dd 24 3a
       0.0003096651 -0.0006080313 -0.00058503513 0.0006289148
0000b0 c5 9c c1 b9 8a fc 6f 39 88 fc 2e 39 b0 51 97 ba
       -0.0003692863 0.00022886894 0.00016688008 -0.001154473
0000c0 00 00 00 00 00 00 00 00 00 00 00 00 00 00 00 00
       0.0 0.0 0.0 0.0
0000d0 fc b3 1c ba 8e b5 4c ba 08 6c 3c ba fa c2 04 39
       -0.00059777475 -0.0007809036 -0.0007187729 0.00012661135
0000e0 89 52 0b 3a b9 cc ee b9 74 a7 00 ba fb 72 1d 39
       0.0005314728 -0.00045547428 -0.0004907765 0.0001501552
0000f0 03 ed 09 ba 9c 9f fe b8 14 bc 66 b8 b2 49 94 39
       -0.0005261453 -0.000121413934 -5.5011435e-05 0.00028283667
000100 8c b4 14 b8 98 7c 3d b8 9c cb d2 b7 be 9b 66 39
       -3.5454097e-05 -4.517715e-05 -2.5128764e-05 0.00021992528
000110 c1 0e d2 b9 00 35 3e 39 7f 12 00 39 47 fe 97 ba
       -0.00040065314 0.00018139556 0.00012213922 -0.0011596166
000120 ce 56 44 ba 55 06 4c 39 89 cb 1f 39 f0 2b af ba
       -0.00074897415 0.00019457315 0.00015239244 -0.0013364535
000130 c3 7d c6 b9 4a 68 bc b9 5f 20 aa b9 a0 8c 71 38
       -0.00037859203 -0.00035935856 -0.00032449045 5.7589845e-05
000140 00 00 00 00 00 00 00 00 00 00 00 00 00 00 00 00
       0.0 0.0 0.0 0.0
000150 b3 ec e0 b9 85 79 62 38 ca 93 83 37 4c 35 6e ba
       -0.00042900964 5.3995773e-05 1.5685237e-05 -0.00090869213
000160 2f 78 58 39 5f 8c 45 ba 57 ef 45 ba da 0e 5e 39
       0.00020644137 -0.00075358705 -0.0007550618 0.00021177102
000170 74 c9 f9 b9 f4 8a 1a b9 bf e8 ef b8 ee 57 9e b8
       -0.00047643075 -0.00014738349 -0.000114397604 -7.550405e-05
000180 00 00 00 00 00 00 00 00 00 00 00 00 00 00 00 00
       0.0 0.0 0.0 0.0
000190 12 ae 34 ba 8e 91 84 39 fa 71 67 39 47 6f 97 ba
       -0.00068923936 0.0002528545 0.00022072336 -0.0011553549
0001a0 96 86 ef 38 3a 1b 17 ba 0a 5c 14 ba ee 6c a3 39
       0.00011421477 -0.000576425 -0.0005659467 0.00031170942
0001b0 00 00 00 00 00 00 00 00 00 00 00 00 00 00 00 00
       0.0 0.0 0.0 0.0
0001c0 cd 9d f3 b9 c1 1b 89 b8 4a 45 24 b8 7b 28 14 b9
       -0.00046466143 -6.5378386e-05 -3.9165177e-05 -0.0001412946
0001d0 36 21 48 ba 10 80 9c b9 48 5e 5e b9 88 85 9a 39
       -0.00076343433 -0.00029850053 -0.00021206692 0.00029472657
0001e0 e8 ca 35 39 78 e5 06 ba f5 89 05 ba a4 6a 98 39
       0.00017337094 -0.0005145888 -0.00050941046 0.00029071153
0001f0 00 00 00 00 00 00 00 00 00 00 00 00 00 00 00 00
       0.0 0.0 0.0 0.0
000200 bc e0 e6 b9 6f 61 10 39 ed d8 1f 39 25 97 89 b9
       -0.0004403646 0.00013769207 0.00015244233 -0.00026243288
000210 b9 93 f2 b9 01 b0 84 b6 24 34 6a b8 f4 48 8f ba
       -0.000462679 -3.954396e-06 -5.5838507e-05 -0.0010931776
000220 8a 5a 64 39 80 c2 e4 b9 65 ee 02 ba cc 76 07 ba
       0.00021777503 -0.00043632463 -0.000499463 -0.00051675434
000230 c6 ff d6 b9 8d 8b d1 b9 04 47 c3 b9 2c f7 95 b8
       -0.00041007827 -0.0003996756 -0.0003724621 -7.150913e-05
000240 93 72 66 ba aa 2e 81 b9 93 76 36 b9 10 e0 1e 37
       -0.00087908766 -0.00024639565 -0.00017401045 9.4697025e-06
000250 80 5a 1b 39 a1 dd b1 b9 44 fd c7 b9 bd 67 c2 b9
       0.00014815666 -0.00033925197 -0.00038144935 -0.00037079855
000260 00 00 00 00 00 00 00 00 00 00 00 00 00 00 00 00
       0.0 0.0 0.0 0.0
000270 f8 8c 45 ba 50 fe 1f b9 b4 00 b7 b8 55 4d 65 38
       -0.00075359596 -0.0001525816 -8.726251e-05 5.4669876e-05
000280 d2 c5 f5 b8 ce 59 e1 37 ec 10 09 37 02 75 b4 b9
       -0.00011719357 2.6863909e-05 8.169776e-06 -0.00034419453
000290 d8 80 30 ba b4 7d ce 38 fa ef 0f 39 15 59 4c b9
       -0.00067330664 9.8462595e-05 0.00013726941 -0.00019488142
0002a0 6e 27 0d ba 3b 81 ac b8 04 eb fa b7 f4 5a d4 38
       -0.00053845986 -8.22567e-05 -2.991176e-05 0.00010125889
0002b0 24 3b 28 ba 0b 69 ca b9 d2 9b a8 b9 9b 9c 16 39
       -0.0006417504 -0.00038606705 -0.00032159552 0.00014363455
0002c0 f3 bf a4 b9 48 20 dd b9 9d 9d c3 b9 8f 21 87 39
       -0.0003142353 -0.00042176456 -0.0003731073 0.0002577421
0002d0 12 20 cc b8 4b de 46 39 35 83 03 39 d9 ee 6a ba
       -9.7334516e-05 0.00018965562 0.00012542012 -0.00089619827
0002e0 7d 86 d8 b9 5a 22 b1 b9 14 d3 90 b9 d5 16 b6 39
       -0.00041298932 -0.00033785665 -0.00027623086 0.00034730756
0002f0 90 27 2f 39 dc 3f 5a ba 9f 6a 55 ba a6 d6 e6 39
       0.00016704039 -0.0008325556 -0.0008141193 0.00044028944
000300 00 00 00 00 00 00 00 00 00 00 00 00 00 00 00 00
       0.0 0.0 0.0 0.0
000310 fa fa 2a 38 7c 7d 22 ba 37 93 29 ba 5c e0 91 b9
       4.07649e-05 -0.0006198508 -0.0006468775 -0.00027823716
000320 0f 72 da b9 e6 6a d7 b9 73 be c7 b9 c9 1e 79 b8
       -0.0004166518 -0.0004108764 -0.00038098134 -5.9394897e-05
000330 b3 70 d0 39 e3 ec 31 ba ea e1 32 ba 9a 34 de 39
       0.0003975682 -0.0006787313 -0.0006823825 0.0004238233
000340 36 9b c7 39 e0 22 98 37 2e e4 8b b8 f2 1f 29 ba
       0.0003807188 1.8136052e-05 -6.670538e-05 -0.00064515986
000350 f8 77 15 ba db 39 d6 b9 6d 50 a5 b9 97 20 1c 3a
       -0.00057017757 -0.00040860366 -0.00031531174 0.0005955784
000360 00 00 00 00 00 00 00 00 00 00 00 00 00 00 00 00
       0.0 0.0 0.0 0.0
000370 ea ed 59 ba c7 f2 da b9 e8 e4 b3 b9 bc fa b2 38
       -0.0008313345 -0.00041761083 -0.0003431209 8.534404e-05
000380 62 ed 3d ba 95 f5 02 39 c8 0d ba 38 f0 ed 97 ba
       -0.00072451506 0.00012489253 8.871738e-05 -0.0011591297
000390 81 d4 fe b9 1d 40 a3 b9 11 3f 88 b9 ef 38 15 39
       -0.00048604983 -0.0003113755 -0.0002598693 0.00014230957
0003a0 c0 07 0c ba d6 bc 8e b9 b2 e2 7e b9 35 68 3e b9
       -0.0005341731 -0.00027225044 -0.00024307778 -0.00018158632
0003b0 00 00 00 00 00 00 00 00 00 00 00 00 00 00 00 00
       0.0 0.0 0.0 0.0
0003c0 00 00 00 00 00 00 00 00 00 00 00 00 00 00 00 00
       0.0 0.0 0.0 0.0
0003d0 00 00 00 00 00 00 00 00 00 00 00 00 00 00 00 00
       0.0 0.0 0.0 0.0
0003e0 2b 53 c3 b9 77 dc ca 39 cc f6 ad 39 8c df 8b ba
       -0.00037255263 0.00038692701 0.0003318101 -0.001067148
0003f0 00 00 00 00 00 00 00 00 00 00 00 00 00 00 00 00
       0.0 0.0 0.0 0.0

exp_avg_sq f4 [128, 4]
000000 00 00 00 00 00 00 00 00 00 00 00 00 00 00 00 00
       0.0 0.0 0.0 0.0
000010 00 00 00 00 00 00 00 00 00 00 00 00 00 00 00 00
       0.0 0.0 0.0 0.0
000020 00 00 00 00 00 00 00 00 00 00 00 00 00 00 00 00
       0.0 0.0 0.0 0.0
000030 6c b8 26 37 bf af c5 36 33 4b bc 36 c1 f3 1b 38
       9.93731e-06 5.891517e-06 5.611591e-06 3.7181893e-05
000040 7a 10 98 36 b5 c3 2b 37 59 11 31 37 e0 8a e8 36
       4.531871e-06 1.0237961e-05 1.0554061e-05 6.930306e-06
000050 c7 c0 53 30 e7 41 38 31 fa 45 38 31 88 9f 53 30
       7.7035306e-10 2.6812985e-09 2.68153e-09 7.698806e-10
000060 00 00 00 00 00 00 00 00 00 00 00 00 00 00 00 00
       0.0 0.0 0.0 0.0
000070 63 c2 bc 36 67 90 d0 37 f9 b4 e3 37 97 4f 68 37
       5.625466e-06 2.4862775e-05 2.714478e-05 1.38468085e-05
000080 ff 30 0f 36 e7 f7 08 32 15 09 7d 31 fd f2 87 34
       2.133718e-06 7.972608e-09 3.6821508e-09 2.5322507e-07
000090 27 24 09 37 1f 3a 97 36 6c 97 6a 36 1a 86 db 36
       8.174254e-06 4.506917e-06 3.4956856e-06 6.54232e-06
0000a0 4f 12 8a 37 99 5b a9 37 13 8a a7 37 d5 9b bb 37
       1.6459408e-05 2.0189023e-05 1.9972247e-05 2.2364702e-05
0000b0 f5 06 75 37 52 0d a7 36 1b b0 bc 36 5f 01 47 38
       1.4604758e-05 4.9785385e-06 5.623338e-06 4.7446574e-05
0000c0 00 00 00 00 00 00 00 00 00 00 00 00 00 00 00 00
       0.0 0.0 0.0 0.0
0000d0 3f a6 e6 37 45 81 bc 37 fd 6e 9f 37 28 08 1c 37
       2.7495551e-05 2.2471542e-05 1.900596e-05 9.300224e-06
0000e0 e9 1f 4d 37 13 17 a5 37 54 f5 aa 37 db 7f 46 37
       1.2226382e-05 1.9680278e-05 2.0379819e-05 1.1831488e-05
0000f0 12 9f bb 37 ac 5d c2 36 ec e7 8e 36 6c 77 b7 35
       2.236621e-05 5.7925554e-06 4.258929e-06 1.3669319e-06
000100 d3 d1 12 37 e3 16 ed 36 9c d3 e9 36 bf 95 d4 36
       8.751132e-06 7.0658148e-06 6.9685757e-06 6.335525e-06
000110 13 eb c5 37 c3 96 3d 37 dc ce 4f 37 97 bf 7c 38
       2.3593695e-05 1.130038e-05 1.2386325e-05 6.0259914e-05
000120 74 b9 1f 38 24 2b 4e 37 f3 28 54 37 3e f8 73 38
       3.808127e-05 1.2288601e-05 1.2645719e-05 5.816691e-05
000130 5b d9 cb 36 1a af b9 36 26 84 a5 36 f9 c0 16 36
       6.075175e-06 5.533814e-06 4.9327673e-06 2.2464067e-06
000140 00 00 00 00 00 00 00 00 00 00 00 00 00 00 00 00
       0.0 0.0 0.0 0.0
000150 4e cf 2b 37 9b e9 93 36 7a 36 93 36 5a ea bd 37
       1.0240661e-05 4.4081366e-06 4.3872833e-06 2.2639684e-05
000160 88 fa 29 37 69 f5 eb 37 e7 03 f3 37 c3 c8 16 37
       1.0131516e-05 2.8128461e-05 2.8969675e-05 8.98744e-06
000170 dd 11 2f 37 20 f8 39 36 93 24 20 36 e7 9b dd 35
       1.0434972e-05 2.7711576e-06 2.3863147e-06 1.6511157e-06
000180 00 00 00 00 00 00 00 00 00 00 00 00 00 00 00 00
       0.0 0.0 0.0 0.0
000190 0a 21 e0 37 1f 2c 97 36 aa 53 93 36 97 30 ed 37
       2.6718266e-05 4.505287e-06 4.390681e-06 2.8275228e-05
0001a0 66 c8 26 37 f8 f8 a6 37 a5 74 aa 37 48 49 7c 37
       9.94103e-06 1.9904677e-05 2.0319896e-05 1.5037433e-05
0001b0 00 00 00 00 00 00 00 00 00 00 00 00 00 00 00 00
       0.0 0.0 0.0 0.0
0001c0 a7 c3 2b 37 0a 0c 04 36 a2 c7 08 36 79 98 04 36
       1.0237948e-05 1.967654e-06 2.038178e-06 1.9758284e-06
0001d0 7f 4b b9 37 09 cc e0 36 72 5f b6 36 38 c0 b7 36
       2.2088874e-05 6.699473e-06 5.435134e-06 5.476202e-06
0001e0 4e a7 80 36 cf a1 00 37 dd c2 03 37 eb 8a c6 36
       3.834174e-06 7.6670685e-06 7.853579e-06 5.917032e-06
0001f0 00 00 00 00 00 00 00 00 00 00 00 00 00 00 00 00
       0.0 0.0 0.0 0.0
000200 84 3f 01 37 90 09 e3 35 c6 a0 df 35 a4 97 1d 36
       7.703788e-06 1.6915601e-06 1.6661586e-06 2.348309e-06
000210 09 7c e7 36 f7 e3 27 36 ae 93 52 36 de ce 07 38
       6.898776e-06 2.5017632e-06 3.13784e-06 3.237917e-05
000220 f5 8c e1 36 e2 ac 32 37 6c 1e 50 37 62 ac ac 37
       6.721932e-06 1.0649879e-05 1.2404849e-05 2.058427e-05
000230 46 b4 0e 37 5a 11 49 37 e4 6a 38 37 70 03 2e 36
       8.505833e-06 1.1984574e-05 1.0992142e-05 2.5930021e-06
000240 89 ad 07 38 e2 4c 4b 37 3b bb 2f 37 55 16 da 36
       3.2348125e-05 1.2117644e-05 1.0474406e-05 6.499506e-06
000250 a4 0e 81 36 b7 a8 14 37 bf 9f 30 37 3a 81 4b 37
       3.846204e-06 8.860769e-06 1.0527611e-05 1.2129831e-05
000260 00 00 00 00 00 00 00 00 00 00 00 00 00 00 00 00
       0.0 0.0 0.0 0.0
000270 d8 82 a2 37 08 1c 6c 36 94 79 5f 36 ba 43 a2 36
       1.9372834e-05 3.5183057e-06 3.3300357e-06 4.8358606e-06
000280 26 40 9e 34 2b 56 16 32 4e ef 61 32 84 5c 60 36
       2.9476467e-07 8.7507415e-09 1.3151135e-08 3.3432452e-06
000290 a9 3f 9e 37 e9 f5 0b 37 61 1e 1c 37 fa e3 c0 36
       1.8864712e-05 8.342301e-06 9.305398e-06 5.748586e-06
0002a0 89 f6 64 37 63 60 8b 36 a5 12 8e 36 02 be b0 36
       1.364726e-05 4.1537437e-06 4.2341003e-06 5.2673286e-06
0002b0 bc 67 b6 37 1a d7 3c 37 a5 dc 1a 37 84 59 ae 36
       2.1744396e-05 1.1255755e-05 9.230488e-06 5.196025e-06
0002c0 d2 1b 4e 37 24 a9 0a 37 b0 19 fb 36 95 a3 26 37
       1.2285034e-05 8.264822e-06 7.4833733e-06 9.932458e-06
0002d0 97 22 d4 36 65 a4 fd 36 4f b9 ef 36 36 5e e6 37
       6.322119e-06 7.5591256e-06 7.144328e-06 2.7462007e-05
0002e0 c1 85 9c 37 9a d3 20 37 55 d3 02 37 8a 1c 41 37
       1.8658933e-05 9.5860105e-06 7.797808e-06 1.1510341e-05
0002f0 ba 8c 0e 37 d0 ca 0d 38 2a 44 0e 38 5e 58 4b 37
       8.496625e-06 3.3805904e-05 3.391892e-05 1.21203175e-05
000300 00 00 00 00 00 00 00 00 00 00 00 00 00 00 00 00
       0.0 0.0 0.0 0.0
000310 77 1c 1d 37 a0 6a 0d 38 76 35 15 38 3d 8e a2 37
       9.364557e-06 3.3716322e-05 3.5574158e-05 1.937814e-05
000320 b7 64 4d 37 55 95 86 37 f5 4e 73 37 98 bd 25 36
       1.2242402e-05 1.6043583e-05 1.4502312e-05 2.4697274e-06
000330 bb de 49 37 e6 bd 02 38 f5 d7 07 38 fc 8d 8d 37
       1.2032392e-05 3.1171272e-05 3.2387634e-05 1.6874626e-05
000340 f7 33 a8 36 8d b2 15 37 b2 c5 39 37 fd 4d 37 38
       5.0128397e-06 8.922664e-06 1.1072889e-05 4.3703232e-05
000350 11 71 af 37 fe 93 3f 37 a7 3e 1d 37 f5 81 80 37
       2.0914276e-05 1.1418944e-05 9.372517e-06 1.5319305e-05
000360 00 00 00 00 00 00 00 00 00 00 00 00 00 00 00 00
       0.0 0.0 0.0 0.0
000370 f7 50 bf 37 4a 8f 13 37 a6 c8 fa 36 c4 69 d5 36
       2.2806676e-05 8.795245e-06 7.473939e-06 6.3602074e-06
000380 1d fc b6 37 16 83 10 37 5d ad 22 37 af bb 73 38
       2.181349e-05 8.61359e-06 9.696317e-06 5.811051e-05
000390 26 d7 6a 37 4d ef 14 37 ec a4 f5 36 a6 a1 98 36
       1.399758e-05 8.877204e-06 7.3207684e-06 4.5487714e-06
0003a0 85 12 24 37 f8 7d cf 36 81 f5 b9 36 32 50 27 36
       9.779474e-06 6.1837454e-06 5.54201e-06 2.493162e-06
0003b0 00 00 00 00 00 00 00 00 00 00 00 00 00 00 00 00
       0.0 0.0 0.0 0.0
0003c0 00 00 00 00 00 00 00 00 00 00 00 00 00 00 00 00
       0.0 0.0 0.0 0.0
0003d0 00 00 00 00 00 00 00 00 00 00 00 00 00 00 00 00
       0.0 0.0 0.0 0.0
0003e0 07 46 4b 37 96 a0 60 37 50 93 50 37 99 2b 2f 38
       1.2116047e-05 1.338883e-05 1.2432065e-05 4.1763855e-05
0003f0 00 00 00 00 00 00 00 00 00 00 00 00 00 00 00 00
       0.0 0.0 0.0 0.0

exp_avg f4 [128]
000000 00 00 00 00 00 00 00 00 00 00 00 00 be bd 30 ba
       0.0 0.0 0.0 -0.0006742141
000010 0d e9 5d 39 04 00 00 00 00 00 00 00 49 e4 ca 38
       0.0002116302 6e-45 0.0 9.674632e-05
000020 82 f4 c7 b9 c9 e2 40 b9 b2 05 a9 ba 61 ac 03 ba
       -0.0003813841 -0.00018395031 -0.0012895374 -0.000502294
000030 00 00 00 00 8b 13 6d ba 4b 0a 92 ba 62 ab 78 b8
       0.0 -0.00090437446 -0.0011141984 -5.928742e-05
000040 52 34 6e ba b3 17 c3 39 cc 45 b1 39 dc 49 a2 b9
       -0.0009086776 0.00037210956 0.00033812074 -0.00030954077
000050 00 00 00 00 1b 9a 8a ba 3c 08 03 ba 14 06 e7 38
       0.0 -0.0010574491 -0.00049984804 0.000110160705
000060 00 00 00 00 22 bb 65 b9 e0 1b bc ba 00 00 00 00
       0.0 -0.00021908854 -0.0014351569 0.0
000070 7d 2c e5 b9 59 e6 e0 b8 fd fa a5 ba 00 00 00 00
       -0.0004371143 -0.00010724058 -0.0012663301 0.0
000080 17 f5 4c ba da a4 70 ba 2d 10 6b ba 80 18 3d 39
       -0.00078185037 -0.0009179838 -0.0008966949 0.00018033572
000090 46 25 f3 39 e9 0b 40 38 00 00 00 00 b3 0b 16 b9
       0.00046376343 4.578746e-05 0.0 -0.00014309473
0000a0 2a 6f 2b ba 02 64 03 ba b6 7c 15 ba 0c c8 f7 b8
       -0.0006539697 -0.0005012156 -0.00057024823 -0.000118151394
0000b0 a6 71 69 ba 83 08 47 ba 04 67 15 b8 ea 74 58 ba
       -0.00089051796 -0.0007592516 -3.562031e-05 -0.00082571676
0000c0 00 00 00 00 bc 5f f9 38 c8 f9 89 38 fd 08 ac ba
       0.0 0.00011891077 6.5791945e-05 -0.0013125237
0000d0 22 bc 68 ba be c2 fd b9 00 00 00 00 e6 28 28 b9
       -0.00088781316 -0.00048401015 0.0 -0.00016036964
0000e0 d1 e4 ed b9 40 bb da 38 26 73 bf 38 00 00 00 00
       -0.00045374644 0.00010429928 9.129038e-05 0.0
0000f0 00 00 00 00 00 00 00 00 02 a0 65 b9 00 00 00 00
       0.0 0.0 -0.0002189875 0.0
000100 0f 32 b8 ba 90 8a ec b9 a4 79 f7 b9 dd 5b 0c ba
       -0.0014053005 -0.00045116665 -0.0004720214 -0.0005354265
000110 82 66 c2 39 f3 46 6e b9 57 61 83 ba 00 00 00 00
       0.00037078938 -0.0002272388 -0.0010023516 0.0
000120 56 2a 4d ba 15 0f e9 b9 3e 89 f1 b9 b0 d4 9f ba
       -0.0007826438 -0.0004445246 -0.00046069355 -0.0012194123
000130 95 28 c9 38 44 ae 20 ba 41 18 37 ba 00 00 00 00
       9.591986e-05 -0.0006129483 -0.000698451 0.0
000140 2f b6 09 ba c2 f7 34 ba 68 7f 76 ba ae ef 8c 39
       -0.0005253283 -0.0006903374 -0.000940314 0.00026881456
000150 b8 96 a0 38 00 00 00 00 66 b7 18 b9 d0 ee 2b b9
       7.657468e-05 0.0 -0.00014564171 -0.00016396795
000160 5a 0a 27 b9 7d 8c 25 ba d6 b1 54 b9 ae 77 37 ba
       -0.00015930217 -0.0006315185 -0.00020284145 -0.00069987297
000170 f1 49 8c ba 00 00 00 00 c5 72 4f ba eb 62 2f b9
       -0.0010703189 0.0 -0.00079135253 -0.0001672615
000180 3e 4e 29 ba 86 58 25 ba 8a a7 70 ba 3b 92 61 ba
       -0.00064584974 -0.00063074415 -0.00091802387 -0.0008604859
000190 c8 7e f9 b9 19 ac 9f 39 a4 3c 28 ba f0 1f 14 37
       -0.0004758744 0.00030455066 -0.00064177276 8.8289235e-06
0001a0 08 52 78 b9 05 d1 66 39 4a 44 91 b9 2d e0 d0 b8
       -0.00023681682 0.00022012375 -0.00027707434 -9.959969e-05
0001b0 44 0f 6c 39 e2 6e f7 b9 11 ae 05 b9 00 00 00 00
       0.00022512401 -0.00047194125 -0.00012748713 0.0
0001c0 4c 9c b2 39 cc 68 a0 b9 1e fd 95 39 2c 73 cf b9
       0.00034067256 -0.00030595658 0.00028608082 -0.00039567926
0001d0 1b 57 81 ba 00 00 00 00 8f de 96 ba c8 dc ba 38
       -0.0009867878 0.0 -0.001151042 8.910295e-05
0001e0 3f 25 bb 39 d1 49 ef b9 cf 51 d5 b8 80 3c a9 ba
       0.0003569517 -0.0004564063 -0.000101718695 -0.0012911707
0001f0 c5 2d 87 b9 00 00 00 00 2c a4 11 39 44 4a 09 ba
       -0.00025783308 0.0 0.00013889436 -0.00052372017

exp_avg_sq f4 [128]
000000 00 00 00 00 00 00 00 00 00 00 00 00 82 7b 7d 37
       0.0 0.0 0.0 1.51087315e-05
000010 e9 92 22 36 4f 2a 3d 30 00 00 00 00 64 34 92 36
       2.4225394e-06 6.8817924e-10 0.0 4.357238e-06
000020 9c 6a 57 37 b0 81 f4 35 17 08 2c 38 2a b4 cb 37
       1.2839821e-05 1.8217161e-06 4.101553e-05 2.4283381e-05
000030 00 00 00 00 94 f4 b8 37 70 f2 2c 38 a0 dd f7 36
       0.0 2.20484e-05 4.1233783e-05 7.386974e-06
000040 7e 8d 98 37 2c 7e 5e 37 ee 22 7c 37 2a a6 87 36
       1.81857e-05 1.3261608e-05 1.5028503e-05 4.0426576e-06
000050 00 00 00 00 3c 6d 16 38 55 24 2b 37 6b f7 9b 35
       0.0 3.586452e-05 1.02008535e-05 1.1620408e-06
000060 00 00 00 00 93 4b 6f 37 f0 b0 5c 38 00 00 00 00
       0.0 1.4263106e-05 5.2616873e-05 0.0
000070 be 3d 9e 36 79 94 84 36 6a e1 d2 37 00 00 00 00
       4.7159547e-06 3.951191e-06 2.5138917e-05 0.0
000080 1c 99 59 37 b9 25 c4 37 49 b5 87 37 26 dd 00 36
       1.29698565e-05 2.3382587e-05 1.6177672e-05 1.9202212e-06
000090 b4 a1 d0 36 1b 4d c5 35 00 00 00 00 95 3e 20 36
       6.217708e-06 1.4700084e-06 0.0 2.3878285e-06
0000a0 ef fd 6d 37 fb e8 37 37 be 78 19 37 be b6 2e 36
       1.4185424e-05 1.0961895e-05 9.147623e-06 2.603439e-06
0000b0 f0 74 88 37 9c d3 c4 37 74 d3 7b 36 23 d5 af 37
       1.6266917e-05 2.3463559e-05 3.7524997e-06 2.0960875e-05
0000c0 00 00 00 00 36 5c 1d 37 8f 90 d2 35 53 6f 52 38
       0.0 9.379399e-06 1.5688291e-06 5.017158e-05
0000d0 bb 46 02 38 ca 32 3b 37 00 00 00 00 3e 69 21 36
       3.1060288e-05 1.1157894e-05 0.0 2.4052129e-06
0000e0 60 c4 c7 37 be 38 0b 36 b0 9d cc 35 00 00 00 00
       2.3814093e-05 2.0745642e-06 1.5245078e-06 0.0
0000f0 00 00 00 00 00 00 00 00 a2 1b 4b 37 00 00 00 00
       0.0 0.0 1.2106177e-05 0.0
000100 e8 bf 50 38 66 45 2f 37 7f 20 0a 37 aa 4b e7 36
       4.976979e-05 1.0446971e-05 8.233007e-06 6.893145e-06
000110 df fd e6 36 ab a6 f2 36 03 1b fa 37 00 00 00 00
       6.8840886e-06 7.2315647e-06 2.98149e-05 0.0
000120 0c a7 e0 37 54 5c 87 36 a6 7a 5a 37 b6 98 3f 38
       2.6780668e-05 4.034062e-06 1.3022369e-05 4.568017e-05
000130 35 f9 92 35 01 ad 33 37 71 43 8f 37 00 00 00 00
       1.0950376e-06 1.0709512e-05 1.7078333e-05 0.0
000140 8b 35 41 37 fe 97 9b 37 68 de fb 37 07 87 fc 35
       1.1516163e-05 1.8548217e-05 3.0025098e-05 1.8814761e-06
000150 0e ab bb 35 00 00 00 00 18 d2 bf 37 6f 0b 9b 36
       1.3982369e-06 0.0 2.2866807e-05 4.620691e-06
000160 45 c2 d6 36 3a e0 62 37 31 4a f8 35 ce 35 66 37
       6.400313e-06 1.35228565e-05 1.8499032e-06 1.3721596e-05
000170 ff ea e4 37 00 00 00 00 ff c0 42 37 3c 6a d0 37
       2.7289147e-05 0.0 1.16082365e-05 2.4845001e-05
000180 39 52 8c 37 c6 7e 8e 37 72 24 a9 37 fb c7 57 37
       1.6727588e-05 1.6986753e-05 2.0163341e-05 1.286156e-05
000190 d2 c7 98 37 aa c3 83 36 f2 57 e0 37 c5 4c 5b 36
       1.821286e-05 3.9268825e-06 2.6743834e-05 3.2678229e-06
0001a0 94 25 16 37 56 a8 2e 37 4e 0f 11 37 27 1a 9c 36
       8.949446e-06 1.0410402e-05 8.646237e-06 4.652207e-06
0001b0 f2 a0 17 36 02 bc 29 37 6c 56 2f 36 00 00 00 00
       2.2594436e-06 1.0116959e-05 2.6127336e-06 0.0
0001c0 22 68 9f 36 a9 6f 73 36 22 b7 52 36 ab c5 bd 37
       4.750692e-06 3.6274816e-06 3.1399036e-06 2.2622602e-05
0001d0 4f d0 26 37 00 00 00 00 98 ad a4 37 7d 1e be 35
       9.942872e-06 0.0 1.963116e-05 1.4164976e-06
0001e0 1c da 3b 36 c5 d1 18 37 3d c9 19 36 7c d8 4d 38
       2.7992128e-06 9.108747e-06 2.2915913e-06 4.9077426e-05
0001f0 db 21 cb 36 00 00 00 00 ee f2 fe 35 94 56 66 37
       6.0538127e-06 0.0 1.8995177e-06 1.3729226e-05
