models/model_20250801_113327_lr0.001.pth (torch, 126838 bytes, 18 tensors)

fc1.weight f4 [128, 4]
00000000: d0ef e7be 5280 b33e b24a 1bbe 3fee b83c
00000010: 118b 80be d129 ed3d d39b 72be c8df 493e
00000020: c61f a4be 567b acbe 06c6 93bd 522f 00bf
00000030: 6f5c a33e 9065 f6bd 1dc0 16be f4af 31bf
00000040: d3e6 03bf 2e39 c0bd 3722 893e f870 84bd
00000050: e996 75be bed1 29be 5f3a 813e e5f0 043f
00000060: 2408 babe 436c 78bd 7034 0e3f 0153 e0be
00000070: d091 c9be ec07 06bd 7411 1e3e 23c9 af3c
00000080: 6fa9 ffbe a876 05bf 3667 423e 48e7 2e3d
00000090: 8da4 f33d b144 ee3d 3c63 3c3e 7524 c9be
000000a0: 1ae3 0dbe 904f 1cbe 4f6a 4e3e cd31 9ebe
000000b0: 2bfc dabe d09b b1be 6167 1f3e afbf e43e
000000c0: 8b3d fd3e d752 353e 9929 06bf 1ef0 44be
000000d0: 4ad9 96be 9163 d03e 218d 2e3e 232d eebe
000000e0: 553f 8dbe e284 573e 4441 383e 08f6 ad3d
000000f0: 669a d93d d2a2 b43d 0239 1c3e 70f4 09bf
00000100: be7b 833d 7351 9f3a 606b d0be 09e9 903e
00000110: 878c dbbe 8695 803d 8907 083e a6de 10be
00000120: 22fb 9e3c a9af a1be 0129 2bbe c72a 6d3e
00000130: b748 2f3d 2e48 71be 69a6 71be 52a5 b43e
00000140: e5c3 cebc d070 adbe 3904 9e3e af06 2dbd
00000150: d5dc 07be 7043 c93e 1937 583e 222d 5e3e
00000160: fba3 57bf b514 cf3e c218 9f3e 13e4 8cbd
00000170: 9726 813e 4285 f9bd 1bab 6bbe cbac fb3e
00000180: a7a5 a4be 80c6 7b3c 162d 85be 1ac6 af3e
00000190: 5ecc 1cbf e91e 093f 32e3 1fbe fd64 653e
000001a0: 8528 ba3e 2b3c 85be 87f6 92be 9a08 4cbf
000001b0: 6a3f 1bbe 5f43 a7be b3f8 dc3e 3385 b7be
000001c0: d7ae f4be 9480 52be 0444 4cbf 03fb d2be
000001d0: c932 e83e f7fe b73e a21d 903e 48cb bcbe
000001e0: f2d6 063e 91fd a23e e94e 51be 0bca e7be
000001f0: 8e10 0dbf 7a31 4cbe 863b fe3e 12b8 213e
00000200: 5efd c33e bbb2 f0be dc8d 7fbe 8c8e b33e
00000210: 3bc7 99be de33 47be 65af e6be d361 f0be
00000220: b058 c8bc 22ed d83e b120 2d3e cfaf 6ebe
00000230: 543b 4fbe ad48 b23e b9b9 8f3e 9a61 953e
00000240: 21ae 643e 7dc5 d4bd b793 3b3e dd94 08bf
00000250: ea25 9cbe b928 c6be 8806 ffbe 7bcb 5fbe
00000260: 0e9f e9be 6803 0d3f 0633 c53e a412 38bd
00000270: 37c9 e9be 3955 e93e 532d 30bf 4636 2c3e
00000280: d6ee ce3e b1f4 173e f4ee 9e3e b4b1 87bb
00000290: d0c9 64bf 80a7 1dbf 16a8 ae3d c356 79be
000002a0: ab6e b4bd 52de 873e ff38 2dbe 2eb7 97be
000002b0: 742e ab3b a095 ccbd 77da a23e caf7 f0be
000002c0: 389a d9bd 7ad8 c63e 5656 843e 08ad 683e
000002d0: 38ac b9bd 487f 80bd 5413 14bb 8187 34bf
000002e0: 1bf9 043f 3fc8 bc3e 6b43 9ebe 7ff8 6fbe
000002f0: 78cb 93be 73c2 d23e 12f2 25be edbf 47bf
00000300: 8d5f f1bd cd83 f33e 1a2b bc3e 4cca bc3e
00000310: c867 f0bd 3852 683e e8bf b3bd 84c8 6ebe
00000320: 6238 0b3e 2e52 57be 381a d73c 64c1 c2bd
00000330: 7771 bd3e ad82 493d 229f 783e 403f 43be
00000340: 8743 07bf 8db1 b43e 5946 cbbd a98c ba3c
00000350: 33ca ac3e 1679 dd3e 4c9d 8a3e e9a0 fd3e
00000360: 0ab1 d4be ba97 2ebe d033 92bc f998 533e
00000370: 9ff2 c33d bba5 b93e a6c2 1ebe b8ae f2be
00000380: 6f3b f53c 1631 043e 5b7e 13be 1288 bcbe
00000390: 006d 1cbe a127 2bbf 98d8 23bf df72 ad3e
000003a0: 592c 5fbf 2c82 e5be 567f ddbd 1c44 ff3e
000003b0: 3aec f73d 08d5 bebd 0eef 44be a78d 493e
000003c0: 12d4 01bf f79d d53d 1429 81be cf71 ab3e
000003d0: d34e 033f bc09 9b3e 6010 8a3e 1d11 1bbf
000003e0: ccad 00bf ac16 ccbe 6698 213f f92f 19bf
000003f0: 0c61 c83e f6cc 9cbe 50a9 92be 1963 563d
-0.4530015 0.35058838 -0.15165213 0.022574542 -0.251061 0.115802415 -0.23692255 0.19714272
-0.3205549 -0.33687848 -0.07215504 -0.50072205 0.3190646 -0.1203109 -0.14721723 -0.6940911
-0.51524085 -0.09385906 0.26783916 -0.064668596 -0.23983349 -0.16583917 0.25239846 0.51930076
-0.36334336 -0.06065012 0.55548763 -0.43813327 -0.3936906 -0.0327224 0.15436345 0.021458214
-0.49933955 -0.5213418 0.18984684 0.042701036 0.1189662 0.116341956 0.1839723 -0.39285627
-0.13856164 -0.15264726 0.20157741 -0.3089737 -0.42770514 -0.34689188 0.1556678 0.44677493
0.49461016 0.17707382 -0.52407223 -0.19232222 -0.29462653 0.40700963 0.17046024 -0.46518812
-0.2758738 0.21046785 0.17993647 0.08494192 0.10625152 0.08820118 0.15256122 -0.5388861
0.06420086 0.0012155011 -0.4070692 0.28302792 -0.4288065 0.06278519 0.13284124 -0.14147434
0.019406859 -0.3157933 -0.1671486 0.2316085 0.042793956 -0.2356269 -0.23598637 0.3528238
-0.025239894 -0.33875132 0.30862597 -0.042242702 -0.13267834 0.39309263 0.21114768 0.21696904
-0.8423459 0.40445486 0.31073576 -0.06879439 0.25224754 -0.1218362 -0.2301449 0.49155268
-0.32157633 0.01536715 -0.2601096 0.34330827 -0.6124934 0.5356279 -0.15614012 0.22401805
0.3635904 -0.26022467 -0.2870371 -0.79700625 -0.1516091 -0.32668588 0.43158492 -0.3584381
-0.47789642 -0.20556861 -0.79791284 -0.41207132 0.45351246 0.3593671 0.28147608 -0.3687384
0.13167933 0.3183408 -0.20440258 -0.45271334 -0.55103385 -0.19940749 0.49654788 0.15792874
0.3827924 -0.4701136 -0.24956459 0.35069692 -0.30034813 -0.1945338 -0.4505569 -0.46949634
-0.024456352 0.42368418 0.16907002 -0.23309253 -0.20237476 0.34821072 0.28071383 0.29176027
0.2233205 -0.103892304 0.18318067 -0.5335215 -0.30497676 -0.38702944 -0.4980967 -0.21854965
-0.45629162 0.5508332 0.3851549 -0.044939652 -0.45661327 0.45572832 -0.6881916 0.16817579
0.40416592 0.14839436 0.31041682 -0.004141057 -0.8937044 -0.6158371 0.085281536 -0.24349503
-0.08810171 0.26536804 -0.16916274 -0.29631943 0.0052240435 -0.09989476 0.318073 -0.47064048
-0.10625118 0.38837034 0.2584712 0.22722256 -0.09066051 -0.06274277 -0.0022594528 -0.7051926
0.51942605 0.36871526 -0.3091081 -0.23434637 -0.28866172 0.41163978 -0.16205624 -0.7802723
-0.11785803 0.47561494 0.36751634 0.3687309 -0.11738545 0.22687614 -0.087768376 -0.23318678
0.13595727 -0.21027443 0.02625762 -0.095095426 0.3700063 0.049196888 0.24279454 -0.19067097
-0.52837414 0.3529171 -0.09925527 0.02277215 0.33748016 0.43256444 0.27073133 0.49536827
-0.4154132 -0.17050067 -0.017846972 0.20663823 0.09567761 0.36259255 -0.1550394 -0.47398925
0.029935567 0.1290935 -0.1440367 -0.36822563 -0.15275955 -0.66857344 -0.6400237 0.33876702
-0.87177044 -0.44825876 -0.10815303 0.4985665 0.121056035 -0.09317976 -0.19231817 0.19682942
-0.5071422 0.1043052 -0.25226653 0.33485267 0.5129215 0.30280864 0.26965618 -0.6057299
-0.50265193 -0.39861047 0.63123167 -0.59838825 0.3913654 -0.30625123 -0.286448 0.0523406

fc1.bias f4 [128]
00000000: 5194 ce3e 7489 f03e 8098 e13e 0b95 a53e
00000010: 4684 4a3f a535 d7be b2d4 413f 2297 fb3e
00000020: da2d 5d3e eb5c 5a3e 673c 5c3f 9e7a a63e
00000030: cc45 d53b 29a6 133f db4d c23d f903 0cbe
00000040: 22f6 233e 8c4a 533f 6dc2 003f f12b 8fbd
00000050: 6ae3 febe 1a9f afbe 450c 63bd d4d3 d2be
00000060: 6fd1 1e3e e82a 953e 9ce3 aa3e 7e4c 3a3f
00000070: 80b2 b3be f522 f5bd 392b 393e 7a66 863e
00000080: e22a a13e 9a39 413f 2d58 fcbe b610 abbe
00000090: f491 043f 0302 543f 4531 c1be 6a00 053d
000000a0: d66e 60bf d359 5e3e 9d60 193f 79fb 0a3e
000000b0: c851 d6be c9ee 83be f669 29be 43e2 da3e
000000c0: 6d0f 21bf 2a49 e1be 47f0 b83e d6cf 8fbe
000000d0: acc7 393f c51b 56bf 7f3c 4a3e 551e 283f
000000e0: 1a21 4b3f 9b35 833e c4c9 f23d 9455 343c
000000f0: 139a 073f 81d4 cabe 6e69 a83e 7010 ff3e
00000100: 05e4 08bf db5d ac3e c759 1c3f 09fd e53d
00000110: 3f77 c7be e258 8bbc 68ee 7dbd 9a2c ce3e
00000120: 73e4 b73e d471 a0be faf5 00bf 2f37 b83d
00000130: 9705 43be 6e79 293f 329f 913e 2a30 eabe
00000140: 5d20 a03e cff0 573f 3367 12bd 16ab 0fbe
00000150: 39a9 633e 30e6 73be 9c8d 1b3f 8af4 033e
00000160: 1f43 2c3f 6b4b 403c 5264 c2be 9761 10bf
00000170: cf94 343e 1e7c f3be 7a04 573d df0b 673f
00000180: 59e1 e53c 8ee3 13bf 5ecb 5c3f 4789 8fbe
00000190: 0a45 2c3f 7fb9 3abf cf70 2a3f a903 023f
000001a0: 915f 423f 0e31 a33e f401 133f 881e 083f
000001b0: 6eb6 153f c132 103f 8568 453f 7fb7 4e3c
000001c0: a913 2d3f 7bd1 3d3f 7e9f d33e 61c9 18bf
000001d0: a00e a4be dc27 44bf 163b 073d 9cf0 07be
000001e0: c225 37bd 5af7 4d3d 8378 27bf f55e 673f
000001f0: 23aa 033e d50a 0b3f 0499 1a3f 5d72 c03d
0.4034753 0.46979868 0.4406166 0.32340273 0.79108083 -0.42033115 0.7571517 0.49138743
0.21599522 0.21324508 0.86029667 0.32515424 0.0065085646 0.57675415 0.09487506 -0.1367339
0.16011861 0.82535625 0.5029667 -0.06990803 -0.49782878 -0.34301072 -0.055431623 -0.41177237
0.1550958 0.29134297 0.33376777 0.7277297 -0.35097122 -0.11969558 0.18082894 0.26250058
0.3147803 0.7547852 -0.49286023 -0.33411187 0.51785207 0.8281557 -0.37732902 0.032471098
-0.8766912 0.21713953 0.59913045 0.13572492 -0.4185927 -0.25768116 -0.16544327 0.4275075
-0.6291416 -0.44001132 0.36120817 -0.28088254 0.725703 -0.8363612 0.1974964 0.65671283
0.79347384 0.25626835 0.1185489 0.011006732 0.52969474 -0.39615253 0.32892936 0.49817228
-0.5347293 0.33665356 0.6107449 0.11229903 -0.38958165 -0.017010156 -0.06199494 0.40268403
0.3591648 -0.31336844 -0.5037533 0.089949004 -0.19045101 0.6620091 0.2844177 -0.4573987
0.3127469 0.8435182 -0.03574295 -0.14030108 0.22232522 -0.23818278 0.60762954 0.12886253
0.6728992 0.011736731 -0.37967163 -0.5639891 0.17634891 -0.4755563 0.052494504 0.9025249
0.028061556 -0.57769096 0.86247814 -0.28034422 0.67292845 -0.72939295 0.6657838 0.50786835
0.7592707 0.31873363 0.57424855 0.53171587 0.5848149 0.56327444 0.7711261 0.012616991
0.67608124 0.74147767 0.4133262 -0.5968228 -0.32042408 -0.7662332 0.033015333 -0.13275379
-0.044713743 0.05028472 -0.6541826 0.9037927 0.12857871 0.54313403 0.60389733 0.09396813

fc2.weight f4 [64, 128]
00000000: 431a 923d 92f9 8cbd 5728 6dbe 78a1 b0be
00000010: 8d66 8fbd 18a4 093e 3b0d dd3b 2255 36be
00000020: 9ce0 3a3e ff89 db3c 28d7 52be 8f88 863d
00000030: 236c e23c 50f5 03be a870 aa3d c4f7 17be
00000040: 0d3e bb3d 335a 61bd 0760 5a3d c45b ab3d
00000050: 5b8d 52bd 62f9 bd3d c502 84bc a1d1 953e
00000060: 2b54 c0bd b4c6 9fbd bb8b 53bf d02d 9fbd
00000070: 52a6 4d3d b100 8abc fc07 0bbe 66ad 15be
00000080: f0ce 4c3e 248b 07bf 3857 89bd 8470 d63d
00000090: 392f 15bc e1c4 b2be a9fd c33d acdc 8a3d
000000a0: a124 313d bddb bf3c f63d 01be 9f67 313d
000000b0: d5c6 833d 4129 683e 7044 adbd 0af7 16bd
000000c0: 4438 623e 705b d43b 8c94 eb3d ec29 573d
000000d0: 78f9 8e3d 3062 a43e 719b 91bd 8077 fcbd
000000e0: cab9 c5bd 3250 0cbe a5ab f4be 2e40 e63d
000000f0: 0ecb ebbd 3a9a 94be 0c97 1cbe 30da 343e
00000100: d2f6 643e 2dc7 593e 7356 0abd 4967 40be
00000110: 9788 90be 232d cfbe 8704 713d 4851 16be
00000120: 3fa9 58be e657 f13e d0fd d13e b917 813d
00000130: 3f55 003e b25d cebd c524 b83d 7fbd 323e
00000140: ed02 f1be 18f1 d5bd 1670 983e 5a70 2dbd
00000150: 5412 1c3e ecdc 2c3d 27bd a83d a59f 7cbe
00000160: 9d9b 68bd 70c1 803e 4d5f be3e f02d 513e
00000170: 6556 9e3e 7ff7 333e 83bd 2d3c e004 1abb
00000180: 557c b53d 835c 6f3e cff0 9c3d 37f7 e63c
00000190: 46d1 283d 47e7 103e 6459 073e 3f63 6e3d
000001a0: 3398 0bbe de85 3fbe c406 303d 4731 63bf
000001b0: afce 44bd f4b7 08be 2171 48be 0c6a 583e
000001c0: fb24 12be 47c8 9bbd 32bf 373e 1e45 e33d
000001d0: d696 a4be 3288 5f3e 8a18 25bc ff30 833e
000001e0: a45d ecbe a2d2 af3d c517 8abe ac28 86bd
000001f0: 5f9e 6e3d ba0f 44bc e51d 30bf 445a 2d3e
00000200: 63cf 3ebe 86ff eabc 2fa3 8dbe c9dd 453c
00000210: 36cf 91be 5576 2fbc 226d 75bd fca7 85be
00000220: c0ee 793d 0663 08bd e85b 7c3d e89e 173d
00000230: f628 0f3e ddfe 6bbe 43a4 5ebd a90a b4be
00000240: b4eb 323d 3e23 89be 702a 373e 47cf 733e
00000250: 9f66 c5bd 7394 3ebd d07d b1be 3f00 d23e
00000260: 145e 2ebd f845 0bbe 1578 7bbc 0c5f e83d
00000270: 8d6a a43e f553 543d aece 1c3d cecb 6f3d
00000280: cc42 203e 4302 92be 950a cbbe 4998 02be
00000290: 704d 443d c390 9dbe 8bd6 cdbe 4d81 553c
000002a0: 616a d0be a43a cdbe b739 8ebd 8148 b73c
000002b0: a704 1bbe 3dbd d73d fdf9 283e be6c 23be
000002c0: c813 0fbe fac8 e2bc 8943 cb3d 6a83 11bd
000002d0: 13bf 8ebe 9522 b33c 61f9 52bd 5ad5 6abc
000002e0: 8501 333d b6be 88be b294 10bf 760b 603d
000002f0: 8bba 13be 7d12 ebbc a4d0 0c3d e7b2 323e
00000300: f46d 6a3d 1481 8a3e 6a65 1fbc 141e b33e
00000310: 0b38 fb3d b1e2 08bf 02f9 b3bd 1eb7 86be
00000320: 3ce2 f3bd ea33 c23e 3d8e 5c3e ca94 193d
00000330: 3c3f 5a3e b101 85bd a595 213d a4c9 dcbd
00000340: 2f16 2ebf 0925 64be 95ec 1abd a817 8e3d
00000350: abe2 023e 260f 683b 5992 7c3e 0322 01bd
00000360: 3337 c63d 9b85 aa3d 902b a03e 734a 133e
00000370: b9f2 babe 4095 15be d296 5c3e ade1 82bb
00000380: d845 0fbf 90c9 9bbd eca6 d4bd fa30 0c3d
00000390: 3a29 503b c00c 25be 2097 b43d 5f90 183e
000003a0: f777 52bd 531d 91be 6e8d 8ebe 412e eabe
000003b0: 5f73 693c ccfb cfbe de5b 503d 150f 413e
000003c0: 7937 43be 6213 3e3d 3fd5 5b3e 29de 033e
000003d0: ab51 203d 7ef2 debd 8c15 7abe 1f32 223e
000003e0: 87d4 9fbe 91e5 4b3e 6261 44be 82f2 ac3d
000003f0: bfca 1c3e e0fa bb3d 02b7 22be 245a 843e
0.07133915 -0.06883539 -0.2315992 -0.3449819 -0.07001982 0.13441503 0.006745962 -0.17805913
0.18249744 0.0267992 -0.20589888 0.06569015 0.027639454 -0.12886548 0.08322269 -0.14840609
0.091426946 -0.05501766 0.053314235 0.08367112 -0.05140434 0.092760816 -0.016114602 0.29261497
-0.09391054 -0.078015715 -0.82635087 -0.0777241 0.050207444 -0.016846033 -0.13577265 -0.14616928
0.20000815 -0.52946687 -0.06706089 0.104706794 -0.009105497 -0.34915832 0.09569866 0.06780371
0.043247823 0.023420209 -0.12621292 0.04331171 0.064344086 0.22671987 -0.08460319 -0.03685669
0.22091776 0.0064806268 0.115029424 0.052530214 0.06981176 0.3210616 -0.07109726 -0.1232748
-0.09654577 -0.13702467 -0.47787204 0.1124271 -0.11513339 -0.29023916 -0.15291995 0.17661357
0.2235978 0.21267386 -0.03377385 -0.187894 -0.2822921 -0.40464124 0.05884221 -0.14679444
-0.21158312 0.47137374 0.41013956 0.06303353 0.12532519 -0.10076465 0.08991388 0.174551
-0.47072545 -0.104463756 0.29773015 -0.042343475 0.15241367 0.042202875 0.08239203 -0.24670275
-0.05678903 0.2514758 0.37182084 0.2042768 0.3092529 0.17574881 0.010604265 -0.002350144
0.08861605 0.23375134 0.07663118 0.028194053 0.041215204 0.14150725 0.13217694 0.058200117
-0.13632278 -0.1870341 0.042975202 -0.88747066 -0.04804867 -0.13351423 -0.19574405 0.21134204
-0.1427192 -0.07606559 0.17944029 0.110971674 -0.3214633 0.21829298 -0.010076651 0.2562332
-0.46165192 0.08585097 -0.2697126 -0.06550726 0.058256503 -0.01196664 -0.68795615 0.16928965
-0.18633799 -0.028686296 -0.27663562 0.0120768035 -0.28478402 -0.010709365 -0.05991853 -0.26104724
0.061018705 -0.03329756 0.061611086 0.03701678 0.13980469 -0.23046441 -0.05435587 -0.35164383
0.043681815 -0.267847 0.17887282 0.23809539 -0.09638714 -0.04652829 -0.346663 0.41015813
-0.04257019 -0.1360091 -0.015348454 0.11346254 0.32112542 0.05183788 0.038283043 0.058543973
0.15650481 -0.2851735 -0.3965651 -0.12753405 0.047925413 -0.30774507 -0.40202746 0.013031316
-0.4070616 -0.40083802 -0.06944602 0.02237344 -0.15138493 0.10534141 0.16501613 -0.1595945
-0.1397239 -0.027683724 0.09924991 -0.035525717 -0.27880153 0.021867076 -0.051507358 -0.014333094
0.04370262 -0.26708 -0.5647689 0.05469843 -0.14426629 -0.02869534 0.034378663 0.17451058
0.057233766 0.27051604 -0.009728769 0.34983885 0.12266549 -0.53470904 -0.08787729 -0.26311582
-0.11908385 0.37930232 0.21538635 0.037495412 0.21313184 -0.06494463 0.039449353 -0.107806474
-0.680026 -0.22279753 -0.03782328 0.06938106 0.1278178 0.003540942 0.24665202 -0.031526577
0.09678497 0.083262645 0.31283236 0.14383869 -0.36513308 -0.14607716 0.21541908 -0.003994188
-0.5596595 -0.07606804 -0.103834 0.034226395 0.0031762854 -0.16118145 0.08817887 0.14898823
-0.05138394 -0.28342685 -0.27842277 -0.45738414 0.014248698 -0.40621793 0.05086886 0.1885341
-0.1906413 0.046405204 0.21468066 0.12877716 0.039140385 -0.108860955 -0.24422282 0.15839432
-0.31216833 0.19911791 -0.19177774 0.08444692 0.15311716 0.0917871 -0.15890124 0.25850022

fc2.bias f4 [64]
00000000: a099 943d c377 aabc 919b a0bd 579f 173e
00000010: d658 303d e75c cb3e 7b1b d63e 3154 d93e
00000020: c9f0 073e ee37 4ebd 9181 433d ed4e 7ebd
00000030: 8eab a5bc 516c 433e 978d 3bbe 6077 813d
00000040: 410b a43e 5405 923d de8e 3abd eb7b 7bbc
00000050: 5659 2bbb d7a4 b7bd b065 013e ecdb e13d
00000060: b5ff 71bc 8d26 cbbd af6f 1c3e aa9c 81bb
00000070: 6639 033e baaf d0bd a53a a43d 7786 26bd
00000080: 3b9e 99bc 130b 5f3e 853e 183e 6065 efbc
00000090: 3ccf d73d 4394 bc3d 5189 b6be 8c83 dabd
000000a0: 6f2b 20bb 0fdb 083b 4905 8fbd 615b da3e
000000b0: 15e1 84bb 4590 353e 098f 1d3e d529 b8bc
000000c0: dc7f 6fbd e23e 96be 3289 07bd a84f c93d
000000d0: 58a7 533e c78a 023d da84 31be 51ef 85be
000000e0: 4087 b73e 247b 30bd fd6a fbbd d707 5b3e
000000f0: 09bb c23c 8459 453e a13e e63e 3bbe e53d
0.07255864 -0.02080906 -0.07842172 0.14806877 0.04305347 0.39719316 0.4181784 0.42447045
0.13275446 -0.050346307 0.047730986 -0.06208699 -0.020223405 0.19084288 -0.18315731 0.06321597
0.32039836 0.071299225 -0.045546405 -0.015349369 -0.0026145778 -0.089669876 0.12636447 0.11028275
-0.014770438 -0.09919462 0.15276979 -0.0039554434 0.12814865 -0.10189767 0.08018998 -0.04065558
-0.018752208 0.21781568 0.148676 -0.029223144 0.10537574 0.09207966 -0.3565164 -0.10669622
-0.002443995 0.0020882522 -0.0698343 0.42647842 -0.004055152 0.17730816 0.15386595 -0.022480885
-0.058471546 -0.2934485 -0.033089824 0.09829646 0.20669305 0.03187063 -0.17335835 -0.26159146
0.35845375 -0.043086186 -0.12276266 0.2138971 0.023770826 0.19272429 0.44969657 0.11217924

fc3.weight f4 [15, 64]
00000000: cdca fbbf 03e0 34bf ead9 bdbd 36dd 103e
00000010: 03ba 3bbf b3ac c03c eef1 47bd 6401 0c3e
00000020: de20 103e f765 e03d 8f7e 80bf 68b1 45bf
00000030: 7b75 fabd b438 6fbd fd52 cabe 25ae adbd
00000040: 3e86 023d 060a d8be c4e8 a33d d2dc ef3c
00000050: e77f afbf 89d7 f5bd c9b2 6abe cad3 9f3e
00000060: 0e1d 33bd 28ee 32c0 f6e8 15bf 40e0 cd3d
00000070: d6e1 5c3e b6b5 15be 3acd 703e 4ac6 aa3c
00000080: a5e5 523e 8b4a 483e e1dc e53d be58 8ebf
00000090: 6d57 ac3d 5654 a4bd 344c 0bc0 d9ed 1bbf
000000a0: e63d d8bd 4f4f 6abb a38c 24bf 0d01 bf3d
000000b0: 3c0f 853e 2ef6 bdbe c6be 46bf d18c 7c3e
000000c0: 0b3c acbd 0b5d 95bf 27b2 9fbb e3ba 503c
000000d0: d761 68be 19c3 62be 57cc 29bf 0ccc cbbe
000000e0: 24bd 4e3e 6bbc 713d 51e4 d0bf 3788 c3bd
000000f0: b9bc cfbf ce95 a0bf e54c 62bd 4911 1dbd
00000100: 5751 35bf 6d97 4ebe 8cd0 18bd d2bd 12bd
00000110: bc15 aebe 5e91 24be 5fdd 683e 3bf6 efbc
00000120: 0ac3 77be dcf6 fdbd 1018 45c0 31c3 17be
00000130: bae4 95bd 27b1 f53c 44a1 2f3c a4b8 653d
00000140: ab55 183e 79e7 f7bd 1743 013e d9a0 d6bd
00000150: 3fb3 6ebf 3478 4f3c 5c10 353c 2850 063e
00000160: f196 4ebe 7d92 9bc0 6d6e 37be 2d7b cd3d
00000170: ad52 8b3e fa1d 323e fb95 973e 9470 2bbe
00000180: 9440 013e 3f64 2bbc 1925 6a3e 2bb1 bdbe
00000190: 052b 823e 5a52 6ebe 8049 b1bf cde9 87bf
000001a0: 0d0a 08be 30b2 fe3c 99bb a0be b170 463e
000001b0: b446 9a3e ad5a 64be c468 0fbf 4041 0cbd
000001c0: 5105 c7bd c898 2abe 58ac d73d 9fb9 9ebd
000001d0: aafb c33c 6148 9bbf 3f85 0dc1 f69d 87be
000001e0: 93c7 d7bc 9627 a23e 46a1 82c0 fc93 09be
000001f0: 8368 c4be 21e1 8dbf 1d0f 523e 4826 073e
00000200: 0b34 b0be d079 a3be b470 08bd fdd1 3bbe
00000210: 100d 293c d6ed 543e 6e07 9dbd 0040 ab3d
00000220: e0b4 00bf 0145 3c3d 79f1 43be 1134 08be
00000230: 4414 e33d c6d8 273d 0288 bdbd 7b33 e2bd
00000240: 6a5f 0d3e f647 82bc 5196 68be 5db6 903d
00000250: 7e92 8fbd fd0b ca3d 450a 1a3e 96d8 3dbe
00000260: acbc b93c 79b3 23bf e52f e5bd 0c23 c33d
00000270: 5cc9 493e fc5b 01bd 7789 1b3e a03a 323e
00000280: 2c78 08bf a52c 4b3d 3879 ea3d 3d81 b33d
00000290: 5a6e 0f3e e485 88be cd02 1ac0 fb1f 92bd
000002a0: ebf6 0a3d 69ee 39be 069c a2bf 0506 853e
000002b0: ff45 babe 0356 f7bb b87f 2dbc 26ef 873d
000002c0: 0c00 afbc 31f2 a7bf acc1 b63b 732b a53d
000002d0: 3a21 55bd 5fb6 d4be be6e 6fbf 410d 38bf
000002e0: 51be 56bc d64f e93d 517f ecbf 66ea 35be
000002f0: 3004 ecbe 55d7 09bd b7ef 993c d972 d63d
00000300: 6258 4dbe 7aa5 abbe 4013 fc3b c366 93be
00000310: bc8e 2f3e 5432 a8be 9d47 31be 47e7 63be
00000320: 0da3 a9c0 c632 87be 18f0 f2bf 29bb 9f3c
00000330: b284 b4bd 11fc 2f3d 005a 9f3e 95d7 8cbd
00000340: 3ccf 30be d278 9b3d 1ab7 4abb 4afd 9dbd
00000350: a8ce 743d 3239 213d 2aed 873e ea7d bdbe
00000360: b372 e43b 5a9f d4be c682 603d 3e6f 473d
00000370: 4e74 453d b5f6 633c 9695 4f3e 6daa f23d
00000380: 88ce 8dbe 11c2 76be b3a5 c23d b518 833d
00000390: 9f3b 853e ec60 e1c0 08f0 00c1 eed9 063e
000003a0: 176a efbd 9dce ab3d df15 c6be e8ec 9f3b
000003b0: 8501 d5be d426 54be 8d1d 29be 90cf 82be
000003c0: 548e 193d 34c6 b9be dd71 ac3d c9ff 343d
000003d0: dd14 1ebe 0513 f9bd 6b83 5ebf 3c05 eebf
000003e0: 3bf9 00bf 9b05 8b3e dd0a c1bf 3cc4 8abd
000003f0: 56bd efbe c155 bcbd 5379 b0bc 0858 ec3d
-1.9671265 -0.70654315 -0.092700794 0.14146885 -0.73330706 0.02351985 -0.048814707 0.13672405
0.14075038 0.10956948 -1.0038623 -0.77223825 -0.12229439 -0.058403686 -0.3951644 -0.08480481
0.031866305 -0.42195147 0.08003381 0.0292801 -1.3710908 -0.12004001 -0.22919764 0.3121627
-0.04372888 -2.795786 -0.58558595 0.10052538 0.21570525 -0.14620098 0.23515788 0.020846505
0.20595415 0.19559686 0.1122377 -1.1120832 0.08415113 -0.08023898 -2.176526 -0.609098
-0.10558681 -0.0035752838 -0.64277095 0.09326372 0.25988185 -0.37101883 -0.7763485 0.24663092
-0.0840989 -1.166902 -0.0048735323 0.01273987 -0.22693573 -0.22144736 -0.6632742 -0.39804113
0.20189339 0.05901758 -1.6319677 -0.09547465 -1.6229469 -1.2545717 -0.055249114 -0.038346563
-0.7082724 -0.20174952 -0.03730826 -0.035825558 -0.34000957 -0.16071078 0.22740696 -0.029292217
-0.24195495 -0.124006 -3.0795937 -0.14820553 -0.07319017 0.0299917 0.010719601 0.05608429
0.1487643 -0.12104697 0.12623249 -0.10479898 -0.9324226 0.012662936 0.011051264 0.13116515
-0.20174767 -4.861632 -0.17913218 0.100332595 0.27211514 0.17394248 0.29606614 -0.16742164
0.12622291 -0.010460912 0.22865714 -0.3704923 0.25423446 -0.23273602 -1.3850555 -1.0618225
-0.13285084 0.031090826 -0.31393126 0.19378926 0.30132067 -0.22300215 -0.56019235 -0.034241915
-0.09717811 -0.16659844 0.10530919 -0.07750248 0.023923714 -1.2131463 -8.845031 -0.26487702
-0.026340282 0.31670827 -4.0821867 -0.13435358 -0.38360986 -1.1084329 0.20513578 0.13198197
-0.34414706 -0.31928873 -0.033310607 -0.18341823 0.010318056 0.20793852 -0.07667433 0.083618164
-0.50275993 0.045964245 -0.19135083 -0.13301112 0.1108785 0.040978216 -0.09254457 -0.11044975
0.13805929 -0.015903454 -0.22713591 0.07066033 -0.07010363 0.09865568 0.1504298 -0.18539652
0.022672974 -0.6394573 -0.11190776 0.09528169 0.19705719 -0.031581864 0.15189157 0.17405176
-0.5330837 0.049603123 0.11448902 0.087648846 0.1400694 -0.2666465 -2.406421 -0.07135006
0.033926886 -0.18157353 -1.2703865 0.25981155 -0.36381528 -0.007548095 -0.010589533 0.06637411
-0.021362327 -1.3120786 0.0055772867 0.08064928 -0.05203364 -0.41545388 -0.93528354 -0.71895224
-0.013106898 0.113921806 -1.8476354 -0.17765197 -0.46096945 -0.033652622 0.018791063 0.10471124
-0.20053247 -0.33524686 0.0076927245 -0.28789338 0.17144293 -0.32850897 -0.17312475 -0.22256194
-5.3011537 -0.26405925 -1.8979521 0.019498425 -0.08814372 0.042965 0.31123352 -0.068770565
-0.17266554 0.07591404 -0.003093189 -0.07714327 0.059767395 0.039361186 0.2654813 -0.37010127
0.006971681 -0.41527826 0.054812215 0.048690073 0.04820662 0.0139138 0.20271906 0.118489124
-0.27696633 -0.24097468 0.09504261 0.06401197 0.2602205 -7.0430813 -8.058601 0.13169071
-0.11690157 0.08389018 -0.3868856 0.0048805363 -0.41602722 -0.20717937 -0.16515179 -0.25548983
0.03748925 -0.3628403 0.08420155 0.04418925 -0.15437646 -0.12161831 -0.8691928 -1.8595347
-0.50380296 0.27152714 -1.508144 -0.0677571 -0.4682414 -0.09196044 -0.021542227 0.11540228

fc3.bias f4 [15]
00000000: ba7c 82bd b252 6abd 0674 8f3d edae 7cbd
00000010: 787a b53d 34a8 cd3d b883 743c b0d0 973e
00000020: e6e0 0f3e af0a 823e 0dcc 4f3c a145 a1bd
00000030: cc2c 2c3e c14f 1b3d 21e4 f0be
-0.06371446 -0.05720777 0.070045516 -0.06169026 0.0886125 0.10041848 0.014923982 0.29651403
0.14050636 0.25398776 0.012682927 -0.07874609 0.16813964 0.037917856 -0.4704905

exp_avg f4 [128, 4]
00000000: 0045 113b 730d 9b3b c8b9 413b 6bb1 5a3b
00000010: 8c05 4cba 620d c83a 1c8f 4fba 0881 9c3a
00000020: f4bb 60ba 2485 033a 713f 97b9 801a 1c38
00000030: d4c5 c63b 7186 b23a 09a9 de3a c19f e03a
00000040: e899 c03a ec66 c73b 504d f039 5c4e 2f3b
00000050: de82 2dba b20e 3e3b 16e0 cd3a 0ef1 a5ba
00000060: 4426 a1b9 5a25 3dbb 8fe9 4fbb e861 a2bb
00000070: 1051 2539 1cc6 833b d0a9 5639 58de 163a
00000080: 3813 e9b8 307e 0637 f848 8db7 8c6b 85b8
00000090: a8b6 053b 8686 5db9 d68e 133a 4155 8d39
000000a0: e04d 043b aa78 84bb cae8 90bb 29cf acbb
000000b0: 1b96 1abb 40c5 2bb9 79c8 0abb 79a3 18bb
000000c0: 58f9 6639 a924 f3ba 9d63 cab9 00f1 0c38
000000d0: 6ae0 b53b 6486 473b 22a1 df3a 62f6 863b
000000e0: deba 473a 64e7 053b 93c8 b73a 1763 b53a
000000f0: e958 f23a 5234 2a39 645b 033a 4ac8 80b8
00000100: 7364 40bb dd0a 46bb 9ada 39bb b830 19bb
00000110: 5ffd 8d3b 382b dd3b e4bb d63a f60d 863b
00000120: 7964 14bb 9326 10bb d7ab 4ebb eef7 2fbb
00000130: ae34 90ba ce64 b1ba 4d6e 99ba 4f70 87ba
00000140: 0400 0000 0400 0080 0400 0000 0400 0080
00000150: 3720 61ba 6b85 dc3a 4720 a83a fae1 c83a
00000160: 37c1 7c3b 610d cb3b eea7 bd3b dc59 ff3b
00000170: eb36 c2bb 106b cdbb 22a0 a2bb 22bc b3bb
00000180: 88c4 72ba fafd 1dba 2f10 6dba 5c82 d9ba
00000190: 9c7d f13a 386b a33b 1fa1 483b 41bf 323b
000001a0: cb51 e13b 3e16 c33a 9402 143a 894d 0a3b
000001b0: 6a0c 403b a767 faba e829 16bb 228c 2fbb
000001c0: 665f f3ba 2a8c d73a 8b23 f23a 5a83 f33a
000001d0: 6c6b 69ba c2cd 59bb f813 e6b9 3726 11bb
000001e0: d476 a73a 8bfa f6ba da75 a9ba b92c c9ba
000001f0: c808 da39 b191 5b3b ec3d a13a a017 ce3a
00000200: 9cb3 7ebb 8265 9fbb f565 8abb 8a9b 7dbb
00000210: 700d ee38 c05d 2e3b d4ac 67ba ee6c eeba
00000220: 28d7 b53a 85d5 0d3b 5fda 263b b77d 2f3b
00000230: 6e25 88b9 4879 f13a 8c19 e23a 92b0 d53a
00000240: c159 573b 567d 22ba 7e49 643a 94d3 c83a
00000250: 9afd 6bba cb03 3c3b 0480 57ba 28f7 92ba
00000260: 216c 9c3b 62a2 e33b 9c81 d73b 70d2 093c
00000270: c023 eab7 5411 97ba 8e73 27ba b74f 37ba
00000280: c86d cb3a 807f dc39 0a1d 673b 00c4 473b
00000290: 07dc 53ba d443 2f39 4387 9039 848e 1bba
000002a0: 824f cc3b 1b50 033b 70b6 873a a0b5 0e3b
000002b0: 8dc5 a539 103f 70ba c0a6 2bba 5e8c 53ba
000002c0: d68a acba 66e0 213b 02df 1d3b 1e02 393b
000002d0: 6e7b a6bb 6071 d83a a049 5bba 3998 7a3b
000002e0: 7079 e9b9 f527 b1bb 3c5e a6ba fdb3 74bb
000002f0: a309 c6b9 5d74 5139 5e95 5fb9 8432 0bba
00000300: 39ff 12bb 0e8e 1c3b 700d 363b e63f 203b
00000310: 0000 0000 0000 0000 0000 0000 0000 0000
00000320: b8ea e9b9 8b4c 2dbb e927 edba ed33 ecba
00000330: 7894 bfba 3a5d 62bb f8ac 8aba 7d90 1fbb
00000340: aa43 273b 2032 dc3b 273b 3b3b 0ab9 5d3b
00000350: 66c5 9bbb 845b 41ba 6002 9b39 f034 33b9
00000360: c0a8 f6b9 20eb 5d37 bc61 9cb8 68e4 8eba
00000370: 28ad 9c3b acc9 dcba 7817 e4b9 959b df39
00000380: c678 963b 1477 11bb 2821 b8ba 8075 e8b8
00000390: d2a8 a0ba 6880 663a 3795 0aba 5f57 5ebb
000003a0: 905b daba a805 1a3b 87bb 803a aca6 89bb
000003b0: 41d2 37bb 3f67 23bb 336a 0abb f91f d4ba
000003c0: 5280 9dba c0ba 6f3a ca8f 95ba 0824 39ba
000003d0: 3182 933b 4cb8 933a e366 2c3b cc3d 713b
000003e0: bea5 273b ed76 003b 4f39 643b b97f a939
000003f0: eeff c33a bebd 2cba aa4c 0c3a 3c59 b53a
0.0022166371 0.004731828 0.0029560197 0.003336991 -0.0007782809 0.0015262777 -0.00079177483 0.001194031
-0.0008572929 0.0005017093 -0.00028848232 3.721798e-05 0.0060660634 0.0013620389 0.0016987632 0.0017137454
0.0014694305 0.0060852673 0.0004583397 0.0026749587 -0.0006618927 0.0029000458 0.0015707042 -0.0012660341
-0.00030736823 -0.0028861375 -0.0031724905 -0.004955519 0.00015765824 0.004021419 0.0002047189 0.00057551777
-0.000111138856 8.016403e-06 -1.6842489e-05 -6.3619664e-05 0.002040306 -0.00021126316 0.0005628889 0.00026957135
0.0020188019 -0.0040427046 -0.004422282 -0.005273719 -0.0023588005 -0.00016381312 -0.002117662 -0.0023290797
0.00022027397 -0.0018550354 -0.0003860266 3.360305e-05 0.005550434 0.0030445093 0.0017061571 0.0041187266
0.0007619093 0.002043211 0.0014021568 0.0013838735 0.0018489632 0.00016231954 0.00050108717 -6.1408224e-05
-0.0029356747 -0.0030218877 -0.0028359056 -0.0023374986 0.0043331827 0.006749537 0.00163829 0.0040910197
-0.0022642894 -0.0021995648 -0.003153553 -0.0026850658 -0.0011002028 -0.001353407 -0.0011705846 -0.0010333153
6e-45 -6e-45 6e-45 -6e-45 -0.0008587869 0.001682443 0.0012827002 0.0015326135
0.0038567313 0.0061966632 0.005787841 0.0077926945 -0.005926957 -0.0062688664 -0.004962937 -0.0054850737
-0.0009260853 -0.000602692 -0.0009043244 -0.0016594636 0.0018424275 0.0049871467 0.0030613614 0.002727464
0.0068762056 0.0014883948 0.0005646136 0.0021103343 0.0029304274 -0.0019104377 -0.0022913162 -0.0026786407
-0.001856786 0.001644497 0.0018473727 0.0018578575 -0.0008904252 -0.0033234213 -0.00043883896 -0.0022148022
0.0012776502 -0.0018842978 -0.0012928799 -0.0015348411 0.00041586743 0.0033503587 0.0012301779 0.0015723594
-0.003886438 -0.0048643956 -0.00422358 -0.0038697445 0.00011351227 0.0026606172 -0.0008837704 -0.0018190423
0.0013873326 0.002164216 0.002545975 0.0026777813 -0.0002596783 0.0018422985 0.0017250045 0.0016303232
0.0032859894 -0.0006198486 0.0008708461 0.0015321844 -0.0009002328 0.0028688784 -0.0008220675 -0.0011212574
0.004773632 0.006946848 0.00657673 0.008411989 -2.7911621e-05 -0.001152555 -0.00063877634 -0.00069927744
0.0015520388 0.00042056665 0.0035265111 0.0030481815 -0.0008081798 0.00016714568 0.00027566598 -0.0005934017
0.006235064 0.002003676 0.0010354053 0.0021775737 0.0003161844 -0.00091646705 -0.000654798 -0.00080699276
-0.0013163935 0.0024700402 0.0024089222 0.0028230022 -0.005080632 0.001651328 -0.0008365158 0.0038237704
-0.000445317 -0.0054063746 -0.0012692879 -0.0037338727 -0.00037772683 0.00019975142 -0.00021322581 -0.00053099566
-0.0022429957 0.0023888382 0.0027779005 0.002445215 0.0 0.0 0.0 0.0
-0.00044616102 -0.0026443328 -0.0018093559 -0.0018020846 -0.0014616391 -0.003454043 -0.0010580113 -0.0024347596
0.0025522509 0.0067198426 0.0028569193 0.0033832216 -0.0047537563 -0.00073760026 0.00029565673 -0.00017090491
-0.00047046505 1.3227371e-05 -7.456864e-05 -0.0010901811 0.004781384 -0.0016844771 -0.00043505034 0.00042649792
0.004592034 -0.002219622 -0.0014047967 -0.00011084508 -0.0012257344 0.0008792938 -0.0005286517 -0.003392659
-0.0016659368 0.0023501907 0.0009821513 -0.004200777 -0.0028048905 -0.0024933366 -0.0021120429 -0.0016183845
-0.0012016392 0.00091449544 -0.001141065 -0.0007062559 0.004501604 0.0011270135 0.0026306442 0.0036810515
0.0025580968 0.0019602135 0.0034824198 0.00032329353 0.0014953592 -0.0006589553 0.0005352 0.0013835798

exp_avg_sq f4 [128, 4]
00000000: dba9 2b39 1a75 7839 da35 5e39 702c 4e39
00000010: df62 bf39 ad7f d039 4107 c839 d251 af39
00000020: 14b7 c137 6ef7 6837 070c 6237 b5a1 b637
00000030: f60c 2a3a 1b51 7f39 9a11 5d39 1966 9038
00000040: e6d3 dd3a 0378 033b 3d86 073b 10cb d33a
00000050: a9ff dc39 7977 283a 6b49 3c3a 20c1 3c3a
00000060: 7366 663a a0c8 8c3a be39 923a 3ce1 563a
00000070: daef 1f3a 1f27 493a 1f92 533a 3a4b 3b3a
00000080: 4677 8535 63e1 d835 b754 4636 627a b936
00000090: 8963 0239 0024 3439 ba67 4439 d090 2939
000000a0: bb4b d03a 8d5b 013b ba36 063b c442 d23a
000000b0: ce25 ca38 243e fd38 6b8e 1739 3a3b 3e39
000000c0: f547 d838 07f2 8b38 b65d 6238 0506 4d38
000000d0: 5735 273a b130 5a3a 6b14 5f3a 5f85 283a
000000e0: e125 0d39 b27b e838 44de e338 536d cf38
000000f0: 7cd1 8438 2cae d237 62df d237 22e4 9336
00000100: 33fc 7b38 d537 1e38 2f3e f037 a8a8 3f38
00000110: d419 0e3b b8ad 223b 8106 243b f732 fd3a
00000120: 4a08 8639 1e5b 5539 adae 6c39 d16e 8039
00000130: 6f46 2c38 ed20 b237 1756 c237 4bcf 6d38
00000140: 459f ee04 ae3a 7005 a3c0 8606 c79a 9704
00000150: 509d 4d39 aaa8 4139 ba78 4039 1458 3539
00000160: 4d1b 0b39 88d4 e339 b115 f239 e680 033a
00000170: 0d50 223a 4fb7 193a d9a2 163a d64c 2e3a
00000180: 2945 b737 e577 1238 71df 0d38 eeda 8d38
00000190: e4df 3439 5b18 8c39 0147 8939 4187 8d39
000001a0: 2087 8f3a 7241 8f39 8596 6239 ce1f e538
000001b0: bb44 563a add0 813a 7086 923a 5567 4a3a
000001c0: 5322 4a36 8ddc 1b36 f8cd 7236 d63a 4a36
000001d0: 19ef 8839 ceeb a739 d786 af39 c706 ac39
000001e0: e554 0439 ba01 b738 ee41 9b38 98eb f637
000001f0: d067 1539 1e0b 7c39 93cf 8a39 074e 9d39
00000200: 3183 1a39 7dfe f138 6f46 f638 07cd 1d39
00000210: 8163 9a39 410a 0039 9e9f b838 260e 1e39
00000220: 9a5b fb38 d628 1639 2a22 0a39 6cdb 8b38
00000230: 0ef7 5739 2c1f 5139 ada1 4f39 c7f1 3739
00000240: 806a 9f39 4245 ae39 b794 be39 8bf5 8b39
00000250: b9b5 bb39 110d 4c39 5206 3939 7b21 fb39
00000260: 2abc 9239 c431 df39 5da5 e639 ff4f d839
00000270: 25e9 f036 3fbc e337 6ee7 4b37 87a8 7438
00000280: ca7f f83a 2a87 023b 0217 043b 6e94 c33a
00000290: 5aa7 c136 cc71 e836 3054 0537 5466 bb37
000002a0: c9bf 3f3a e137 703a 966a 6c3a b3c6 413a
000002b0: fa22 3038 81e4 fa37 f7e7 2338 b1a1 5537
000002c0: 312f ed39 c296 f939 7cb0 fe39 44c8 d839
000002d0: c9dd 7037 9a99 c136 f7ff a136 5c2e 4d37
000002e0: 3989 1a3a 7d44 1c3a 361f 153a f242 f339
000002f0: 4407 5639 c0ec 8939 ab39 4c39 9ca9 7c38
00000300: 5125 4b3a d55b 5d3a 9569 623a a6f4 3c3a
00000310: 0000 0000 0000 0000 0000 0000 0000 0000
00000320: 7f13 9038 d85b b138 a18d c138 af57 e138
00000330: 31ec 7539 1eca 7739 09da 8139 e921 3339
00000340: 84d3 803a bb56 883a 7792 853a 2dfb 453a
00000350: c637 293a 755a 1c3a 0074 1d3a 6bb7 083a
00000360: ff1c 5137 caee ef37 f338 1338 b8d2 9138
00000370: cff7 143a 3501 3f3a d34b 453a 69af 2d3a
00000380: 3b73 8e3a bf8e b93a 1470 c13a dea0 a53a
00000390: e840 e438 89ac 1c38 b60f 5b38 c3b2 bb39
000003a0: 483a d938 3c19 9439 4ed3 c739 d8ce a93a
000003b0: 19b2 ad38 8638 3938 9240 2b38 a76e 8938
000003c0: 97f0 3e39 2e71 8739 3813 8439 d64d a439
000003d0: 5429 a53a ef20 a03a 0ae9 a23a 7f90 523a
000003e0: e96b e337 20b1 2538 0d00 a938 1a98 0a38
000003f0: 4f78 8939 b004 6e39 ae35 7139 5d47 7a39
0.00016371107 0.00023694747 0.00021191631 0.00019662245 0.00036504024 0.00039767977 0.00038152377 0.00033439562
2.3092645e-05 1.3885887e-05 1.347345e-05 2.1771391e-05 0.00064869167 0.00024348909 0.0002108276 6.885472e-05
0.0016924113 0.0020060546 0.0020679377 0.001615854 0.00042152152 0.0006426494 0.0007182571 0.0007200409
0.000878907 0.0010740943 0.0011156125 0.00081970147 0.00061011093 0.0007673371 0.0008070785 0.00071446935
9.943985e-07 1.615885e-06 2.955361e-06 5.527677e-06 0.00012434846 0.00017179549 0.00018730658 0.00016171043
0.001589171 0.0019738406 0.0020479397 0.0016041626 9.639152e-05 0.00012075555 0.00014453537 0.00018141876
0.00010313086 6.6731176e-05 5.3969874e-05 4.8881415e-05 0.00063784927 0.00083232956 0.00085098174 0.0006428565
0.00013460919 0.00011085662 0.00010865604 9.8908924e-05 6.33327e-05 2.5115056e-05 2.5137972e-05 4.4074995e-06
6.0077942e-05 3.7722133e-05 2.8639186e-05 4.5695022e-05 0.0021682875 0.0024822783 0.002502829 0.0019317557
0.00025564648 0.00020347207 0.00022571786 0.00024496627 4.1073592e-05 2.1234586e-05 2.316669e-05 5.669826e-05
5.6099797e-36 1.12955235e-35 5.068825e-35 3.564207e-36 0.00019608927 0.00018468747 0.00018355521 0.00017294317
0.00013266243 0.00043455162 0.00046173998 0.0005016461 0.0006191738 0.0005863802 0.0005746312 0.00066490227
2.1847505e-05 3.4920773e-05 3.3825116e-05 6.764183e-05 0.00017249543 0.00026721027 0.00026183578 0.00026994388
0.0010950305 0.00027323846 0.00021609112 0.00010925495 0.0008173694 0.0009904109 0.0011178982 0.0007721086
3.0120325e-06 2.3225177e-06 3.61807e-06 3.0134593e-06 0.00026118083 0.0003202841 0.00033479065 0.00032811446
0.00012620127 8.7264416e-05 7.403256e-05 2.9435192e-05 0.0001424842 0.00024036734 0.00026476066 0.00030003508
0.00014735457 0.00011539178 0.000117433134 0.00015049065 0.00029447305 0.00012210851 8.803535e-05 0.00015073325
0.00011985675 0.00014320327 0.00013173433 6.668907e-05 0.00020596033 0.00019943406 0.00019801287 0.00017542309
0.00030406192 0.00033239467 0.00036350425 0.0002669509 0.00035802813 0.00019459824 0.0001764533 0.00047899396
0.00027987483 0.00042570953 0.00043992224 0.00041258332 7.179699e-06 2.7148168e-05 1.2153627e-05 5.8331087e-05
0.0018958983 0.001991699 0.0020155315 0.0014921555 5.7713305e-06 6.9273865e-06 7.947019e-06 2.2339787e-05
0.000731465 0.00091636 0.0009018568 0.0007391974 4.1994244e-05 2.9908728e-05 3.9078262e-05 1.2733436e-05
0.00045239323 0.00047605304 0.00048578146 0.0004134794 1.4356753e-05 5.76973e-06 4.827972e-06 1.2229746e-05
0.00058950816 0.0005961133 0.000568855 0.0004639845 0.00020411337 0.0002630707 0.00019476439 6.0239443e-05
0.0007749396 0.0008444165 0.0008636949 0.00072080863 0.0 0.0 0.0 0.0
6.8700865e-05 8.457125e-05 9.2293376e-05 0.000107451684 0.00023453009 0.0002363105 0.00024767246 0.00017083403
0.0009828662 0.0010401824 0.0010190745 0.0007552382 0.0006455149 0.0005964407 0.000600636 0.00052153197
1.2464122e-05 2.8602215e-05 3.510057e-05 6.953388e-05 0.00056826783 0.00072862516 0.00075262523 0.00066255644
0.0010868082 0.0014156922 0.0014758133 0.0012636443 0.00010883977 3.7353984e-05 5.22283e-05 0.00035800607
0.00010358222 0.0002824756 0.00038113672 0.0012955321 8.282456e-05 4.416008e-05 4.0829713e-05 6.55328e-05
0.00018209439 0.00025833532 0.0002519132 0.0003133851 0.0012600818 0.0012216846 0.001242907 0.0008032396
2.7110758e-05 3.9504026e-05 8.0585574e-05 3.304342e-05 0.00026220313 0.00022699195 0.00023003548 0.00023868443

exp_avg f4 [128]
00000000: a680 1d3a 7c7c 48ba 9d41 06bb 68e5 863b
00000010: 1821 14bb caa6 2bbb c206 46bb 7aad 46bb
00000020: 8642 78b9 d825 9e37 9cca 00bb 09fe e5ba
00000030: 4e23 f33a fe42 f03a 88ea 443a 9c91 973a
00000040: 9025 8dba 465f 05ba 5099 c3b9 2857 d6b9
00000050: 0400 0000 d902 c839 85d9 913b c41d 27bb
00000060: 4fd2 4fba 149d 83b8 f90b 963b 3d74 bfb9
00000070: 65c2 57bb 8ec4 ab39 d812 f738 3ee5 03ba
00000080: 24c6 34ba 8191 74bb a815 d53a cc41 833a
00000090: f806 333b 3f73 8cbb 24b4 873b 6036 29b8
000000a0: a8fe d23a 6c7c b0ba 8644 f83a 8390 c139
000000b0: ee97 453a e1d8 d6bb 10f2 28b9 b870 3aba
000000c0: b0b9 243a 0000 0000 1a95 4b3a 501e 5fba
000000d0: 0f8b 2cba de08 63ba fcf3 aeba 5ff7 163b
000000e0: 7918 0c3b a000 8ebb 3e67 b3bb 05ef 8cba
000000f0: d20e d5ba 06a4 e43a eba6 413b dce5 863b
00000100: 529d 3cbb f06c 9b39 52f3 d43a 8a30 78ba
00000110: 7e47 103b 6887 d63a cf17 c63a e000 95ba
00000120: dc6c 42bb a431 0c3a 4c39 9bb9 b08b 263b
00000130: aece 97bb 5066 ecb9 bed8 e4b9 8a27 1eb9
00000140: d140 e1bb b747 b5ba dea5 75ba c5f2 1aba
00000150: 1361 93b9 800c f1b9 605a 4eba 1192 7cbb
00000160: 12c2 a23b b07e 7639 8d53 adba d8e7 e7ba
00000170: ecb3 33b9 66c8 d6b9 82f2 8e3b e08c c8b8
00000180: 8e70 043b 2f2b b739 b05f 4aba 0400 0000
00000190: 10bb db3a 98aa 9cb9 920a d73a b2b3 933a
000001a0: 63e8 253a 3088 aeba 8f11 aa3a 206f e2bb
000001b0: 6f82 b03a c2f3 8dbb 7cf9 693a 4855 d639
000001c0: 2524 1cbb 665d 363b 74a4 273a 8c4a 8d3a
000001d0: cc8a 2d3a c8f6 5639 5332 4bba f848 093a
000001e0: 69ec e9ba d1f0 203b 97bf 16bb 5420 933a
000001f0: 4ddb 4fbb a62b b73b 5045 cbba f824 02ba
0.0006008245 -0.0007647944 -0.0020485886 0.004116703 -0.0022602733 -0.0026191943 -0.003021643 -0.0030315802
-0.00023675905 1.885269e-05 -0.0019652015 -0.0017547022 0.001854995 0.0018330512 0.00075117545 0.0011563781
-0.0010768641 -0.0005087744 -0.00037307525 -0.00040882197 6e-45 0.00038149094 0.004450979 -0.002549992
-0.0007927762 -6.275825e-05 0.004579064 -0.00036516963 -0.0032922265 0.00032762106 0.00011781388 -0.0005031413
-0.00068959803 -0.0037318172 0.0016257064 0.0010014116 0.0027317386 -0.0042861993 0.0041413475 -4.034338e-05
0.0016097622 -0.0013464815 0.001894132 0.00036919498 0.0007537593 -0.0065566157 -0.00016111904 -0.00071121333
0.0006283773 0.0 0.00077660533 -0.0008511292 -0.00065820006 -0.0008660684 -0.001334786 0.0023035628
0.0021376892 -0.0043335706 -0.005474954 -0.0010752386 -0.0016255027 0.0017443902 0.0029548954 0.004116757
-0.0028780294 0.0002964507 0.0016246832 -0.0009467682 0.002201527 0.0016367259 0.0015113297 -0.0011368059
-0.0029666936 0.0005347973 -0.00029606593 0.002541285 -0.0046327924 -0.00045089656 -0.00043649034 -0.00015082784
-0.006874182 -0.0013830577 -0.00093707244 -0.0005910809 -0.0002811035 -0.00045976415 -0.00078717433 -0.003853921
0.0049669826 0.00023507583 -0.0013223753 -0.0017692996 -0.00017137796 -0.0004096657 0.0043624053 -9.562983e-05
0.002020869 0.00034936654 -0.0007719947 6e-45 0.0016764123 -0.0002988174 0.0016406348 0.0011268763
0.0006328879 -0.0013315734 0.0012975204 -0.00691022 0.0013466607 -0.0043320367 0.00089254207 0.000408808
-0.0023825255 0.0027826666 0.000639505 0.0010779663 0.00066201086 0.00020500564 -0.00077513343 0.00052370084
-0.0017846945 0.00245576 -0.002300238 0.0011224844 -0.0031716407 0.00558992 -0.0015508328 -0.0004964615

exp_avg_sq f4 [128]
00000000: 488a 0e39 39f8 5b39 ff6d fc38 7cc0 9f39
00000010: 6002 7b3a ab89 a139 35a0 023a 3f83 e239
00000020: 3b2b 1637 9889 0139 a8f0 6d3a 1619 ee38
00000030: 52fa a938 1ebb cd39 5828 de38 52f4 be37
00000040: e34c 4438 4831 973a 4315 2e39 4189 6338
00000050: b019 7b06 f0f9 0e39 dc21 9239 e3bf b239
00000060: 9d40 3d38 16d3 1e39 99f1 123a 4d6c 013a
00000070: f825 8b37 7ab2 7e39 f85d c138 ce7a 1639
00000080: 2eda e638 2f1b 0f3a 2e5a 6f38 53f0 1d39
00000090: a934 4739 3fc3 543a d879 5939 acf3 1b38
000000a0: d596 663a f0f1 b638 27dd f539 a9d9 e237
000000b0: 88f0 9339 d554 3638 4ac8 a639 a781 9b39
000000c0: 5cbb f039 0000 0000 b2b3 8438 1e00 0e39
000000d0: 08a4 0a3a 8786 d639 fca9 4938 b7a9 c839
000000e0: 3a09 333a 966a 9039 cbe5 053a 9ce2 8638
000000f0: 414d 3739 63e3 1d3a 8ba3 9538 215d 4639
00000100: faf8 c739 be40 9339 4ed1 9e39 9974 b838
00000110: 7887 ef39 5796 1739 9e17 b337 873d ac38
00000120: 1c6d 8039 f5e9 3c3a f849 b939 8126 0b39
00000130: d2e7 7739 297a af39 7163 2e38 9ed1 7a39
00000140: f43e 2a39 6a08 843a 72fb e039 eb01 2e37
00000150: 4819 3d38 d639 8c39 69a0 8739 c157 8539
00000160: d165 b639 f077 4139 a525 fd39 66b1 7539
00000170: 1e7f 3e38 8a44 0639 9229 073a 6430 123a
00000180: 5964 6439 0987 6939 e7c6 103a 624f c80c
00000190: d822 8739 5616 cb39 6f9f 2739 569e 8939
000001a0: 8d40 403a a936 8039 d5ab 6239 7044 8e39
000001b0: e025 8739 4bca bd39 c8aa 6b3a b997 4c37
000001c0: 95f0 3f3a 328d 9339 f80b 0e39 6ae4 8b39
000001d0: 9949 ab39 7d84 b839 2f3d 0738 6e30 cc39
000001e0: 1864 f839 43c2 0039 487b 783a c6d0 833a
000001f0: e1d1 4b39 885f a839 9d8f d039 1990 b738
0.00013593689 0.00020977938 0.00012036785 0.00030470255 0.0009575244 0.00030810884 0.0004982979 0.00043203865
8.950762e-06 0.00012353656 0.0009076693 0.00011353397 8.105174e-05 0.0003924006 0.000105932995 2.2763536e-05
4.6801648e-05 0.0011535073 0.00016601854 5.4248845e-05 4.7226725e-35 0.00013635284 0.00027872517 0.00034093772
4.5121287e-05 0.0001514669 0.0005605459 0.00049370975 1.6587772e-05 0.00024289815 9.22046e-05 0.00014350863
0.00011007894 0.0005459068 5.7066027e-05 0.00015062215 0.00018997736 0.0008116252 0.00020740123 3.7181817e-05
0.00087962794 8.723501e-05 0.00046894813 2.7042655e-05 0.00028217235 4.3471187e-05 0.00031811214 0.00029660502
0.0004591596 0.0 6.327721e-05 0.00013542219 0.0005288725 0.0004091749 4.8080445e-05 0.0003827342
0.0006829683 0.00027545233 0.0005107789 6.431827e-05 0.0001748102 0.0006022958 7.135336e-05 0.00018917445
0.0003814174 0.00028086262 0.00030292053 8.795522e-05 0.00045686564 0.00014456488 2.134946e-05 8.2130595e-05
0.00024495355 0.0007206493 0.0003534106 0.00013270417 0.00023642115 0.00033469617 4.1577445e-05 0.00023919946
0.00016235915 0.0010073308 0.0004291195 1.0371655e-05 4.5084656e-05 0.00026745972 0.0002586872 0.0002543312
0.00034789604 0.00018450595 0.00048283968 0.00023431107 4.5417917e-05 0.00012804769 0.0005156036 0.0005576669
0.00021781157 0.00022270916 0.0005522803 3.0862656e-31 0.00025775167 0.0003873582 0.00015985755 0.00026248646
0.00073338376 0.00024454787 0.00021617052 0.0002713534 0.00025777426 0.0003619961 0.0008989987 1.2194673e-05
0.00073219213 0.00028143224 0.00013546634 0.00026682328 0.00032670496 0.00035193926 3.224349e-05 0.00038945995
0.00047376822 0.000122794 0.00094788196 0.0010056726 0.00019437775 0.00032114633 0.00039779852 8.75296e-05

exp_avg f4 [64, 128]
00000000: 3c04 1a3a 2482 8c3a b9c9 d336 577b 06ba
00000010: c48b ce3a a035 95b8 c4af 893a 28d1 833a
00000020: 1734 9939 3094 12b9 79a6 963a 0d3a a93a
00000030: 9fa9 4dba 4af6 2b3a eb5d db39 a594 b1b8
00000040: 7d35 0a3a 7a72 c53a 377c 9a3a a5e6 083a
00000050: 0000 0000 d822 8c39 e680 7d39 74a5 9438
00000060: 1e88 2a3a 2a25 263a 8dd2 bdb9 fcd6 7a3a
00000070: 0000 0000 5f46 05ba 450f 90b9 9d90 2e3a
00000080: 11f7 393a 6324 8039 5109 9638 a649 a839
00000090: 5e10 46b9 416d 673a 8af9 dd39 ceed b0b7
000000a0: ec3c b5b9 ea43 0036 2447 ed39 9346 eb37
000000b0: 2b1c 7239 0400 0080 4f57 6fba 8542 a237
000000c0: f857 8039 0000 0000 36f4 b839 994b c9b9
000000d0: dc72 bd3a d488 e8b9 1ffe 043a 404f 6b37
000000e0: b71a 143a fd4b 973a baef 063a 69fb 7739
000000f0: 9cae 9e3a f36d 14ba cc86 34b7 b475 fb39
00000100: 058e 4aba 5200 803a 8c23 b439 954f aa38
00000110: b0df 3bba 1efd f1b7 fda9 6435 a042 e539
00000120: 88e8 3c3a e83f d339 a040 47ba c617 e439
00000130: 1a7d 2f3a f84b d738 cb25 ee39 2d3f ea37
00000140: 614a 4539 d4b2 cc3a f141 a53a 3ac0 a3b8
00000150: 83af 5a3a 799d 74ba cb1b c53a da3c 853a
00000160: aa1d 1eb9 cd09 1d3a 707a ddb9 dc28 cfb9
00000170: 60b9 e638 d8af f0b8 e66a 14ba ba58 fb3a
00000180: f2ce 3b3a bcac f9b7 96ea 033b 0400 0000
00000190: 3251 b039 9adf 21b9 ff6a 203a d67c de39
000001a0: 5a73 533a 0319 273a b95a 313a 48a0 f937
000001b0: 2254 4b38 90ac 883a 58f2 3b3a b780 5638
000001c0: 9d4f b73a 84f0 e039 3227 223a 9627 7138
000001d0: 96ca 1eba 8e4f b338 b788 8937 8f5f 103a
000001e0: c0de 4536 8ea0 ccb9 00e2 25ba 8961 843a
000001f0: 7fa7 883a 9ba0 a4b9 faed 0eb9 9925 db39
00000200: 866d 1039 440c 063a f713 d0b8 dcdc 97b9
00000210: da32 ee39 4201 42b9 2058 e9b6 6862 9939
00000220: b28e 2b39 3a77 70b9 3c88 c539 b471 153a
00000230: 55b8 f7b8 4ff9 aab8 b956 30b9 210e 27b8
00000240: a1d4 ef39 4f09 e639 810d 403a 9fdf c439
00000250: 0400 0000 a97d aeb9 7e36 45b7 881c 1338
00000260: a74f b039 302c 76b8 8132 9db9 3814 5439
00000270: 0400 0080 863b 00ba 16a0 94b8 d251 9438
00000280: b8d2 323a 22f4 9438 0b9a e1b7 9611 c6b9
00000290: 2831 81b9 486b 093a 002d 9bb8 6330 82b7
000002a0: c2ab 78b9 6607 2bb7 21cf 1d39 6c0d 10b9
000002b0: 416f bbb9 b4b6 94b1 dee3 7fb9 2ed0 d8b6
000002c0: c5ce 06ba 0000 0000 236a 7839 039f 8fb9
000002d0: 5019 e239 7780 60ba 0676 9739 4a1e c2b8
000002e0: 3695 8539 7f9b 543a dcf2 bb39 1c8c 8139
000002f0: 7f07 163a f596 a0b9 7863 ceb8 a87c 123a
00000300: 03ae 1dba db9a 463a 98dc cb37 a67c 19b9
00000310: 3d10 9cb9 48db ddb7 2a41 60b7 aca6 8339
00000320: f0cf c339 f8ab 8038 8706 08ba 085e ff39
00000330: 60ff f339 47b6 c0b8 4e6f 3539 d084 c2b9
00000340: 0cf1 e438 6261 e839 4085 5038 4423 2bb7
00000350: 00a7 f339 1f57 c8b9 1437 753a db54 f739
00000360: a06f bab8 8fe1 b539 c45a 8fb8 3d36 2eba
00000370: 0400 0000 cfb1 9eb9 00fe d136 324a 7d3a
00000380: 07bc 2738 85b6 01ba d19b 5a3a 0400 0000
00000390: fb9b 8439 fabd 32ba 5e3b 043a 2c8b 033a
000003a0: 2c27 9f39 80b1 1d37 5dae 04b9 032e beb8
000003b0: c74b 8ab9 14f7 273a 70c8 7939 5b00 d9b8
000003c0: 71f1 ee39 2fd6 8739 58e2 223a 3660 23b9
000003d0: 938c 29b9 611b abb9 13bf 18b4 201a 0ab7
000003e0: 149b 4db8 4dae 2fb9 ee9c 88b9 f16c 073a
000003f0: bac5 4e3a 70f0 2fb9 15d0 5cb9 4cb2 cb39
0.0005875265 0.0010719937 6.3117736e-06 -0.00051300734 0.0015758206 -7.114862e-05 0.0010504653 0.001005684
0.00029221244 -0.00013978849 0.0011493705 0.0012910977 -0.0007845405 0.0006559832 0.0004184091 -8.467705e-05
0.00052722526 0.0015064024 0.0011786286 0.0005222357 0.0 0.00026728841 0.00024175979 7.088008e-05
0.00065052684 0.00063379353 -0.00036205762 0.00095687783 0.0 -0.00050840335 -0.00027477197 0.00066591223
0.00070940057 0.00024441173 7.154293e-05 0.0003209833 -0.00018888849 0.0008828231 0.00042338326 -2.1091571e-05
-0.000345684 1.9113018e-06 0.00045257166 2.8047047e-05 0.00023089412 -6e-45 -0.00091301365 1.934288e-05
0.00024479604 0.0 0.00035277166 -0.00038394032 0.0014453786 -0.00044352433 0.00050732674 1.4025543e-05
0.0005649733 0.0011543032 0.00051474164 0.00023649413 0.0012106481 -0.00056621357 -1.0760221e-05 0.00047962146
-0.0007726851 0.000976572 0.0003435876 8.121055e-05 -0.0007166816 -2.8847306e-05 8.5183984e-07 0.00043727923
0.0007206281 0.0004029267 -0.00076008774 0.0004350526 0.0006694362 0.00010266149 0.00045423055 2.7924392e-05
0.00018815092 0.001561726 0.0012608153 -7.808251e-05 0.00083421933 -0.00093313266 0.001503819 0.001016523
-0.00015079105 0.0005990535 -0.00042243628 -0.0003951256 0.000110017834 -0.00011476845 -0.0005661681 0.0019176223
0.0007164321 -2.9763549e-05 0.0020128838 6e-45 0.0003362983 -0.00015437455 0.0006119459 0.0004243615
0.00080662 0.00063742715 0.0006765533 2.975775e-05 4.8477326e-05 0.0010427404 0.0007169596 5.114145e-05
0.0013985519 0.00042903807 0.000618565 5.7495745e-05 -0.00060574093 8.550203e-05 1.6395335e-05 0.00055074034
2.9484945e-06 -0.00039029535 -0.0006327927 0.0010099869 0.0010425894 -0.00031400178 -0.00013630828 0.00041798947
0.00013773711 0.0005113522 -9.9219316e-05 -0.00028965517 0.00045432785 -0.0001850175 -6.9542e-06 0.00029255752
0.00016360989 -0.00022932599 0.0003767627 0.0005700842 -0.00011812212 -8.152669e-05 -0.00016816975 -3.982906e-05
0.00045744053 0.00043875954 0.0007326231 0.00037550644 6e-45 -0.0003328149 -1.17548025e-05 3.5074103e-05
0.00033628682 -5.8692123e-05 -0.00029983002 0.00020225428 -6e-45 -0.0004891682 -7.087008e-05 7.07243e-05
0.00068215607 7.102663e-05 -2.6893822e-05 -0.00037778605 -0.00024641422 0.00052421214 -7.399358e-05 -1.551974e-05
-0.00023715108 -1.0194117e-05 0.00015049848 -0.0001373791 -0.0003575031 -4.328138e-09 -0.00024403582 -6.461537e-06
-0.00051425054 0.0 0.00023690662 -0.00027393558 0.00043124938 -0.00085640646 0.000288889 -9.256283e-05
0.00025478908 0.0008110329 0.00035848364 0.00024709187 0.0005723163 -0.0003063005 -9.841373e-05 0.0005588033
-0.00060150045 0.0007576176 2.4302208e-05 -0.00014637652 -0.00029766737 -2.6447364e-05 -1.3366613e-05 0.00025110447
0.00037348224 6.135547e-05 -0.0005188961 0.0004870745 0.0004653884 -9.189225e-05 0.0001730297 -0.00037101517
0.00010916786 0.00044323044 4.9715163e-05 -1.0200605e-05 0.00046472996 -0.00038211883 0.00093542156 0.00047174733
-8.889963e-05 0.00034691065 -6.835678e-05 -0.00066456554 6e-45 -0.00030268586 6.258255e-06 0.000966224
3.9991017e-05 -0.0004948157 0.00083392585 6e-45 0.00025293216 -0.000681847 0.0005044247 0.00050179916
0.0003035603 9.399257e-06 -0.00012653456 -9.068476e-05 -0.0002637787 0.0006407362 0.00023821159 -0.000103474325
0.00045574785 0.00025908786 0.00062135374 -0.00015580733 -0.00016169464 -0.0003263606 -1.4225616e-07 -8.231524e-06
-4.9020236e-05 -0.00016754233 -0.00026056863 0.0005166075 0.000788774 -0.0001677887 -0.00021058352 0.0003885202
