models/model_20250730_182323_lr0.0001.pth (torch, 126610 bytes, 18 tensors)

fc1.weight f4 [128, 4]
-0.41682896 -0.04198343 -0.4281671 0.41438127 0.1251527 0.23108274 -0.35118812 -0.17171288
0.04016829 0.26093426 0.07773881 -0.35367155 -0.312236 -0.45695388 -0.063341916 0.066800475
0.07394968 0.47732157 -0.05603739 0.3400555 -0.049664162 -0.14124095 0.46505257 -0.3425452
0.22894101 0.034371637 0.1291282 -0.20925522 -0.24651141 0.19074103 0.23807727 0.282678
0.11407511 -0.45447692 0.03427119 0.016788596 -0.391793 -0.48521405 -0.09038907 -0.2465918
-0.3139372 -0.44149756 0.4335485 -0.33220148 -0.38507155 0.46080393 0.34249133 -0.052495554
-0.06522095 -0.17368293 0.08037394 -0.29849076 0.4620785 -0.058879297 -0.2198554 0.46234915
0.1986036 -0.4689166 0.3862152 -0.09667184 0.105255775 0.11016452 -0.30897862 0.13625325
0.303474 0.10083064 0.50222063 0.14911939 0.035437543 0.47061327 0.32877627 0.48557183
0.18845834 0.42755452 -0.08402643 0.14120595 -0.098440364 -0.09376293 0.35548806 0.27757898
-0.36779192 0.07361295 -0.2439475 -0.36105493 0.07192435 0.25490028 -0.12136097 0.048541036
0.43118486 0.14053923 -0.41761568 -0.14277622 -0.22418845 -0.49394214 0.38103956 0.054118216
0.43937403 -0.041508853 -0.25561157 -0.23218246 0.37153468 -0.078987174 0.48381498 0.31482595
-0.12256139 0.10785415 -0.1242846 -0.4418687 -0.47000104 0.1239714 -0.42842466 -0.116209924
-0.28037938 0.39996162 -0.48239955 -0.08935652 0.026594043 -0.22181964 0.36662942 -0.407627
0.31570786 0.43316194 0.44222197 -0.049925275 -0.047687374 0.10321651 -0.26977652 0.09654049
0.35740414 -0.09264932 -0.373506 -0.45231155 -0.35695174 0.15662986 -0.2737852 0.215733
-0.36954987 0.42671755 0.32433647 0.18822284 -0.10247741 0.45185813 0.11115075 0.43809855
-0.4326949 -0.33984378 0.050798915 0.22386828 0.46238685 -0.19119376 -0.32959425 -0.012471914
-0.28924298 -0.44548264 -0.32465354 0.39483267 0.15277803 0.11560124 -0.37421584 0.0008056164
0.4075479 -0.45596546 -0.25988108 0.020972962 0.06198729 -0.18130499 -0.40849593 0.33386093
0.0016887784 -0.32947934 -0.109110355 -0.14862937 -0.37459445 0.4729286 0.44921643 0.063317284
-0.0014770938 0.1398308 -0.018224396 -0.1378445 -0.23500724 0.042254154 0.15577208 0.28073767
-0.2505668 0.3009208 0.25581935 -0.2964022 -0.122718744 0.19291002 0.17467958 -0.23043069
-0.296116 -0.42319992 -0.09792504 -0.31444106 0.24631664 -0.48532146 -0.4249912 -0.2300395
-0.46919185 0.16784772 0.4561148 -0.1820593 -0.11617278 -0.15577291 -0.47145805 -0.1404807
-0.26991257 0.18460673 -0.1710881 0.32104182 -0.25236702 0.3554733 0.20349443 0.42556617
-0.4164571 -0.2840622 0.4337699 -0.2773443 0.2172929 0.12044651 -0.02053309 -0.3725839
0.05565545 -0.30570596 0.16708533 -0.1412656 0.27659065 0.38346538 0.27328426 0.3920653
0.48468038 0.42712194 0.39973757 -0.30846784 0.35799232 0.43370628 -0.4123586 0.093633205
0.12401658 -0.07699728 -0.30270255 -0.14701515 -0.18428719 -0.4679972 -0.21514708 -0.41244328
0.062411368 -0.3481273 -0.28233385 0.10779983 0.3026286 -0.37288052 0.2154025 0.0962636
00000000: 9b6a d5be d1f6 2bbd b838 dbbe c829 d43e
00000010: 0828 003e f4a0 6c3e eece b3be 80d5 2fbe
00000020: 8187 243d 2d99 853e 8635 9f3d 7014 b5be
00000030: 66dd 9fbe dcf5 e9be 68b9 81bd b0ce 883d
00000040: ee72 973d 7e63 f43e 7687 65bd c11b ae3e
00000050: a66c 4bbd 78a1 10be 5f1b ee3e 1662 afbe
00000060: 836f 6a3e 46c9 0c3d 2f3a 043e 0047 56be
00000070: 7d6d 7cbe 9e51 433e 87ca 733e 2cbb 903e
00000080: 36a0 e93d 33b1 e8be f35f 0c3d 3d88 893c
00000090: 1899 c8be fa6d f8be e81d b9bd 9082 7cbe
000000a0: 60bc a0be f80b e2be 12fa dd3e 5016 aabe
000000b0: 1928 c5be 7eee eb3e 065b af3e 9405 57bd
000000c0: 9092 85bd f0d9 31be 189b a43d c8d3 98be
000000d0: 8e95 ec3e 6b2b 71bd c621 61be 07b9 ec3e
000000e0: be5e 4b3e d615 f0be 00be c53e e3fb c5bd
000000f0: 5790 d73d f09d e13d 7232 9ebe f985 0b3e
00000100: f260 9b3e 4b80 ce3d 8891 003f c1b2 183e
00000110: f526 113d 39f4 f03e 5d55 a83e df9c f83e
00000120: 39fb 403e 6de8 da3e 0d16 acbd 4b98 103e
00000130: 1a9b c9bd c706 c0bd 8802 b63e d51e 8e3e
00000140: 394f bcbe 63c2 963d 60cd 79be 31dc b8be
00000150: 134d 933d 4a82 823e 1a8c f8bd f7d2 463d
00000160: 43c4 dc3e 84e9 0f3e b9d1 d5be ee33 12be
00000170: a891 65be fce5 fcbe 9e17 c33e 10ab 5d3d
00000180: a2f5 e03e 3005 2abd 85df 82be 3dc1 6dbe
00000190: cb39 be3e 07c4 a1bd 99b6 f73e de30 a13e
000001a0: 7701 fbbd a3e2 dc3d ed88 febd 9d3c e2be
000001b0: faa3 f0be b8e4 fd3d 7a5a dbbe 78ff edbd
000001c0: e38d 8fbe c5c7 cc3e 13fd f6be 8d00 b7bd
000001d0: c0db d93c b024 63be dab6 bb3e 7cb4 d0be
000001e0: 76a4 a13e 67c7 dd3e eb6a e23e 727e 4cbd
000001f0: d653 43bd 2d63 d33d 2620 8abe 05b7 c53d
00000200: adfd b63e edbe bdbd 2e3c bfbe 6195 e7be
00000210: 61c2 b6be 9463 203e 932d 8cbe 1de9 5c3e
00000220: a435 bdbe b97a da3e 6e0f a63e 7dbd 403e
00000230: addf d1bd f359 e73e 01a3 e33d 744e e03e
00000240: 308a ddbe 0100 aebe 8612 503d ba3d 653e
00000250: f8bd ec3e 4cc8 43be 94c0 a8be 0057 4cbc
00000260: a817 94be 4d16 e4be fd38 a6be 8227 ca3e
00000270: d871 1c3e 58c0 ec3d 3899 bfbe 0030 533a
00000280: 1eaa d03e 4e74 e9be 220f 85be 7dcf ab3c
00000290: 62e6 7d3d 04a8 39be 6126 d1be d2ef aa3e
000002a0: 005a dd3a 84b1 a8be 4075 dfbd 4c32 18be
000002b0: d8ca bfbe b323 f23e b2ff e53e 7eac 813d
000002c0: 0b9b c1ba ce2f 0f3e 544b 95bc 1c27 0dbe
000002d0: bda5 70be b112 2d3d b782 1f3e d9bc 8f3e
000002e0: 4b4a 80be 4b12 9a3e c1fa 823e 07c2 97be
000002f0: f753 fbbd 348a 453e 34df 323e 06f6 6bbe
00000300: 849c 97be a9ad d8be ec8c c8bd 6bfe a0be
00000310: 6e3a 7c3e 0e7c f8be 7298 d9be 7a8f 6bbe
00000320: ea39 f0be 46e0 2b3e e187 e93e c16d 3abe
00000330: ffeb edbd ef82 1fbe f362 f1be 2cda 0fbe
00000340: fb31 8abe 8c09 3d3e b831 2fbe 985f a43e
00000350: 4036 81be 9900 b63e d860 503e cfe3 d93e
00000360: dd39 d5be 9a70 91be 1717 de3e 1200 8ebe
00000370: 0882 5e3e a9ac f63d 0335 a8bc 51c3 bebe
00000380: f8f6 633d 7e85 9cbe 6b18 2b3e eea7 10be
00000390: 4a9d 8d3e 9355 c43e eaeb 8b3e c8bc c83e
000003a0: 0728 f83e baaf da3e 67aa cc3e 7fef 9dbe
000003b0: c54a b73e c00e de3e ab20 d3be c4c2 bf3d
000003c0: 68fc fd3d c0b0 9dbd d4fb 9abe 248b 16be
000003d0: c8b5 3cbe 549d efbe 844f 5cbe c42b d3be
000003e0: 10a3 7f3d be3d b2be 108e 90be 28c6 dc3d
000003f0: 23f2 9a3e 32ea bebe 7992 5c3e da25 c53d

fc1.bias f4 [128]
0.25690207 -0.42561913 -0.022199532 -0.113696516 0.43687427 0.3320515 -0.30636722 -0.20373271
0.28454047 -0.44588476 -0.0974136 0.26794583 -0.49402267 0.47588298 0.11751656 0.16520886
0.38006124 0.03480974 -0.16490105 0.38053283 0.06515565 0.13177437 0.31245217 -0.41999537
0.33547446 -0.25254488 0.09925675 -0.3456847 0.29675803 -0.3332349 0.06166431 0.3069646
-0.097862095 0.14280565 -0.32858792 0.16207261 0.43667838 -0.46515948 -0.012256072 -0.43110985
-0.27926385 0.29742193 -0.47489935 -0.36594698 0.41292295 -0.19307472 0.04570705 -0.35943413
0.10104889 -0.13276997 0.19226734 0.38793844 -0.07721076 -0.34135792 0.4956137 -0.032713488
0.061880894 -0.4456205 -0.30515796 0.15690964 -0.47030258 -0.02426058 -0.19832301 0.48156473
-0.3873965 -0.19500819 -0.14941034 -0.42386854 0.028692447 -0.3979203 0.18480244 0.06380745
-0.464163 -0.4491346 -0.31668532 0.48672497 -0.32952118 -0.47107595 -0.40045422 0.316697
-0.12634818 -0.30317697 -0.4739918 0.49219203 -0.3513642 0.10353124 -0.048887108 -0.30394
-0.17925721 -0.4256406 -0.16425484 0.40217093 0.3706962 0.14038746 0.44218287 -0.35349962
0.096627004 0.20442784 -0.035599675 0.4376734 0.45203108 -0.3277328 -0.3361529 -0.25019014
-0.39242315 0.39259657 0.03908423 -0.45643887 0.16302094 0.20254876 0.1376916 0.3042245
0.44286793 -0.2984895 -0.1336667 -0.009346021 -0.32870165 -0.43094948 0.096197635 0.32701108
0.15857218 -0.028874248 -0.3934296 0.038103376 0.4094912 -0.48761857 0.13704753 -0.3742837
00000000: ab88 833e c0ea d9be cbdb b5bc b8d9 e8bd
00000010: fcad df3e a702 aa3e 2adc 9cbe 4f9f 50be
00000020: 4aaf 913e 024b e4be c880 c7bd 3230 893e
00000030: 8af0 fcbe efa6 f33e 86ac f03d 832c 293e
00000040: 6397 c23e a894 0e3d d2db 28be 33d5 c23e
00000050: 5370 853d dcef 063e bbf9 9f3e a209 d7be
00000060: 4fc3 ab3e 904d 81be 1f47 cb3d 96fd b0be
00000070: abf0 973e c49d aabe b793 7c3d 772a 9d3e
00000080: ec6b c8bd a53b 123e ad3c a8be 5df6 253e
00000090: 4f94 df3e 6229 eebe b1cd 48bc 6eba dcbe
000000a0: acfb 8ebe b047 983e 0226 f3be 675d bbbe
000000b0: a36a d33e 61b5 45be 5137 3b3d c007 b8be
000000c0: b8f2 ce3d daf4 07be bbe1 443e de9f c63e
000000d0: ad20 9ebd 77c6 aebe 14c1 fd3e 94fe 05bd
000000e0: d276 7d3d 5f28 e4be aa3d 9cbe ecac 203e
000000f0: 80cb f0be 20be c6bc 3015 4bbe a78f f63e
00000100: d658 c6be 3ab0 47be 06ff 18be 4c05 d9be
00000110: 6c0c eb3c 36bc cbbe da3c 3d3e 7bad 823d
00000120: c6a6 edbe f8f4 e5be 9424 a2be 0434 f93e
00000130: 00b7 a8be de30 f1be 5608 cdbe 1c26 a23e
00000140: 6b61 01be 033a 9bbe 0eaf f2be 9800 fc3e
00000150: 02e6 b3be 3008 d43d d93d 48bd 069e 9bbe
00000160: 348f 37be 91ed d9be 6c32 28be 59e9 cd3e
00000170: e4cb bd3e bbc1 0f3e cb65 e23e e7fd b4be
00000180: 61e4 c53d 8855 513e f7d0 11bd ba16 e03e
00000190: 9e70 e73e 98cc a7be 3c1c acbe ec18 80be
000001a0: b0eb c8be 6b02 c93e c916 203d 5bb2 e9be
000001b0: f6ee 263e f168 4f3e 07ff 0c3e 50c3 9b3e
000001c0: 96bf e23e 9ed3 98be ecdf 08be 0e20 19bc
000001d0: 954b a8be 69a5 dcbe 4403 c53d ff6d a73e
000001e0: bf60 223e b089 ecbc 9b6f c9be 4912 1c3d
000001f0: d5a8 d13e 24a9 f9be 3056 0c3e 1da2 bfbe

fc2.weight f4 [64, 128]
0.067218736 0.057803653 -0.0893779 0.010776661 0.041565813 -0.020974487 0.0032998829 0.052388135
-0.044637688 0.041239463 0.08482175 0.07514426 -0.042179573 0.020930672 -0.026072228 0.08885481
0.04095088 0.0225684 -0.014072975 0.06966356 -0.011875377 0.063406855 -0.029878458 0.028342903
-0.06881913 -0.0071024164 -0.051819187 0.07586215 -0.09967513 -0.0033014268 -0.015320897 0.05497907
0.01679047 0.08670671 -0.024062278 0.009099287 0.0795312 -0.014634408 -0.045226414 0.06346501
0.07005287 0.06722789 -0.017160468 0.04335848 0.018787114 -0.034209516 -0.084920764 -0.050701093
-0.04112361 0.057245325 -0.04764045 0.026086066 0.01186718 0.0010841787 -0.060230352 0.0457416
-0.06887043 0.053031616 0.079059444 0.005091493 -0.00048415363 -0.03333134 -0.06638272 -0.07627045
-0.0807845 0.032809343 0.067750655 -0.05244486 -0.04476824 0.064435236 -0.003153326 -0.0386942
-0.09225105 -0.016947165 -0.009399483 0.035274193 0.064405285 -0.06264956 0.06731534 0.040397678
0.06710331 0.079111636 0.08642078 0.026392397 0.043174066 -0.09926732 -0.085325465 -0.04001831
0.08571991 0.02813 -0.011796668 -0.09895944 0.082792394 0.03353244 0.08435459 -0.062583245
-0.043427575 -0.09656622 0.021759002 -0.051259954 0.029858585 0.07840731 0.037031807 -0.018699706
0.037998725 -0.08223517 -0.02641687 -0.0022092017 -0.0267266 0.09014041 0.025550472 -0.088809945
0.0126758665 0.05256253 -0.014868826 -0.046766695 -0.078052856 0.086017825 -0.09962842 -0.0065549645
-0.096328035 -0.035854872 -0.04632679 0.07550151 0.053660605 -0.0075817783 0.021370461 -0.04045691
0.023626504 0.045790426 0.054898698 -0.0837307 -0.02886898 -0.036682457 -0.022457672 -0.08906679
-0.013234398 0.05740223 -0.0795496 -0.0062579797 0.027661093 0.04500854 0.0043038377 -0.031315416
-0.05464297 -0.052537996 -0.060514636 0.027933402 0.0045105647 0.05980234 0.0950702 0.009955689
-0.06590753 -0.038798984 0.017967075 -0.06738521 0.030280108 -0.024325423 0.037375152 0.05082066
0.018305732 -0.04843555 0.054833207 0.040813446 0.047922924 -0.02410546 0.042874042 -0.08502528
-0.04779908 0.058368854 -0.06764964 -0.04267087 0.08580802 -0.09542001 0.0636023 0.024865184
0.066224255 0.007656722 -0.017673474 -0.076282665 0.080467194 0.052262988 -0.013082593 0.06735203
-0.029660305 0.01609867 0.073816836 0.01633774 -0.083403796 0.00033659488 0.013530105 0.0668141
0.085435994 0.08603732 -0.039562214 -0.07143482 0.08804562 -0.07870674 -0.03999588 -0.038181175
-0.009131002 -0.08305764 0.10127721 0.07142881 -0.07455213 0.09245477 -0.002528483 -0.06742969
-0.0008607684 0.07750322 0.06993876 -0.028905598 -0.0499899 -0.040861312 -0.05599383 0.076540746
-0.07104869 -0.051421233 0.04988966 -0.057489213 0.08498624 -0.03618588 -0.07427189 -0.017951455
0.00478432 0.0072506666 0.0103743 0.040442474 0.07729524 -0.07309518 -0.012967981 -0.08773108
0.037755672 -0.009463965 -0.061337087 0.076618046 -0.0014957443 0.03840205 0.047393817 0.09085969
-0.0085333055 -0.021478899 -0.054765098 0.050281174 0.0026791615 -0.04520566 0.008363746 0.07364912
-0.013663593 0.0362301 -0.09061126 0.08888222 0.092238754 0.045740947 -0.016875857 -0.06628369
00000000: faa9 893d 86c3 6c3d c30b b7bd 9890 303c
00000010: ea40 2a3d b0d2 abbc d942 583b f194 563d
00000020: 02d6 36bd b6ea 283d 07b7 ad3d 3ce5 993d
00000030: 7dc4 2cbd cd76 ab3c 6d95 d5bc 83f9 b53d
00000040: 1cbc 273d 5de1 b83c 5692 66bc c5ab 8e3d
00000050: f190 42bc 74db 813d abc3 f4bc 602f e83c
00000060: 0bf1 8cbd 63bb e8bb 5b40 54bd 9d5d 9b3d
00000070: 7922 ccbd c05c 58bb 8004 7bbc bc31 613d
00000080: 2b8c 893c 4a93 b13d 411e c5bc 2d15 153c
00000090: 41e1 a23d 28c5 6fbc 553f 39bd f1f9 813d
000000a0: e177 8f3d c7ae 893d 1c94 8cbc a998 313d
000000b0: 6fe7 993c 471f 0cbd f0ea adbd f3ab 4fbd
000000c0: 3b71 28bd 137a 6a3d a222 43bd 72b2 d53c
000000d0: 8f6e 423c 001b 8e3a 1ab4 76bd 8b5b 3b3d
000000e0: f10b 8dbd ae37 593d ebe9 a13d 8ad6 a63b
000000f0: 00d6 fdb9 7186 08bd aaf3 87bd af33 9cbd
00000100: 5872 a5bd 1763 063d dbc0 8a3d 6cd0 56bd
00000110: e75e 37bd 9ff6 833d 08a8 4ebb cf7d 1ebd
00000120: 1eee bcbd c8d4 8abc 4a00 1abc ac7b 103d
00000130: ebe6 833d 6a4e 80bd a0dc 893d 0978 253d
00000140: 766d 893d 4805 a23d 61fd b03d de34 d83c
00000150: 4ad7 303d aa4c cbbd 1ebf aebd 3dea 23bd
00000160: ec8d af3d e370 e63c d046 41bc 3fab cabd
00000170: 0f8f a93d 5059 093d 19c2 ac3d a52b 80bd
00000180: 1de1 31bd 83c4 c5bd ef3f b23c f5f5 51bd
00000190: fe99 f43c 0394 a03d aaae 173d 2030 99bc
000001a0: 8da4 1b3d ea6a a8bd 3168 d8bc 41c8 10bb
000001b0: bef1 dabc 899b b83d 394f d13c fde1 b5bd
000001c0: 70ae 4f3c cf4b 573d 609c 73bc 6f8e 3fbd
000001d0: 2dda 9fbd 1d2a b03d fc09 ccbd 07cb d6bb
000001e0: a247 c5bd 8fdc 12bd 29c1 3dbd 89a0 9a3d
000001f0: 39cb 5b3d 9170 f8bb 1b11 af3c 25b6 25bd
00000200: 5f8c c13c be8e 3b3d 75dd 603d 007b abbd
00000210: a47e ecbc 5840 16bd 27f9 b7bc a668 b6bd
00000220: 17d5 58bc 9a1e 6b3d e7ea a2bd bd0f cdbb
00000230: 8499 e23c e05a 383d 3507 8d3b 9844 00bd
00000240: 4fd1 5fbd 1532 57bd 32de 77bd 97d4 e43c
00000250: 5ccd 933b 4cf3 743d 2ab4 c23d 301d 233c
00000260: 87fa 86bd afeb 1ebd b02f 933c 4201 8abd
00000270: fd0d f83c 1c46 c7bc b016 193d 5329 503d
00000280: e7f5 953c 5b64 46bd c998 603d 002c 273d
00000290: d44a 443d d078 c5bc b19c 2f3d bc21 aebd
000002a0: f8c8 43bd 2e14 6f3d e58b 8abd a6c7 2ebd
000002b0: 1dbc af3d 916b c3bd ec41 823d 12b2 cb3c
000002c0: 95a0 873d 3de5 fa3b f6c7 90bc 163a 9cbd
000002d0: fccb a43d b711 563d 5f58 56bc dcef 893d
000002e0: 2bfa f2bc 5ce1 833c 482d 973d b9d6 853c
000002f0: 9ccf aabd 0079 b039 60ad 5d3c d5d5 883d
00000300: 11f9 ae3d 5634 b03d fd0b 22bd 6b4c 92bd
00000310: 4351 b43d 0031 a1bd b8d2 23bd dd63 1cbd
00000320: 339a 15bc 201a aabd 6d6a cf3d 4549 923d
00000330: caae 98bd ed58 bd3d e8b4 25bb 9418 8abd
00000340: 31a5 61ba 02ba 9e3d 0d3c 8f3d 6fcb ecbc
00000350: 36c2 4cbd 315e 27bd c959 65bd 65c1 9c3d
00000360: fa81 91bd 129f 52bd 1a59 4c3d cf79 6bbd
00000370: 440d ae3d a537 14bd dc1b 98bd ee0e 93bc
00000380: c9c5 9c3b 0097 ed3b f8f8 293c 02a7 253d
00000390: f74c 9e3d edb2 95bd a877 54bc 5aac b3bd
000003a0: b1a5 1a3d bf0e 1bbc 993c 7bbd ece9 9c3d
000003b0: da0c c4ba 784b 1d3d 0520 423d a514 ba3d
000003c0: 47cf 0bbc 84f4 afbc 5e51 60bd a2f3 4d3d
000003d0: df94 2f3b 9229 39bd 1808 093c 5ad5 963d
000003e0: 43dd 5fbc 0366 143d 6592 b9bd e207 b63d
000003f0: ace7 bc3d dc5a 3b3d 3d3f 8abc bebf 87bd

fc2.bias f4 [64]
-0.027002897 0.040360775 0.01659427 0.044856273 -0.012012789 -0.046247732 -0.025615003 0.02886509
-0.06898804 -0.014187481 -0.07375031 0.05297571 -0.073424354 0.08253092 -0.059459943 0.038998008
-0.069467746 -0.041699566 -0.0109099625 0.058972858 0.054389328 0.061088156 -0.039077565 -0.03953238
0.031047417 -0.028627168 0.031415388 0.03080929 0.056656178 -0.007324936 0.030092737 -0.008659703
0.058141418 0.08174347 0.022288896 -0.043215908 -0.020500042 0.046049774 -0.059247606 0.04544457
0.05813122 -0.016362913 0.048219178 0.0381343 0.055964127 0.0048218747 0.04386795 -0.07376926
0.04116727 0.076535024 0.03631939 0.06920275 0.039092645 0.08930086 -0.07098518 -0.014910821
0.010275755 0.08523444 -0.028240655 -0.009532129 -0.036710523 -0.030805113 0.026907535 0.019863904
00000000: 2e35 ddbc 5751 253d b5f0 873c 36bb 373d
00000010: 4ad1 44bc 436e 3dbd 8ed6 d1bc 7b76 ec3c
00000020: 9a49 8dbd 9c72 68bc 670a 97bd 0ffd 583d
00000030: 825f 96bd f905 a93d 458c 73bd 60bc 1f3d
00000040: 1b45 8ebd 2acd 2abd b3bf 32bc 868d 713d
00000050: 58c7 5e3d 9337 7a3d cc0f 20bd b4ec 21bd
00000060: 2757 fe3c 8683 eabc 6cad 003d c463 fc3c
00000070: 4f10 683d 0406 f0bb 0b85 f63c 6de1 0dbc
00000080: b225 6e3d 1f69 a73d 3497 b63c 2a03 31bd
00000090: b4ef a7bc b09e 3c3d 9ead 72bd 1624 3a3d
000000a0: 011b 6e3d 840b 86bc 7981 453d b632 1c3d
000000b0: a43a 653d d100 9e3b e1ae 333d 5614 97bd
000000c0: 039f 283d 65be 9c3d a4c3 143d 2cba 8d3d
000000d0: 9c1f 203d 5fe3 b63d ae60 91bd 844c 74bc
000000e0: a45b 283c 658f ae3d f258 e7bc a62c 1cbc
000000f0: c65d 16bd 015b fcbc 316d dc3c a0b9 a23c

fc3.weight f4 [15, 64]
-0.07620473 -0.0038582233 -0.09484303 0.07430002 -0.0009444277 -0.0756105 0.110918805 -0.028365018
-0.027343664 -0.045776576 0.10457783 0.13188916 -0.07857077 -0.116769746 -0.11899694 -0.041011497
-0.0867686 -0.02162373 0.07926604 0.08440468 -0.025825584 -0.07411145 -0.051000692 0.059657045
-0.078383945 -0.03900839 -0.09586582 -0.13176182 -0.09936352 0.03723776 -0.07242124 0.07369228
-0.026525948 0.11813445 -0.005858898 0.04559208 0.068832144 0.031844143 -0.0060231537 0.08996981
0.023556668 -0.0984291 0.063437834 0.11090723 0.0962939 -0.00047790422 -0.07927034 0.09657935
0.1047957 0.06317194 0.09783645 0.00031851206 0.08135499 -0.014346112 0.033236787 0.012654138
0.065120235 0.017161136 -0.013551936 -0.06857846 0.07040885 -0.12462652 -0.062638715 -0.06595767
0.10077324 0.08841964 0.028511278 -0.0036109537 0.03494066 0.05693053 -0.1261372 0.05175522
0.032047465 -0.009614885 0.05384845 -0.00070217054 -0.07803258 0.058662146 -0.12584983 0.09758352
0.07740335 0.088090524 -0.068330824 0.046594482 0.095875494 -0.02905694 0.00062096305 -0.0721973
-0.110263 0.11554536 -0.071033634 -0.081918634 0.10174092 0.0923598 -0.056598812 0.11915384
-0.0963675 -0.112446256 -0.030084744 0.10819219 -0.08350354 0.01859405 0.10914008 -0.025430067
-0.029358614 -0.023318306 -0.020452246 0.115210935 0.009716492 -0.051619887 -0.11838486 -0.07238543
-0.042293154 0.08512156 0.08473738 -0.12603498 -0.015861414 -0.017112965 -0.00020080805 -0.050705414
-0.040032767 0.05473234 -0.0759431 0.0154399695 -0.0070414874 0.07645794 0.006779974 -0.1018223
0.025318094 -0.045850325 0.077069625 -0.10800797 0.07108899 0.012468124 0.10928982 -0.0144414045
0.11156865 -0.094871104 0.010392246 0.08575859 -0.10196591 0.05582328 0.09616398 0.0664807
-0.07724288 0.11118008 -0.041953992 0.092878856 0.09054189 -0.1311822 -0.057807755 0.07727652
0.05990919 -0.11244095 0.036905147 -0.02258803 0.075649366 0.115261495 -0.10532659 -0.08210576
0.11649541 -0.064494364 -0.07929446 -0.062633276 0.003797043 -0.07315491 0.09352887 0.1122303
-0.114467025 0.02521643 0.10053365 0.006050512 -0.048817743 -0.024944803 -0.10405726 0.11925063
-0.00023796363 0.086630836 0.06507843 -0.119596794 0.056932386 0.08145966 0.03249626 -0.10544692
0.06592791 -0.005898932 -0.031302407 0.08653193 -0.038217384 0.0008047727 -0.13618214 0.016078494
0.09260692 -0.06688991 -0.11563721 -0.07386331 -0.13144138 -0.0416603 0.025194546 -0.10030616
-0.07877631 -0.09884938 -0.019718135 -0.0608735 -0.1050946 -0.08720903 -0.12490057 0.075716585
-0.0043365946 0.075857565 -0.021729548 0.009546022 0.02260116 -0.07185728 -0.037347257 0.0715302
-0.09641517 -0.035510555 0.024488898 0.039397325 0.10330591 -0.027775731 -0.11000641 0.021677855
-0.050263073 -0.073275335 -0.005923927 -0.11035838 0.03409432 -0.051356003 -0.04321237 0.031187598
-0.08262544 0.029506698 0.094068326 -0.025162995 0.009443585 -0.010001926 0.012530503 0.13070084
0.034367103 -0.04762678 -0.108877406 0.09968236 -0.11449893 0.07858865 -0.039890513 4.7141497e-05
-0.06449468 0.070974715 0.05161947 0.10133208 0.08376715 -0.121256165 -0.016466692 0.05188239
00000000: 3a11 9cbd 3fda 7cbb 103d c2bd 9c2a 983d
00000010: 7893 77ba aed9 9abd 6629 e33d c15d e8bc
00000020: d2ff dfbc 3880 3bbd e72c d63d f40d 073e
00000030: b6e9 a0bd fa24 efbd abb4 f3bd acfb 27bd
00000040: bcb3 b1bd 4024 b1bc 3c56 a23d 5cdc ac3d
00000050: 2d90 d3bc bec7 97bd 1ae6 50bd f25a 743d
00000060: c387 a0bd 43c7 1fbd 4d55 c4bd 92ec 06be
00000070: 1a7f cbbd 9f86 183d 9651 94bd faeb 963d
00000080: f24c d9bc 79f0 f13d 00fc bfbb c3be 3a3d
00000090: def7 8c3d 016f 023d e05d c5bb 1742 b83d
000000a0: eaf9 c03c 3295 c9bd b2eb 813d 5423 e33d
000000b0: bc35 c53d 388f fab9 7d58 a2bd 65cb c53d
000000c0: 219f d63d 4a60 813d 7a5e c83d f7fd a639
000000d0: 729d a63d f40b 6bbc 4c23 083d 4d53 4f3c
000000e0: c25d 853d 8395 8c3c f008 5ebc dd72 8cbd
000000f0: 8432 903d 303c ffbd ba48 80bd d114 87bd
00000100: 3362 ce3d 5b15 b53d 7c90 e93c c0a5 6cbb
00000110: f01d 0f3d fd2f 693d 1c2a 01be 48fd 533d
00000120: 3444 033d c087 1dbc 3190 5c3d de11 38ba
00000130: 8ccf 9fbd b847 703d c7de 00be ded9 c73d
00000140: a685 9e3d ce68 b43d 08f1 8bbd dbd9 3e3d
00000150: 5f5a c43d d208 eebc 20c8 223a 2edc 93bd
00000160: 91d1 e1bd 0ca3 ec3d 157a 91bd f5c4 a7bd
00000170: 8b5d d03d 2327 bd3d 28d4 67bd ee06 f43d
00000180: 535c c5bd 394a e6bd 4874 f6bc de93 dd3d
00000190: e703 abbd 8d52 983c d684 df3d b752 d0bc
000001a0: 7a81 f0bc 0806 bfbc 788b a7bc b6f3 eb3d
000001b0: ec31 1f3c 606f 53bd c373 f2bd d03e 94bd
000001c0: 963b 2dbd 3654 ae3d cb8a ad3d 500f 01be
000001d0: ccef 81bc 7d30 8cbc 0090 52b9 7bb0 4fbd
000001e0: 66f9 23bd 052f 603d 0e88 9bbd edf7 7c3c
000001f0: 47bc e6bb fb95 9c3d 8b2a de3b 3688 d0bd
00000200: e467 cf3c 8dcd 3bbd aed6 9d3d 4833 ddbd
00000210: 1b97 913d 1a47 4c3c 57d3 df3d a49b 6cbc
00000220: 1b7e e43d c84b c2bd 3d44 2a3c 33a2 af3d
00000230: 81d3 d0bd f4a6 643d 9ff1 c43d 0927 883d
00000240: 8431 9ebd 62b2 e33d f3d7 2bbd 4537 be3d
00000250: 076e b93d a054 06be d3c7 6cbd 2743 9e3d
00000260: 5763 753d 7147 e6bd da29 173d 880a b9bc
00000270: 0eee 9a3d 380e ec3d 78b5 d7bd 1127 a8bd
00000280: 2595 ee3d 9f15 84bd 2265 a2bd e045 80bd
00000290: d0d7 783b 3ed2 95bd 108c bf3d 00d9 e53d
000002a0: b06d eabd b092 ce3c 96e4 cd3d 6043 c63b
000002b0: 1df5 47bd 0b59 ccbc f91b d5bd ad39 f43d
000002c0: e085 79b9 826b b13d d747 853d 2aef f4bd
000002d0: ef31 693d 52d4 a63d cc1a 053d 8ef4 d7bd
000002e0: 3605 873d d44b c1bb f436 00bd a737 b13d
000002f0: d589 1cbd 62f7 523a 5573 0bbe 0cb7 833c
00000300: b2a8 bd3d 94fd 88bd 34d3 ecbd a645 97bd
00000310: 9298 06be fea3 2abd cb64 ce3c 516d cdbd
00000320: 7955 a1bd 8b71 cabd ed87 a1bc 7e56 79bd
00000330: d63b d7bd a69a b2bd dfcb ffbd 4c11 9b3d
00000340: fe19 8ebb 365b 9b3d 2a02 b2bc eb66 1c3c
00000350: 1126 b93c e929 93bd 70f9 18bd 6d7e 923d
00000360: 5175 c5bd 8473 11bd f19c c83c 175f 213d
00000370: 0d92 d33d ee89 e3bc 0a4b e1bd c295 b13c
00000380: a7e0 4dbd 6111 96bd 801d c2bb 9303 e2bd
00000390: 7ca6 0b3d ac5a 52bd 74ff 30bd 227d ff3c
000003a0: 8737 a9bd 08b8 f13c e5a6 c03d a022 cebc
000003b0: 44b9 1a3c 1edf 23bc bd4c 4d3c 71d6 053e
000003c0: 85c4 0c3d 4c14 43bd 1efb debd 4426 cc3d
000003d0: 6a7e eabd 16f3 a03d 3c64 23bd ccb9 4538
000003e0: c915 84bd 315b 913d f06e 533d 3287 cf3d
000003f0: 1d8e ab3d 2755 f8bd 28e5 86bc a182 543d

fc3.bias f4 [15]
0.0563943 0.013313866 0.050882842 0.07433123 -0.052343152 0.10434396 0.09539974 0.12207045
0.082170844 0.004250638 0.033136994 0.064910896 0.113080025 -0.05745549 -0.02945739
00000000: b6fd 663d 6722 5a3c 876a 503d f93a 983d
00000010: c665 56bd 49b2 d53d f060 c33d 1200 fa3d
00000020: 3049 a83d f048 8b3b a8ba 073d 01f0 843d
00000030: 8096 e73d 7356 6bbd a050 f1bc

exp_avg f4 [128, 4]
-0.00064497406 -0.0046905424 -0.0052070864 -0.007647957 0.0 0.0 0.0 0.0
0.00072101015 -0.0032798355 -0.0032810497 0.0004121106 0.0 0.0 0.0 0.0
0.0048742886 0.0012701718 0.0008385952 -0.000586546 -0.01069396 -0.008728245 -0.007935273 -0.0006604657
-0.009632233 -0.008162606 -0.0077811982 -0.0047679464 -0.0032048714 -0.0035911214 -0.0033829426 -0.00057486724
-0.00034463665 0.0011259129 0.0011885879 0.0001403845 0.0 0.0 0.0 0.0
0.0 0.0 0.0 0.0 0.0034075018 -0.003283329 -0.0041282834 -0.0078016007
0.0 0.0 0.0 0.0 -0.007972123 -0.0013276926 -0.0010346319 -0.0044986196
-0.002483712 -0.0015141133 -0.0014508739 -0.0018284945 0.0016012646 0.0036138901 0.0034312538 -0.0006375881
-0.0057096533 -0.0035381566 -0.0033156432 -0.003121024 -0.00015292421 -0.0051548863 -0.00576682 -0.008410643
-0.004608333 -0.0053319135 -0.0049490244 0.00039870094 -0.00015357666 -0.0017809989 -0.002081819 -0.0040031252
4.4560453e-05 -7.9649135e-07 -4.8793704e-06 5.7475154e-05 -0.003924717 -0.00473688 -0.004716856 -0.003919129
-0.0019956764 0.0056959894 0.006122831 0.0038963428 0.0 0.0 0.0 0.0
-0.0055777417 0.002976219 0.0035524871 0.0021575387 -0.0005258304 -0.00085683225 -0.0011038035 -0.0040720403
0.00026524143 1.3228382e-05 -7.3076417e-06 9.43825e-06 0.0 0.0 0.0 0.0
-0.0004630942 0.0019356017 0.0019315445 -0.00016848725 0.0 0.0 0.0 0.0
0.00045608263 -0.0026264407 -0.0027651414 -0.0008631758 -0.009151091 -0.001963656 -0.0015540372 -0.003805137
-0.0015651559 -0.00016310428 -3.7441954e-05 7.843974e-06 0.00022339795 -0.0036021052 -0.003839612 -0.0031523288
0.0038013554 -0.0019572051 -0.002374054 -0.0018486865 0.0014461976 -0.001479264 -0.0015887391 0.0001242325
-0.0015983882 -0.005015692 -0.0056523527 -0.010095031 0.0 0.0 0.0 0.0
-0.00022576368 4.6335554e-05 -0.000116387695 -0.0022210926 0.0 0.0 0.0 0.0
-0.0015723549 -5.527485e-05 -1.9443356e-05 -0.0011137387 -0.008186837 -0.0065326947 -0.0069299843 -0.013354962
0.0 0.0 0.0 0.0 -0.0071040587 -0.008454353 -0.008369526 -0.006070816
-0.004394132 -0.002229001 -0.0019522972 -0.00050174276 -0.0030800088 -0.0046647564 -0.0045555998 -0.0018651435
-0.0091413595 -0.007871275 -0.007201008 -0.00030625827 6.532294e-05 0.00012260891 0.00012265069 6.5217544e-05
4.9333652e-05 -1.0095748e-06 -5.2253718e-06 6.2645224e-05 -5.9083795e-06 -1.2988295e-07 -6.521145e-08 1.0218769e-06
0.0023169639 0.0014418911 0.0014761622 0.003132215 -0.00077657076 5.087049e-05 -0.00017007445 -0.0034562557
0.002672888 0.00061922066 0.0001156698 -0.0037869452 0.0024720368 0.00047110574 6.581278e-05 -0.002457599
-0.0023569996 -0.0011533335 -0.0008835236 0.0012351093 -0.0037473612 -0.0031262303 -0.0028673334 -0.0003228747
-0.0050163707 -0.0002744632 0.0001308316 4.4544646e-05 1.5281606e-05 -0.0008754821 -0.0011359111 -0.0035429648
-0.0026578775 -0.004235766 -0.0041850284 -0.0018598835 -0.00094356935 -0.0025743204 -0.0028015147 -0.0040718447
0.0 0.0 0.0 0.0 0.0 0.0 0.0 0.0
0.0 0.0 0.0 0.0 -0.0009367161 0.004992795 0.0053314585 0.0036930237
00000000: 7a13 29ba 1fb3 99bb 35a0 aabb b79b fabb
00000010: 0000 0000 0000 0000 0000 0000 0000 0000
00000020: 2c02 3d3a 82f2 56bb e106 57bb 8c10 d839
00000030: 0000 0000 0000 0000 0000 0000 0000 0000
00000040: 7fb8 9f3b e57b a63a 2cd5 5b3a 70c2 19ba
00000050: b835 2fbc ea00 0fbc f302 02bc 1a23 2dba
00000060: 83d0 1dbc 73bc 05bc 6cf9 febb 6f3c 9cbb
00000070: d208 52bb 0559 6bbb 5cb4 5dbb b0b2 16ba
00000080: 59b0 b4b9 5e93 933a 64ca 9b3a 2d34 1339
00000090: 0000 0000 0000 0000 0000 0000 0000 0000
000000a0: 0000 0000 0000 0000 0000 0000 0000 0000
000000b0: 6550 5f3b 1f2d 57bb 8d46 87bb 92a4 ffbb
000000c0: 0000 0000 0000 0000 0000 0000 0000 0000
000000d0: 829d 02bc f905 aeba 7c9c 87ba 2869 93bb
000000e0: c6c5 22bb 3675 c6ba 402b beba 18aa efba
000000f0: 86e1 d13a 04d7 6c3b e3de 603b d023 27ba
00000100: 0b18 bbbb 6be0 67bb 434b 59bb 188a 4cbb
00000110: 485a 20b9 52ea a8bb 98f7 bcbb cbcc 09bc
00000120: 8001 97bb 55b7 aebb 6d2b a2bb bc08 d139
00000130: 6c09 21b9 6870 e9ba 216f 08bb a62c 83bb
00000140: 6ce6 3a38 78ce 55b5 79b9 a3b6 7a11 7138
00000150: ea9a 80bb d437 9bbb db8f 9abb 096c 80bb
00000160: e5c9 02bb 6ca5 ba3b 07a2 c83b c959 7f3b
00000170: 0000 0000 0000 0000 0000 0000 0000 0000
00000180: 7dc5 b6bb ab0c 433b d8d0 683b 7e65 0d3b
00000190: e1d7 09ba 0a9d 60ba 80ad 90ba c06e 85bb
000001a0: 1a10 8b39 78ef 5d37 2a34 f5b6 fa58 1e37
000001b0: 0000 0000 0000 0000 0000 0000 0000 0000
000001c0: 74cb f2b9 04b4 fd3a e12b fd3a f4ab 30b9
000001d0: 0000 0000 0000 0000 0000 0000 0000 0000
000001e0: 601e ef39 5d20 2cbb 6037 35bb bf46 62ba
000001f0: 75ee 15bc aeb0 00bb d6b0 cbba 9b5f 79bb
00000200: eb25 cdba f906 2bb9 fe0a 1db8 9d99 0337
00000210: ee3f 6a39 4c11 6cbb 00a2 7bbb 4d97 4ebb
00000220: 2920 793b 7444 00bb 0496 1bbb a04f f2ba
00000230: 578e bd3a dde3 c1ba 3d3d d0ba 6844 0239
00000240: 0281 d1ba ad5a a4bb 5f37 b9bb a165 25bc
00000250: 0000 0000 0000 0000 0000 0000 0000 0000
00000260: faba 6cb9 6c58 4238 2b15 f4b8 c08f 11bb
00000270: 0000 0000 0000 0000 0000 0000 0000 0000
00000280: 7a17 ceba ebd6 67b8 4a1a a3b7 dffa 91ba
00000290: 1522 06bc 3710 d6bb ec14 e3bb c5ce 5abc
000002a0: 0000 0000 0000 0000 0000 0000 0000 0000
000002b0: 2ac9 e8bb 2084 0abc 5620 09bc b2ed c6bb
000002c0: a7fc 8fbb 6e14 12bb 39e4 ffba 6387 03ba
000002d0: f9d9 49bb d0da 98bb 2447 95bb d577 f4ba
000002e0: a4c5 15bc 85f6 00bc 6ff6 ebbb 4a91 a0b9
000002f0: fdfd 8838 9490 0039 cb9b 0039 67c5 8838
00000300: 9beb 4e38 ba80 87b5 9a55 afb6 6660 8338
00000310: 9840 c6b6 f475 0bb4 600a 8cb3 6c27 8935
00000320: 34d8 173b d6fd bc3a c97b c13a d945 4d3b
00000330: c892 4bba c65d 5538 0356 32b9 5982 62bb
00000340: 9f2b 2f3b 3253 223a c093 f238 662e 78bb
00000350: e501 223b befe f639 f804 8a38 ab0f 21bb
00000360: e477 1abb 732b 97ba 449c 67ba 64e3 a13a
00000370: 4a96 75bb 71e1 4cbb dfe9 3bbb 8247 a9b9
00000380: 5e60 a4bb d4e5 8fb9 d72f 0939 73d5 3a38
00000390: 0031 8037 9c80 65ba dae2 94ba 1631 68bb
000003a0: c92f 2ebb 2ecc 8abb 9022 89bb 56c7 f3ba
000003b0: de59 77ba eeb5 28bb 9e99 37bb 1c6d 85bb
000003c0: 0000 0000 0000 0000 0000 0000 0000 0000
000003d0: 0000 0000 0000 0000 0000 0000 0000 0000
000003e0: 0000 0000 0000 0000 0000 0000 0000 0000
000003f0: f48d 75ba 9a9a a33b 84b3 ae3b a806 723b

exp_avg_sq f4 [128, 4]
3.780171e-08 2.2279467e-06 2.7517403e-06 5.3170365e-06 0.0 0.0 0.0 0.0
2.014535e-06 3.096363e-06 3.1847549e-06 1.005297e-06 0.0 0.0 0.0 0.0
4.0578834e-06 3.2316439e-06 3.3453475e-06 3.8801913e-06 1.6194677e-05 1.2183503e-05 1.0879788e-05 3.9751662e-06
5.0090953e-06 3.5165951e-06 3.2049952e-06 1.2888038e-06 3.735117e-06 3.5868622e-06 3.3004646e-06 1.2303369e-06
1.0008695e-06 4.1775536e-07 3.827346e-07 3.11112e-07 0.0 0.0 0.0 0.0
0.0 0.0 0.0 0.0 6.651326e-06 2.339369e-06 2.5545853e-06 8.193096e-06
0.0 0.0 0.0 0.0 5.0108156e-06 1.8291612e-06 1.8873585e-06 2.2116799e-06
3.1798659e-06 1.6470327e-06 1.5011173e-06 1.9672161e-06 1.74443e-06 2.2141207e-06 2.0498314e-06 7.493199e-07
5.965065e-06 3.1990312e-06 3.079623e-06 2.8912777e-06 6.9561934e-06 3.6634258e-06 3.6775473e-06 6.379024e-06
3.090046e-06 3.9347933e-06 3.5306632e-06 2.3617401e-06 1.144603e-06 9.684086e-07 1.0128275e-06 1.7404805e-06
2.4958544e-10 2.534788e-12 2.8313645e-12 2.5754673e-10 3.9204406e-06 4.409809e-06 4.438996e-06 3.9373413e-06
4.3427995e-06 1.3807376e-05 1.4330161e-05 7.0043698e-06 0.0 0.0 0.0 0.0
6.6400557e-06 4.156225e-06 4.3689065e-06 1.7944632e-06 3.121738e-06 2.7200565e-06 2.5321876e-06 2.4750327e-06
4.4535073e-09 1.1255992e-11 2.9365152e-12 1.6130812e-11 0.0 0.0 0.0 0.0
3.6107597e-08 9.031619e-07 9.591555e-07 3.8108792e-07 0.0 0.0 0.0 0.0
2.2702793e-06 3.423787e-06 3.5745188e-06 2.8101651e-06 8.7244e-06 2.900643e-06 2.8118088e-06 2.619492e-06
2.1030355e-06 5.927036e-07 4.4489562e-07 8.8896374e-10 1.4217034e-08 1.2704528e-06 1.4368384e-06 1.1654373e-06
3.3086253e-06 1.6890001e-06 1.860898e-06 1.925504e-06 1.9544311e-06 2.5948962e-06 2.7029587e-06 2.5870966e-06
4.0048292e-07 3.4425018e-06 4.28554e-06 1.2385555e-05 0.0 0.0 0.0 0.0
3.2546385e-08 1.5445391e-10 6.8179745e-10 2.5862178e-07 0.0 0.0 0.0 0.0
8.818197e-08 1.4867177e-10 1.3507226e-10 8.2905984e-08 7.621389e-06 5.5673963e-06 6.2339586e-06 2.0875184e-05
0.0 0.0 0.0 0.0 5.841834e-06 9.586415e-06 9.551269e-06 5.690337e-06
4.3947625e-06 3.1456766e-06 2.9197856e-06 1.4820233e-06 6.127938e-07 1.8204951e-06 1.7961709e-06 1.1929335e-06
1.6518206e-05 1.2071624e-05 1.0604914e-05 2.1436565e-06 1.9006654e-07 6.6336713e-07 6.6343705e-07 1.9000036e-07
2.9755962e-10 3.1308203e-12 3.5309037e-12 2.968254e-10 6.82899e-08 2.0061589e-10 4.5976112e-11 6.3522447e-12
9.5246077e-07 1.4113743e-06 1.4372324e-06 1.4298932e-06 1.0685511e-07 4.9636856e-10 2.530901e-09 1.0178832e-06
8.7507533e-07 8.032634e-07 8.717529e-07 2.0839586e-06 2.073525e-06 1.9200118e-06 1.8346742e-06 1.6113539e-06
5.9486894e-07 4.0916973e-07 4.177684e-07 7.875718e-07 2.0758546e-06 1.5412867e-06 1.3159994e-06 3.935183e-08
2.8973834e-06 8.503848e-09 1.949819e-09 2.7307678e-10 2.7437547e-06 2.4847484e-06 2.4496908e-06 2.6815346e-06
3.1196637e-06 3.0237159e-06 2.997729e-06 1.8971584e-06 1.3473083e-06 1.3662717e-06 1.4873066e-06 2.4502915e-06
0.0 0.0 0.0 0.0 0.0 0.0 0.0 0.0
0.0 0.0 0.0 0.0 4.4830367e-06 5.2726573e-06 5.7989355e-06 4.530142e-06
00000000: 6b5b 2233 d583 1536 8aaa 3836 ff68 b236
00000010: 0000 0000 0000 0000 0000 0000 0000 0000
00000020: 7331 0736 1ccb 4f36 acb9 5536 beed 8635
00000030: 0000 0000 0000 0000 0000 0000 0000 0000
00000040: f428 8836 38df 5836 a280 6036 9732 8236
00000050: ced9 8737 bf67 4c37 5588 3637 6b62 8536
00000060: cd13 a836 a5fe 6b36 6615 5736 f6fa ac35
00000070: d2a8 7a36 d3b5 7036 8d7d 5d36 0e22 a535
00000080: 9d55 8635 dc47 e034 a57a cd34 e806 a734
00000090: 0000 0000 0000 0000 0000 0000 0000 0000
000000a0: 0000 0000 0000 0000 0000 0000 0000 0000
000000b0: 752e df36 0efe 1c36 716f 2b36 1475 0937
000000c0: 0000 0000 0000 0000 0000 0000 0000 0000
000000d0: 9422 a836 8081 f535 2551 fd35 5f6c 1436
000000e0: ae65 5536 9d0f dd35 ff79 c935 8404 0436
000000f0: 2922 ea35 4e96 1436 d68f 0936 df24 4935
00000100: 8527 c836 f0ae 5636 85ab 4e36 c607 4236
00000110: 3f69 e936 2dd9 7536 c8cb 7636 660b d636
00000120: 965e 4f36 9e07 8436 55f0 6c36 637e 1e36
00000130: 42a0 9935 44fa 8135 7df0 8735 749a e935
00000140: 0736 892f ae5e 322c 543d 472c 7b96 8d2f
00000150: 548c 8336 f9f7 9336 aff2 9436 811d 8436
00000160: 5db8 9136 3aa6 6737 936b 7037 1407 eb36
00000170: 0000 0000 0000 0000 0000 0000 0000 0000
00000180: a5cd de36 b375 8b36 9f98 9236 49d9 f035
00000190: 0d7f 5136 378a 3636 a7ee 2936 bd18 2636
000001a0: 7705 9931 7b04 462d 8ea3 4e2c 5ce3 8d2d
000001b0: 0000 0000 0000 0000 0000 0000 0000 0000
000001c0: b914 1b33 d070 7235 55bc 8035 5398 cc34
000001d0: 0000 0000 0000 0000 0000 0000 0000 0000
000001e0: 1a5b 1836 36c4 6536 c4e1 6f36 4596 3c36
000001f0: 035f 1237 aba8 4236 82b2 3c36 88ca 2f36
00000200: e021 0d36 481a 1f35 fdd9 ee34 435b 7430
00000210: 2d3f 7432 6d84 aa35 64d9 c035 1f6c 9c35
00000220: c009 5e36 9ab1 e235 f8c3 f935 e837 0136
00000230: df28 0336 fa23 2e36 7a64 3536 fb9d 2d36
00000240: f401 d734 bb05 6736 82cc 8f36 8ecb 4f37
00000250: 0000 0000 0000 0000 0000 0000 0000 0000
00000260: 21c9 0b33 e9d2 292f 3b69 3b30 b5d8 8a34
00000270: 0000 0000 0000 0000 0000 0000 0000 0000
00000280: 8d5e bd33 6277 232f 7683 142f 0c0a b233
00000290: 3cbb ff36 92cf ba36 4c2d d136 1e1d af37
000002a0: 0000 0000 0000 0000 0000 0000 0000 0000
000002b0: f904 c436 57d5 2037 633e 2037 9fef be36
000002c0: b976 9336 501a 5336 89f1 4336 efe9 c635
000002d0: df7e 2435 bc57 f435 f613 f135 e21c a035
000002e0: 9490 8a37 3b87 4a37 c2eb 3137 bddb 0f36
000002f0: 1815 4c34 3e12 3235 0c17 3235 e702 4c34
00000300: cb95 a32f d84f 5c2c 1b77 782c 762e a32f
00000310: c5a6 9233 5a94 5c2f 8034 4a2e ef7f df2c
00000320: 9bac 7f35 746e bd35 eee6 c035 c2ea bf35
00000330: 3878 e533 d570 0830 15ec 2d31 339e 8835
00000340: b8e6 6a35 d79f 5735 6702 6a35 23da 0b36
00000350: e326 0b36 8dd9 0036 ed3e f635 b345 d835
00000360: 15af 1f35 dcab db34 a749 e034 8669 5335
00000370: e94e 0b36 35de ce35 65a1 b035 cb03 2933
00000380: ab70 4236 5218 1232 94fd 0531 2420 962f
00000390: 5921 3836 a7bf 2636 5e65 2436 6af4 3336
000003a0: 6a5b 5136 0beb 4a36 982c 4936 dea1 fe35
000003b0: 29d5 b435 bd60 b735 779f c735 b06f 2436
000003c0: 0000 0000 0000 0000 0000 0000 0000 0000
000003d0: 0000 0000 0000 0000 0000 0000 0000 0000
000003e0: 0000 0000 0000 0000 0000 0000 0000 0000
000003f0: fe6c 9636 c8eb b036 7a94 c236 a001 9836

exp_avg f4 [128]
-0.005609366 0.0 0.00188022 0.0 6.764138e-05 -0.004709425 -0.0048138234 0.0004908487
-0.0006139999 0.0 0.0 -0.005170908 0.0 -0.006489521 -0.0036587724 0.0015701372
-0.0019931376 0.0022216616 0.0017107471 0.00028843735 -0.003504597 -0.004206018 -0.0066493927 0.0
-0.0076837596 0.0006820881 -0.0007255829 0.0 -0.0050986246 0.0 0.0008052067 -0.009132723
-0.0015828761 -0.002748176 -0.0021710217 -0.0016421176 -0.009611949 0.0 -0.0023723445 0.0
-0.0016693315 -0.0090276245 0.0 -0.0056647533 -0.0029280859 0.0014286515 -6.685726e-05 6.211369e-05
-0.0038795208 -6.0039383e-06 0.004276511 -0.003371645 -0.0020796356 -0.00022357193 -0.0024697538 -0.0018062294
-0.0054370677 -0.003271252 0.00014858146 -5.621706e-05 0.0 0.0 0.0 -0.0031926483
0.0 -0.0014940104 -0.0013692423 0.0 -0.005891818 0.0 0.0014020752 -0.0028828192
0.00023640423 0.0 -0.00028563314 -0.0018285078 0.0 3.1967968e-05 -0.0041795215 3.802609e-05
-0.0030034513 -0.00028470077 0.0 -0.0032559424 0.0 -0.0066915266 -0.0037925187 0.0007268703
-0.0054002623 0.0038045892 0.0 -0.008555411 -0.0044382922 0.00063117116 -0.0027643768 0.002256459
0.00088934705 -0.0040612994 -0.0049163247 -0.00219834 -0.0052617737 0.0 0.0 0.0
-0.0023405054 -0.0039141956 0.003092271 -0.001970076 -0.0054002577 -0.0025133728 -0.0037992906 -0.003930416
-0.0056928974 0.0031919722 0.0 -0.0014720305 8.574655e-05 -0.0018116911 -0.0012236153 -0.0038802563
-0.0063845264 -0.00283326 0.00026543962 -0.0032974915 -0.005215214 -0.0015382832 0.0040363884 -0.0008265318
00000000: c6ce b7bb 0000 0000 b771 f63a 0000 0000
00000010: b0da 8d38 8551 9abb 47bd 9dbb 4cac 003a
00000020: d6f4 20ba 0000 0000 0000 0000 b870 a9bb
00000030: 0000 0000 0ca6 d4bb 04c8 6fbb 10cd cd3a
00000040: 4d9f 02bb 4c99 113b 263b e03a 6839 9739
00000050: 62ad 65bb a3d2 89bb 26e3 d9bb 0000 0000
00000060: 0cc8 fbbb 28ce 323a 0b35 3eba 0000 0000
00000070: 5d12 a7bb 0000 0000 8214 533a 6ba1 15bc
00000080: 8278 cfba be1a 34bb b347 0ebb 533c d7ba
00000090: 707b 1dbc 0000 0000 5679 1bbb 0000 0000
000000a0: 78cd daba 9ae8 13bc 0000 0000 659f b9bb
000000b0: 21e5 3fbb 9741 bb3a b835 8cb8 0943 8238
000000c0: 8f3f 7ebb 7075 c9b6 f921 8c3b d1f6 5cbb
000000d0: 7f4a 08bb a26e 6ab9 98db 21bb 00bf ecba
000000e0: 6e29 b2bb 8062 56bb 88cc 1b39 9cca 6bb8
000000f0: 0000 0000 0000 0000 0000 0000 c03b 51bb
00000100: 0000 0000 acd2 c3ba 2678 b3ba 0000 0000
00000110: 2710 c1bb 0000 0000 d6c5 b73a aeed 3cbb
00000120: 47e3 7739 0000 0000 08c1 95b9 8aaa efba
00000130: 0000 0000 5815 0638 5ef4 88bb 347e 1f38
00000140: 8dd5 44bb e443 95b9 0000 0000 a661 55bb
00000150: 0000 0000 9844 dbbb e88b 78bb 718b 3e3a
00000160: aff4 b0bb 6a56 793b 0000 0000 ff2b 0cbc
00000170: 186f 91bb 2e75 253a 8c2a 35bb 1ae1 133b
00000180: 1223 693a a614 85bb 1f19 a1bb 0612 10bb
00000190: f56a acbb 0000 0000 0000 0000 0000 0000
000001a0: 2a63 19bb a742 80bb b3a7 4a3b 641c 01bb
000001b0: a5f4 b0bb 66b7 24bb 85fd 78bb b8ca 80bb
000001c0: 7c8b babb 6830 513b 0000 0000 26f1 c0ba
000001d0: d4d2 b338 4476 edba b761 a0ba e64b 7ebb
000001e0: 4a35 d1bb 37ae 39bb b42a 8b39 ba1a 58bb
000001f0: 63e4 aabb 38a0 c9ba ae43 843b 9cab 58ba

exp_avg_sq f4 [128]
2.2268766e-06 0.0 9.696994e-07 0.0 2.4024569e-06 4.8636266e-06 1.2082517e-06 7.859612e-07
3.9310567e-07 0.0 0.0 2.885783e-06 0.0 3.9881093e-06 1.6645301e-06 1.2268514e-06
2.662998e-06 4.3346067e-06 1.2648993e-06 6.9666766e-07 1.1204352e-06 4.7473013e-06 2.8059712e-06 0.0
6.0336088e-06 1.8458733e-06 7.901103e-08 0.0 2.334281e-06 0.0 1.4162944e-06 8.253229e-06
6.592835e-07 8.834104e-07 1.5090227e-06 1.3014778e-06 8.823008e-06 0.0 2.9439303e-07 0.0
9.937521e-08 8.594482e-06 0.0 5.7588304e-06 1.5148664e-06 1.148081e-06 2.08038e-06 1.7024846e-07
1.3207779e-06 7.730983e-08 2.5298298e-06 7.473907e-07 7.7483656e-07 5.315525e-07 5.6345266e-07 5.619121e-07
2.787573e-06 3.3313538e-06 1.1351242e-06 6.832113e-07 0.0 0.0 0.0 3.987782e-06
0.0 5.9409166e-07 1.6194828e-06 0.0 3.823974e-06 0.0 8.7031947e-07 8.09171e-07
7.9695815e-07 0.0 5.0155086e-07 1.1727112e-06 0.0 2.065055e-07 3.5319167e-06 1.9305382e-07
1.2492742e-06 6.0073637e-07 0.0 3.723161e-06 0.0 4.7405492e-06 1.4671825e-06 1.0702977e-06
6.026318e-06 1.9893298e-06 0.0 8.804433e-06 3.0429287e-06 9.930034e-07 2.2540478e-06 2.181066e-06
1.2159484e-06 1.7752587e-06 2.5386357e-06 1.0839262e-06 2.7099782e-06 0.0 0.0 0.0
7.628637e-07 2.6966502e-06 2.1166436e-06 8.901855e-07 2.034802e-06 2.088345e-06 1.444058e-06 1.4648452e-06
4.2174447e-06 2.2262668e-06 0.0 5.9043606e-07 5.446622e-07 2.9450743e-07 5.988154e-07 2.23822e-06
4.3082937e-06 4.7307432e-07 1.0538862e-06 1.4279387e-06 4.3928244e-06 1.3017619e-06 4.495491e-06 2.1545006e-06
00000000: 7371 1536 0000 0000 9e26 8235 0000 0000
00000010: e539 2136 3c32 a336 362b a235 d8fa 5235
00000020: 080c d334 0000 0000 0000 0000 60a9 4136
00000030: 0000 0000 99d1 8536 d268 df35 4baa a435
00000040: f5b5 3236 fd71 9136 9cc5 a935 a302 3b35
00000050: dc61 9635 024b 9f36 384e 3c36 0000 0000
00000060: 4e74 ca36 b9bf f735 c6ac a933 0000 0000
00000070: a4a6 1c36 0000 0000 8117 be35 5977 0a37
00000080: 9ef9 3035 8023 6d35 a089 ca35 70ae ae35
00000090: 8806 1437 0000 0000 120d 9e34 0000 0000
000000a0: 1968 d533 0531 1037 0000 0000 fa3b c136
000000b0: 6a52 cb35 c317 9a35 a89c 0b36 8acd 3634
000000c0: 9545 b135 8705 a633 25c6 2936 4ca0 4835
000000d0: 5dfe 4f35 02b0 0e35 2c40 1735 4ed6 1635
000000e0: 2412 3b36 3990 5f36 925a 9835 ec65 3735
000000f0: 0000 0000 0000 0000 0000 0000 c9ce 8536
00000100: 0000 0000 ab79 1f35 015d d935 0000 0000
00000110: b04f 8036 0000 0000 e69f 6935 cf35 5935
00000120: 8cee 5535 0000 0000 50a2 0635 0d66 9d35
00000130: 0000 0000 cdbb 5d34 de05 6d36 3b4a 4f34
00000140: bcac a735 4a42 2135 0000 0000 6bdb 7936
00000150: 0000 0000 0211 9f36 02ec c435 26a7 8f35
00000160: ad35 ca36 6d80 0536 0000 0000 c0b6 1337
00000170: 1e35 4c36 5647 8535 3f44 1736 6e5e 1236
00000180: ab33 a335 6d45 ee35 6e5d 2a36 6c7b 9135
00000190: 12dd 3536 0000 0000 0000 0000 0000 0000
000001a0: 98c7 4c35 19f8 3436 a90b 0e36 15f5 6e35
000001b0: a28d 0836 7e25 0c36 74d1 c135 b39b c435
000001c0: 9383 8d36 f966 1536 0000 0000 757e 1e35
000001d0: e734 1235 cb1c 9e34 48be 2035 5434 1636
000001e0: f68f 9036 d7fa fd34 4173 8d35 9aa7 bf35
000001f0: 1366 9336 33b8 ae35 f9d7 9636 0a96 1036

exp_avg f4 [64, 128]
-0.003551738 0.0 0.0016017471 0.0 -0.010977517 0.004076616 -0.0004681664 -0.0038956632
0.0012339555 0.0 0.0 -0.0027273428 0.0 -0.011312055 0.00070960924 -0.002420769
-0.009047191 -0.0150003135 -0.0036906532 -0.00863446 0.0005418307 -0.0021702037 0.0016680405 0.0
0.0027085345 -0.007873236 0.0007844515 0.0 0.0015972252 0.0 -0.005027785 -0.001748513
0.0009994145 -0.0018125087 -0.0023402101 -0.012527406 -0.0023575341 0.0 -0.001890893 0.0
0.00018938788 -0.0035268676 0.0 -0.0010517248 0.001060359 -0.0018929334 0.0021480413 1.7201818e-06
0.00079127366 0.00036208727 0.0012877508 0.0026407703 -0.003556633 -0.0054957024 0.0036527652 0.0010800618
0.0008540854 -0.0077556535 0.00034942 -0.0032115402 0.0 0.0 0.0 -0.0041621085
0.0 -0.003581723 -0.00080947886 0.0 -0.0008515473 0.0 -0.0009805919 -0.0014904932
0.0013000746 0.0 -3.8241295e-05 -0.0041845636 0.0 -0.00010128082 0.001011678 0.0024391757
-0.0026147957 -0.006457913 0.0 -0.0044759507 0.0 0.0030471897 0.0011716431 1.280952e-05
-0.0032248723 -0.002742792 0.0 0.003566471 0.0003540685 -0.0044538896 -0.009425441 -0.0007763762
-0.0041183843 0.0015835754 -0.00755083 0.0011720015 -0.0036975348 0.0 0.0 0.0
-0.0007745691 -0.0061654937 -0.0035431143 9.700083e-05 0.0004214648 -0.006374405 -0.00016648132 0.0016203739
0.0068258755 -0.0070144213 0.0 -0.0014494604 -0.00795288 -0.0012459182 0.002468755 0.0011980454
0.0029282842 -0.002832771 -0.004381573 -0.0069951396 0.0049074558 0.0014617951 -0.01319441 -0.009399269
-0.0049011125 0.0 -0.0028181623 0.0 -0.0063845497 -0.0022982145 -0.002058629 0.006147441
-0.0033067989 0.0 0.0 0.0033183126 0.0 -0.013567216 -0.0037829354 -0.004221437
-0.008089331 -0.00024730014 -0.0009950458 -0.0029271292 -4.224378e-05 -0.0026506046 -0.010039457 0.0
-0.009703748 -0.0019032261 -5.3217915e-05 0.0 -0.0010179618 0.0 -0.0038931721 -0.0035700952
0.0005271133 -0.0015174787 0.007940128 -0.0002142411 -0.004795541 0.0 -0.0030402332 0.0
-0.00013157187 -0.0055269278 0.0 0.007796958 -0.0047583207 0.0022834248 0.0007963787 1.9770291e-06
-6.168624e-05 0.00049974927 0.003263817 -0.0011098653 3.0182695e-05 0.008576656 -0.0020739965 -0.0039642374
0.00050827937 0.0022402718 -0.006872133 -0.0075828442 0.0 0.0 0.0 -0.010406727
0.0 -0.003002778 -0.005496201 0.0 -0.0046246294 0.0 -0.0053173276 -0.0037267124
0.0031353938 0.0 -0.0028407949 -0.006305153 0.0 -0.0012956278 0.0037522789 -0.00010327323
0.0010018216 -0.0027426432 0.0 -0.0040981923 0.0 -0.007022391 -0.0008524233 -0.00088103453
0.0076009007 -0.0021469009 0.0 -0.0012123402 -0.009874185 -0.0037610675 -0.0020999354 -7.609166e-05
-0.004986576 -0.00012345957 0.0058188615 -0.01117013 -0.0103541985 0.0 0.0 0.0
0.0004647929 -0.0064661177 -0.0074747168 -0.00020442554 -0.0047938647 -0.008958918 -0.0018385462 -0.0010087355
-0.0056862505 -0.002112464 0.0 0.0004924872 0.0011361924 0.0006878602 -0.0008571597 -0.0037355518
-0.00018666605 -0.0022909795 0.0070732865 0.00022113966 -0.005885319 -0.0021867352 -0.005231455 0.0040354286
00000000: 47c4 68bb 0000 0000 b7f1 d13a 0000 0000
00000010: 0bdb 33bc 2295 853b 3b74 f5b9 624e 7fbb
00000020: adbc a13a 0000 0000 0000 0000 38bd 32bb
00000030: 0000 0000 3356 39bc 1205 3a3a c4a5 1ebb
00000040: ab3a 14bc e0c3 75bc e3de 71bb 8d77 0dbc
00000050: a509 0e3a fa39 0ebb 27a2 da3a 0000 0000
00000060: ab81 313b bffe 00bc a6a3 4d3a 0000 0000
00000070: fc59 d13a 0000 0000 1ec0 a4bb 5c2e e5ba
00000080: c9fe 823a b391 edba 365e 19bb c03f 4dbc
00000090: dc80 1abb 0000 0000 d7d7 f7ba 0000 0000
000000a0: 6c96 4639 0523 67bb 0000 0000 07da 89ba
000000b0: befb 8a3a 4e1c f8ba 27c6 0c3b ffe0 e635
000000c0: 7a6d 4f3a 88d6 bd39 bfc9 a83a c610 2d3b
000000d0: 6616 69bb 4b15 b4bb 3b63 6f3b dc90 8d3a
000000e0: b3e4 5f3a 2323 febb 5c32 b739 b478 52bb
000000f0: 0000 0000 0000 0000 0000 0000 4c62 88bb
00000100: 0000 0000 57bb 6abb 3533 54ba 0000 0000
00000110: 5f3a 5fba 0000 0000 3487 80ba a75c c3ba
00000120: 4467 aa3a 0000 0000 4765 20b8 aa1e 89bb
00000130: 0000 0000 ba66 d4b8 489a 843a 94da 1f3b
00000140: fe5c 2bbb e79c d3bb 0000 0000 ffaa 92bb
00000150: 0000 0000 5cb3 473b d291 993a 78e8 5637
00000160: 6158 53bb 6ac0 33bb 0000 0000 74bb 693b
00000170: 45a2 b939 eff1 91bb 2a6d 1abc ba85 4bba
00000180: 83f3 86bb f98f cf3a f46c f7bb d89d 993a
00000190: 5752 72bb 0000 0000 0000 0000 0000 0000
000001a0: 740c 4bba e907 cabb 9833 68bb ed6c cb38
000001b0: 0cf8 dc39 63e0 d0bb 7d91 2eb9 ba62 d43a
000001c0: 98ab df3b 3bd9 e5bb 0000 0000 d2fb bdba
000001d0: cc4c 02bc 144e a3ba d6ca 213b bc07 9d3a
000001e0: 75e8 3f3b 03a6 39bb 4c93 8fbb 7c37 e5bb
000001f0: b9ce a03b b499 bf3a 5e2d 58bc 64ff 19bc
00000200: 8399 a0bb 0000 0000 ebb0 38bb 0000 0000
00000210: 7c35 d1bb a49d 16bb 10ea 06bb 7970 c93b
00000220: e1b6 58bb 0000 0000 0000 0000 0c78 593b
00000230: 0000 0000 0749 5ebc 20eb 77bb fb53 8abb
00000240: 1d89 04bc 10a8 81b9 326c 82ba 14d5 3fbb
00000250: ea2e 31b8 c4b5 2dbb 897c 24bc 0000 0000
00000260: 78fc 1ebc ac75 f9ba 4d36 5fb8 0000 0000
00000270: 216d 85ba 0000 0000 9724 7fbb 42f8 69bb
00000280: fa2d 0a3a 23e6 c6ba 5017 023c e8a5 60b9
00000290: ea23 9dbb 0000 0000 a63e 47bb 0000 0000
000002a0: 8ef6 09b9 3b1b b5bb 0000 0000 a07d ff3b
000002b0: b0eb 9bbb 83a5 153b 12c4 503a 1aad 0436
000002c0: 8c5d 81b8 9b01 033a c3e5 553b e678 91ba
000002d0: d830 fd37 1a85 0c3c e3eb 07bb 6fe6 81bb
000002e0: 0d3e 053a 86d1 123b a12f e1bb 8279 f8bb
000002f0: 0000 0000 0000 0000 0000 0000 fa80 2abc
00000300: 0000 0000 41ca 44bb 7a19 b4bb 0000 0000
00000310: 348a 97bb 0000 0000 fa3c aebb dc3b 74bb
00000320: 2e7b 4d3b 0000 0000 a12c 3abb 759b cebb
00000330: 0000 0000 0ed2 a9ba cbe8 753b 6594 d8b8
00000340: 8e4f 833a ebbd 33bb 0000 0000 214a 86bb
00000350: 0000 0000 161c e6bb 2975 5fba 3af5 66ba
00000360: fa10 f93b 05b3 0cbb 0000 0000 63e7 9eba
00000370: 55c7 21bc 3e7c 76bb 129f 09bb 6693 9fb8
00000380: 6e66 a3bb ed74 01b9 26ac be3b ec02 37bc
00000390: a8a4 29bc 0000 0000 0000 0000 0000 0000
000003a0: 72af f339 bae1 d3bb 78ee f4bb 105b 56b9
000003b0: da15 9dbb 6dc8 12bc 60fb f0ba 8c37 84ba
000003c0: ba53 babb 4471 0abb 0000 0000 421a 013a
000003d0: 4aec 943a 8451 343a 04b3 60ba 29d0 74bb
000003e0: c9bb 43b9 4224 16bb 07c7 e73b bae1 6739
000003f0: a2d9 c0bb 544f 0fbb a06c abbb a13b 843b
