models/model_20250801_122804_lr0.001.pth (torch, 126838 bytes, 18 tensors)

fc1.weight f4 [128, 4]
0	0x3edc24ad	0.4299673
1	0xbe8d2765	-0.27569118
2	0xbeae8636	-0.3408677
3	0xbe4b9775	-0.19881995
4	0xbe91724c	-0.28407514
5	0x3e8a2d60	0.26987743
6	0x3e7fe198	0.24988401
7	0xbefeff72	-0.49804264
8	0xbd9de35a	-0.077093795
9	0xbde5043a	-0.11182447
10	0xbd0b85a4	-0.034062997
11	0xbdb08614	-0.086193234
12	0xbf17a31c	-0.5923326
13	0xbe8998de	-0.2687444
14	0x3eb12c33	0.34604034
15	0x3e7aa0b3	0.24475364
16	0x3e2bbc94	0.16771156
17	0x3de55b61	0.1119907
18	0xbea8561c	-0.32878196
19	0x3bc0e1e4	0.0058863033
20	0x3e7bf3a5	0.24604662
21	0xbc92c68d	-0.017916942
22	0xbe985932	-0.2975555
23	0x3defcfb6	0.117095396
24	0xbed6a2c5	-0.41921058
25	0x3ccda7b9	0.02510439
26	0xbd11f289	-0.03563169
27	0x3d969927	0.0735343
28	0x3e5fc5d0	0.21852803
29	0xbe1e334d	-0.15449257
30	0xbe5c7419	-0.21528663
31	0xbdc7b9e0	-0.0975225
32	0x3ce3d050	0.027809292
33	0x3eb04b59	0.34432486
34	0xbf34dd0a	-0.7064978
35	0x3c47423c	0.012161788
36	0xbdc28e1b	-0.09499761
37	0x3d9f8ea2	0.07790877
38	0x3eb917e9	0.36151055
39	0x3ea73ae2	0.32662112
40	0x3ec0b5d0	0.37638712
41	0xbe539582	-0.20662501
42	0x3db87fd1	0.09008754
43	0xbf0ace05	-0.5422061
44	0x3dbd84e0	0.092538595
45	0x3ed87f36	0.42284554
46	0x3e97145d	0.29507723
47	0x3ef375e9	0.47550896
48	0xbf26b8cd	-0.65125734
49	0xbe986371	-0.29763368
50	0xbebe3d83	-0.37156305
51	0xbe5f03cc	-0.21778792
52	0x3cf020bb	0.029312482
53	0xbe5eb0ad	-0.21747084
54	0x3c61122c	0.013737243
55	0xbd448414	-0.047977522
56	0x3c225610	0.009908214
57	0xbddd7639	-0.10813565
58	0x3e1c18fb	0.15243904
59	0x3eb44de0	0.35215664
60	0xbd2116a0	-0.039328218
61	0xbcc7a172	-0.024368975
62	0xbda0ba39	-0.07848019
63	0xbdd63913	-0.10460105
64	0xbf12e48f	-0.5738
65	0x3f0d1ca3	0.5512182
66	0xbeccc030	-0.39990377
67	0x3df36cfa	0.1188602
68	0x3ee1fe9b	0.4413956
69	0xbe63ee32	-0.22258833
70	0x3eb3838f	0.3506131
71	0x3dfbfa09	0.1230355
72	0x3e908974	0.28229868
73	0xbd87ad5c	-0.066248626
74	0xbe887717	-0.26653358
75	0xbf4078e8	-0.7518449
76	0xbdf9a529	-0.12189705
77	0x3eae0073	0.33984718
78	0xbf3de7ff	-0.7418212
79	0xbd9728b9	-0.07380814
80	0x3f01f370	0.5076208
81	0xbecf42a3	-0.40480527
82	0xbe38e625	-0.18056543
83	0x3ea94a77	0.33064625
84	0x3dc4df3a	0.096128896
85	0xbe385c27	-0.18003903
86	0x3e515d6b	0.20445792
87	0xbea90c20	-0.33017063
88	0x3ee7093e	0.4512424
89	0x3e97b1d9	0.29627874
90	0xbe8ed1d3	-0.27894458
91	0x3ec48ba0	0.38387775
92	0xbf097cd7	-0.53706115
93	0x3eb0d72a	0.34539157
94	0x3eda7cf8	0.4267347
95	0x3e9d146e	0.3067965
96	0xbdeb6283	-0.11493399
97	0x3e113079	0.14178647
98	0xbe9a453d	-0.3013095
99	0x3ebf7801	0.37396243
100	0xbd23575d	-0.039878238
101	0xbd5ae772	-0.05344338
102	0xbe0374b5	-0.12837489
103	0xbc4ab849	-0.012373039
104	0xbe99b218	-0.30018687
105	0xbe187090	-0.14886689
106	0x3d222a3e	0.039591067
107	0x3dc31f87	0.09527498
108	0xbd960df5	-0.07326881
109	0xbebe898c	-0.37214315
110	0xbf583371	-0.84453493
111	0x3e81822c	0.25294626
112	0xbefddd12	-0.49582726
113	0xbe182bf3	-0.14860515
114	0x3e8af114	0.27137053
115	0x3ea7b453	0.32754764
116	0xbaea5a8b	-0.0017879767
117	0xbe9f7c51	-0.31149533
118	0xbdceb85d	-0.10093758
119	0x3e82ac65	0.25522152
120	0xbed8c6c9	-0.4233916
121	0x3e57153b	0.21004193
122	0x3ed04a5b	0.4068173
123	0x3e15a311	0.14612986
124	0x3ee45e3c	0.44603145
125	0x3ec74830	0.38922262
126	0xbe908f42	-0.28234297
127	0xbe8b9a65	-0.2726623
128	0x3e816db2	0.25279003
129	0xbe942e6f	-0.28941676
130	0x3d1a771d	0.03771125
131	0xbd2609db	-0.040536743
132	0xbf1e6de6	-0.6188644
133	0xbef21bee	-0.47286934
134	0xbe5879a2	-0.21140149
135	0x3e5cad1c	0.21550411
136	0x3e39fd05	0.18162926
137	0x3e60c8e8	0.2195164
138	0x3e8b2357	0.271754
139	0x3d863acc	0.06554183
140	0xbe9ff43a	-0.31241018
141	0xbe824edc	-0.2545079
142	0x3debf2d1	0.11520923
143	0x3e532a83	0.20621686
144	0x3e205aa9	0.15659584
145	0xbda2f931	-0.07957686
146	0xbe951bfc	-0.29122913
147	0x3d9da922	0.07698275
148	0xbe36c524	-0.1784864
149	0xbea3dca4	-0.32004273
150	0xbddefcd2	-0.108880654
151	0xbeec9667	-0.46208498
152	0x3f0f8838	0.5606723
153	0x3e4db7e5	0.20089681
154	0x3ed51e1c	0.41624534
155	0xbbc8d8a0	-0.0061293393
156	0x3ed78af6	0.42098206
157	0x3ec3de6f	0.3825564
158	0x3e91b0b3	0.28455123
159	0xbeb25a98	-0.34834743
160	0x3d65fd60	0.05614984
161	0x3e49d7a4	0.19711167
162	0xbe3437d8	-0.17599428
163	0xbec9576f	-0.3932452
164	0x3c1c4658	0.009538256
165	0x3e980024	0.29687607
166	0x3e541d47	0.20714293
167	0x3d1b9e44	0.03799273
168	0xbf06f2da	-0.5271431
169	0x3e9201dd	0.28517047
170	0x3e49fd27	0.19725476
171	0x3ce7785d	0.028255636
172	0x3f0cfc6b	0.5507266
173	0x3eb69842	0.35663038
174	0xbe637fc3	-0.22216706
175	0x3eeb9aaf	0.46016452
176	0xbe29c52a	-0.16579118
177	0xbf28e201	-0.65969855
178	0x3dfe15e4	0.12406519
179	0xbf61d101	-0.8820954
180	0x3e8da8e9	0.2766793
181	0x3e0e2224	0.13880211
182	0x3e87597d	0.26435462
183	0x3ea037d4	0.31292593
184	0x3ca6bf3b	0.020354858
185	0x3d4b3479	0.04961059
186	0x3dafdd3f	0.08587121
187	0xbf5a281d	-0.8521746
188	0xbeda1f2c	-0.42601907
189	0x3eb5f708	0.35540032
190	0x3e0dd812	0.13851956
191	0xbe91d506	-0.28482836
192	0xbceca201	-0.028885843
193	0x3e41eec7	0.18938743
194	0xbe81d419	-0.2535713
195	0xbe13a08d	-0.14416714
196	0x3e31d247	0.1736537
197	0x3ed97881	0.4247475
198	0x3d8f9127	0.070101075
199	0x3ea1a549	0.31571415
200	0x3ed67d91	0.41892675
201	0x3e48fdcc	0.19628066
202	0x3e314b0e	0.17313787
203	0xbeb9fd9c	-0.363263
204	0x3e12a32f	0.14320062
205	0xbe8e9761	-0.27849868
206	0x3ecb9bf7	0.3976743
207	0xbec4f283	-0.38466272
208	0xbda52052	-0.08062805
209	0xbeaa2ac1	-0.33235744
210	0x3ce53fb1	0.027984472
211	0x3e3ed9c7	0.18637763
212	0xbc712fae	-0.01472084
213	0xbe441f34	-0.19152528
214	0xbe05dc97	-0.1307243
215	0x3e379743	0.17928796
216	0xbe474a10	-0.19461846
217	0xbe9a43a7	-0.3012974
218	0xbe3828ff	-0.17984389
219	0x3f1a86a1	0.6036168
220	0x3e1e0fc6	0.15435705
221	0xbf3cd2ae	-0.7375897
222	0xbf0b2313	-0.54350394
223	0x3f132e50	0.5749254
224	0xbb295771	-0.0025839473
225	0x3d39e9ec	0.0453891
226	0xbeade738	-0.33965468
227	0x3c30623e	0.01076561
228	0x3c3d480e	0.011552824
229	0x3f04fb5b	0.5194604
230	0x3ebc745e	0.3680753
231	0xbf095ad9	-0.5365425
232	0xbf1c8f4a	-0.6115614
233	0xbf1c336a	-0.6101595
234	0x3d679560	0.05653894
235	0xbe086e65	-0.13323362
236	0x3e05d387	0.13068973
237	0x3d975e3c	0.07391021
238	0x3e4b9a87	0.19883166
239	0x3e9e6182	0.30933768
240	0xbf1ac588	-0.6045766
241	0x3e1d43f8	0.1535796
242	0x3ecd3335	0.4007813
243	0x3e6c9dfc	0.23107141
244	0xbed9776e	-0.4247393
245	0xbf128c2f	-0.57245153
246	0xbecf69a8	-0.40510297
247	0xbf24b0d5	-0.64332324
248	0xbd28bb07	-0.04119399
249	0xbecca2f3	-0.3996807
250	0xbe4c0f55	-0.19927724
251	0xbf03af66	-0.5143951
252	0x3cac376e	0.021022525
253	0x3d9e1e7d	0.07720659
254	0x3cfa3fcc	0.030547999
255	0xbf45500e	-0.7707528

fc1.bias f4 [128]
0	0x3ed20e70	0.4102664
1	0x3d281ffc	0.041046128
2	0x3f2d201f	0.6762714
3	0x3eafdef0	0.34349775
4	0xbe979b2c	-0.29610574
5	0xbe551760	-0.20809698
6	0xbc2e1f13	-0.010627526
7	0x3f102eab	0.5632121
8	0xbd35b52c	-0.044362232
9	0xbf4cabb5	-0.79949504
10	0x3e4d8bef	0.20072912
11	0xbf1ee457	-0.6206717
12	0x3f315867	0.69275516
13	0xbed4ddbb	-0.41575417
14	0xbeb53295	-0.35390154
15	0xbe327398	-0.17426908
16	0xbe9a703c	-0.30163753
17	0xbf1f2728	-0.6216912
18	0xbe07b39b	-0.13252108
19	0xbec09184	-0.3761102
20	0xbeb4dcf7	-0.35324833
21	0x3f4e495d	0.80580693
22	0xbf78749d	-0.9705294
23	0xbeea7942	-0.45795637
24	0xbd9b1f39	-0.075743146
25	0xbe21e01d	-0.15808149
26	0x3f14700a	0.5798346
27	0x3d05344e	0.032520585
28	0x3f160626	0.5860313
29	0x3eb7c95e	0.35895818
30	0xbe90fe97	-0.28319237
31	0xbedc7111	-0.43055013
32	0x3e4bf51a	0.19917718
33	0x3f1d24e7	0.61384434
34	0xbea68267	-0.32521364
35	0xbe5e8a31	-0.21732403
36	0x3da8d714	0.08244148
37	0x3ee646e7	0.4497597
38	0xbf171d58	-0.5902915
39	0xbe9c5d29	-0.30539826
40	0x3f46d65b	0.7767083
41	0xbe8a458e	-0.2700619
42	0xbc4d7713	-0.012540597
43	0xbf18efa4	-0.5974066
44	0xbd05578a	-0.032554187
45	0xbf2b6351	-0.6694842
46	0x3e996b47	0.2996466
47	0x3f229b86	0.6351856
48	0x3f04b3da	0.5183693
49	0xbf55ca02	-0.83511364
50	0xbe7b02b9	-0.24512757
51	0x3e22f493	0.1591361
52	0x3f4ef77f	0.808464
53	0x3c92ae04	0.017905243
54	0xbee03f53	-0.43798313
55	0x3dd409ea	0.103534535
56	0x3f1cfe35	0.6132539
57	0x3d036a8c	0.032084033
58	0x3e5a28e1	0.21304657
59	0xbeb62372	-0.35573918
60	0x3e7d8e9a	0.2476143
61	0xbe9ba55e	-0.30399603
62	0xbd3006e3	-0.042975318
63	0xbea7ce54	-0.32774603
64	0xbeb1e0dc	-0.34741867
65	0x3ee1cd99	0.4410217
66	0xbe9a1885	-0.30096832
67	0xbf423a93	-0.7587063
68	0xbf12f322	-0.5740224
69	0xbccf5dd9	-0.025313305
70	0x3d38490c	0.044991538
71	0xbe12499d	-0.14285894
72	0xbea26a2a	-0.31721622
73	0x3eac9bcd	0.33712617
74	0xbe8b4613	-0.272019
75	0x3d8da274	0.06915751
76	0x3d511c6f	0.051052507
77	0xbe49822f	-0.19678567
78	0xbecec011	-0.4038091
79	0x3f2f7ce1	0.68549925
80	0x3f2c5c32	0.6732818
81	0x3db09b1e	0.08623336
82	0xbe8c6803	-0.27423105
83	0x3f05736c	0.52129245
84	0x3e8839b6	0.2660653
85	0x3df14cc2	0.117822185
86	0xbe89098f	-0.26765105
87	0xbe3aa02f	-0.18225168
88	0xbd87fbb1	-0.06639803
89	0x3dfec439	0.1243977
90	0x3e83c0a1	0.25732902
91	0xbf5585e9	-0.83407456
92	0xbf32725a	-0.69705737
93	0xbdc9a15e	-0.098452315
94	0xbe8cb9b1	-0.2748542
95	0x3f4194a3	0.75617427
96	0xbf296b5f	-0.6617946
97	0xbf4d0235	-0.8008149
98	0xbcfcb4c2	-0.03084791
99	0xbe87bf11	-0.2651296
100	0xbec79f33	-0.38988647
101	0x3e2a7336	0.16645512
102	0xbe2ea5a5	-0.17055376
103	0xbf13f806	-0.5780033
104	0x3e7aa8bf	0.24478434
105	0x3ec97304	0.39345562
106	0xbf287d41	-0.6581612
107	0x3e0fa51f	0.14027832
108	0x3ea2e775	0.31817213
109	0xbf47e213	-0.78079337
110	0x3e86a4de	0.2629766
111	0xbe1bcd67	-0.15215074
112	0xbee46095	-0.44604936
113	0x3ee17e6f	0.44041774
114	0x3ee67d40	0.45017433
115	0x3f0f4b5c	0.55974364
116	0x3ca309c5	0.01990212
117	0x3da2461a	0.07923527
118	0xbe198bc3	-0.14994721
119	0x3f5285dd	0.8223551
120	0x3f17f053	0.5935108
121	0xbe96d7d3	-0.29461536
122	0x3ef0234f	0.46901938
123	0xbe46dde3	-0.1942058
124	0x3bad3897	0.005286287
125	0x3e540e85	0.20708664
126	0xbe90d3a3	-0.28286466
127	0xbc1c14d9	-0.009526455

fc2.weight f4 [64, 128]
0	0xbe6ebddc	-0.23314613
1	0x3ceddbd8	0.029035494
2	0xbde0b1f2	-0.109714404
3	0x3eb0d675	0.34538618
4	0xbb45ebfa	-0.0030200467
5	0xbe50efcd	-0.20403977
6	0xbce34e07	-0.027747167
7	0xbe3de949	-0.18546022
8	0xbcf0fdec	-0.029417954
9	0x3e1115b4	0.14168435
10	0xbe7f0870	-0.24905562
11	0x3de9dafc	0.11418721
12	0xbe98e4cb	-0.29862055
13	0x3d4c790e	0.049920134
14	0x3c2b8168	0.010467865
15	0xbd0e9a5b	-0.034815174
16	0x3d87ed08	0.06637007
17	0xbe24590f	-0.16049598
18	0xbf54dea2	-0.8315221
19	0x3d718352	0.058963127
20	0xbe8ad405	-0.27114883
21	0xbdc97278	-0.09836286
22	0xbddb9bd2	-0.1072308
23	0x3d12fef3	0.03588767
24	0x3daa7f8a	0.083251074
25	0xbd98e978	-0.07466406
26	0x3df071b6	0.11740439
27	0xbe1ca206	-0.15296182
28	0x3e877e63	0.26463613
29	0x3dfcb221	0.12338663
30	0x3d4389dd	0.0477389
31	0xbc6750ba	-0.014118368
32	0x3ca613e3	0.020273155
33	0xbd155de3	-0.03646649
34	0x3d9cc5bb	0.076549016
35	0x3e69009d	0.2275414
36	0xbd94a1d1	-0.072574265
37	0xbebce2e2	-0.36891848
38	0xbe592f3c	-0.21209425
39	0xbd71739f	-0.058948155
40	0xbe9859ff	-0.29756162
41	0x3dc01faf	0.09381043
42	0x3ded8a31	0.115986235
43	0x3da1ca6c	0.07899937
44	0x3f2bbbe3	0.6708357
45	0xbd77f1d4	-0.06053336
46	0x3f34f674	0.7068856
47	0x3e238bf9	0.15971364
48	0x3d0a6cc6	0.03379514
49	0xbd793bdc	-0.060848102
50	0xbd97360d	-0.07383356
51	0xbe103007	-0.14080821
52	0x3e1f9766	0.15585098
53	0x3c0f0552	0.008729296
54	0x3e975e8e	0.29564327
55	0xbd9c29a1	-0.076251276
56	0x3d3b56ea	0.045737185
57	0xbdcfb1f2	-0.10141362
58	0xbe0c88a7	-0.13724004
59	0x3dc52611	0.09626401
60	0x3e81cf03	0.2535325
61	0xbe26dd8b	-0.1629545
62	0x3d204b4e	0.039134316
63	0x3dd0f768	0.10203439
64	0xbe49b7e2	-0.19699052
65	0xbe9c62f9	-0.3054426
66	0x3e6b3cc8	0.22972405
67	0x3ddf860c	0.10914239
68	0x3d17f089	0.037094627
69	0x3e486a7c	0.1957187
70	0xbd080c95	-0.033215124
71	0xbc8e96e9	-0.017405944
72	0x3d20732c	0.039172336
73	0xbd65a270	-0.056063116
74	0x3e4780e9	0.19482769
75	0xbd58c2b8	-0.052920073
76	0xbd0796ed	-0.03310292
77	0x3dadf43f	0.08493852
78	0x3d0fc807	0.03510287
79	0x3e279e39	0.16368951
80	0x3df65033	0.120270155
81	0x3de8a4cc	0.113595575
82	0xbc14aa72	-0.00907384
83	0x3ca47163	0.020073598
84	0xbd8de2f8	-0.069280565
85	0x3e18fb58	0.1493963
86	0x3eabb151	0.3353372
87	0xbe94aa3b	-0.29036126
88	0x3e1d69d6	0.15372404
89	0xbf8c4341	-1.0958024
90	0xbe1af753	-0.15133409
91	0xbe61b951	-0.22043349
92	0x3e5ca5f2	0.21547678
93	0xbd7799e4	-0.060449496
94	0x3ebf19db	0.37324414
95	0xbe0cb3a8	-0.13740408
96	0x3db0a901	0.08625985
97	0xbd8d46d4	-0.06898275
98	0xbd617a4f	-0.055048283
99	0xbdeba1a7	-0.11505442
100	0xbddc7330	-0.10764158
101	0x3e62f4d5	0.22163709
102	0x3ea03da4	0.31297028
103	0x3f02dbb0	0.51116467
104	0xbec90472	-0.39261204
105	0xbe4a3961	-0.19748451
106	0xbe18ef34	-0.14934999
107	0xbd59daed	-0.0531873
108	0xbd9cbf69	-0.07653696
109	0xbe1f3b84	-0.15550047
110	0x3e4a4d80	0.19756126
111	0xbea7f0a2	-0.32800776
112	0x3d1dd2b1	0.03853101
113	0x3dd103a4	0.102057725
114	0xbf2abff2	-0.66699135
115	0x3e37d707	0.1795312
116	0xbd49a0b1	-0.049225513
117	0xbe0e2551	-0.13881423
118	0x3bec8f9b	0.0072192675
119	0x3dbbc29e	0.0916798
120	0xbedfa8a0	-0.43683338
121	0xbe0b42e9	-0.13599743
122	0x3e1ef742	0.15524009
123	0x3e98aab7	0.29817745
124	0x3e1b64f6	0.15175232
125	0xbea51be5	-0.32247844
126	0x3f216d6a	0.6305758
127	0x3df91b34	0.12163392
128	0xbc27b48a	-0.010235915
129	0xbc265f9d	-0.010154632
130	0x3de3ff38	0.111326635
131	0x3da6916a	0.08133204
132	0xbe06cf5b	-0.13165037
133	0x3ceee80b	0.029163381
134	0x3d46bc34	0.04851933
135	0xbd57016c	-0.05249159
136	0x3da33120	0.07968354
137	0xbe2de9b6	-0.16983685
138	0xbcb00bac	-0.02148994
139	0xbe36b594	-0.17842704
140	0xbd4617f7	-0.0483627
141	0xbd8910c3	-0.0669265
142	0xbdb486e5	-0.088147916
143	0x3d8ca9ed	0.06868348
144	0x3e85f94a	0.26166755
145	0xbe1f16ec	-0.15536088
146	0xbd51e657	-0.05124506
147	0x3f11626b	0.567908
148	0x3c17f08a	0.009273658
149	0xbd2020d9	-0.039093826
150	0x3e198f29	0.14996018
151	0xbe360627	-0.17775784
152	0x3e06d3a9	0.1316668
153	0xbe4a5aea	-0.19761243
154	0x3d6a4483	0.057194244
155	0x3d49758c	0.049184367
156	0x3dd68318	0.10474223
157	0xbd20e8fe	-0.0392847
158	0xbe02de18	-0.12780035
159	0xbe1fc576	-0.15602669
160	0x3da1acb3	0.07894268
161	0xbcdec456	-0.02719323
162	0xbda35734	-0.07975617
163	0x3d82de2e	0.06390034
164	0xbe185710	-0.14876962
165	0xbe019cdc	-0.12657493
166	0xbe875b90	-0.26437044
167	0xbe98926c	-0.2979921
168	0x3d22cd62	0.03974665
169	0xbe1b1397	-0.15144192
170	0xbe832987	-0.2561762
171	0xbdb34ea4	-0.08755234
172	0xbe0df483	-0.13862805
173	0xbd957744	-0.07298139
174	0x3d4fa68e	0.05069595
175	0x3c3fc80d	0.011705411
176	0xbce0f2a8	-0.027459458
177	0xbd76d092	-0.060257502
178	0xbdedb190	-0.11606133
179	0xbd6b1ab7	-0.057398524
180	0x3ca79e81	0.020461323
181	0xbcfdadb1	-0.030966612
182	0x3e98daa4	0.2985431
183	0x3e296be3	0.16545062
184	0x3cb7b40f	0.022424726
185	0xbe0b9f4d	-0.13634987
186	0x3db3b50a	0.08774765
187	0xbd99f2a6	-0.07516985
188	0xbd3dd515	-0.04634579
189	0xbf06deff	-0.52684015
190	0xbe7dd653	-0.2478879
191	0x3f0a60f9	0.5405422
192	0x3de58813	0.11207595
193	0x3ce89bfd	0.028394694
194	0x3c1998d0	0.009374812
195	0xbd528df7	-0.05140492
196	0xbe3c3101	-0.18378069
197	0x3d94be15	0.07262818
198	0x3da919ed	0.08256898
199	0x3dde86cd	0.10865555
200	0x3e8bf395	0.27334276
201	0x3dbb9b08	0.09160429
202	0x3deca536	0.11554949
203	0xbc39d3e9	-0.011342027
204	0xbd58fa13	-0.052972864
205	0x3c9a8a0e	0.018864658
206	0x3e2f59af	0.17124055
207	0x3db78d29	0.08962471
208	0x3d63bfe5	0.055602927
209	0xbdad2752	-0.084547654
210	0xbe28462c	-0.16433018
211	0xbc8e509e	-0.017372426
212	0x3df86a34	0.12129632
213	0xbe22d63c	-0.15902036
214	0xbec7a528	-0.38993192
215	0x3ea05e8e	0.3132214
216	0x3edf660c	0.43632543
217	0xbe8d7ce0	-0.27634335
218	0x3d8e3d5d	0.06945298
219	0xbe833bf6	-0.25631684
220	0x3e18d678	0.14925563
221	0xbe2a5ced	-0.16637011
222	0xbe43376c	-0.1906411
223	0xbcb47f56	-0.022033375
224	0xbd3d8d68	-0.046277434
225	0xbd4e3577	-0.050343957
226	0x3e17fcf1	0.14842583
227	0xbeba2080	-0.3635292
228	0x3bff2a18	0.0077870004
229	0x3d259bfb	0.040431958
230	0x3d887a2e	0.06663929
231	0x3e838678	0.2568853
232	0xbe59ca86	-0.21268663
233	0xbe398c2d	-0.18119879
234	0xbe5649ce	-0.20926592
235	0xbd6e9090	-0.058243334
236	0x3e2cb7f5	0.16867049
237	0xbe454007	-0.19262706
238	0xbd811acd	-0.0630394
239	0xbe828ec7	-0.25499555
240	0x3e360942	0.17776969
241	0x3c8fd347	0.0175568
242	0xbb5cbf28	-0.0033683274
243	0x3e265574	0.16243535
244	0xbdea4b52	-0.114401475
245	0xbd985b44	-0.074392825
246	0xbcd2644f	-0.025682596
247	0x3ddc3a60	0.10753322
248	0x3bf92de4	0.0076043475
249	0x3d424e29	0.04743782
250	0x3d1a1745	0.037619848
251	0x3dadb494	0.08481708
252	0x3e4334ae	0.19063064
253	0x3b9bcfb1	0.0047549834
254	0x3d99b054	0.07504335
255	0xbaf4b061	-0.0018668288

fc2.bias f4 [64]
0	0x3d885b25	0.066580094
1	0x3e18882d	0.14895697
2	0x3b379beb	0.0028016518
3	0x3df5ce4f	0.12002241
4	0x3e7142a4	0.23560578
5	0x3e8f6684	0.280079
6	0x3e0f1645	0.13973339
7	0x3e0a297c	0.13492388
8	0xbd44554f	-0.04793292
9	0xbda214e6	-0.07914142
10	0xbabbae75	-0.001431896
11	0xbe9a80da	-0.3017643
12	0x3ec130f3	0.37732658
13	0x3b63463f	0.003467932
14	0xbe0d049a	-0.13771287
15	0xbec6d8f0	-0.38837385
16	0x3eb009de	0.34382528
17	0xbe0bba8f	-0.13645385
18	0x3d5ebaa1	0.054377202
19	0xbe6360de	-0.2220492
20	0xbd816c57	-0.06319492
21	0x3e9cc3e2	0.30618197
22	0xbde1e602	-0.11030199
23	0x3ddf348a	0.10898693
24	0x3cafbafb	0.021451464
25	0xbee66e4c	-0.45006025
26	0x3ce215db	0.027598312
27	0xbd9df02f	-0.07711827
28	0xbc6cfa77	-0.014464012
29	0x3ec6524e	0.38734668
30	0x3d68be62	0.05682219
31	0x3e253b7c	0.16135973
32	0x3c385b7e	0.011252282
33	0xbe00033a	-0.12501231
34	0xbd9a3d01	-0.07531167
35	0x3b385503	0.0028126843
36	0x3daa3f0b	0.08312806
37	0x3d7bff36	0.061522685
38	0x3dc3e51d	0.09565184
39	0x3df48486	0.11939339
40	0xbf02c5c3	-0.5108301
41	0xbe56eaea	-0.2098805
42	0x3ddbb5fd	0.10728071
43	0x3d107104	0.03526403
44	0x3ecfb8a3	0.40570554
45	0x3d877de9	0.06615812
46	0xbda68575	-0.08130924
47	0xbd8496ad	-0.064740516
48	0xbd07911e	-0.03309738
49	0x3d6f4e2b	0.058424156
50	0x3deef8a6	0.1166852
51	0xbd5be087	-0.053680923
52	0x3e9458f2	0.2897411
53	0xbe0eec46	-0.13957319
54	0xbd8b73be	-0.068091854
55	0xbcf2c2d3	-0.029633915
56	0x3e915ada	0.28389627
57	0x3d248d5d	0.040173877
58	0x3da54238	0.08069271
59	0x3c86da19	0.016461419
60	0x3e08898d	0.13333721
61	0x3dab6828	0.083694756
62	0xbd5e7851	-0.05431396
63	0x3d899c0e	0.06719218

fc3.weight f4 [15, 64]
0	0xbeea5dc6	-0.45774668
1	0x3e30bbe6	0.17259178
2	0xbefb3d60	-0.49070263
3	0x3e741398	0.238356
4	0x3e21424d	0.15747948
5	0x3e0d5554	0.13802081
6	0xbe0dc349	-0.13844027
7	0xbb992d12	-0.0046745623
8	0x3df73812	0.120712414
9	0xbdce2675	-0.10065929
10	0xbec17d9c	-0.37791145
11	0xbeb109a7	-0.34577677
12	0x3b9c288e	0.0047655767
13	0x3c29d60f	0.010365977
14	0xbeee6d1a	-0.46567613
15	0xc09e73a6	-4.9516172
16	0xbd943532	-0.07236709
17	0xbfc6b0b7	-1.5522679
18	0xbf54613c	-0.8296087
19	0xbe8e652d	-0.27811566
20	0xbd9dff96	-0.07714765
21	0xbeb5f90b	-0.35541567
22	0xbe565a44	-0.20932871
23	0x3e849819	0.2589729
24	0xbdd3514d	-0.10318241
25	0xbf2d1085	-0.6760333
26	0x3d817b8a	0.06322391
27	0xbf06bcd3	-0.5263187
28	0xbfa5e6a7	-1.2961015
29	0x3d39dc61	0.045376185
30	0x3c28350d	0.010266555
31	0xbd9033dc	-0.070411414
32	0xbde95f85	-0.11395172
33	0x3bf1fd01	0.0073848967
34	0x3bbd99ad	0.005786142
35	0xbddd7ed6	-0.10815208
36	0x3e0c6c25	0.13713129
37	0x3dd08380	0.10181332
38	0x3e9cdad4	0.30635703
39	0xbdea6210	-0.11444485
40	0xbf0ceec4	-0.5505183
41	0xbfcd3e11	-1.6034566
42	0x3da3c630	0.07996786
43	0x3d881213	0.066440724
44	0xbe025b1f	-0.12730072
45	0xbf37d940	-0.7181587
46	0x3cafb718	0.02144961
47	0xbdd982ed	-0.10620675
48	0xbdfd20b4	-0.12359753
49	0x3e21139a	0.15730134
50	0xbe938c43	-0.2881795
51	0xbd48df7e	-0.049041264
52	0xbeab28ce	-0.3342957
53	0xbcf1f753	-0.029536879
54	0xbec74094	-0.38916457
55	0xbd85d6ad	-0.06535087
56	0x3d87de10	0.06634152
57	0x3c95f2f8	0.018304333
58	0x3e1b8b6a	0.15189901
59	0xbd99f078	-0.07516569
60	0x3e0ef62c	0.13961095
61	0xbee88537	-0.45414135
62	0x3e1ef474	0.15522939
63	0xbc4a8263	-0.012360188
64	0x3d81e635	0.06342737
65	0x3e2326d8	0.15932786
66	0xbe2e4e5f	-0.17022084
67	0x3e43befc	0.19115824
68	0x3d51fc30	0.051265895
69	0x3dc710a6	0.09719972
70	0x3c8aa97f	0.016926525
71	0x3a68c32c	0.00088791805
72	0x3dc114b7	0.09427779
73	0x3bd3e2c9	0.006466244
74	0xbdc9dc29	-0.09856445
75	0xbe81e634	-0.25370944
76	0x3dbdff63	0.09277227
77	0x3e643d9b	0.22289126
78	0xbec00fc2	-0.37512022
79	0xbff8ef44	-1.9448018
80	0xbe7e1cb5	-0.24815638
81	0xbf15f038	-0.5856967
82	0xbf7335b9	-0.9500385
83	0x3cb1c8d3	0.021702206
84	0x3db41a67	0.08794098
85	0xbec179e5	-0.3778831
86	0xbe13a2cb	-0.1441757
87	0x3e218852	0.15774658
88	0xbdc00033	-0.09375038
89	0x3e5b261a	0.21401253
90	0x3e5155df	0.20442913
91	0xbe714c0d	-0.23564167
92	0xbf85ad86	-1.044358
93	0x3e344230	0.17603374
94	0xbdd1d918	-0.102464855
95	0xbe8b3b97	-0.271939
96	0xbe2edb33	-0.17075805
97	0x3dc49d62	0.09600331
98	0xbd451972	-0.04811997
99	0x3d7a3719	0.0610877
100	0xbd85a4ac	-0.06525549
101	0xbe66cda1	-0.22539379
102	0x3df23a42	0.11827518
103	0xbe68c791	-0.22732379
104	0xc10fd8d2	-8.990435
105	0xbf70c2fe	-0.94047534
106	0x3e3d0252	0.18457916
107	0x3dd26524	0.10273197
108	0x3cd8d708	0.026469722
109	0xbec630f6	-0.3870923
110	0xbd87b638	-0.06626552
111	0xbcf402eb	-0.029786548
112	0xbda99c80	-0.08281803
113	0x3e07a349	0.13245882
114	0xbea2cf8b	-0.31798968
115	0x3d3ecf56	0.04658445
116	0xbcb47dec	-0.0220327
117	0xbf3bee16	-0.73410165
118	0xbec24fd0	-0.37951517
119	0xbef65d6d	-0.48118153
120	0x3da345ac	0.07972273
121	0xbd7886f3	-0.060675573
122	0x3e208412	0.15675381
123	0x3d425710	0.04744631
124	0x3d979ea1	0.07403303
125	0x3d4845c9	0.048894677
126	0x3d485746	0.048911355
127	0x3e7532be	0.23945138
128	0x3e20865e	0.15676257
129	0x3c98688f	0.018604545
130	0xbe80e6c3	-0.25176057
131	0xbde740ce	-0.112916574
132	0xbe4b7ea7	-0.19872533
133	0x3e772c81	0.2413807
134	0x3e2c8038	0.16845787
135	0x3dbf186a	0.093308285
136	0xbebc857f	-0.368206
137	0xbd3832cb	-0.044970315
138	0x3dedf4f0	0.11618984
139	0xbf2465ac	-0.6421764
140	0x3e7aabc1	0.24479581
141	0x3958ede4	0.00020687986
142	0xbdad19f6	-0.08452217
143	0xbea4674e	-0.32110065
144	0x3d93f896	0.072251484
145	0xbec2efaf	-0.3807349
146	0xbea7a454	-0.3274256
147	0xbe2ccfbf	-0.16876124
148	0xbd87c5bd	-0.066295125
149	0x3e0236fd	0.12716289
150	0x3cd3b8ba	0.02584492
151	0xbd5973a5	-0.053088803
152	0x3dcec874	0.10096827
153	0xbfc205d6	-1.5158031
154	0x3dd5f1db	0.10446521
155	0xbe195550	-0.1497395
156	0xbe0ba81c	-0.13638347
157	0xbd6894a0	-0.056782365
158	0x3e203499	0.15645064
159	0xbcc73ec9	-0.02432193
160	0x3d8e34c1	0.06943656
161	0x3ba7d3df	0.0051216925
162	0x3d9c4f7c	0.07632348
163	0xbdd89178	-0.10574621
164	0x3dc96d99	0.09835357
165	0xbeb85a7d	-0.36006537
166	0xbef0ee3e	-0.47056764
167	0x3ca3ef48	0.02001156
168	0xbeec8f6c	-0.46203172
169	0xbeeb1123	-0.45911512
170	0xbe3fab96	-0.18717799
171	0x3d00e9c3	0.031472933
172	0x3d819b8d	0.06328497
173	0x3d669472	0.056293912
174	0x3db7fbb5	0.08983556
175	0x3da89aa5	0.08232621
176	0xbcb24487	-0.021761192
177	0x3dd4998f	0.103808515
178	0xbedffea3	-0.4374896
179	0x3ca75152	0.020424519
180	0x3d2113a4	0.03932537
181	0xbf1e8ec6	-0.61936605
182	0xbe9f65eb	-0.31132445
183	0x3dc47c6e	0.095940456
184	0x3b8c8c70	0.0042892024
185	0xbcd60ee3	-0.026130145
186	0x3dc34507	0.0953465
187	0xbdc4d0f0	-0.09610164
188	0x3e363795	0.1779464
189	0x3c48af5f	0.012248843
190	0x3e331bd0	0.17491078
191	0x3d74536f	0.05964988
192	0x3e8313a9	0.25600937
193	0xbabccad7	-0.0014403713
194	0x3c6b5b1a	0.014364982
195	0xbeb8fa1b	-0.36128315
196	0xbf2987f2	-0.6622306
197	0x3e3178cf	0.17331241
198	0x3de94a3d	0.11391113
199	0x3da33ad7	0.07970207
200	0xbd85e525	-0.065378465
201	0x3c2d54cd	0.0105793
202	0x3e0b73e7	0.13618432
203	0xbf5e418e	-0.8681878
204	0x3e1f7082	0.15570262
205	0x3d8f5ee5	0.070005216
206	0x3e08bf19	0.13354148
207	0xba2997e1	-0.000646947
208	0xbe7d0b9c	-0.2471146
209	0xbe6c8453	-0.23097353
210	0xbeadea16	-0.33967656
211	0x3e454080	0.19262886
212	0xbd6f3602	-0.058401115
213	0xbe1999ee	-0.15000126
214	0x3dc2db2d	0.09514461
215	0xbe86254d	-0.26200333
216	0x3c691895	0.014227052
217	0x3e2a50cb	0.16632383
218	0x3e2e7b1f	0.17039154
219	0xbc84557a	-0.01615404
220	0xbdbbeb42	-0.09175731
221	0xbde533d7	-0.11191528
222	0x3de0dc59	0.10979528
223	0xbe82c564	-0.25541222
224	0x3cf74c52	0.03018776
225	0x3e0aeabe	0.1356611
226	0x3d47d0eb	0.048783224
227	0x3d13f9a7	0.03612676
228	0xbebca261	-0.36842635
229	0xbf12fbdd	-0.5741556
230	0xbf16e644	-0.5894511
231	0xbd4c2269	-0.049837504
232	0xbec6a3d4	-0.38796866
233	0xbf4bdf57	-0.79637665
234	0xbe9c8fa4	-0.3057834
235	0x3d89da1a	0.06731053
236	0xbc58d066	-0.01323328
237	0x3e459cd8	0.19298112
238	0xbda9ae3d	-0.082851864
239	0xbd787b74	-0.06066461
240	0xbcc56423	-0.0240956
241	0xbdbbc7f1	-0.09168995
242	0xbdf0bd50	-0.117548585
243	0xbd1bc6bb	-0.03803132
244	0xbe1f498e	-0.15555403
245	0xc002c950	-2.0435371
246	0xbf0cbc4e	-0.5497483
247	0xbe417576	-0.18892464
248	0xbe1b0172	-0.1513727
249	0x3dc65ce6	0.09685688
250	0x3e20612c	0.15662068
251	0xbd1fa6a5	-0.038977284
252	0xbdc6379c	-0.096785754
253	0xbf1d66ff	-0.61485285
254	0x3e292ba2	0.16520551
255	0x3e123f1a	0.14281884

fc3.bias f4 [15]
0	0xbd5e4c51	-0.054272
1	0xbd5efa56	-0.054437958
2	0x3d7ac0a2	0.061218865
3	0xbcee9a67	-0.02912636
4	0xbdfe8c04	-0.124290496
5	0xbc3bf3f8	-0.011471741
6	0x3d2216d0	0.039572537
7	0x3e808907	0.25104544
8	0x3e02e068	0.12780917
9	0x3dad70d8	0.08468789
10	0xbdfb6b91	-0.12276376
11	0xbe51d561	-0.20491554
12	0x3e07d728	0.1326567
13	0xbe594e89	-0.21221365
14	0xbf0b39ba	-0.5438496

exp_avg f4 [128, 4]
0	0x3b44d7d4	0.003003587
1	0x3a921301	0.001114458
2	0x3b3f03f8	0.0029146653
3	0x38a4daa0	7.8608515e-05
4	0xb9cac158	-0.00038672495
5	0xbaac9dea	-0.0013169621
6	0xb9a8b480	-0.0003217794
7	0xba552524	-0.00081308396
8	0x3c2ed99b	0.010671998
9	0x3bf618fe	0.0075103035
10	0x3c28475f	0.010270922
11	0xba393138	-0.0007064524
12	0x38ebaaa0	0.000112374546
13	0x3ae466bb	0.0017425636
14	0x3a3f3ef0	0.000729545
15	0xbb1e4a08	-0.0024153013
16	0xb8f73faf	-0.0001178974
17	0xba6df8cd	-0.0009077907
18	0x39c8a8cf	0.00038272745
19	0xba0b6cd1	-0.0005318644
20	0xbafc0d19	-0.0019229978
21	0xba60d295	-0.0008576301
22	0x3a964ffe	0.0011467931
23	0xbb051058	-0.002030393
24	0x3826f1d9	3.9802722e-05
25	0x39996d4e	0.00029263872
26	0x39a18aa4	0.00030811608
27	0x39ff786c	0.0004872711
28	0x3b69eabe	0.0035692896
29	0x3b697a80	0.0035625994
30	0x3bd5bdae	0.0065228557
31	0xba070a78	-0.0005151401
32	0xbac25795	-0.0014827127
33	0x3950b210	0.00019902759
34	0x3a93460f	0.0011236089
35	0xbaf5bd49	-0.0018748428
36	0x3b30f686	0.0027002408
37	0x3bd121a0	0.0063821822
38	0x3bbf3741	0.005835444
39	0x3be19e5b	0.0068853325
40	0x3b9db818	0.0048132055
41	0x3b91c1b0	0.004448138
42	0x3a9ea393	0.0012103192
43	0x3ab20ba0	0.0013583787
44	0xbbba3020	-0.0056820065
45	0xbbbe2c90	-0.005803652
46	0xbb95ac0f	-0.00456763
47	0x3aac2200	0.0013132691
48	0xbaea9fb8	-0.0017900383
49	0xbba0129d	-0.0048850314
50	0xbbc7396c	-0.0060798433
51	0xba2e69bc	-0.0006653329
52	0x00000004	6e-45
53	0x80000004	-6e-45
54	0x00000004	6e-45
55	0x00000004	6e-45
56	0xb6e3e780	-6.7920773e-06
57	0x3a5d64c1	0.00084454945
58	0x3ae53fcf	0.001749033
59	0x3b10acd8	0.002207568
60	0x2f9bd658	2.8346636e-10
61	0x2f200d0d	1.4556552e-10
62	0x30029a0a	4.7512627e-10
63	0x3032207a	6.4802175e-10
64	0xba4b2ee7	-0.00077508244
65	0x3a987e86	0.0011634387
66	0x3aa4cffe	0.0012574194
67	0x3ae17f9f	0.0017204172
68	0xbb532f6a	-0.0032224306
69	0xbbd277d6	-0.006422977
70	0xbc057eef	-0.008147939
71	0xba9d83de	-0.0012017449
72	0xba9b7d66	-0.0011862933
73	0xb9644a8c	-0.00021771545
74	0xba5c3bb4	-0.00084012304
75	0xb95da6e2	-0.00021138371
76	0x3a1237e2	0.0005577785
77	0x3ad9c286	0.0016613759
78	0xbac402f7	-0.0014954497
79	0x3b23276e	0.0024895328
80	0xbb54276c	-0.003237213
81	0xb5c1b800	-1.4433172e-06
82	0x3ae6347e	0.0017563251
83	0xbaea79f0	-0.0017889123
84	0x3bf4578e	0.0074567264
85	0x3b9453d5	0.004526595
86	0x3bb9db72	0.005671912
87	0xbb019db2	-0.0019777832
88	0xbb96ca62	-0.0046017626
89	0xbbe57c0b	-0.0070033125
90	0xbc0a5b78	-0.008444659
91	0xbba7763a	-0.0051105293
92	0x3b3a3e4e	0.0028418484
93	0x3b07cba0	0.0020720735
94	0x3b71d988	0.003690334
95	0x3bc7e721	0.0061005508
96	0xbb30fe7b	-0.002700715
97	0x3a9ae0e2	0.0011816288
98	0xb8ce2bc0	-9.8309945e-05
99	0xba12faad	-0.00056068116
100	0xb621a118	-2.4084638e-06
101	0xb75cd424	-1.3162415e-05
102	0xb78297c9	-1.5567888e-05
103	0xb6568e87	-3.1971447e-06
104	0x3aab5d02	0.0013073983
105	0x3a1b5e92	0.0005926873
106	0x3b246ded	0.0025089935
107	0x392e31c8	0.00016612478
108	0x3a1a2c59	0.0005881242
109	0xb9bbd2d7	-0.00035824507
110	0xb9c7fb5e	-0.0003814352
111	0x3a6692d4	0.0008795683
112	0x3a618d8c	0.0008604161
113	0x3aded044	0.0016999324
114	0x3b8f289e	0.0043688556
115	0x3a8d1eae	0.001076659
116	0xbb3349e7	-0.0027357282
117	0xbb163b92	-0.002292369
118	0x3a50a1a6	0.0007958658
119	0xbae910b1	-0.0017781464
120	0x3a8dbf18	0.0010814397
121	0x3ab59446	0.0013853393
122	0x3b1ddfea	0.0024089762
123	0x3b97ee22	0.004636542
124	0x3ad31492	0.0016104153
125	0x3ae250f9	0.0017266563
126	0xba20fe7d	-0.00061414373
127	0x3b376f44	0.0027989903
128	0x3a47ffe4	0.0007629378
129	0x3a933555	0.0011231104
130	0x3b41a24a	0.0029546195
131	0x3a4c3a04	0.00077906274
132	0x3b2d1e38	0.0026415717
133	0x3b8ba8d0	0.0042620674
134	0x39f31bf0	0.00046369387
135	0x3be65b05	0.0070298933
136	0xbb27c908	-0.0025602002
137	0x39504900	0.0001986362
138	0xbb0cf941	-0.0021510872
139	0x3a81797c	0.0009878124
140	0x38bb2394	8.923482e-05
141	0xb907c7cd	-0.00012949035
142	0x39a4ccdc	0.0003143315
143	0xb94c652c	-0.00019492646
144	0xbad4cd54	-0.0016235509
145	0xba4bf525	-0.0007780365
146	0xb9db2a16	-0.00041802292
147	0xbb0f98e8	-0.0021911208
148	0xbb0f118c	-0.0021830527
149	0xbbbab5b0	-0.0056979284
150	0xbbdbc5e3	-0.0067069395
151	0x3a28e540	0.00064428523
152	0xbb3f0ec3	-0.0029153086
153	0xbb644bd0	-0.0034835227
154	0xbbfde0b3	-0.0077477335
155	0x3bccd385	0.006250801
156	0xb9e91338	-0.00044455542
157	0xb9df6360	-0.00042607915
158	0xbb81cce1	-0.003961191
159	0x3b9a0792	0.0047006095
160	0x3c2aef7a	0.010433072
161	0x3bb815e2	0.005617843
162	0x3b82a1a0	0.0039865524
163	0xbb6da5d5	-0.0036262174
164	0x3a5d29ac	0.00084366906
165	0xb954bf10	-0.00020289072
166	0x3a25b050	0.0006320523
167	0x3b10b3ec	0.0022079898
168	0x3ad050b2	0.001589319
169	0x3b3d7a6d	0.0028912083
170	0x3b700d2c	0.0036628945
171	0x3b43d9e2	0.0029884507
172	0xbb6c711e	-0.0036078165
173	0xbb536ea4	-0.0032261992
174	0xbb263f64	-0.0025367374
175	0xba2ad238	-0.00065163104
176	0xb9fad8c8	-0.0004784523
177	0xb982b4ea	-0.00024930324
178	0x3a8bbe4d	0.0010661572
179	0x3a81ca4c	0.0009902208
180	0xbb60fcaa	-0.0034330287
181	0xbba2ae70	-0.004964642
182	0xbb87274c	-0.0041245576
183	0x3abdf176	0.0014491517
184	0xbbbe4389	-0.0058063907
185	0xbbe323bc	-0.00693175
186	0xbb959ee5	-0.004566061
187	0xba8e9c80	-0.0010880381
188	0x3c22a0d4	0.00992604
189	0x3bf25427	0.0073952856
190	0x3c0aa24c	0.008461546
191	0x39124d54	0.00013952452
192	0x3ba657a6	0.0050763665
193	0x3b2eb268	0.0026656631
194	0x3b822860	0.003972098
195	0xbad28a14	-0.0016062879
196	0xbbcce803	-0.006253244
197	0xbb92457d	-0.00446385
198	0xbba1a241	-0.0049326723
199	0x3b198919	0.0023427664
200	0xba6f306a	-0.0009124341
201	0xba9b0ba6	-0.0011829033
202	0xbadc614d	-0.0016813666
203	0x39cdda84	0.00039263454
204	0xb7f24200	-2.8879382e-05
205	0x3a48cceb	0.00076599297
206	0xbacb6fc3	-0.0015520978
207	0xba714829	-0.0009204173
208	0x3ba7c5a8	0.005119998
209	0x3bb617a5	0.005557018
210	0x3c21dc5e	0.0098792
211	0xbaebf28a	-0.001800136
212	0xba316e8e	-0.0006768488
213	0x39d469c2	0.00040514587
214	0xb84f069c	-4.93588e-05
215	0x398aba42	0.00026460184
216	0xba46522e	-0.00075653463
217	0x39cbdbb8	0.0003888288
218	0x39013560	0.00012322282
219	0xbaabd7fa	-0.0013110631
220	0xbb692add	-0.0035578527
221	0xba2e150b	-0.0006640709
222	0xbb538052	-0.003227253
223	0xbb86cfdd	-0.0041141347
224	0x3b0db592	0.0021623117
225	0x3b017796	0.0019755117
226	0x3b368886	0.002785237
227	0xbb4aa42a	-0.0030920603
228	0xba9c3933	-0.0011918902
229	0xba8a3c7d	-0.0010546591
230	0xbb76c07b	-0.0037651348
231	0x3993e860	0.00028211158
232	0x3a0febac	0.0005490135
233	0x3997d176	0.00028957025
234	0xbafdcd2e	-0.0019363516
235	0xb8d42800	-0.00010116398
236	0xbb7d54d6	-0.0038655302
237	0xbb465b02	-0.0030266647
238	0xbaf9cd17	-0.0019058314
239	0x3b684a5a	0.0035444708
240	0x3af25555	0.0018488566
241	0x3b031e78	0.0020007174
242	0x3b5e3fc8	0.0033912528
243	0xba1d2fcc	-0.0005996197
244	0xb923e6b8	-0.00015630841
245	0xb8ab2fa7	-8.162791e-05
246	0x3963dfb9	0.0002173175
247	0xba31c150	-0.000678082
248	0xb8893e78	-6.544305e-05
249	0xb918021b	-0.00014496634
250	0xb8a55912	-7.884404e-05
251	0x396c6f7f	0.0002254825
252	0xbaaee8ff	-0.0013344585
253	0xba7b332d	-0.0009582516
254	0xb9d3a3a6	-0.00040366984
255	0x399a5f8b	0.00029444354

exp_avg_sq f4 [128, 4]
0	0x3a1a4da0	0.0005886201
1	0x399c6215	0.00029827715
2	0x39888361	0.00026037826
3	0x3996110c	0.0002862293
4	0x3848a5d8	4.783817e-05
5	0x38c82bb4	9.5448835e-05
6	0x38cad117	9.6710566e-05
7	0x380cd809	3.35798e-05
8	0x3afdd424	0.0019365591
9	0x3b071fa0	0.0020618215
10	0x3b0264a6	0.0019896417
11	0x3adf0548	0.0017015124
12	0x396af2bb	0.00022406403
13	0x3a031276	0.00050000043
14	0x3a2e792d	0.000665563
15	0x3a5630a0	0.0008170698
16	0x37dd8acf	2.640989e-05
17	0x37a586af	1.973225e-05
18	0x366e0edf	3.547342e-06
19	0x3753a830	1.2615739e-05
20	0x38ce3c80	9.8341145e-05
21	0x38268575	3.9701776e-05
22	0x37a2a3f6	1.9388255e-05
23	0x38bc8a39	8.9902846e-05
24	0x358c4d38	1.0453286e-06
25	0x37506732	1.2421793e-05
26	0x373c2f9c	1.1216758e-05
27	0x37fe36fb	3.0304762e-05
28	0x3a12f136	0.0005605401
29	0x3a06b4ae	0.00051386177
30	0x39fade76	0.00047849462
31	0x39e30461	0.00043300077
32	0x38236943	3.896026e-05
33	0x3866380c	5.488847e-05
34	0x37174868	9.01716e-06
35	0x385aba4f	5.2148764e-05
36	0x3aca31b4	0.001542619
37	0x3aeddce8	0.00181475
38	0x3b054d34	0.0020340206
39	0x3afb9dc8	0.0019196803
40	0x39f235aa	0.0004619782
41	0x39a321ba	0.0003111491
42	0x39c22fe8	0.00037038256
43	0x390634cc	0.00012798904
44	0x3a524a6e	0.0008021955
45	0x3a435939	0.0007451955
46	0x3a40877b	0.0007344407
47	0x3a726c3b	0.0009247695
48	0x3906caa2	0.00012854722
49	0x3959f945	0.00020787593
50	0x3952ef3f	0.00020116287
51	0x39db451a	0.0004182242
52	0x0d2d2e76	5.3365666e-31
53	0x0d51c370	6.4638347e-31
54	0x0a398cc6	8.9339025e-33
55	0x0c8648cd	2.0689784e-31
56	0x38c000db	9.155433e-05
57	0x38c091aa	9.1824055e-05
58	0x38eb833b	0.00011230117
59	0x392e5e8f	0.00016629159
60	0x3251c630	1.2210464e-08
61	0x31b085c8	5.1374833e-09
62	0x3254c073	1.2383782e-08
63	0x32b5f91f	2.118446e-08
64	0x3775aa0f	1.4642733e-05
65	0x38b01a4b	8.3972314e-05
66	0x382dd763	4.144701e-05
67	0x38b904e5	8.822399e-05
68	0x3a825770	0.0009944271
69	0x3a55fab2	0.00081626617
70	0x3a72a33c	0.0009255891
71	0x3a5f9ac1	0.0008529835
72	0x392cde7d	0.00016486082
73	0x387e41b3	6.0619506e-05
74	0x382fe049	4.1932133e-05
75	0x3784f0bc	1.5847727e-05
76	0x37d229da	2.505344e-05
77	0x38255f89	3.942804e-05
78	0x3800fa43	3.0750653e-05
79	0x3836de1a	4.359903e-05
80	0x3a1dda93	0.0006021645
81	0x39a00bd6	0.00030526397
82	0x39c4c178	0.0003752818
83	0x3a215536	0.000615436
84	0x3aa6c127	0.0012722359
85	0x3abf4fe0	0.0014595948
86	0x3ac5c10e	0.0015087442
87	0x3aab341c	0.0013061794
88	0x3a8df890	0.0010831524
89	0x3a993a76	0.0011690396
90	0x3a7281c9	0.0009250907
91	0x3a854d83	0.0010170195
92	0x39d72c96	0.00041041215
93	0x3a278b78	0.0006391327
94	0x3a21dc0f	0.0006174454
95	0x3a1c3d14	0.0005960029
96	0x38bef70e	9.1059235e-05
97	0x3933ba8a	0.00017140261
98	0x3905e742	0.00012770019
99	0x396db32d	0.0002266883
100	0x33cedc7b	9.632728e-08
101	0x338e4829	6.625516e-08
102	0x3428937a	1.5699871e-07
103	0x340b6b84	1.2984498e-07
104	0x39afc168	0.000335227
105	0x39df7784	0.0004262292
106	0x39e9708e	0.00044525083
107	0x39fbcaed	0.00048025642
108	0x38648249	5.4480774e-05
109	0x37f27897	2.8904802e-05
110	0x371cb3aa	9.340156e-06
111	0x391086f5	0.00013783186
112	0x39e83b20	0.0004429454
113	0x3a17e651	0.00057945127
114	0x3a197f17	0.00058554247
115	0x3a14ceec	0.0005676586
116	0x393a0573	0.00017740372
117	0x3915f8dd	0.00014302456
118	0x3929517c	0.00016147451
119	0x39780445	0.00023652714
120	0x3925f0aa	0.0001582528
121	0x3987b740	0.00025885738
122	0x3993abb5	0.00028165957
123	0x399ed567	0.00030295106
124	0x3976f7ba	0.00023552674
125	0x3940d8ee	0.0001839136
126	0x390f6b35	0.0001367748
127	0x38d8991a	0.000103282
128	0x3979a3ca	0.00023807507
129	0x393312f9	0.00017077838
130	0x39668316	0.00021983343
131	0x39523e9e	0.00020050487
132	0x3971819f	0.00023031839
133	0x39ac8310	0.00032904046
134	0x3a0cd2d2	0.0005371991
135	0x3a9ae0e8	0.0011816295
136	0x39fdb789	0.00048392665
137	0x39ab4247	0.00032665042
138	0x39b741c1	0.0003495347
139	0x39e340dd	0.0004334514
140	0x36196805	2.2859324e-06
141	0x36878c73	4.039664e-06
142	0x3710ced0	8.631221e-06
143	0x37b72004	2.1830208e-05
144	0x389854e3	7.263736e-05
145	0x37f21e5a	2.8862782e-05
146	0x3788fd1d	1.6330328e-05
147	0x38733817	5.7987952e-05
148	0x39458fe5	0.00018840989
149	0x38e8b557	0.00011096399
150	0x3922b21e	0.00015515878
151	0x38c2bcbb	9.285795e-05
152	0x3aa3b01f	0.0012488401
153	0x3a9c3a8e	0.0011919306
154	0x3aa357a2	0.001246203
155	0x3aca8d4c	0.0015453487
156	0x3a5b2f43	0.00083612296
157	0x3a475244	0.0007603506
158	0x3a4226fe	0.0007406323
159	0x3a3d1bad	0.0007213902
160	0x3afd3001	0.0019316674
161	0x3b073154	0.0020628767
162	0x3b00e153	0.0019665554
163	0x3aca54f2	0.0015436693
164	0x39a05c94	0.00030586554
165	0x39bd65b0	0.00036124652
166	0x39aca394	0.00032928272
167	0x39b73c72	0.00034949515
168	0x394f6eb5	0.000197823
169	0x3a0739dd	0.00051584636
170	0x39f7b421	0.00047245718
171	0x39e066be	0.00042801158
172	0x3a70af63	0.0009181408
173	0x3a78e09b	0.0009493918
174	0x3a71a66f	0.0009218221
175	0x3a6154b3	0.000859569
176	0x373064ec	1.0513915e-05
177	0x3698ba68	4.5516535e-06
178	0x376e0957	1.418808e-05
179	0x36ba6dd8	5.5560195e-06
180	0x3a6083dc	0.00085645705
181	0x3a55b69c	0.0008152516
182	0x3a6119c8	0.00085869106
183	0x3a6523dd	0.0008741001
184	0x399cb8d8	0.00029892358
185	0x3927835f	0.000159753
186	0x39220aa8	0.00015453494
187	0x3790949f	1.7235345e-05
188	0x3a985c93	0.0011624269
189	0x3acf3bb2	0.0015810637
190	0x3ac9683d	0.0015366148
191	0x3a9241b2	0.0011158495
192	0x39bddc1e	0.0003621289
193	0x39d431d4	0.00040472916
194	0x39abe785	0.00032788157
195	0x399b9e72	0.00029681955
196	0x3a696d81	0.0008904562
197	0x3a816788	0.0009872774
198	0x3a6de24b	0.0009074553
199	0x3a4b302d	0.0007751014
200	0x39cf6d28	0.00039563444
201	0x3994e29f	0.00028397606
202	0x3991dee6	0.00027822627
203	0x395cb893	0.00021049594
204	0x393f301a	0.00018233099
205	0x391bf039	0.00014871442
206	0x3968816d	0.00022173459
207	0x38e5c90a	0.000109570174
208	0x3acb4074	0.001550688
209	0x3ad37b34	0.001613474
210	0x3acd1523	0.0015646558
211	0x3abc6a38	0.0014374917
212	0x374f162a	1.2343322e-05
213	0x369606aa	4.471124e-06
214	0x36bdf40b	5.6610493e-06
215	0x378b488b	1.6603872e-05
216	0x391c8459	0.00014926623
217	0x39236f29	0.00015586302
218	0x395ea9d4	0.00021234836
219	0x3a4233e5	0.00074082456
220	0x39be0dde	0.00036249956
221	0x38c7f58a	9.534795e-05
222	0x391556fe	0.00014242154
223	0x3a06a9eb	0.0005137014
224	0x39fed11c	0.00048602454
225	0x39fe74b2	0.000485336
226	0x39c7606b	0.00038028075
227	0x39cc0e81	0.00038920718
228	0x3a29ba0a	0.00064745604
229	0x3a493a70	0.00076762494
230	0x3a4ebcd4	0.0007886414
231	0x3a24245a	0.00062615203
232	0x37a18721	1.925562e-05
233	0x37967d60	1.7939776e-05
234	0x382a284c	4.0568688e-05
235	0x3895a859	7.136231e-05
236	0x39e7f982	0.0004424565
237	0x39d6d7e8	0.00040978123
238	0x39dfd2c6	0.00042690913
239	0x3a15539a	0.00056963565
240	0x39ef5027	0.0004564535
241	0x3a1a3ae5	0.000588341
242	0x3a1943c7	0.00058465864
243	0x3a06bdf6	0.0005140001
244	0x36b86978	5.4959055e-06
245	0x36e7cd6a	6.90825e-06
246	0x36a39de8	4.8761613e-06
247	0x36f7892c	7.3771425e-06
248	0x36f9c8c2	7.4441496e-06
249	0x35d79d59	1.6064542e-06
250	0x365a8688	3.256284e-06
251	0x3686a71c	4.0129653e-06
252	0x384d00cd	4.8876555e-05
253	0x38315dfd	4.2287622e-05
254	0x380434ff	3.152061e-05
255	0x36fa2c1e	7.4557165e-06

exp_avg f4 [128]
0	0xb9cee4d0	-0.0003946186
1	0xbab62b3e	-0.0013898385
2	0x3b9efe4a	0.004852091
3	0x3a2d9eb0	0.00066230725
4	0xba2cd61b	-0.00065931835
5	0xbb4f26a6	-0.003160873
6	0x39f33d2f	0.00046394157
7	0x3b319c36	0.0027101166
8	0x392cd710	0.00016483315
9	0x3b8aa298	0.0042308085
10	0x3b3d20c8	0.002885865
11	0xbb6ff99d	-0.0036617287
12	0xbbdcefd5	-0.0067424574
13	0x00000004	6e-45
14	0x3ac74772	0.0015203787
15	0xb024ba22	-5.9927363e-10
16	0x3ab166d1	0.001353467
17	0xbaf4d58a	-0.0018679362
18	0xb8bfaa2c	-9.139287e-05
19	0x3b116a9e	0.0022188793
20	0xbb1c0d3a	-0.0023811595
21	0x3aed3738	0.0018098122
22	0xbb6c61f1	-0.003606912
23	0x3ae78e3c	0.001766629
24	0x3aebdaf2	0.0017994328
25	0x37889d5f	1.6285745e-05
26	0x3ac949f0	0.0015357118
27	0x3b03ae2c	0.0020092828
28	0x3a837900	0.0010030568
29	0xba41ad08	-0.00073881494
30	0x3af6babf	0.0018823965
31	0x3abc7803	0.0014379028
32	0x3ab6deca	0.0013951894
33	0x3bb2d343	0.0054573133
34	0xb9fc6990	-0.00048143836
35	0xb94c780c	-0.00019499677
36	0xba47077c	-0.0007592363
37	0xbba9fe04	-0.0051877517
38	0xbaf0e4e8	-0.0018378766
39	0x3b2cfa16	0.002639418
40	0x3af2548a	0.0018488329
41	0x3a760308	0.0009384607
42	0x3b1d343d	0.0023987435
43	0x39395ee0	0.00017678319
44	0x3a2e91a8	0.0006659278
45	0xbab4c5ec	-0.0013791895
46	0xbb0c6fc5	-0.0021428925
47	0x3b3289c8	0.0027242769
48	0x3ace5486	0.0015741743
49	0xbaea59bf	-0.001787953
50	0x3afa1296	0.0019079025
51	0x3a9947d0	0.0011694375
52	0x3b9321f7	0.004490133
53	0xb87e3078	-6.060346e-05
54	0xba922561	-0.0011150056
55	0xbb310b2b	-0.0027014713
56	0x3acaac96	0.0015462812
57	0xba724bd8	-0.0009242869
58	0xb974597c	-0.00023302989
59	0xb916be38	-0.00014375977
60	0x39c2b7c8	0.0003713949
61	0x3a0971c8	0.000524309
62	0x38a5af18	7.900427e-05
63	0xba148eeb	-0.00056670484
64	0xb96523d0	-0.00021852483
65	0xbb33eb50	-0.002745349
66	0x3a351474	0.000690765
67	0xbac1cb2d	-0.0014785283
68	0xbb1ec289	-0.0024224839
69	0xbac612d6	-0.0015111815
70	0x3a037906	0.00050152873
71	0xba041cfc	-0.00050397194
72	0x3a859fc9	0.0010194714
73	0xba182cc8	-0.0005805013
74	0x3a0fa41e	0.00054794725
75	0x3af4cd0c	0.0018676831
76	0xbb1ed5b7	-0.002423627
77	0x390f3930	0.00013658847
78	0xbac58bf2	-0.0015071614
79	0x3b084a8c	0.0020796387
80	0x3ba1db71	0.0049394895
81	0x39caa862	0.00038653897
82	0xbadb3b20	-0.0016725995
83	0x3ad0136c	0.0015874929
84	0xba26fd60	-0.0006370153
85	0xb9848c2b	-0.00025281435
86	0x3a3e314e	0.0007255272
87	0x3a95ac45	0.0011419138
88	0xbb53e0e8	-0.00323301
89	0x3ad48186	0.0016212917
90	0xbac2897d	-0.0014842
91	0xbb16e906	-0.0023027076
92	0x3b9519cb	0.004550194
93	0x381d12f4	3.744937e-05
94	0x3b4dbbae	0.0031392383
95	0x3ae43c87	0.0017413058
96	0x3a1a6b24	0.0005890599
97	0xba7f23a8	-0.0009732791
98	0xb95349a8	-0.00020149967
99	0x3ac45dfa	0.001498162
100	0xbaae008a	-0.0013275307
101	0x3aa6253a	0.0012675889
102	0x36e39490	6.782422e-06
103	0x39bbbf1e	0.00035809813
104	0xb95cf0f0	-0.00021070591
105	0xb9e06f0c	-0.00042807346
106	0xbb4002c7	-0.002929853
107	0x3a0df928	0.00054158503
108	0x3a979fe2	0.0011568035
109	0xbc229935	-0.009924223
110	0x3aa93bec	0.0012911535
111	0x3a6861e3	0.0008864684
112	0xb87cb5e0	-6.0250866e-05
113	0x3b313a90	0.0027042963
114	0xbbd25dd2	-0.0064198757
115	0xba008e30	-0.0004904
116	0xba1431ff	-0.0005653202
117	0x398d63a4	0.00026967854
118	0x385fc62b	5.33519e-05
119	0x3b8ba54c	0.0042616483
120	0xbb941035	-0.0045185336
121	0x3b34564d	0.002751726
122	0xbac7e4ac	-0.0015250645
123	0xb981829c	-0.0002470211
124	0xb9d2a570	-0.00040177582
125	0xbb194bc6	-0.0023391112
126	0xb8c3c5ee	-9.335192e-05
127	0x3afd741c	0.0019336971

exp_avg_sq f4 [128]
0	0x399ffeb9	0.00030516626
1	0x383a8bc1	4.447601e-05
2	0x3a732274	0.0009274848
3	0x39c60c6a	0.00037774752
4	0x3704643f	7.8911535e-06
5	0x3893701c	7.030388e-05
6	0x37421961	1.156921e-05
7	0x399a6ee0	0.00029455777
8	0x385319d4	5.0330375e-05
9	0x3a44f546	0.0007513355
10	0x394fcf3b	0.00019818258
11	0x3a2a2750	0.00064908434
12	0x3a2b4598	0.00065335026
13	0x0c925c18	2.2550289e-31
14	0x389a1b00	7.3483214e-05
15	0x32c463e3	2.2862826e-08
16	0x382eec7a	4.170507e-05
17	0x39d9765d	0.00041477653
18	0x38b77183	8.747263e-05
19	0x38826b77	6.2189e-05
20	0x39aecf70	0.0003334242
21	0x3a38496b	0.0007029983
22	0x39db2260	0.00041796546
23	0x39a5e38a	0.00031640782
24	0x38e15332	0.000107443324
25	0x34814dc5	2.4084707e-07
26	0x39809d6e	0.00024531357
27	0x38a3860b	7.797413e-05
28	0x39a0d44c	0.00030675752
29	0x3905411c	0.00012708124
30	0x391ed960	0.00015149033
31	0x38a9e613	8.101403e-05
32	0x392fae53	0.00016754241
33	0x3a6f17e2	0.0009120685
34	0x39e207b4	0.00043111818
35	0x3720312b	9.548191e-06
36	0x38528910	5.019555e-05
37	0x39e6a820	0.0004399428
38	0x3a6bd8f6	0.0008996868
39	0x3a153ef1	0.0005693278
40	0x3a8d1217	0.0010762837
41	0x39a16cba	0.0003078932
42	0x39666ded	0.0002197546
43	0x3a1103d7	0.0005531883
44	0x37c178b6	2.3063603e-05
45	0x3a0269e0	0.0004974883
46	0x391d7493	0.00015016114
47	0x3a346e8e	0.0006882929
48	0x3933c5c3	0.00017144442
49	0x39ee84c2	0.0004549381
50	0x397f3eec	0.00024342135
51	0x38e39b26	0.00010853102
52	0x3a3b3de0	0.0007142704
53	0x378a2609	1.6468593e-05
54	0x39817194	0.0002468942
55	0x399c70e7	0.00029838757
56	0x39635279	0.0002167913
57	0x39ff29ba	0.0004866848
58	0x38c06437	9.17394e-05
59	0x39c651fd	0.0003782659
60	0x39aaebb4	0.0003260054
61	0x379bb532	1.8561816e-05
62	0x3716648b	8.964106e-06
63	0x37c87ff8	2.3901448e-05
64	0x37f4fad7	2.9203873e-05
65	0x39ab5297	0.00032677196
66	0x38f8ef8a	0.00011870179
67	0x3a09882d	0.0005246427
68	0x3830210d	4.199245e-05
69	0x38bda005	9.042028e-05
70	0x37761bb7	1.46691955e-05
71	0x3664d89f	3.4100738e-06
72	0x383f4a8f	4.5607387e-05
73	0x3a155e68	0.00056979666
74	0x39102282	0.00013745765
75	0x39588fd2	0.00020652942
76	0x395e8853	0.00021222355
77	0x39c41b62	0.00037404435
78	0x3885e7aa	6.385085e-05
79	0x3990a7dd	0.00027590888
80	0x3a497f0b	0.00076864724
81	0x374bf3d8	1.2156517e-05
82	0x39814486	0.0002465585
83	0x39ed93d4	0.00045314303
84	0x3951a076	0.0001999157
85	0x36c3b0f3	5.8320525e-06
86	0x370451a8	7.886825e-06
87	0x374b3b40	1.2113538e-05
88	0x38ed7223	0.000113223
89	0x39b9cb74	0.00035437534
90	0x39ad7167	0.00033081623
91	0x3a6a891d	0.0008946823
92	0x3a1e45b0	0.0006037606
93	0x33ca4c00	9.420182e-08
94	0x39e265d5	0.0004318195
95	0x3a849d01	0.0010117592
96	0x3a0d5fe6	0.0005393013
97	0x3a6eab17	0.0009104474
98	0x36ef9521	7.140116e-06
99	0x39952254	0.0002844507
100	0x38bd90a1	9.0391615e-05
101	0x398fb317	0.00027408518
102	0x35edb78e	1.7711297e-06
103	0x379d9d3f	1.8789082e-05
104	0x39691650	0.00022228924
105	0x392006b1	0.00015261282
106	0x39a714e3	0.00031868284
107	0x397a3030	0.00023859809
108	0x396850fd	0.00022155415
109	0x3aa5b5bb	0.0012642661
110	0x39333950	0.00017092121
111	0x36a92c83	5.0417743e-06
112	0x37da441f	2.6019346e-05
113	0x3996835b	0.00028708097
114	0x39c03f5d	0.00036668303
115	0x39ef4176	0.00045634405
116	0x3789ac24	1.6411832e-05
117	0x3992e264	0.00028015964
118	0x3570fcda	8.9774915e-07
119	0x3a912f10	0.0011076648
120	0x3a32b296	0.00068167725
121	0x39d52432	0.00040653493
122	0x396dbcb4	0.00022672379
123	0x374f4b99	1.2355763e-05
124	0x39570c7b	0.00020508647
125	0x38bf3d29	9.118982e-05
126	0x3614d92e	2.2180134e-06
127	0x39e0c8e3	0.00042874282
