models/model_20250801_124506_lr0.001.pth (torch, 126838 bytes, 18 tensors)

fc1.weight f4 [128, 4]
00000000: dc30 573d 362c eebd 51f5 24be cdc6 033e
00000010: 6849 963c 8967 0f3d 1ac2 be3d b92f a3be
00000020: c5a6 f23e 9f17 5a3c ac82 c83e b564 6e3e
00000030: ae88 f73d 8392 61be 994e cbbd dbee 71bd
00000040: 4ea1 8d3d 7af6 aabd be9b 683e 81c1 e0be
00000050: 9bf7 c73e eba7 e3bd c11e 26bf aad8 f0be
00000060: 882e 233e 923b d4be 7a72 b9bd 1e01 c53e
00000070: c10c 25be 9f9f c53e 7e24 59be 50e2 2dbe
00000080: a941 9cbe d878 e43e 3e1e c03e 9f19 193e
00000090: c2a2 ad3e 3eca c33d b562 a73e 7a5f b4bd
000000a0: 5697 3bbf 66e0 2bbc 0a95 c4be b517 69be
000000b0: 5b30 03bf cfb5 0cbd df85 153f 6050 f13d
000000c0: 09af 0b3f f398 64be 93cf 943e b52c 043e
000000d0: 4028 e53d e78b e4bd 245d 613e 6ea0 00bf
000000e0: d88b 53be ac61 5c3e fe43 45be 7314 1dbd
000000f0: 6cbd d0bd 868f 1abb 2092 27bd d95b d9bd
00000100: ba96 b63e b7e5 e83e 1dbc 6b3e 0efb 6b3e
00000110: c76a 5f3c bd8b 7e3d fcfb 513e 093f 8fbe
00000120: 0228 9a3e 08b4 b6be a8ad 4e3d 0daf 36be
00000130: 58c9 ea3e 38f9 d53e 84b0 a9be 4935 b9bd
00000140: 36dd 03bf 75df 6b3e 62b9 203e a84c d33e
00000150: f54a d93c ba6c 3a3e 42c9 1fbe 8a3d 5abe
00000160: 215e a6be 782c 1ebf eff3 933e e4f1 cf3d
00000170: 8ed1 21bf 9fae 28bf cb05 acbe 8970 6abd
00000180: 7769 5ebf 8994 22be a6a4 933e 102f c3be
00000190: a1c1 783e ae7c b63e 163a 97bd 8d73 b1be
000001a0: d116 03bf da32 6dbd 9e31 e0be 3f47 6b3c
000001b0: e16f da3e 93c1 ebbe d413 f5be e7c9 a7be
000001c0: 4334 093c 194a e63e c0fa d93e e283 bd3e
000001d0: 11f5 253e 0711 1abf b9ab d23e 6d39 4ebe
000001e0: de9e 2ebf 8e3e a7be 8ab9 993e 03b3 c43e
000001f0: e400 9b3d 68f2 bf3d d5d3 2cbf 15ae 833e
00000200: fc3f 073f 1a30 5cbe 5b19 3bbd 8667 a1be
00000210: 2fa1 6abe 6770 80be 4222 523e f998 f8bd
00000220: 5a46 d93e 5d42 f6bd 8565 a73e bb69 863d
00000230: e245 3abe 2e01 c5bc cb02 4fbe 2d3d 733e
00000240: c5f1 5fbd 5dc6 34bd b708 02be 1af1 00be
00000250: 6f80 143e 7f42 163e bdc8 79be a1f1 f5bd
00000260: 4e83 143f 3f5d 79be 540a 96be cf65 9bbe
00000270: 7060 253d a254 74be 82b5 193e 5562 3abe
00000280: 3223 b43e 4fea 0abe b8a4 c3be 209a 343e
00000290: cc96 67bd b5fa 5dbe ff5f 473b 4047 77bd
000002a0: 132e 81bf 6896 e0bd 7344 19bf 3288 c33e
000002b0: b4a5 763e 46d6 a8be c97d 64be a7c6 263e
000002c0: 76b4 e73e d9b6 853d 2c96 3b3d 9bba 3cbd
000002d0: 9bbf 2ebe 56cc ad3d fd86 aa3e 2954 d0be
000002e0: 8d2a f23e 08ca ac3e 8a41 b1bd bfc1 c8be
000002f0: ace1 af3d aef5 a93e 9816 303d 9510 ad3e
00000300: 0f2f 0ebd 86d5 723e d794 48bd f569 77be
00000310: 2510 d6be 097d 023e 9964 76ba cff6 18be
00000320: 2d6c 9dbe 3c15 09be 9c1b 8e3d 73c4 8b3e
00000330: aed2 163f 0cfb 33bf d65f 0abf adf3 8a3e
00000340: 1b31 b8be 37f7 49be fd74 67bd 0c08 2c3f
00000350: ea0d 063f cc45 713e 5ee7 163e b0a8 c53d
00000360: 3493 e9be fd9a a33d e5c5 c83e 80d1 d73e
00000370: 7d49 c4bc ff32 8d3e a62f 763e 6646 c13d
00000380: a7f4 8fbe 0d0e 10bf dfc9 d03d 0449 dbbe
00000390: 516e f73b 1698 71be 8285 30be 4ccf 26be
000003a0: 63cf 283e ad8a 46be d2a5 34be ed98 2fbe
000003b0: 7bcf a3be 9f4c 9e3e 092b 603e c5af c3be
000003c0: 5188 cbbe c497 5dbd e805 0cbf 1558 66bd
000003d0: 9914 79be 0179 17be 6354 f73c bb9e 183e
000003e0: dc67 83be 259e 73be 8f8d b13d 0556 0d3f
000003f0: 9cf9 003f 5973 97be c260 d7be 6178 1cbe
0.05253683 -0.11629526 -0.16109206 0.12868805 0.01834555 0.03501085 0.09314366 -0.31872347
0.4739286 0.013311296 0.39162195 0.23280604 0.120866165 -0.22028546 -0.09927101 -0.05906568
0.06915532 -0.08347793 0.22715661 -0.43897632 0.39056095 -0.11116012 -0.64890677 -0.47040302
0.15935719 -0.414517 -0.09055038 0.38477415 -0.16118146 0.38598344 -0.21205327 -0.16980863
-0.30518845 0.44623446 0.37523073 0.1495118 0.33913237 0.09560059 0.32692495 -0.08807273
-0.73277795 -0.0104905125 -0.38394958 -0.2276295 -0.5124566 -0.034353074 0.58407396 0.117829084
0.5456396 -0.2232397 0.29064617 0.1290768 0.11189318 -0.11159497 0.22008187 -0.50244796
-0.20658815 0.21521634 -0.19264218 -0.03834958 -0.10192379 -0.0023584082 -0.04091084 -0.10613222
0.3566187 0.4548776 0.23020978 0.23044989 0.013636298 0.062144984 0.2050628 -0.2797778
0.3010865 -0.35684228 0.05045858 -0.17840214 0.45856738 0.417917 -0.33142483 -0.090433665
-0.51509416 0.23034461 0.15695718 0.41269422 0.026525 0.18205538 -0.15604118 -0.21312538
-0.3249369 -0.61786604 0.28897044 0.10153559 -0.6321038 -0.6589145 -0.3359817 -0.05723623
-0.86879677 -0.15876974 0.28836554 -0.38121843 0.24292614 0.35641998 -0.07384126 -0.3465847
-0.5120669 -0.057909824 -0.43787855 0.014360248 0.42663482 -0.46046123 -0.4786669 -0.32771227
0.008374277 0.44978407 0.4257412 0.3701468 0.16206767 -0.6018223 0.4114664 -0.20139094
-0.6821116 -0.32664913 0.30024368 0.38417825 0.07568529 0.09372407 -0.6751073 0.25718752
0.5283201 -0.21502724 -0.045678478 -0.31524295 -0.22913049 -0.25085756 0.20520881 -0.12138552
0.42436486 -0.120243765 0.3269464 0.06563135 -0.1819072 -0.024048414 -0.20215909 0.23753805
-0.05467393 -0.044134486 -0.12698637 -0.12591973 0.14502119 0.14673804 -0.24392982 -0.12008978
0.58012855 -0.24351977 -0.29304755 -0.3035111 0.040375173 -0.2386041 0.15010646 -0.18201573
0.35183102 -0.13565944 -0.38211608 0.17636919 -0.056540295 -0.21677668 0.0030422208 -0.060370684
-1.0092186 -0.10966188 -0.5987007 0.38189846 0.24086648 -0.32975978 -0.22313608 0.16286717
0.45254868 0.06529016 0.045797512 -0.0460764 -0.17065279 0.084862396 0.33306113 -0.4068921
0.4729809 0.33747888 -0.08655079 -0.39210317 0.08587965 0.3319525 0.042990297 0.33801714
-0.034712847 0.23714265 -0.04897007 -0.24161513 -0.41809192 0.1274301 -0.00093991455 -0.149379
-0.30746594 -0.13387007 0.0693886 0.27298316 0.5891522 -0.7030494 -0.54052484 0.27139035
-0.35974964 -0.19723211 -0.056508053 0.6719978 0.5236498 0.23561782 0.14736697 0.09651315
-0.4562012 0.07988546 0.39213482 0.42152023 -0.023960823 0.2757797 0.24041614 0.094372556
-0.28116342 -0.5627144 0.10194754 -0.42829144 0.0075509925 -0.23593172 -0.17238429 -0.16290015
0.16485362 -0.19388838 -0.1764138 -0.1714818 -0.31994233 0.30917832 0.21891417 -0.3822004
-0.3975244 -0.054099813 -0.5469651 -0.056236345 -0.24324264 -0.14792253 0.030191606 0.14904301
-0.25665176 -0.23790796 0.08669578 0.5520938 0.50380874 -0.2958019 -0.42066008 -0.15280296

fc1.bias f4 [128]
00000000: 40c9 61be 2264 c03e 0621 f2be 3cdd 3c3f
00000010: 628f ac3e c4ce 12bd 3bf1 953e 4ab0 9c3d
00000020: 3621 15bf 6d50 0abf 8f47 a33e 6711 fabe
00000030: cfcc 2abf 9d90 dbbe d8be 293f 4416 173f
00000040: 5cc9 fcbe e6f2 d1be 29f0 c73e c1b2 0fbf
00000050: 498d a6be 6dd3 8c3e 70cd 713d 81ce 833c
00000060: 2c8a 093e 93ef f3be d67d 223f a350 a23e
00000070: cfa9 3ebf a900 84be 73b1 31be c255 84be
00000080: 6acc 283e a6cf cf3e bc48 cdbe 6321 383f
00000090: 3f39 543f 7282 ab3d eab3 753e d09e 60be
000000a0: 1ff2 0fbe 8b70 3c3c 6c0d 8cbe 7243 703e
000000b0: 8e2f 41bf ea5f 343f ce7e 1dbe 776c efbe
000000c0: e317 993e 14eb 483d 342d 71be fb35 b5be
000000d0: 8e0f c3bd 15f8 6fbf 1e67 a7bd 780f 37bf
000000e0: d511 0f3f ef56 1f3d 7807 fd3d d4d1 983e
000000f0: 37e1 c73e 4912 7cbe 0c69 a83e 3bb7 033f
00000100: 9c45 a33c 5eb0 5dbe 75ec be3d e902 e03e
00000110: b718 80be abe8 2e3f 53ab ebbd 4091 043f
00000120: 291c 0b3e ea46 10be cebe 07bf 6645 033e
00000130: e224 113f a82d 0a3f 35fb 60be 2aca 0c3e
00000140: fd1c ecbe 4266 153e b7df 4b3f 3a9e 5fbd
00000150: 74e8 49bd 5189 0ebe ab20 41be b737 49bd
00000160: d79a 063f 0207 a2ba f608 a2be ab3c 1ebf
00000170: 3c08 18bf 0188 0cbf 259e 053f fe5a ccbe
00000180: e2d2 40be ba38 d4be b1de 943e 4018 bebe
00000190: af40 d5be 42a9 4e3f 271c 80be ad6b bf3d
000001a0: bec1 8cbe 1798 84be bf42 843d 7a99 e33e
000001b0: c17a 77be be6d 4fbf 4ef7 c4be 7076 b1be
000001c0: a203 cc3e 8533 ec3a 6718 9e3c 80d2 dcbe
000001d0: 8002 5a3e 8bd1 623e 83a7 fe3e 3ddc 45bf
000001e0: dfe9 19bd e7ec 1e3f 21be 053f d1e1 ca3e
000001f0: 5e35 58be 467a 18bf a122 2dbf 0feb ccbc
-0.22049427 0.37576395 -0.4729082 0.73775077 0.33703142 -0.03584172 0.29285607 0.07650812
-0.582538 -0.5402897 0.31890532 -0.48841402 -0.66718763 -0.4288377 0.6630683 0.5901835
-0.49372375 -0.4100563 0.39050415 -0.5613213 -0.32529667 0.27505055 0.05903381 0.01608968
0.13431615 -0.47643718 0.6347326 0.31702146 -0.7447786 -0.25781754 -0.17352848 -0.25846678
0.16484228 0.4058811 -0.40094554 0.71925944 0.8289985 0.0837449 0.23994413 -0.21935582
-0.14057206 0.011501442 -0.2735399 0.23463228 -0.7546319 0.70458853 -0.15380403 -0.4676244
0.29901037 0.049052313 -0.235524 -0.35392746 -0.09524451 -0.9373792 -0.08173965 -0.7150798
0.55886585 0.038901266 0.1235494 0.29847586 0.39039013 -0.2461635 0.32892644 0.5145146
0.019930653 -0.2164931 0.09322444 0.4375222 -0.25018856 0.68323773 -0.11507287 0.51784134
0.13584961 -0.14089552 -0.5302552 0.12819442 0.56696904 0.53975916 -0.21970828 0.13748994
-0.46115866 0.1458979 0.79638237 -0.054594256 -0.04929395 -0.1391957 -0.18860118 -0.0491254
0.52580017 -0.0012361708 -0.31647462 -0.6181132 -0.59387565 -0.54895025 0.52194434 -0.39913172
-0.18830445 -0.4144953 0.2907615 -0.37127876 -0.41650912 0.80727017 -0.2502148 0.093467094
-0.27491564 -0.25897285 0.06458043 0.4445303 -0.2416792 -0.8102683 -0.38469929 -0.34660673
0.39846522 0.0018020725 0.019298745 -0.4312935 0.21290016 0.22150247 0.49737176 -0.7728918
-0.037576552 0.62080234 0.5224324 0.3962541 -0.21114108 -0.59561574 -0.67630965 -0.025014428

fc2.weight f4 [64, 128]
00000000: 1d92 453d 4e79 a23c 2d9e 4cbd 9f55 7dbd
00000010: c13f 6abd 2b43 58bd 0a11 8cbc a057 e3bb
00000020: 3fb5 91bc 168a 95bd 8694 503c 173a 9f3c
00000030: ba96 9b3d cb11 57bd d69c 4cbd 077d 90bd
00000040: 3558 c3bd 50cb 12bc 30a6 37bd f151 843d
00000050: b22b d5bd 9e88 34bd 5056 c2bd f80a bd3d
00000060: 791b 923a 117a 93bd 302f fcbd 5fa0 023b
00000070: 892e 5e3c a392 ef3c e32e d7bd a707 603d
00000080: 35c5 93bd e4dd 09be bd83 50bc 07a1 e43c
00000090: 3213 5cbd 6282 7dbd dd3d 473d b4ea 57bd
000000a0: 1eaf 01bc 28cf a5bd 4b1d 93bc 44a9 9abd
000000b0: 7ebf a43d c9e7 c7bd 665f 8ebc 8eda 6cbc
000000c0: 85e1 80bd 4669 37bd e2c5 96bd 4cef a33c
000000d0: d781 9fbd 897b d33c d2ad c6bc 5cf7 0a3c
000000e0: cb7b ab3c 5374 0abd 20aa 8abd 6dd5 f03b
000000f0: 623d 28bd f45f c43c 9034 bcbd bcf4 843d
00000100: 2ea6 6fbc 5e9d 9f3d df5a 8fbd 2260 52bb
00000110: 8c88 9dbd 37a7 febc 6cef adbd d0a0 8f3c
00000120: 6e68 d4bc 089f abbc 93cc c13c 0896 43bd
00000130: 6542 b3bd b553 19bd ded6 913c 2ab7 e8bd
00000140: e25b dcbd f3ce 283d da63 ebbd 8653 85bd
00000150: 334e f5bd f2ff 0e3d ce8f b4bd 4a4b 64bc
00000160: 950c e0ba 54ae e3bd ee27 76bd d231 ea3a
00000170: 303f b4bd 80a2 a43c 2de8 93bd 4e84 573d
00000180: 70ea c4bd d920 7e3d 4d8c f03c 0249 86bd
00000190: b686 ab3c 06e6 f5bd d90f b1bc fa1b a83d
000001a0: fba2 bbbd ab81 06bd f029 2e3d 4b81 a0bb
000001b0: c50e 94bd 1b0e a8bd 2b6f bfbb 2e1c 0cbd
000001c0: 10d3 0ebd b825 c0bd 7f5d bebd 6f1d 4f3d
000001d0: 9cd3 23bc 1aef efbd 62a8 433c dcba 2fbd
000001e0: a202 9dbd 1dff 00be 15a5 dcbc 8c7a 16bb
000001f0: 38bf d5ba 0ecc 41bd 565c 1ebe c987 fcbd
00000200: 6dab 08be 5fe2 97bc b7c5 12be 4695 83be
00000210: 153d 0c3c 8645 fdbd 3d36 f2bd 218c 7e3e
00000220: fc80 893e 9947 d4bd 816e 5f3e dc9b b43e
00000230: e051 55bd 42e3 a6be 7aef 3b3e 94af f33d
00000240: b7c6 95bc f58b a2be c3cd 8bbe a0a3 903d
00000250: ae78 9b3e 61fc 3b3d 3794 153e 038d b4bd
00000260: de19 d93e f8aa c33d 0e94 cb3b 9b8a d6be
00000270: 2d7e cb3d 2027 13be ea78 873e ae4b 403d
00000280: 2bb0 52bf 26f4 333e 5c3a d7bd b370 313c
00000290: ba82 bebd 25a2 1d3e c54c 14bf a594 0f3e
000002a0: d8aa 86be 5048 16be 300e 9fbe 4f14 63be
000002b0: 3727 14be aa32 233e 8a35 30bd 71c5 b23d
000002c0: bf32 74bc cf4c b33d c009 893d 2531 a23e
000002d0: c95a 913e 6f8d 34be 6934 643e 6c5b 953e
000002e0: 2d84 8bbd 8238 debd 0c7f cabe cd69 483e
000002f0: 564f 5b3e c7b4 cbbd 9784 b43d 5eea dbbd
00000300: d728 6abe 95fe 153e b5cd 4fbc 8f60 15bd
00000310: d69f ae3e 944f 9c3d 6e9d 093e 4380 833e
00000320: f53b b03e 2672 753e 8724 f7bd 0c0d 46be
00000330: 422e 403e c299 de3d e097 60be 3fb8 46be
00000340: 0eed b0bc 40fb 2b3e f1e5 093d 393c 283e
00000350: c106 0d3d cfb4 943d 2fae 293e ae06 98bc
00000360: 8668 3fbd f60c a83e f842 52bc 5ace f53d
00000370: c9ed 87bd da96 5c3c 54f1 1e3e 32f6 acbd
00000380: 7d18 383d 8a35 813c 0281 d3be 1a9c d8bd
00000390: df9e 28be f862 343e 150f 42be a264 43bd
000003a0: b4ce e6be 291d efbe e1f9 56bd d010 3dbd
000003b0: 2df8 773e c006 ecbc 2f9a 86be 71bc 3abe
000003c0: 8522 42be e7d3 09ba 02bd 153c 04f4 7dbd
000003d0: 3ef9 a33d da9a 413d 7940 8b3c 5674 f33d
000003e0: 5df6 f63d 1ac7 7fbe 6e93 453e edef be3d
000003f0: d23d 2dbc ed1b 693e b45c da3d 2c77 0fbe
0.048235048 0.019833233 -0.049955536 -0.061849233 -0.057189707 -0.05279843 -0.017097969 -0.006937936
-0.01778662 -0.073017284 0.012730723 0.01943688 0.07597108 -0.052507203 -0.049954258 -0.07055097
-0.095383085 -0.008959606 -0.044836223 0.064609416 -0.10408725 -0.0440756 -0.09489119 0.09230608
0.0011147104 -0.07201017 -0.12313688 0.0019932014 0.0135608995 0.029244727 -0.1050699 0.054694798
-0.07215349 -0.13463551 -0.012726721 0.027908815 -0.053729244 -0.06189192 0.04864298 -0.052714065
-0.007915286 -0.080961525 -0.017958304 -0.07551816 0.08044337 -0.097610064 -0.017379474 -0.014456404
-0.062930144 -0.04477813 -0.07361962 0.020011567 -0.07788437 0.025815742 -0.024252806 0.008481827
0.020933053 -0.03380234 -0.0677073 0.007349661 -0.041074164 0.023971535 -0.09189713 0.06491992
-0.014627023 0.07793687 -0.06999754 -0.0032100757 -0.0769206 -0.031085594 -0.08492932 0.017532736
-0.025928702 -0.020949855 0.023657119 -0.047750503 -0.08752898 -0.037433345 0.017802652 -0.11363061
-0.10759713 0.041212987 -0.114936545 -0.065100715 -0.11977806 0.034912057 -0.08816491 -0.013933966
-0.0017093593 -0.11117235 -0.060096674 0.0017867631 -0.088011146 0.020097017 -0.072220184 0.05261641
-0.09615028 0.062043045 0.029363776 -0.06556894 0.020938259 -0.12006764 -0.021614002 0.08208461
-0.091619454 -0.032838505 0.042520463 -0.0048982254 -0.072293796 -0.082058154 -0.0058421097 -0.03420656
-0.034869254 -0.09382194 -0.09295177 0.05056518 -0.009999182 -0.11715527 0.011942001 -0.042902812
-0.07666518 -0.12597318 -0.026934186 -0.0022961227 -0.0016307598 -0.047313742 -0.15464911 -0.123305865
-0.13346644 -0.01854056 -0.14333235 -0.25699824 0.008559485 -0.12366776 -0.118267514 0.24858142
0.2685622 -0.10365219 0.21819498 0.3527516 -0.052080035 -0.3259526 0.18353072 0.11898723
-0.018283231 -0.31747404 -0.2730542 0.07062459 0.3036551 0.045894984 0.1460732 -0.08815958
0.42402548 0.09554094 0.006212718 -0.41902623 0.099361755 -0.14370394 0.26459438 0.046947174
-0.8230006 0.17573604 -0.10509178 0.010830092 -0.09302278 0.15393884 -0.5792964 0.14021547
-0.26302218 -0.14676023 -0.31065512 -0.22175716 -0.14468084 0.15937296 -0.04301981 0.08729065
-0.014904677 0.087548845 0.06691313 0.3167812 0.28389576 -0.17632078 0.22285618 0.29171312
-0.0681232 -0.10850622 -0.39550054 0.1957161 0.21416983 -0.0994659 0.08814352 -0.10738061
-0.22867142 0.14647897 -0.012683322 -0.03646904 0.3410632 0.07632366 0.13438961 0.25683793
0.34420744 0.23969325 -0.12067514 -0.19340914 0.18767646 0.10869171 -0.21932936 -0.19406222
-0.021597411 0.16795063 0.033666555 0.16429223 0.03443027 0.07261049 0.16570352 -0.018557873
-0.04673054 0.32822388 -0.012833349 0.12002249 -0.06637151 0.0134637 0.15521747 -0.084453955
0.04494523 0.0157726 -0.41309363 -0.10576649 -0.16466855 0.17615879 -0.18951066 -0.047703393
-0.45079577 -0.46701935 -0.052484397 -0.04615861 0.24215765 -0.028811812 -0.26289508 -0.18235947
-0.1895848 -0.0005257711 0.009139301 -0.06200029 0.080065235 0.04726682 0.016998516 0.11887424
0.12058709 -0.24978295 0.19294521 0.09323106 -0.010573821 0.22764559 0.10662213 -0.14010304

fc2.bias f4 [64]
00000000: 92ed 1ebd e3b6 77bd 28e2 eaba 0a99 e23c
00000010: ee64 1dbe 41cd d73d b5e7 253e f710 83bc
00000020: 0526 9a3e 091c d4bd 5715 343e ecf7 543d
00000030: 6833 6f3d dd2d 4ebd ddad c53e 56de c6bd
00000040: a722 923e 7506 80bd 598a 113d c0d8 0dbe
00000050: 9eb2 553e ed07 cdbe fe4e e3bd 279c a1be
00000060: 4716 313d 3354 4dbe df69 213c 1ddc 51bd
00000070: ee71 863d e5b7 aebb c07d 293e 9cb6 bfbd
00000080: c07c 05bd 3406 abbe eaa8 633e 622e fa3d
00000090: 1f8e b7bd 16be 993e fb1d c33c 57b0 123d
000000a0: 9e3d 813e 4574 603e dba6 bbbd 766e 443d
000000b0: 5b5b 4e3d d02b 283e c67e c03d b233 f93a
000000c0: 0de5 95bd 1f45 c33c 295e 60bc 8649 d83e
000000d0: dcdb 89bd bdd8 9d3e b933 063d a5fa 823d
000000e0: b990 b2be ee5f b13c 336d 843d 35f0 4f3c
000000f0: 9e25 eabc 34ad 0ebd 8d85 a33d e8dc 7dbe
-0.038800783 -0.06047715 -0.0017920183 0.027660865 -0.15370533 0.10537196 0.1620167 -0.0159993
0.30107132 -0.1035691 0.17586266 0.05199425 0.058398634 -0.050336707 0.3860921 -0.09710376
0.28542063 -0.062512316 0.03553233 -0.13852215 0.20868918 -0.4004511 -0.11099051 -0.31564447
0.043234136 -0.2005165 0.009851902 -0.051235307 0.06564699 -0.0053319805 0.16551876 -0.09361002
-0.032589674 -0.3340317 0.22232404 0.12215878 -0.08962654 0.30027837 0.023818007 0.035812702
0.25242323 0.21919353 -0.091626845 0.047956906 0.050380092 0.16422963 0.0939918 0.0019012599
-0.073190786 0.02383667 -0.0136943245 0.42243594 -0.06731388 0.3082942 0.03276417 0.06395463
-0.3487604 0.021652188 0.064661406 0.012691547 -0.02858239 -0.034833148 0.07984457 -0.247913

fc3.weight f4 [15, 64]
00000000: e90a 39bd e2bd 94bd 0497 45bf 2bb7 263e
00000010: f3fa e5be 703a c33d 5270 78bf 0891 e9be
00000020: 14c9 343d e597 1dbd aa38 1fbe 7027 a9bc
00000030: bdad f73c b793 eabe 1ae2 ff3d 78e5 b53d
00000040: 921b 19bd b601 e53d 214b 363e 50dd 1bbe
00000050: c8ce f0be dc5e fbc0 9d74 71bf 433b fbbf
00000060: 8764 c8bd fbc2 a3be 994b d8bd 7794 a1be
00000070: a63c 773e c6ef 153e d50f bebe a9fd 91bd
00000080: d4bc c6bd 87b2 eebe dd4c 7c3d 5cb9 503e
00000090: 8f6e 89be c75b 98be 0c95 9bbf c340 e5bd
000000a0: ca3d 943d b0d4 923d c833 8c3d d0c1 4f3c
000000b0: f8ca 7d3d 0b22 a9be cc72 513e 7f7b a9bf
000000c0: 4102 b2bc 98d4 cc3d 505f ef3c 89e7 0c3d
000000d0: aac5 c9bd 3182 b03d d64f 61bd 9386 fdbc
000000e0: 8993 6ebf e650 7dbe 5d63 963e fb4f 4abe
000000f0: f4ea c9bd d46f 88bd 4f63 20bc 2e98 a5bf
00000100: 347b 9cbd 7092 c33d 4013 15bf 7119 31bd
00000110: f178 17bf 9112 eabb 900f 39bf 3071 ecbd
00000120: 1bbc 3e3d 79f4 92bc 71f8 e73d f06f 4b3e
00000130: 0c78 a93d d298 c3bd bc80 f83d 120c cd3d
00000140: a4c7 233e b227 06be b8d3 873e a406 08bf
00000150: 69f3 60be 7907 c0bf c177 0cbf 83ae eabe
00000160: 4e8e 85bd 61dc 00bf 0b57 55be 5785 fdbd
00000170: b777 6a3e ec66 243b 9827 91be 3744 863d
00000180: f70d 12bd a1d2 f6be 09b5 533e 98e4 433e
00000190: e5a9 bcbf bcd2 88bd ed3c 06bf 4aa4 2fbe
000001a0: 8def 2abc ab1e 7d3d d703 ee3c 288b 8a3d
000001b0: 71b7 e93d 1d5f 31bd 2f91 633e 3c4c 4ebf
000001c0: d4ed d1be 5b19 503e 4cc8 57be ddd1 963d
000001d0: 6048 ebbc b554 16be d9d1 9cbd 5043 dd3d
000001e0: bbb6 a2bd 9918 113d f83d 8e3d f545 82be
000001f0: cc35 7f3d e712 48bd 992d 91be 00cb 5cbf
00000200: e7ea c7bd 956a 683e efbb 4f3d 2068 1dbe
00000210: 463f 68be b995 0f3e b95c 5cbe 0975 eeba
00000220: d147 953d 0a0e a5bd bc11 7b3e 038e c9ba
00000230: 03e9 a1be 482d 303d 16b4 e43d ebd2 b4bd
00000240: 60d9 fe3d c9cc 1bbd 0291 1e3d 898b 783d
00000250: f2de 87be 4e38 26be ca33 1fbe 99cb 86be
00000260: 4cf9 7c3d f106 a5be 998f 873d 4bb6 e7bc
00000270: ac3f 9c3d d0ce 01be d3c7 6abe 94ee ca3d
00000280: 3ac0 5cbd b630 dbbe 2aff eabb 46de bb3c
00000290: 2e1c 83bc e39f 573e 3484 c2bd 9fdb 80bd
000002a0: b705 fd3d 0161 9fbd cc9f 043e 2698 cd3d
000002b0: f0e7 033e 80f1 1a3e 05bf 99bd 5e6b d7bd
000002c0: 05cd 32be acb4 10be a2c0 48be 109c 343e
000002d0: 3806 01bd ea65 0e3e 7400 87bd d9d9 393e
000002e0: eb07 79be fc9c 14be b849 08bf d941 3ebe
000002f0: 167b c43d b2b7 a23d 67f6 3abe 6ac2 31be
00000300: 7717 51bd 92dd 783e 964e 103d 707f 8ebf
00000310: 8cc0 01be 6d0e 003e 4258 9fbe 6a3c ff3c
00000320: ea47 2bbd aa84 f23d c5ed 683e 92e8 a0be
00000330: 4dab d2be 1913 423e 478d 39be eb5c 1ebd
00000340: ac92 1f3e 3567 66be af6d 253e 2565 eebc
00000350: 6365 00be 8bec 3fbe fd2e b0bd 9767 6b3d
00000360: 52f6 6fbd 338f 06bf 49ef d8bc 3959 1a3b
00000370: 4058 a5bd c34f 3dbe 388d 81be 26cc 17bc
00000380: b154 9a3d b013 59bf 5832 453d e7b5 7fbe
00000390: 9caf a73d 103c ed3d 248c 5b3d 5535 0abe
000003a0: 11f7 6bbe d68b 903d c576 40be e82e 9b3c
000003b0: 4b2b 133e e1e0 1c3e 3df8 5bbe fc5b 26bd
000003c0: 3195 64bf 0344 61bc 6313 77bf 180c d0bd
000003d0: 9ffb e0bc da7b 25be ce47 263d bc71 723e
000003e0: af26 763d fad7 213e fc9e 68bf c55c ebbe
000003f0: b048 8c3d 7afc a03d d305 4abd 6087 52bf
-0.04517642 -0.0726278 -0.77183557 0.1628081 -0.44918022 0.095326304 -0.9704639 -0.45618463
0.044137076 -0.038474936 -0.1554896 -0.020648688 0.030234212 -0.45815822 0.12494297 0.08881658
-0.03737981 0.11181967 0.17802097 -0.15221143 -0.47032762 -7.8553295 -0.9431856 -1.962746
-0.09784799 -0.31984696 -0.10561294 -0.31558582 0.2414423 0.14642248 -0.37121454 -0.0712846
-0.09703985 -0.4662058 0.06159674 0.20383209 -0.26842162 -0.2975752 -1.215486 -0.11193993
0.07238348 0.07169473 0.06845814 0.012680486 0.061961144 -0.33033785 0.20453948 -1.3240813
-0.02172959 0.100014865 0.029220253 0.034400497 -0.098521546 0.08618582 -0.055007778 -0.030947959
-0.9319387 -0.24737892 0.29372683 -0.19757073 -0.09859267 -0.066619545 -0.009789302 -1.2937067
-0.07640687 0.09549415 -0.582325 -0.043237153 -0.59168917 -0.0071433266 -0.7228937 -0.11545026
0.04656611 -0.01793884 0.11326683 0.1986692 0.0827485 -0.095506325 0.12133929 0.10012068
0.15994126 -0.1310108 0.26528716 -0.5313513 -0.21967854 -1.500228 -0.5487023 -0.45836267
-0.06521283 -0.5033627 -0.20833986 -0.12378948 0.2289723 0.002508576 -0.2835052 0.0655598
-0.03565785 -0.48207572 0.20674528 0.1913017 -1.4739348 -0.066808194 -0.52436715 -0.17152515
-0.01043309 0.061796825 0.029054565 0.06764823 0.11411942 -0.043303598 0.22223352 -0.80585074
-0.4100176 0.20322172 -0.21072501 0.07364247 -0.028721035 -0.1468075 -0.07657213 0.108038545
-0.07945009 0.03542385 0.06945413 -0.25443998 0.062307164 -0.04884615 -0.283551 -0.86247253
-0.09761601 0.22696908 0.050716337 -0.15371752 -0.22680387 0.14021958 -0.21519746 -0.0018192838
0.072890885 -0.08059318 0.24518484 -0.0015377406 -0.31623086 0.043011934 0.11167161 -0.08829292
0.12443805 -0.038037095 0.03871251 0.060679946 -0.2653728 -0.16232416 -0.155471 -0.26327208
0.061761186 -0.32231858 0.06619186 -0.028285166 0.07629332 -0.12676549 -0.2292779 0.099087864
-0.05389426 -0.428106 -0.007171531 0.022933137 -0.016004648 0.21057086 -0.09497872 -0.062918894
0.12354606 -0.07782174 0.12951583 0.10038786 0.12881446 0.15131187 -0.07507137 -0.105185255
-0.17461021 -0.14131421 -0.19604734 0.17637658 -0.03150007 0.13906065 -0.06591883 0.18149509
-0.24319427 -0.1451301 -0.53237486 -0.18579806 0.09593789 0.07945193 -0.18258058 -0.1735932
-0.05104777 0.24303272 0.035231195 -1.1132641 -0.12671107 0.12505503 -0.31122023 0.031156737
-0.04181663 0.1184171 0.22746952 -0.31427437 -0.41146317 0.18952598 -0.181203 -0.038662832
0.15583295 -0.22500308 0.16155122 -0.029100964 -0.12538676 -0.18742578 -0.08602712 0.057471838
-0.05858452 -0.52562255 -0.026481288 0.0023551716 -0.08073473 -0.18487458 -0.25303054 -0.009264981
0.07535685 -0.84795666 0.048143715 -0.24971734 0.08187792 0.11583722 0.053600445 -0.13496907
-0.23043467 0.070579216 -0.18795307 0.018943265 0.14371984 0.1532016 -0.21481414 -0.040615067
-0.8929015 -0.013749125 -0.96513957 -0.10158557 -0.027463732 -0.16160527 0.040595822 0.23676199
0.060095485 0.15805045 -0.9086759 -0.45969215 0.068498015 0.07860656 -0.04932196 -0.82237816

fc3.bias f4 [15]
00000000: bed4 f0bd bca0 f2bb 552b bcbc 2373 13bc
00000010: 0e8c 1b3d e965 bc3d a848 533d 5c79 873e
00000020: e1d4 47bd 1535 473e 1ede 28bc d370 f1bc
00000030: b86f ff3d c945 a7bc cce0 1cbf
-0.11759327 -0.007404415 -0.022969881 -0.008999619 0.037975363 0.09199125 0.051582962 0.26459777
-0.048787 0.19453843 -0.010306863 -0.029472744 0.124724805 -0.020419018 -0.6128051

exp_avg f4 [128, 4]
00000000: 2f59 8039 0668 bdb8 87b7 10b9 8d3a 5d3a
00000010: 089b 1a3c c04e 2b3c 8345 473c 9c25 313c
00000020: 02e7 ecbb 9ac2 e1bb 14bc 1bbb c21a c139
00000030: db7b f63b c589 223c c266 6c3c a045 103c
00000040: fff6 8d3a 8983 7eba 260a 113b fa3c 163a
00000050: ba96 e23b b79c 5f3b 825d 6a3a ac34 ba3a
00000060: 7cdd f1bb a409 95bb cb31 a2bb 8061 2538
00000070: 69cb 443b 35bd 733b 8121 313b 897d f23a
00000080: fe44 5abb d1c1 63bb c367 2dbc 882a d0bb
00000090: 0e76 ddbb 4afa 1cbc 4254 e3bb 6dde 5ebb
000000a0: 2517 153b 721f 033b 14f9 0bbb 6c6b 073b
000000b0: 7cf3 cfbb f289 4fbb 700a 36bc e2e3 28bc
000000c0: aa91 01bc fc25 dbbb 15a3 febb 53ff 1dbb
000000d0: 9f60 1dba 2335 4b3a af54 ac39 f70a 2d3a
000000e0: 6220 103c 14ed 513c d632 5d3c d8a3 163c
000000f0: 10b4 823c 9652 983c 7eea 8f3c 4f4c 3e3c
00000100: 525b 1ebc bbb2 25bc a63a b8bb b819 5bba
00000110: aace dc3a e0ee bd3a b883 8b3a cab0 37ba
00000120: a074 4fb9 c482 abb9 0f00 6f3b 1d16 433b
00000130: a6a1 ebbb f481 cebb dd19 7dbb f7e7 3ebb
00000140: d71f 0cbb ac0f 0d3b 65da d0bb 184e 87bb
00000150: 222e 363b 5cb0 e13a 2f8c 213b b515 a73a
00000160: ed48 33ba 01e1 67ba cea6 fcba 76bf a7ba
00000170: 9e29 7e3a 2c8b d4b8 68e2 76ba 5689 313a
00000180: cd56 1f3a 4283 0a3a 4548 aab9 67f5 643a
00000190: dca0 fbbb 6942 24bc ed4a 90bb fd5c 4dbb
000001a0: fb3f a43b bee5 533b e838 aabb ccae 8c3b
000001b0: b812 c63a 34a6 013b 94b1 32bb 1cad 11ba
000001c0: 24f0 48bb 6566 acbb 9ccc 22bc a72a 48bb
000001d0: 1081 d7ba 3880 d4ba 114e 7dbb 00ea 68bb
000001e0: d985 96bb c456 b6bb d461 50bc 4014 32bc
000001f0: 6a67 28bb 4e6d e0ba d688 f339 f800 22bb
00000200: 9b78 9dbb c930 91bb 8023 c638 ba7d 0cbb
00000210: bc1e 083a 7272 233a c8e3 39bb e447 62bb
00000220: 3b5d c4bb 9c72 b9bb b461 57bb 450a af3a
00000230: 5f70 063c e20f 633c 18c9 3a3c cdc0 053c
00000240: ee12 763c 86fd a13c e7d6 b63c a0d7 633c
00000250: ec92 6ebb 78a9 28bb 0818 abb8 432c 1abb
00000260: 3a67 52bb f00f 22ba 4881 e8ba 3ae6 4dbb
00000270: 348e 2ab8 6ad8 2eb9 c9f0 8fb8 1457 e839
00000280: b4d4 a3bb f4d6 0bbb 74a4 82ba 4277 4cba
00000290: b14f 72b9 e7c4 d438 600d 8039 8325 c3b9
000002a0: 8bec 953a e8ef 81ba 2098 33b9 0893 c83a
000002b0: 638f 6dbb bb92 00bb 4027 7ab9 10ac 433a
000002c0: 0471 22bc 7264 34bc ddb3 f4bb e308 a4bb
000002d0: 9ae5 6d3c 76f9 a03c afc2 953c c621 653c
000002e0: 15ed 15bc ca50 21bc 0155 9abb bf42 a7bb
000002f0: c7a2 ecbb ee8f cebb 1b8e 9bbb 969f 94bb
00000300: 164a aa3b 2a51 bc3b 840e ee3b 99b2 8d3b
00000310: 6c0a d1b8 2257 043a 2029 8039 287a 253a
00000320: 28aa f5b9 80b4 2338 7d5c 98ba 6871 0dba
00000330: e8c7 c9ba c358 a13a 7b92 21bb 32d3 b439
00000340: fc67 d8ba ea9e 0abc 1d7a 43bc 6e4b bcbb
00000350: 5950 33bc a7c6 85bc 7669 5dbc b4e2 f4bb
00000360: 9c3c c1ba 3206 773b 7c0f a0bb 67c8 98ba
00000370: ba33 00bc bb1b 64bc 2e9f 85bc 884f 3bbc
00000380: c6b5 773b ba7c 9f3a 63c7 3c3a d3e8 9e3a
00000390: 17e0 1039 00f9 e538 a614 1939 6136 f7b9
000003a0: 8eb0 79ba e845 f437 10f4 b5b8 b87f 4bba
000003b0: 240f 1c3c a862 3f3c 9b77 283c 05c3 143c
000003c0: b5db b13b d840 643b 44c3 48bb d251 d73b
000003d0: 5705 3238 4e14 ea38 acc2 3137 a052 0438
000003e0: 0811 cbba b049 313a b279 e8ba c06f 0939
000003f0: 1343 1bbb 311a 05bb 45af 82ba 1561 2fbb
0.0002448051 -9.031598e-05 -0.0001380128 0.00084392057 0.009436376 0.010455787 0.012162569 0.010812189
-0.0072296867 -0.0068896534 -0.0023763226 0.00036831765 0.007522089 0.009920542 0.014428796 0.008805662
0.0010831057 -0.00097089313 0.0022131293 0.0005731132 0.0069149407 0.003412051 0.00089403254 0.0014206371
-0.0073811393 -0.0045482684 -0.0049497834 3.942987e-05 0.0030028468 0.0037191634 0.0027028027 0.0018500547
-0.0033305283 -0.0034752975 -0.010583821 -0.0063527264 -0.006758458 -0.009581158 -0.0069375345 -0.0034007088
0.002274939 0.0020007757 -0.002135818 0.0020663394 -0.0063461643 -0.0031667915 -0.011110887 -0.010308238
-0.007908264 -0.0066878777 -0.0077709057 -0.0024108484 -0.00060034724 0.00077517534 0.0003286949 0.000660106
0.008796783 0.0128128715 0.01350089 0.009194337 0.015955001 0.018594068 0.01756787 0.011614873
-0.009665327 -0.010113413 -0.005622226 -0.00083580194 0.0016846259 0.0014490746 0.0010644114 -0.00070072396
-0.00019784505 -0.0003271309 0.003646854 0.002976782 -0.007190901 -0.0063021127 -0.0038620152 -0.002912996
-0.0021381283 0.0021524234 -0.006373691 -0.0041291825 0.0027798493 0.0017218697 0.0024650206 0.0012747558
-0.0006839175 -0.0008845479 -0.0019275786 -0.0012798149 0.00096955325 -0.000101348705 -0.00094178924 0.0006772479
0.0006078303 0.0005283841 -0.00032478772 0.00087340776 -0.007679088 -0.010025599 -0.004403463 -0.0031335943
0.00501251 0.0032332982 -0.005194772 0.0042932983 0.001511178 0.0019782903 -0.002726649 -0.00055571063
-0.0030660713 -0.00526123 -0.009936478 -0.0030543 -0.0016441662 -0.0016212529 -0.0038651268 -0.0035539865
-0.0045935926 -0.0055645425 -0.012718637 -0.010869086 -0.0025696405 -0.0017122419 0.00046450522 -0.0024719816
-0.004805637 -0.0044308645 9.447988e-05 -0.0021437244 0.0005192568 0.000623501 -0.0028364528 -0.0034527713
-0.0059925593 -0.0056594145 -0.0032864632 0.0013354501 0.008205502 0.013858767 0.011400484 0.008163643
0.015019162 0.01977421 0.02231927 0.0139063895 -0.003640349 -0.0025735777 -8.1583916e-05 -0.0023524917
-0.0032104985 -0.00061821844 -0.0017738724 -0.0031417743 -4.0663595e-05 -0.00016674554 -6.863621e-05 0.00044315367
-0.0049997214 -0.002133784 -0.0009967224 -0.0007799753 -0.00023108606 0.00010145624 0.00024424028 -0.00037221247
0.0011438293 -0.0009913417 -0.00017127441 0.0015302608 -0.0036248795 -0.0019618708 -0.0002385648 0.0007464299
-0.00991464 -0.011010276 -0.0074677304 -0.005005942 0.014520073 0.019650202 0.018281309 0.013985103
-0.009150763 -0.009845922 -0.0047098403 -0.0051043923 -0.007221553 -0.006303779 -0.004747165 -0.0045356257
0.00519682 0.00574698 0.007264914 0.004324269 -9.967838e-05 0.0005048384 0.00024444703 0.0006312453
-0.00046856818 3.9030332e-05 -0.0011624243 -0.0005395622 -0.001539466 0.0012309778 -0.002465396 0.00034489628
-0.0016510482 -0.00846074 -0.01193097 -0.0057462966 -0.010944449 -0.016330076 -0.013513913 -0.007473314
-0.0014742794 0.0037692902 -0.0048846584 -0.0011656404 -0.007824833 -0.013922627 -0.016311254 -0.011432536
0.0037797554 0.0012167909 0.0007201342 0.001212383 0.0001381639 0.00010965951 0.00014598909 -0.00047152027
-0.0009524905 2.911962e-05 -8.676213e-05 -0.0007762867 0.009525094 0.011681236 0.010282422 0.009079699
0.0054278024 0.003482869 -0.0030633966 0.006571033 4.244348e-05 0.000111617715 1.0595348e-05 3.1548203e-05
-0.0015492747 0.00067629945 -0.0017736463 0.00013106968 -0.0023691102 -0.00203098 -0.0009970447 -0.0026760746

exp_avg_sq f4 [128, 4]
00000000: 7cab d135 64e0 c234 f8fd 9334 ff8a 2b36
00000010: fb4c da39 93e1 f339 6a33 023a 82ab c139
00000020: e84c 523a ef1a 1d3a 3534 3b3a 93e7 733a
00000030: 4a41 ef3a 0b5a ed3a 3640 f63a 5150 f93a
00000040: 3923 8439 b75b 7939 4bba 9439 010a 1339
00000050: c9e1 1f39 8f46 5538 9ac2 6837 d5d3 af37
00000060: 0340 0c3a 8d70 db39 e96d 023a 5e93 0b3a
00000070: 4d7b b038 e27d 2539 1dd3 8738 f149 9538
00000080: 6753 873a e024 b63a 4d20 ae3a 8f89 9e3a
00000090: 348b 3b3a e4dc 453a 3c5f 533a e06c 3d3a
000000a0: 374f d637 abd6 8d38 ac9a 2038 807e 7938
000000b0: efe1 0b39 f692 9a39 caf7 fe39 97b6 f939
000000c0: 1004 2f3a af61 0e3a a13c 293a 4bc4 183a
000000d0: 9be6 fd37 4045 0537 6593 9c37 a540 0237
000000e0: ba10 503a 7762 733a 20ba 713a fc1a 5f3a
000000f0: 19a0 103b eccd 183b eb43 1a3b 02a1 143b
00000100: c814 ab3a c2d0 8c3a 0c6a 963a 1da4 b73a
00000110: e8c0 5b38 3eeb 7a38 9c56 8d38 6986 4437
00000120: 760c 4139 bdd4 0c39 b3a4 3c39 d91c 2d39
00000130: 7d6c 8c39 c08d 6a39 ebea 1939 7e9f 1b39
00000140: 8b98 f239 247f 743a a100 783a 9098 803a
00000150: 616a cc38 a172 f338 61d4 a138 29ad 6838
00000160: 2240 4537 5389 ed36 48e4 d337 4a23 2a38
00000170: a5e1 0237 51b1 2937 beef 0437 776b 9837
00000180: fb39 8c37 d250 9538 6ad9 0f39 d145 9938
00000190: 3ff8 833a 700d 7b3a 422e 113a ca4b 8139
000001a0: cd29 8e39 f9b2 b939 47bc 9439 99a3 333a
000001b0: b39a 7039 ec19 9538 3c71 7d38 39c1 8938
000001c0: 8fd3 b93a 3c93 bb3a 98ba c03a 7f73 c83a
000001d0: 4454 c038 d33c 9837 b35a d738 4eb9 2838
000001e0: 384a af38 1f98 4639 c283 c639 bd59 203a
000001f0: 2e5e 1939 6fc7 e638 81a8 8b37 1a1e 0f39
00000200: 5781 313a 8b83 033a e094 fe39 9fd9 b239
00000210: f099 5339 c971 5839 14e1 c439 730d d839
00000220: 6492 0c3a ddcd bc39 937c fa39 4d18 0b3a
00000230: caba ad3a 08f3 b33a 8e24 b93a 6681 b23a
00000240: 30bd 883b c9b6 913b 93fd 943b 4318 923b
00000250: 7968 aa38 c371 8638 9fcb 0538 b630 6b38
00000260: b36c f339 b8fa 8439 463b 5439 5b04 4339
00000270: 425a 9336 96ad ef35 24af 9636 66e6 9f35
00000280: 4c21 fe38 15a2 a438 1743 3b38 ff1f c938
00000290: dc01 8d35 6c6b 2635 ef3f 3e35 01d4 4035
000002a0: cd38 9d36 0314 0637 d2e7 0c37 e27b 5438
000002b0: c724 2e39 f4a1 c038 3055 ca38 c821 0e39
000002c0: 2f7b 013b 720d d03a 629a c53a 545c 8b3a
000002d0: 7b3d d73a 28e8 f93a 3624 023b df51 e53a
000002e0: 49fc 373a 99aa 273a d418 0b3a d995 e439
000002f0: 46a4 263a 39c3 283a 63a9 203a cf5e 3d3a
00000300: 79cc 9c39 00bb c639 f08d c139 3963 9f39
00000310: 8167 8535 120c 9836 71c8 9136 19b4 6a36
00000320: 9002 0337 0c77 c337 a8e1 2338 7d37 8738
00000330: 176c 6a39 75a6 0238 0067 5638 df5b 4739
00000340: 6035 eb39 2656 433a a580 753a cdfc b33a
00000350: a8c8 fa3a 3a0a 023b 8112 023b 0863 f83a
00000360: 492b 013a e93d 233a bad7 2e3a 0e29 2f3a
00000370: a437 253b 42da 4a3b 4d15 453b 6ee2 303b
00000380: c5cd 0a39 b0cc 9938 6fb6 4939 6bd8 0539
00000390: 8d7e 7e35 11ea d334 ced4 ae34 8dfe 3735
000003a0: f417 9e37 1d5e e636 bcde c736 b0c4 0537
000003b0: 0231 9539 a5f9 e739 0ae2 dd39 3ea3 9339
000003c0: f527 6f38 368e 9938 7c68 d937 246d f838
000003d0: a048 6d34 9ea7 8034 1e6d fd34 a856 a735
000003e0: 772a 273a 861b 433a d0b4 5b3a 1d3d 5c3a
000003f0: afa4 253a a1b4 bf39 9d2f ab39 81e6 d739
1.5621622e-06 3.6298582e-07 2.756567e-07 2.5561892e-06 0.00041637555 0.00046516638 0.0004966768 0.00036939612
0.0008022324 0.0005993088 0.00071412633 0.00093042216 0.0018253711 0.00181085 0.0018787447 0.0019021129
0.00025203245 0.00023780657 0.0002836756 0.00014022739 0.00015247533 5.084887e-05 1.3873587e-05 2.0960268e-05
0.00053501147 0.00041854792 0.00049754843 0.00053243886 8.4153005e-05 0.00015782521 6.4766245e-05 7.118646e-05
0.0010324538 0.0013896488 0.0013284773 0.0012095439 0.0007154227 0.0007547869 0.0008063202 0.00072260015
2.5547675e-05 6.763389e-05 3.8291022e-05 5.948404e-05 0.0001334024 0.00029482663 0.00048631273 0.0004762902
0.00066763256 0.0005431426 0.0006455873 0.000582759 3.0267334e-05 7.943541e-06 1.8665285e-05 7.763655e-06
0.0007937063 0.0009284387 0.0009221155 0.0008510796 0.0022068082 0.0023316098 0.0023539017 0.0022678976
0.0013052458 0.0010743367 0.0011475696 0.0014010702 5.2393327e-05 5.982373e-05 6.739536e-05 1.1713805e-05
0.00018410556 0.00013430692 0.00017990432 0.00016509312 0.0002678371 0.00022368785 0.00014678731 0.00014841367
0.0004627149 0.0009326807 0.0009460543 0.0009811092 9.747293e-05 0.00011608494 7.716637e-05 5.547438e-05
1.1757047e-05 7.079137e-06 2.5259462e-05 4.0564024e-05 7.801141e-06 1.011447e-05 7.923632e-06 1.8169854e-05
1.67163e-05 7.1199276e-05 0.00013718536 7.308613e-05 0.001006849 0.00095768925 0.0005538204 0.00024661265
0.00027115495 0.00035419295 0.00028369037 0.0006852686 0.00022945814 7.109702e-05 6.042536e-05 6.5686596e-05
0.0014177429 0.0014310847 0.0014704047 0.001529321 9.170969e-05 1.8148135e-05 0.00010268893 4.02269e-05
8.3584746e-05 0.00018939421 0.0003786367 0.00061168877 0.00014626302 0.00011004402 1.6648557e-05 0.00013648756
0.00067712873 0.0005016855 0.00048557576 0.00034112946 0.00020179874 0.00020641754 0.0003755173 0.0004120875
0.000536239 0.00036011534 0.0004777653 0.00053060503 0.001325452 0.0013729045 0.0014125274 0.0013618886
0.0041729435 0.0044468385 0.00454683 0.0044584586 8.125691e-05 6.410808e-05 3.1899308e-05 5.607373e-05
0.0004642956 0.00025363802 0.00020239977 0.00018598272 4.391449e-06 1.7857408e-06 4.4907374e-06 1.1913478e-06
0.00012117866 7.8503195e-05 4.4646757e-05 9.5903866e-05 1.050586e-06 6.199614e-07 7.087355e-07 7.183408e-07
4.685577e-06 7.991682e-06 8.398625e-06 5.0660114e-05 0.00016607634 9.1854396e-05 9.647978e-05 0.0001355476
0.001975726 0.0015873148 0.0015075917 0.0010632374 0.0016421521 0.001906638 0.001985801 0.0017495713
0.00070184894 0.00063959655 0.0005306129 0.00043599194 0.0006356876 0.0006437782 0.0006128756 0.00072239054
0.00029906983 0.0003790483 0.0003691758 0.0003040077 9.939396e-07 4.531358e-06 4.344671e-06 3.4973548e-06
7.808805e-06 2.3301247e-05 3.9072387e-05 6.447637e-05 0.00022356246 3.114944e-05 5.1117502e-05 0.00019012344
0.0004486246 0.0007451497 0.0009365178 0.0013731957 0.0019133287 0.0019842521 0.0019847455 0.0018950412
0.00049274095 0.0006227182 0.0006669719 0.0006681838 0.0025210166 0.0030952846 0.003007251 0.0026990431
0.0001323736 7.3337345e-05 0.00019236816 0.0001276449 9.480653e-07 3.9472118e-07 3.256486e-07 6.854323e-07
1.8846222e-05 6.8654904e-06 5.956592e-06 7.973213e-06 0.00028456008 0.00044245753 0.00042320817 0.0002815965
5.7019253e-05 7.3220974e-05 2.591707e-05 0.000118458905 2.2098766e-07 2.3963815e-07 4.7204315e-07 1.246769e-06
0.0006376872 0.0007442761 0.000838113 0.00084014406 0.000631879 0.00036564938 0.00032651136 0.00041179734

exp_avg f4 [128]
00000000: cf5c 083a 8a14 013c fa7d 85bb 7060 f63b
00000010: 2fcb d1b9 67e1 8b3b ea19 87bb b2bf 273b
00000020: 6d01 84bb ae35 c5bb 55b1 223b 7018 e2bb
00000030: c27a a9bb e586 17ba 183a 063c 9d58 5a3c
00000040: 58e6 f4bb f078 983a dae2 593a 84f4 b9bb
00000050: 82ad f5ba 29bf c43a c338 9fba 3d3a 183a
00000060: 38fa 66ba a794 c6bb f88c 0a3b f0ba 8439
00000070: 8f2e 2fbb cc5e 12ba ecd2 b1bb 1ca8 11bb
00000080: ac68 36bb 30a0 57b9 2a7d 90bb 26b7 063c
00000090: a02d 5b3c ea11 3fbb b415 f7ba 2133 15b9
000000a0: 8c84 26bb c038 b838 2862 6839 bd17 2ebb
000000b0: 8394 d9bb 84f9 503c dd38 e8bb 5a36 a5bb
000000c0: de99 743b 9246 8f39 c00e 8db8 5c80 1dba
000000d0: e172 90bb ef7e 12bc 78b7 03ba 3692 13bc
000000e0: 2499 233b bbe4 1c39 c65c abba 4354 f83b
000000f0: 7ba2 e83b 373a b0b8 b090 193a b5ee 3eba
00000100: 72f5 6c3b 585f 20bb ae7b 0bbb 9209 593b
00000110: 4bc0 a6b8 f243 223b d9b3 2f38 0901 c63a
00000120: 8492 62ba 5cd0 96ba 7bd4 a5bb 7fe2 f6bb
00000130: ceea 413b 345c 343c 29b7 40bb f0ed d3ba
00000140: 2421 24bb 4931 f33b f9b9 293c 5250 403b
00000150: 7449 6b3a 52ee 0939 c6be 223a 405e 443a
00000160: 8cb0 ad3b 9df3 6b3a a3d6 22bc 7094 2dbc
00000170: e218 52bc b692 81bb 3212 e93b 7fa4 68ba
00000180: 8811 c938 7359 c8ba 6d80 f13a 7eca 62b8
00000190: a835 a3b9 6cd2 2d3c d5a6 f0ba f57f b43a
000001a0: 002a 0838 9444 043b e58d d239 e84b 39ba
000001b0: 790a bd39 d27f c2bb c141 0abb c885 12b9
000001c0: 877e 1fbb 17f1 b23a ed4f 52b9 b26e 1dbc
000001d0: 3c55 4d3a cfb4 ac39 4e08 ce3a e525 d0ba
000001e0: 1887 e5ba 80a4 24ba 8587 123c 6ee8 efba
000001f0: 9bfa 9abb 1a89 8bb9 cf26 75bb bade 633a
0.0005201818 0.007878432 -0.0040738555 0.0075188205 -0.0004001497 0.0042688134 -0.0041229622 0.0025596437
-0.0040284903 -0.006018362 0.0024824936 -0.006899886 -0.0051721046 -0.0005780294 0.008192562 0.013326791
-0.007473748 0.0011632722 0.00083116966 -0.0056749005 -0.0018743726 0.0015010583 -0.0012147654 0.0005807018
-0.0008811089 -0.006060201 0.0021141153 0.0002531628 -0.0026730632 -0.0005583584 -0.005426755 -0.0022225445
-0.0027833385 -0.00020563672 -0.004409452 0.008222377 0.013377577 -0.0029154965 -0.0018851073 -0.00014228794
-0.0025408594 8.784374e-05 0.0002216181 -0.0026564442 -0.0066400184 0.012754802 -0.0070868568 -0.0050418796
0.0037323157 0.00027327664 -6.726151e-05 -0.0006008202 -0.004408226 -0.008941396 -0.00050245924 -0.009007027
0.0024963105 0.00014962528 -0.0013073913 0.007578404 0.0070994473 -8.403177e-05 0.0005858047 -0.0007283495
0.003615704 -0.0024470892 -0.0021283436 0.0033117277 -7.951314e-05 0.0024759737 4.1890748e-05 0.001510651
-0.00086430483 -0.0011506188 -0.00506073 -0.0075343247 0.0029589417 0.011008311 -0.0029406047 -0.0016168933
-0.0025044167 0.0074216467 0.010359281 0.002934475 0.0008975484 0.0001315412 0.0006208237 0.0007490851
0.005300587 0.000900084 -0.009938869 -0.010594472 -0.012823315 -0.003954257 0.0071127648 -0.00088746095
9.587692e-05 -0.0015285447 0.0018425115 -5.4071184e-05 -0.0003112976 0.0106092505 -0.0018360267 0.0013771044
3.2464042e-05 0.0020182477 0.0004016004 -0.0007068501 0.00036056692 -0.0059356475 -0.0021096321 -0.00013973482
-0.002433689 0.0013652173 -0.00020056935 -0.009608911 0.00078328303 0.0003294111 0.0015719028 -0.0015880434
-0.0017511575 -0.0006280616 0.008943443 -0.0018303522 -0.0047295815 -0.00026614295 -0.0037407165 0.00086925516

exp_avg_sq f4 [128]
00000000: 0038 9935 ce99 7a39 c00e 383a dccc 6c3a
00000010: 5dc5 1539 65a2 8c38 4868 b639 b2d0 a238
00000020: 9976 183a 02cd b939 4ae3 2c39 d66e 4539
00000030: b583 9d39 3a08 9737 3e4f ce39 5b49 943a
00000040: a2af 943a e12c b137 3672 f738 7a90 e638
00000050: 2186 f039 7cc1 9238 47f3 2638 fd6d 1838
00000060: 63b3 1039 5fb9 b839 3011 5f3a de76 5a39
00000070: bb03 693a 94cf 2e38 0b19 9439 0f97 9838
00000080: d10a b839 efe1 9939 a163 df39 f98c 343a
00000090: 52ef 033b c07a 8e38 16cc 9739 2da7 9836
000000a0: 693f 7238 b2c4 0836 0260 ec37 7aea e738
000000b0: 1c8c 113a 7d9e 603a 9122 df39 7bb2 e639
000000c0: 4054 4039 2d62 b936 ebe4 d137 d774 0b39
000000d0: 613c 1d3a c9e3 6a3a 1a88 f639 4a3e 923a
000000e0: 5dc5 b739 0ee2 d235 bfc7 b737 180b 6939
000000f0: 0e87 5639 cf1c 0f35 29d0 063a fbe3 ee39
00000100: 0468 8c38 2e75 8f39 2634 5b38 cd03 8139
00000110: b310 e535 9bdf eb39 a79b 6635 78cd 8439
00000120: 7917 8939 2734 ea37 7496 213a 2778 f439
00000130: f6f9 df39 c0e4 1e3a ec9c 4839 e43d 4139
00000140: f771 453a 76d0 b039 827b 5d3a f0a6 0f39
00000150: 9a9b fe37 6cd0 fc35 e005 c439 c180 5638
00000160: c88a 8839 3c36 5138 7c0b 3639 8fec ff39
00000170: e90b ef39 728d 7a38 b258 023a 6a19 9137
00000180: 2566 0f39 2af8 be39 9381 6039 8ab8 bc34
00000190: 917f 0c38 cfd0 373a 84da 8c39 dd7a 6e39
000001a0: 4448 0e37 cd5b fd38 9600 8e36 185c 3739
000001b0: cedb 5d38 c7a0 4e3a 5525 0738 313e 5e35
000001c0: e90d 9639 69e8 1d38 5314 b135 f523 c539
000001d0: f77f 1037 fd10 ad36 76d9 8739 3db3 df39
000001e0: 356b e137 de3a 0e3a d922 b539 b48e b739
000001f0: a14d c338 33de c038 364a 6739 36ec 4738
1.1415686e-06 0.00023899155 0.0007021241 0.0009033212 0.00014283271 6.7059686e-05 0.0003479144 7.7636345e-05
0.0005816012 0.00035438692 0.0001648787 0.00018828674 0.00030043503 1.8004434e-05 0.00039350422 0.0011313366
0.0011343847 2.1120943e-05 0.00011799151 0.000109941655 0.000458763 6.997862e-05 3.9804054e-05 3.634206e-05
0.00013799737 0.00035233327 0.0008509336 0.00020834382 0.00088888005 4.1678155e-05 0.00028247418 7.276062e-05
0.00035103274 0.00029350768 0.00042608104 0.00068874616 0.002013166 6.7939516e-05 0.0002895302 4.549415e-06
5.775635e-05 2.038007e-06 2.81781e-05 0.00011058613 0.0005552189 0.00085685385 0.00042559628 0.00044001997
0.00018341932 5.524859e-06 2.502134e-05 0.00013299599 0.0005998072 0.0008960334 0.0004702218 0.001115748
0.00035051527 1.571201e-06 2.1908314e-05 0.00022224744 0.00020458942 5.3313573e-07 0.00051427126 0.00045564756
6.6950946e-05 0.0002736239 5.2262236e-05 0.0002460763 1.706669e-06 0.00044989292 8.590818e-07 0.00025330088
0.00026148165 2.7919259e-05 0.0006164082 0.00046628827 0.0004272011 0.0006061308 0.00019131944 0.0001842897
0.00075319357 0.0003372465 0.0008448885 0.00013699732 3.0351617e-05 1.8836122e-06 0.0003738841 5.1141487e-05
0.00026043341 4.9879993e-05 0.00017361151 0.0004881364 0.00045594506 5.9736376e-05 0.0004972323 1.7297181e-05
0.00013675595 0.0003642452 0.00021410575 3.5152e-07 3.3497407e-05 0.0007012011 0.00026865688 0.00022743219
8.480685e-06 0.00012081079 4.231998e-06 0.00017486548 5.2895215e-05 0.0007882234 3.2221276e-05 8.2791945e-07
0.00028620593 3.7648166e-05 1.3193443e-06 0.00037601558 8.612863e-06 5.1577795e-06 0.00025911228 0.00042667417
2.6872012e-05 0.0005425642 0.00034548974 0.00035010802 9.312784e-05 9.196661e-05 0.00022057522 4.7665286e-05

exp_avg f4 [64, 128]
00000000: 0400 0000 0400 0000 0400 0000 0400 0000
00000010: 0400 0000 0400 0000 0400 0000 0400 0000
00000020: 0400 0000 0400 0000 0400 0000 0400 0000
00000030: 0400 0000 0400 0000 0400 0000 0400 0000
00000040: 0400 0000 0400 0000 0400 0000 0400 0000
00000050: 0400 0000 0400 0000 0400 0000 0400 0080
00000060: 0400 0080 0400 0000 0400 0000 0400 0000
00000070: 0400 0000 0400 0000 0400 0000 0400 0000
00000080: 0400 0000 0400 0000 0400 0000 0400 0000
00000090: 0400 0000 0400 0000 0400 0000 0400 0000
000000a0: 0400 0000 0400 0000 0400 0000 0400 0000
000000b0: 0400 0000 0400 0000 0400 0000 0400 0000
000000c0: 0400 0000 0400 0000 0400 0000 0400 0000
000000d0: 0400 0000 0400 0000 0400 0000 0400 0000
000000e0: 0400 0000 0400 0000 0400 0000 0400 0000
000000f0: 0400 0000 0400 0000 0400 0000 0400 0000
00000100: 0400 0000 0400 0000 0400 0000 0400 0000
00000110: 0400 0000 0400 0000 0400 0000 0400 0000
00000120: 0400 0000 0400 0000 0400 0000 0400 0000
00000130: 0400 0000 0400 0000 0400 0000 0400 0000
00000140: 0400 0000 0400 0000 0400 0000 0400 0000
00000150: 0400 0000 0400 0000 0400 0000 0400 0000
00000160: 0400 0000 0400 0000 0400 0000 0400 0000
00000170: 0400 0000 0400 0000 0400 0000 0000 0000
00000180: 0400 0000 0400 0000 0400 0000 0400 0000
00000190: 0400 0000 0400 0000 0400 0000 0400 0000
000001a0: 0400 0000 0400 0000 0400 0000 0400 0000
000001b0: 0400 0000 0400 0000 0400 0000 0400 0000
000001c0: 0400 0000 0400 0000 0400 0000 0400 0000
000001d0: 0400 0000 0400 0000 0400 0000 0400 0000
000001e0: 0400 0000 0400 0000 0400 0000 0400 0000
000001f0: 0400 0000 0400 0000 0400 0000 0400 0000
00000200: 7fcd ca36 cb3e f139 44fd f139 70bc 0b3a
00000210: 88e8 91b7 4ba9 76b7 b091 21b8 20f7 693a
00000220: d739 893a a905 223a 9e94 0a3a 408b d7b8
00000230: 4b3d 9539 f237 7bb5 ddec d93a 1732 5b3a
00000240: baf7 e13a 73df 0bb8 331b 29b9 1d4c e639
00000250: c24e a339 9afc 4d3a 8c02 ed38 5c99 5138
00000260: baa1 3139 14b6 1d39 1110 9c3a f1f9 9938
00000270: 1a4c ae3a 8a55 4338 557b 98b8 8c04 c738
00000280: 7fa5 ab37 9239 bbb8 4878 de38 034c a23a
00000290: 12db 8f3a d318 8a39 c50a 2d38 7d19 e136
000002a0: 315e 3938 e215 6c37 6b21 c239 8040 3a39
000002b0: 700d be38 3032 893a 20a7 673a 4584 8b3a
000002c0: 7207 863a 4c04 7e39 36eb 21b7 c822 8e38
000002d0: e0d2 eab7 f56f 6f3a 9cb9 a039 fce7 003a
000002e0: 9cb8 c439 7b5b 12b8 9580 4f37 a52f 8b3a
000002f0: a639 2f3a f0d3 5237 80cc bf38 dd48 003a
00000300: 3ced 30b7 0235 4838 63f0 be39 b666 b03a
00000310: 2043 12b5 7a56 0c3a 1364 46b7 ae62 e739
00000320: b5c8 613a 1fe4 abb7 b22d e239 0865 833a
00000330: 5abb bc39 5e10 7f3a a875 5b37 bc3c 4a39
00000340: b053 d63a d4a1 db36 9ca8 0e3b 93bd 693a
00000350: e0f5 ec39 f369 53b4 e696 7f3a 7064 8837
00000360: 4cf2 b939 2c89 133a 37bd 3439 2025 b837
00000370: 96ea 8a3a ea3a 24b9 49d1 9c3a ff11 4538
00000380: 9053 25b9 9fe4 433a 341a 9eb9 f60e e6b2
00000390: d9eb 1837 401f 253a e011 9839 2edc 4f3a
000003a0: 90aa 73b8 b020 3eb7 6fee 9638 ce5e 893a
000003b0: 815d 6fb6 2a27 e739 c4fa 7138 2f6d b1b2
000003c0: e79b 453a 821c 28b8 9465 8f38 f612 d239
000003d0: 5631 5e39 1ab0 7039 4e0e 2bb9 3fd6 603a
000003e0: 6025 7b39 181c 1e3a ceb2 cb3a af00 f839
000003f0: 8033 8eb7 7644 3b39 72a0 9039 4ca3 6637
6e-45 6e-45 6e-45 6e-45 6e-45 6e-45 6e-45 6e-45
6e-45 6e-45 6e-45 6e-45 6e-45 6e-45 6e-45 6e-45
6e-45 6e-45 6e-45 6e-45 6e-45 6e-45 6e-45 -6e-45
-6e-45 6e-45 6e-45 6e-45 6e-45 6e-45 6e-45 6e-45
6e-45 6e-45 6e-45 6e-45 6e-45 6e-45 6e-45 6e-45
6e-45 6e-45 6e-45 6e-45 6e-45 6e-45 6e-45 6e-45
6e-45 6e-45 6e-45 6e-45 6e-45 6e-45 6e-45 6e-45
6e-45 6e-45 6e-45 6e-45 6e-45 6e-45 6e-45 6e-45
6e-45 6e-45 6e-45 6e-45 6e-45 6e-45 6e-45 6e-45
6e-45 6e-45 6e-45 6e-45 6e-45 6e-45 6e-45 6e-45
6e-45 6e-45 6e-45 6e-45 6e-45 6e-45 6e-45 6e-45
6e-45 6e-45 6e-45 6e-45 6e-45 6e-45 6e-45 0.0
6e-45 6e-45 6e-45 6e-45 6e-45 6e-45 6e-45 6e-45
6e-45 6e-45 6e-45 6e-45 6e-45 6e-45 6e-45 6e-45
6e-45 6e-45 6e-45 6e-45 6e-45 6e-45 6e-45 6e-45
6e-45 6e-45 6e-45 6e-45 6e-45 6e-45 6e-45 6e-45
6.043992e-06 0.00046013886 0.000461558 0.00053305086 -1.7393628e-05 -1.4702159e-05 -3.8521073e-05 0.0008925069
0.0010469508 0.0006180653 0.0005286428 -0.00010277936 0.0002846516 -9.35862e-07 0.0016626377 0.0008361651
0.0017239966 -3.3348286e-05 -0.00016127228 0.00043925727 0.00031148462 0.000785777 0.00011301515 4.997231e-05
0.00016940283 0.00015040516 0.0011906644 7.342164e-05 0.0013297827 4.6571287e-05 -7.270897e-05 9.4899064e-05
2.0461854e-05 -8.927578e-05 0.00010608189 0.0012382272 0.0010975322 0.00026339907 4.1256444e-05 6.7084898e-06
4.419516e-05 1.4071791e-05 0.00037027462 0.0001776237 9.062409e-05 0.0010467228 0.0008836854 0.0010644278
0.0010225608 0.00024224928 -9.651112e-06 6.777566e-05 -2.799317e-05 0.00091338094 0.00030655868 0.0004917381
0.00037521578 -3.489431e-05 1.2368099e-05 0.0010619058 0.00066843105 1.2566321e-05 9.145681e-05 0.000489367
-1.0545653e-05 4.7733083e-05 0.00036418726 0.0013458345 -5.448692e-07 0.0005353462 -1.182502e-05 0.00044133276
0.00086129765 -2.0491016e-05 0.00043140125 0.0010024616 0.00035997742 0.0009729917 1.3080811e-05 0.00019286847
0.0016351845 6.545548e-06 0.002176798 0.00089164934 0.0004519662 -1.968945e-07 0.00097499636 1.6259233e-05
0.00035466475 0.0005628045 0.00017236626 2.1951797e-05 0.0010598477 -0.00015662206 0.0011964227 4.698522e-05
-0.00015766756 0.0007472727 -0.0003015563 -2.6782327e-08 9.114819e-06 0.0006298907 0.00029005017 0.00079292327
-5.8094563e-05 -1.1332493e-05 7.196969e-05 0.0010480525 -3.5668202e-06 0.00044088933 5.769242e-05 -2.0655163e-08
0.0007538185 -4.008087e-05 6.837692e-05 0.00040068448 0.00021189949 0.00022953787 -0.0001631316 0.0008576847
0.00023951149 0.0006031408 0.0015540959 0.00047302755 -1.69517e-05 0.00017859213 0.0002758536 1.3747089e-05
